from_onnx/model_part1.onnx (onnx, 876259 bytes, 21 tensors)

transformer.wte.weight f4 [65, 64]
00000000: c1de 423c 7463 1abc 7bc9 853c 6241 163d
00000010: 3e67 01bd ab0b dfbb 9dfb 82bc 53f7 c4bc
00000020: 927e 6d3c ca7f 773c dbdb 373c 8e5b a2bc
00000030: 7745 fdbb 78b1 803c 3258 ec3a 005e 8fbc
00000040: a513 7bbc 828d 053c 5cc3 d33b 57f8 b63c
00000050: 609d 773c fc9a 213d 6fbd 2e3c 79d8 03bd
00000060: e9d3 35bc bdf9 a2bb 1026 b73c 3edf 393a
00000070: 7082 ce3b d7bf 3b3c 5c5c edbc 0be5 3c3c
00000080: 040c 8c3b fc65 afbc feeb 1cbd a05d 30b9
00000090: 9326 363c 6f41 e93b 9135 1bbd 34e0 323d
000000a0: 4195 60ba 426c 82bb a214 4bbd 1917 f23a
000000b0: 06ff a63b 02a3 28bc 611c 37bb a421 11bc
000000c0: 894c c03b 6c19 62bb 2e9f eebc 67c0 363d
000000d0: d1a4 063d 242a 533c a0fd 4fbc a779 c9bc
000000e0: 2f99 893c e0db e53c 6c1b 93bc 028d 473d
000000f0: 58f3 7c3c 2169 193b 6e1d 323c 05d8 c1bc
00000100: 6f39 8e3b 06a3 023d e91e 923c 3257 ac3b
00000110: dc82 323c 41f8 093d 27d3 00bd c7de bc3c
00000120: 17f0 0d3c 9bea b8bc 3eff d13c 1d9a d1bc
00000130: 24d5 3bbc 0904 4cbd 113e 223a ce11 41bc
00000140: e69f 0b3c b58c 37bb 6a06 afba c0f8 88bb
00000150: 8988 39bd 6219 f6ba 2f10 963c e1ee 1b3c
00000160: 24bd cbbc abf9 ba3c 31e7 8fbc 2f8e ae3c
00000170: a65f 3abd 8474 e03c 3e03 bcbb e446 293b
00000180: b97b 923b 589f 70bc c392 6ebb fc2b 9f3b
00000190: 2a35 8fbc f499 3e3c 9804 2bbc 609b ad3b
000001a0: 0d06 42bb 869f 463c ddd7 82bb 77ea 2f3a
000001b0: 7d2d ebba 0230 45bd b330 20bc 19c6 ae3c
000001c0: 9896 22bc c4fb c33b 5db9 3d3c 5c64 b4bb
000001d0: 8523 6238 9672 103b f4b5 f53c 2f9e 013d
000001e0: b00a 0abb 8e7a b43b a5d6 a9ba bd9c 99bc
000001f0: 17b9 063d c9b4 113b 67ac 323c f977 b5bc
00000200: 9e30 19bc f283 1e3c 0644 7a3c 8a93 d6bc
00000210: 35a0 f0bc a16f 2cbd 1bf1 373d e5d7 db3c
00000220: fe22 983c c987 44bc 9352 0dbb a0c9 ed3a
00000230: 8019 65bc bd6d 16bd 01c3 263c 5652 86bb
00000240: e16b e33b 1b79 9abc b02b 72bc 1d00 533c
00000250: b883 893c c94c 89bc 73f3 b23c c64c d63b
00000260: a4d5 a6bc faee 88bc bdcc 053d 2e90 e23c
00000270: befd 5d3c f57a be3c f2df b73c b02a 153c
00000280: f56d babb 479c 15bc 8b1e 143a 4181 333d
00000290: b276 2a3c 4eb8 46bc 9bc1 01bc c753 3b3c
000002a0: 478e 06bd 85d8 363d 4727 a53c c5a9 c6bc
000002b0: 3808 ffbb b045 233a 32c4 003c e675 a63c
000002c0: 1583 3f3c fdb6 04bc b98e 703c 556e fb3b
000002d0: 003f 133d b3b5 90bc c932 803a 2122 a03c
000002e0: 6569 8abb aa4d 843b f7a5 18bc 6ac3 1cbb
000002f0: 040b 1eb9 d26d 3e3b b0f4 94bb 985d 35bc
00000300: 8d4e 8b3c 429c 55bb c0f2 67bc d780 07bc
00000310: 3e92 bd3c e9b0 243c 19d5 e7bb 0a70 cabc
00000320: c608 03bd 54f2 a03c 8b5d 9fbc 1b70 27bc
00000330: 5b87 10bd 7e86 f83a 1735 f3bb ed2c 173c
00000340: 46cd 163d 023b 69bc f651 a6bb 9777 cfbb
00000350: c09b 94bb 0e7e fd3a 5494 bd3c 7c86 f93b
00000360: 9b3c 6fbd 97eb 36bd a949 e4bb 0036 b7bc
00000370: e4e8 e73c bffb 973c c995 e03b a67c 483d
00000380: 5010 84bc fb99 4bbc 2eb8 9abb 91e7 9cbc
00000390: e31e 9dbc ad58 223c 3070 76bc 049c 00bc
000003a0: d4ed 043d fde0 a73c ecfc f2bc 7458 b33c
000003b0: 0dff 2bbc bb93 c73a bdb1 c13b 0bf9 c7bb
000003c0: 9705 883c 1092 7d3b e6e6 0abb fd4a a8bc
000003d0: 46cd 9abb 8d23 07bb af20 033d 1f94 81bc
000003e0: cc7d 5bbc be9f 3bbc f24e 0b3c fb65 7d3c
000003f0: bffe 0dbc ae21 77bc 9bb5 ce3b 36cf 89bc
0.011893929 -0.009423126 0.016331425 0.036683448 -0.0315926 -0.006806811 -0.01598912 -0.024043715
0.014495509 0.015106151 0.011221851 -0.019819047 -0.007729228 0.015709624 0.0018031655 -0.017500877
-0.015324508 0.008151414 0.0064624976 0.022335215 0.015113205 0.039454445 0.010665282 -0.032188866
-0.011097887 -0.004973619 0.022357017 0.00070904556 0.0063021705 0.011459312 -0.028974704 0.0115292175
0.0042738933 -0.021410935 -0.038310997 -0.00016819546 0.011117595 0.007118396 -0.03789288 0.043670848
-0.00085671624 -0.0039801905 -0.049580224 0.0018470018 0.005096319 -0.01029277 -0.00279405 -0.008858118
0.0058684987 -0.0034500016 -0.029128637 0.044617083 0.032872025 0.012888465 -0.012694746 -0.024594141
0.016796676 0.028058946 -0.017957412 0.04871846 0.015438877 0.002340861 0.010871274 -0.023662576
0.0043403427 0.031893753 0.017837005 0.005259418 0.010895457 0.03368402 -0.03145137 0.023055447
0.008663199 -0.022572806 0.025634404 -0.025586182 -0.011464391 -0.049808536 0.0006189058 -0.01178403
0.0085220095 -0.0028007452 -0.0013353352 -0.004180044 -0.045296226 -0.0018775875 0.018318264 0.009517402
-0.024870463 0.02282413 -0.017566295 0.021308033 -0.045501374 0.027399309 -0.005737691 0.0025829608
0.0044703153 -0.014686428 -0.0036403395 0.0048575383 -0.017481405 0.011633385 -0.010438107 0.005298063
-0.0029605657 0.012122994 -0.003993018 0.0006710658 -0.0017942634 -0.048141487 -0.009777236 0.021334695
-0.0099236 0.0059809405 0.011579839 -0.005505128 5.391568e-05 0.0022040955 0.029993989 0.031644996
-0.00210635 0.0055077737 -0.0012957646 -0.018751496 0.03289136 0.0022233 0.010905362 -0.022151934
-0.00934997 0.009675013 0.015275007 -0.026193399 -0.029373268 -0.042098645 0.04490767 0.026836345
0.018571373 -0.011995264 -0.002156411 0.0018141754 -0.01398313 -0.03672575 0.0101783285 -0.0040991707
0.0069403504 -0.018856576 -0.014780924 0.012878445 0.016786441 -0.016760247 0.021844601 0.006539914
-0.020365544 -0.016715515 0.032665957 0.02765664 0.013549266 0.02325199 0.022445653 0.009104416
-0.0056893774 -0.009131498 0.0005650303 0.043824438 0.010404276 -0.012128903 -0.007919694 0.011433548
-0.03285053 0.044640083 0.02016033 -0.024250874 -0.007782962 0.0006228341 0.007859277 0.02031989
0.011688967 -0.008100268 0.014682465 0.0076730647 0.035948753 -0.017664766 0.000978076 0.019547524
-0.00422399 0.0040375786 -0.009316913 -0.0023920187 -0.00015072158 0.0029057157 -0.0045457706 -0.011069678
0.01700523 -0.0032594358 -0.014156997 -0.008270464 0.023141023 0.010051944 -0.0070749638 -0.024711628
-0.03199079 0.019646801 -0.019453784 -0.010219599 -0.035285335 0.001896098 -0.0074221003 0.00922702
0.036816858 -0.01423526 -0.0050756885 -0.006331395 -0.0045351684 0.0019339935 0.023142017 0.0076149087
-0.058407407 -0.04465827 -0.006966789 -0.022364616 0.028309293 0.01855266 0.0068537933 0.048947
-0.01612106 -0.0124268485 -0.004721663 -0.019153388 -0.019179767 0.009908837 -0.015041396 -0.007849697
0.032453373 0.020493025 -0.029661618 0.021892764 -0.010497821 0.0015226522 0.0059110806 -0.0061026863
0.016604228 0.0038691796 -0.0021194755 -0.02054357 -0.0047241775 -0.0020620555 0.03201359 -0.0158177
-0.0133966915 -0.01145166 0.008502709 0.015466209 -0.008666693 -0.015083713 0.00630827 -0.016822439

transformer.wpe.weight f4 [64, 64]
00000000: 0b6d 303d 2232 ff3b 721a 7c3a dd72 033b
00000010: 7624 24bc 7bed a83a 3424 8d3a 32cb 4ebc
00000020: f459 c5bc 39ed 973c 0541 d23c b9d4 06bc
00000030: a134 acbc 8b43 f039 d36d 1bb9 7973 9ebc
00000040: ead8 9f3b 4428 0d3c a446 44bc a17f 633b
00000050: d18b 05bc 80fd c63b 2445 df3c b107 1abb
00000060: 2b89 ed3b b75a b0bc e0a7 88bc a48b 983c
00000070: 0b08 b9bb b422 3a3c 63e6 05bc 794d c0bc
00000080: e2df 1bbc 4e04 f33c 2e59 28bd d97c 433c
00000090: 1846 a73c 6f90 edbb d308 c5b9 3736 373c
000000a0: 02f4 fe3c 9bf3 3fbb 20f4 a13c 41d1 43bb
000000b0: 8c23 e63c db4d 98ba 0e6a debc 9139 0ebd
000000c0: a988 ceba 69dc 89bb dc0b 94bc 0b07 203b
000000d0: 47eb 2c3d f7a1 4c3c 021a 23bc 9f9f 8f3c
000000e0: 0d08 1dbc e61f a7bb 7c46 233c a330 fd3c
000000f0: c50f 4f3c 5a2c 16bc 2244 47bb 614e abbb
00000100: 8ab8 bebb 898b 033d cfde 863c 5673 80bc
00000110: 19fb 1a3d 8fde 033c 7ef7 f5bc 868f ab3c
00000120: 1d73 a03b 4299 edbc 62d8 d9bc cb63 2a3c
00000130: 629d 743a 9b91 87bc 0943 cd3b 4811 973b
00000140: 9c22 31bc 8c00 4d3b 4969 c9bc 27cf 0e3b
00000150: b554 d2bc a625 c1bc 6087 6bbc 5583 3bbb
00000160: 2b82 4dbd 3df1 e93c 4f75 913c af08 c43b
00000170: 89ef b0b9 e75e 50bc 657f 563c fb19 c9bc
00000180: 1844 72bc 60b2 84bc e79e 33bd 97a3 b93c
00000190: bc73 c33c ef8b 2dba 4d61 14bd 7f78 853c
000001a0: 1065 fabb b3cc f3bb e11f a5bc 90ed 38bb
000001b0: 29a3 36bb d489 a4bc 215c 43bc 0cbd 01bc
000001c0: bec4 29bc f350 51bc 7ed7 c23b 2ad5 f83c
000001d0: 9e95 823c b32a 52bb edc9 983b c204 b23b
000001e0: 9224 cebc dd73 353c f5ac 10b9 c948 4ebc
000001f0: 3b8f 773c 3ca2 29bc 9b70 2fbd b9d8 a13c
00000200: c4ca 52bc 769e 833c eb4a 983c d768 d9bb
00000210: 73c9 61bb 9407 a63c 1bdc 11bc 4243 64bb
00000220: 9ca7 7bbc 37fb 733c 3c72 d5bb 791e 3fbc
00000230: 2fa6 fcbc 4688 a2bc 4b21 d33c 0181 b6bc
00000240: 0f1d 673c 1316 553c 5ed1 4ebb 03bb 6fbc
00000250: c5e7 58bd 6283 25bc 04f1 c13b a796 f53b
00000260: 2ec2 583c 45bf ee3b 3b70 62bc 1c3c b9bc
00000270: 38a7 bab9 fe6f b73b 0d0f 9bbc 6ec8 7b3c
00000280: 9bdd c3bb bb0b 8c3c ae73 293d 7428 19bd
00000290: e9d8 a3bc a50c f73c c957 843c e0c0 a93c
000002a0: 555f 8fbc 822d 7b3b 1dec c3bc 5e2d b43c
000002b0: 6174 963b 4c6d 913b 3235 c9bb f7e3 3f3b
000002c0: 6e27 db3b 9ebd ea3c 9c30 67bc 1b7d 96bc
000002d0: 8438 c03b 7dd9 9abc 1028 2abd 37f8 373d
000002e0: a291 ddbc e76a 053c 78ba 2e3c 44c1 c2bc
000002f0: 64b2 e33c 1be9 883b a07d ab3c c85f 063d
00000300: 0fd7 c13c 0a51 1abd 90cc 0d3d b391 ad3b
00000310: c81b 01bd fe20 bc3c db8a d23b a47b c53a
00000320: 2059 79bc f415 dcbc 967f 00bd 4a6f 393d
00000330: 18d1 a43c 0f32 413c ce4f b0bb e93e 873b
00000340: 9777 15bc 1826 9a3c 1722 583c 4ee4 be3c
00000350: a2c9 a4bc f56c 5cbc 0928 0fbd 398e ca3c
00000360: 948e 853c 92cb a6bb a0ad 3f3a 2cae dc3b
00000370: f380 ddbb 6ffa 1e3d 0576 ba3c 780d b7bc
00000380: c78d 883c fea4 6ebc af84 853c f86f 5e3c
00000390: b983 40bc b923 803c 8f8a 6b3c ea7a 57bc
000003a0: 17d8 8cbc 9d8c ebbb b989 04bd 0091 f8bc
000003b0: 1018 0a3d 4690 b7bc c25f 11bc 0f71 59ba
000003c0: 89fd 543b bcd9 fd3c 6ee3 eebb 70d2 8fbc
000003d0: 39d9 b4bc a7d7 a53a acb1 4dbc 16c6 a1bc
000003e0: 382a c4bc cec9 efba 7cf6 e9bc e1ec 5bbc
000003f0: d057 233d b760 a7bc e638 df3c ae27 8e3b
0.04307274 0.0077879587 0.0009616978 0.0020057478 -0.010018459 0.0012888158 0.0010768236 -0.012621688
-0.024090745 0.018545734 0.02566577 -0.008229428 -0.02102119 0.0004582669 -0.00014822865 -0.019342171
0.004878153 0.008615557 -0.011979733 0.0034713524 -0.008151011 0.0060727 0.027254649 -0.002350312
0.0072490177 -0.021527631 -0.016681612 0.018621273 -0.0056467107 0.011360813 -0.008172604 -0.023474442
-0.009513827 0.029665139 -0.041100673 0.0119316215 0.020419165 -0.007249884 -0.00037581343 0.011182359
0.031122211 -0.0029289487 0.019769728 -0.0029879364 0.028093122 -0.0011619882 -0.02715018 -0.03472287
-0.0015757281 -0.004207183 -0.018072061 0.002441826 0.042216565 0.012489787 -0.009954931 0.017532168
-0.009584439 -0.005100238 0.009965535 0.03090698 0.012638037 -0.009165848 -0.00304056 -0.0052278494
-0.0058203386 0.032115493 0.016463665 -0.015679996 0.03783712 0.008048668 -0.03002524 0.02094246
0.004896535 -0.029003743 -0.026592437 0.010399769 0.0009331313 -0.016548922 0.0062640947 0.0046102144
-0.010811474 0.0031280844 -0.024586337 0.0021790953 -0.025675157 -0.023577522 -0.014375538 -0.0028612216
-0.050172966 0.028557414 0.017756132 0.0059824805 -0.00033747804 -0.012717939 0.013091897 -0.024548521
-0.014786743 -0.016198337 -0.043852713 0.022661014 0.023858897 -0.0006620278 -0.036225606 0.016292809
-0.007641442 -0.0074401735 -0.020156803 -0.002821777 -0.0027868247 -0.020085253 -0.011923821 -0.007918607
-0.010361848 -0.012775647 0.005946099 0.030375082 0.015940484 -0.0032068908 0.0046627433 0.005432696
-0.025163922 0.011074987 -0.00013797342 -0.0125905955 0.015109832 -0.010353621 -0.042832 0.019756662
-0.012865726 0.016066771 0.018590411 -0.0066348123 -0.0034452348 0.020267285 -0.008902575 -0.0034830128
-0.015359785 0.014891437 -0.006513862 -0.01166498 -0.030840961 -0.01984037 0.025772711 -0.02227831
0.014106049 0.013005751 -0.0031557898 -0.014631989 -0.052955408 -0.010102125 0.005918624 0.007494766
0.01322989 0.0072859847 -0.013820703 -0.02261167 -0.00035601272 0.0055980673 -0.018928075 0.01536761
-0.005977345 0.017095437 0.041370086 -0.037392095 -0.020000892 0.030157397 0.01615514 0.020721853
-0.017501513 0.0038326685 -0.023916299 0.021994289 0.00459151 0.004438078 -0.0061403746 0.0029280165
0.00668805 0.02865487 -0.0141107105 -0.018370202 0.005866112 -0.018902535 -0.041542113 0.04491445
-0.027046982 0.008143163 0.010664575 -0.023773797 0.027795024 0.004178179 0.020933926 0.032806188
0.023662118 -0.03767494 0.034618914 0.0052969097 -0.031520635 0.02296495 0.0064252443 0.0015066755
-0.015219003 -0.026865937 -0.031371675 0.04527215 0.020119235 0.01179172 -0.005380607 0.0041273725
-0.009122751 0.018816993 0.013191721 0.023302224 -0.020115677 -0.013453712 -0.03495029 0.02472602
0.016303338 -0.0050901854 0.0007311944 0.00673463 -0.0067597567 0.03881305 0.022761354 -0.02234529
0.016669167 -0.014565704 0.01629862 0.0135765 -0.011750155 0.015642034 0.014376297 -0.013151864
-0.017192883 -0.0071883933 -0.032357905 -0.030342579 0.033714354 -0.022407662 -0.008872928 -0.000829474
0.0032499752 0.030987613 -0.0072902953 -0.0175564 -0.022076236 0.001265277 -0.012554567 -0.019747775
-0.023945913 -0.0018294395 -0.028559916 -0.013423176 0.039878666 -0.02043186 0.027248811 0.0043382263

transformer.h.0.ln_1.weight f4 [64]
00000000: 0000 803f 0000 803f 0000 803f 0000 803f
00000010: 0000 803f 0000 803f 0000 803f 0000 803f
00000020: 0000 803f 0000 803f 0000 803f 0000 803f
00000030: 0000 803f 0000 803f 0000 803f 0000 803f
00000040: 0000 803f 0000 803f 0000 803f 0000 803f
00000050: 0000 803f 0000 803f 0000 803f 0000 803f
00000060: 0000 803f 0000 803f 0000 803f 0000 803f
00000070: 0000 803f 0000 803f 0000 803f 0000 803f
00000080: 0000 803f 0000 803f 0000 803f 0000 803f
00000090: 0000 803f 0000 803f 0000 803f 0000 803f
000000a0: 0000 803f 0000 803f 0000 803f 0000 803f
000000b0: 0000 803f 0000 803f 0000 803f 0000 803f
000000c0: 0000 803f 0000 803f 0000 803f 0000 803f
000000d0: 0000 803f 0000 803f 0000 803f 0000 803f
000000e0: 0000 803f 0000 803f 0000 803f 0000 803f
000000f0: 0000 803f 0000 803f 0000 803f 0000 803f
1.0 1.0 1.0 1.0 1.0 1.0 1.0 1.0
1.0 1.0 1.0 1.0 1.0 1.0 1.0 1.0
1.0 1.0 1.0 1.0 1.0 1.0 1.0 1.0
1.0 1.0 1.0 1.0 1.0 1.0 1.0 1.0
1.0 1.0 1.0 1.0 1.0 1.0 1.0 1.0
1.0 1.0 1.0 1.0 1.0 1.0 1.0 1.0
1.0 1.0 1.0 1.0 1.0 1.0 1.0 1.0
1.0 1.0 1.0 1.0 1.0 1.0 1.0 1.0

transformer.h.0.attn.bias f4 [1, 1, 64, 64]
00000000: 0000 803f 0000 0000 0000 0000 0000 0000
00000010: 0000 0000 0000 0000 0000 0000 0000 0000
00000020: 0000 0000 0000 0000 0000 0000 0000 0000
00000030: 0000 0000 0000 0000 0000 0000 0000 0000
00000040: 0000 0000 0000 0000 0000 0000 0000 0000
00000050: 0000 0000 0000 0000 0000 0000 0000 0000
00000060: 0000 0000 0000 0000 0000 0000 0000 0000
00000070: 0000 0000 0000 0000 0000 0000 0000 0000
00000080: 0000 0000 0000 0000 0000 0000 0000 0000
00000090: 0000 0000 0000 0000 0000 0000 0000 0000
000000a0: 0000 0000 0000 0000 0000 0000 0000 0000
000000b0: 0000 0000 0000 0000 0000 0000 0000 0000
000000c0: 0000 0000 0000 0000 0000 0000 0000 0000
000000d0: 0000 0000 0000 0000 0000 0000 0000 0000
000000e0: 0000 0000 0000 0000 0000 0000 0000 0000
000000f0: 0000 0000 0000 0000 0000 0000 0000 0000
00000100: 0000 803f 0000 803f 0000 0000 0000 0000
00000110: 0000 0000 0000 0000 0000 0000 0000 0000
00000120: 0000 0000 0000 0000 0000 0000 0000 0000
00000130: 0000 0000 0000 0000 0000 0000 0000 0000
00000140: 0000 0000 0000 0000 0000 0000 0000 0000
00000150: 0000 0000 0000 0000 0000 0000 0000 0000
00000160: 0000 0000 0000 0000 0000 0000 0000 0000
00000170: 0000 0000 0000 0000 0000 0000 0000 0000
00000180: 0000 0000 0000 0000 0000 0000 0000 0000
00000190: 0000 0000 0000 0000 0000 0000 0000 0000
000001a0: 0000 0000 0000 0000 0000 0000 0000 0000
000001b0: 0000 0000 0000 0000 0000 0000 0000 0000
000001c0: 0000 0000 0000 0000 0000 0000 0000 0000
000001d0: 0000 0000 0000 0000 0000 0000 0000 0000
000001e0: 0000 0000 0000 0000 0000 0000 0000 0000
000001f0: 0000 0000 0000 0000 0000 0000 0000 0000
00000200: 0000 803f 0000 803f 0000 803f 0000 0000
00000210: 0000 0000 0000 0000 0000 0000 0000 0000
00000220: 0000 0000 0000 0000 0000 0000 0000 0000
00000230: 0000 0000 0000 0000 0000 0000 0000 0000
00000240: 0000 0000 0000 0000 0000 0000 0000 0000
00000250: 0000 0000 0000 0000 0000 0000 0000 0000
00000260: 0000 0000 0000 0000 0000 0000 0000 0000
00000270: 0000 0000 0000 0000 0000 0000 0000 0000
00000280: 0000 0000 0000 0000 0000 0000 0000 0000
00000290: 0000 0000 0000 0000 0000 0000 0000 0000
000002a0: 0000 0000 0000 0000 0000 0000 0000 0000
000002b0: 0000 0000 0000 0000 0000 0000 0000 0000
000002c0: 0000 0000 0000 0000 0000 0000 0000 0000
000002d0: 0000 0000 0000 0000 0000 0000 0000 0000
000002e0: 0000 0000 0000 0000 0000 0000 0000 0000
000002f0: 0000 0000 0000 0000 0000 0000 0000 0000
00000300: 0000 803f 0000 803f 0000 803f 0000 803f
00000310: 0000 0000 0000 0000 0000 0000 0000 0000
00000320: 0000 0000 0000 0000 0000 0000 0000 0000
00000330: 0000 0000 0000 0000 0000 0000 0000 0000
00000340: 0000 0000 0000 0000 0000 0000 0000 0000
00000350: 0000 0000 0000 0000 0000 0000 0000 0000
00000360: 0000 0000 0000 0000 0000 0000 0000 0000
00000370: 0000 0000 0000 0000 0000 0000 0000 0000
00000380: 0000 0000 0000 0000 0000 0000 0000 0000
00000390: 0000 0000 0000 0000 0000 0000 0000 0000
000003a0: 0000 0000 0000 0000 0000 0000 0000 0000
000003b0: 0000 0000 0000 0000 0000 0000 0000 0000
000003c0: 0000 0000 0000 0000 0000 0000 0000 0000
000003d0: 0000 0000 0000 0000 0000 0000 0000 0000
000003e0: 0000 0000 0000 0000 0000 0000 0000 0000
000003f0: 0000 0000 0000 0000 0000 0000 0000 0000
1.0 0.0 0.0 0.0 0.0 0.0 0.0 0.0
0.0 0.0 0.0 0.0 0.0 0.0 0.0 0.0
0.0 0.0 0.0 0.0 0.0 0.0 0.0 0.0
0.0 0.0 0.0 0.0 0.0 0.0 0.0 0.0
0.0 0.0 0.0 0.0 0.0 0.0 0.0 0.0
0.0 0.0 0.0 0.0 0.0 0.0 0.0 0.0
0.0 0.0 0.0 0.0 0.0 0.0 0.0 0.0
0.0 0.0 0.0 0.0 0.0 0.0 0.0 0.0
1.0 1.0 0.0 0.0 0.0 0.0 0.0 0.0
0.0 0.0 0.0 0.0 0.0 0.0 0.0 0.0
0.0 0.0 0.0 0.0 0.0 0.0 0.0 0.0
0.0 0.0 0.0 0.0 0.0 0.0 0.0 0.0
0.0 0.0 0.0 0.0 0.0 0.0 0.0 0.0
0.0 0.0 0.0 0.0 0.0 0.0 0.0 0.0
0.0 0.0 0.0 0.0 0.0 0.0 0.0 0.0
0.0 0.0 0.0 0.0 0.0 0.0 0.0 0.0
1.0 1.0 1.0 0.0 0.0 0.0 0.0 0.0
0.0 0.0 0.0 0.0 0.0 0.0 0.0 0.0
0.0 0.0 0.0 0.0 0.0 0.0 0.0 0.0
0.0 0.0 0.0 0.0 0.0 0.0 0.0 0.0
0.0 0.0 0.0 0.0 0.0 0.0 0.0 0.0
0.0 0.0 0.0 0.0 0.0 0.0 0.0 0.0
0.0 0.0 0.0 0.0 0.0 0.0 0.0 0.0
0.0 0.0 0.0 0.0 0.0 0.0 0.0 0.0
1.0 1.0 1.0 1.0 0.0 0.0 0.0 0.0
0.0 0.0 0.0 0.0 0.0 0.0 0.0 0.0
0.0 0.0 0.0 0.0 0.0 0.0 0.0 0.0
0.0 0.0 0.0 0.0 0.0 0.0 0.0 0.0
0.0 0.0 0.0 0.0 0.0 0.0 0.0 0.0
0.0 0.0 0.0 0.0 0.0 0.0 0.0 0.0
0.0 0.0 0.0 0.0 0.0 0.0 0.0 0.0
0.0 0.0 0.0 0.0 0.0 0.0 0.0 0.0

onnx::MatMul_492 f4 [64, 192]
00000000: 9c6e bdbc 4428 13bc fdaa 3d3c ca40 8d3b
00000010: bba6 743c 59cb 203c b838 c53c da30 11bd
00000020: 7890 653d 26da 68bb 5577 423b b463 233c
00000030: efaa 75bc 62dd fabc f1b5 973c e49d 8d3b
00000040: e16c 12bc 8697 e739 47de 003c 384d c1bb
00000050: cfdd efbc f98f f43c a75e 6ebc 9cbf 02bc
00000060: 9739 103d 74c6 22bc 9302 50bb 723d 8639
00000070: 348e d839 b7d9 b5ba 143f c6bb 51de 913b
00000080: 5d9f 743c 4e3c a1bc 467e 6f3c 72ec c3bc
00000090: cddc 41bc 00d8 b6ba c443 3a3c 1615 07bd
000000a0: 09e3 54bc 1c13 28bc 41eb cd3c 92d1 a13c
000000b0: 9b68 44bc f025 f539 5c38 2dbc 6516 3439
000000c0: c77d a83c ea5c 753c 42cf 063d de87 3f3c
000000d0: fca3 4fbb 35b4 9cbb 4c1e 9d3c 05ea 3e3c
000000e0: 12a5 1c3a dc28 19bc c209 00ba 2940 11bc
000000f0: bc14 6f3c 51e1 003d dbfb d5bb 4e11 e23c
00000100: 0d0a 9ebc 1d41 97bb ddf8 76bc 3f0e 87bc
00000110: 3943 85bb 1c4f 37bc 367b 2c3c 67b5 5ebb
00000120: 23da 00bd 9486 b23b 7420 66bb b2cd a33c
00000130: 39f8 403c 79e7 10bd 3dd0 02bc 9f83 0abd
00000140: 654b cbbc 706e 3a3d 6080 8fbc 9dd4 a83c
00000150: c574 e5ba 37dc 05bc d5d2 00bc 23ce 983c
00000160: e4bc 003d 221a b13c 8afe c0ba db8b f3bb
00000170: 7e66 a73b d5ad 8e3b 14b3 dbbc 9d9c 013c
00000180: 0e45 d0bc 3dd0 55bc e531 dbba 471a 473c
00000190: b956 b13c c7c9 7fbb 14e4 fc3b 728e 3f3b
000001a0: 7c75 383c 92ac a3bc 8df7 3cbc 9dbd e53c
000001b0: 34f4 d8bb a6fb 4d3a d740 19bb c9e2 d83b
000001c0: 4bd5 b2bc 13aa 1d3b f43e da3c e724 c8ba
000001d0: 40ef 1b3c 0e5c 77bc db66 03bc 4b9a 0b3c
000001e0: 9538 03bc 493f f93c 0e3a c53c d3b0 023c
000001f0: 3969 a8bb 5067 09bc 303e 313c 5f27 a3bc
00000200: 57cc ae3b 2544 81bc 0aa6 2d3b 8f01 2a3c
00000210: 2dff 2e3b 2782 703c 821a 6dbc 4469 89bc
00000220: cfa6 3d3c 656a 0ebc 294a 4dbc de05 25bb
00000230: 39fa bdbb 8563 41bc 8d80 3abc 7834 033c
00000240: 449f 1ebd 471e 943b 1c71 b0bb 4574 60bc
00000250: 1e95 c93c 5937 fdbb 246e 53bc cdd6 99bb
00000260: 706f 51bc c51e 37bc cd3d 90bb 2aa6 0bbd
00000270: 091d 0d3a 72bc a7bb 3e54 b63c c156 c0bb
00000280: 531d 963c 1a86 993b fcc8 663c 56de 8d3c
00000290: 811c dc3c 809b 353c aa7a 893b c46a 67bd
000002a0: d519 413b 81f0 51bb eec8 27bc 2509 083b
000002b0: 6399 fabc e567 f33b 0204 a0bc b947 0b3c
000002c0: d59f 44bc 06ea 61bc 20a4 ef3a c722 09bc
000002d0: ef0c fa3c 44b1 8c3c ab66 ec3b 417f 5e3d
000002e0: 935a fbbb e9d8 2bbc fcdd 243c 1885 f83c
000002f0: f8ba 443a f5aa 51bb 5829 273b 2d59 033d
00000300: 07f4 89bc 9990 0ebb 5c68 22bc 1963 1dbb
00000310: 4946 8f3c dd13 3a3b 7413 1c3c f792 b13b
00000320: bf26 18bb 12fc 893a 2454 00bd a1af f8bc
00000330: d819 20bb e0e6 2c3d 6186 f1bc 9daa 853c
00000340: 3d66 9aba 345f 37bd 8b62 513c f2af 5abc
00000350: c10c 6a3c 6714 0c3d 1e98 15bc be0a 493c
00000360: c5ae 5d3b 0e28 783c 7d73 923c af3b 06bc
00000370: d0b9 f13c caef d9bc 6cc6 7cbc 0d61 9aba
00000380: 461b 68bc ee02 8fbb 9d4f 0fbd 2420 823c
00000390: f7f2 b6bb 9dc7 a9ba 5288 f0bb 3073 0fbd
000003a0: bf13 233c 4707 1abc f85b f6bc 67da 403a
000003b0: 3d4c 273c c702 d4b9 7326 dabb 4026 49b9
000003c0: 395c fbbb 9bc5 bb3b ae32 ce3c f552 fe3b
000003d0: 2fd7 cebc 0419 453c a6ff 2abc 131d b33c
000003e0: 3e68 a2bb ef61 513b 09e2 8f3c 9e7e 82bc
000003f0: 3e64 08bc 1235 90bd 2763 843c 0d3f 023d
-0.023124032 -0.008981768 0.011576411 0.004310702 0.01493233 0.009814107 0.024074897 -0.03544698
0.05604598 -0.0035530417 0.0029673178 0.009972502 -0.014994367 -0.030623142 0.018519374 0.0043218005
-0.008937092 0.00044172647 0.007865495 -0.005899098 -0.029280571 0.029853808 -0.014548934 -0.007980254
0.035211172 -0.00993501 -0.0031739816 0.00025604252 0.0004130468 -0.0013874088 -0.00605 0.004451551
0.014930573 -0.019682076 0.014617508 -0.023916457 -0.011832428 -0.0013949871 0.011368696 -0.032979093
-0.0129935825 -0.010258462 0.025136592 0.019753251 -0.0119878305 0.00046758307 -0.010572519 0.0001717448
0.020567788 0.014975766 0.0329125 0.011690108 -0.0031683436 -0.0047822245 0.019179486 0.011652474
0.0005975525 -0.009348121 -0.00048842665 -0.008865395 0.014592346 0.03146488 -0.0065302677 0.027596142
-0.019291902 -0.0046159164 -0.015073982 -0.016486285 -0.0040668515 -0.011188295 0.010527423 -0.0033982636
-0.03145803 0.005448172 -0.0035114558 0.019995544 0.011777931 -0.035377 -0.007984218 -0.03381693
-0.024816224 0.045515478 -0.017517269 0.020609194 -0.0017506114 -0.008170179 -0.007862766 0.018652981
0.03143014 0.021618906 -0.0014724296 -0.0074324436 0.0051086536 0.0043542185 -0.02681879 0.007910875
-0.025423553 -0.013050136 -0.0016723244 0.012152261 0.021647798 -0.003903018 0.0077176187 0.002922919
0.011258479 -0.019979749 -0.01153363 0.028044516 -0.006620908 0.0007857628 -0.0023384595 0.006618832
-0.021830222 0.002405767 0.026641347 -0.0015269787 0.009517491 -0.015097631 -0.008020128 0.008520673
-0.008009096 0.030425685 0.024075534 0.0079767285 -0.0051394966 -0.008386448 0.010818049 -0.019916235
0.005334418 -0.015779564 0.0026496672 0.010376348 0.002670239 0.014679468 -0.014471652 -0.016773827
0.011575415 -0.008692359 -0.012529888 -0.00251805 -0.005797651 -0.011803512 -0.011383188 0.008008115
-0.038726106 0.004520211 -0.0053845774 -0.013699596 0.024607237 -0.007727545 -0.012904678 -0.0046947957
-0.012782916 -0.01117677 -0.0044018985 -0.034094013 0.000538305 -0.0051189 0.022256967 -0.005869717
0.01832453 0.0046851756 0.014086004 0.017317932 0.02686906 0.011084437 0.004195531 -0.056498304
0.002946486 -0.003203422 -0.010240776 0.0020757404 -0.030590719 0.0074281567 -0.019533161 0.008500987
-0.012000998 -0.013788706 0.0018283166 -0.008370108 0.030523745 0.01717437 0.0072143874 0.054320578
-0.0076707094 -0.010488727 0.010062691 0.030336902 0.0007504667 -0.0031992767 0.002550682 0.032067467
-0.016839994 -0.0021753667 -0.0099125765 -0.0024015366 0.01748957 0.0028393187 0.009526122 0.005419131
-0.0023216454 0.0010527393 -0.031330243 -0.030357184 -0.0024429467 0.042212367 -0.029483022 0.016316706
-0.0011779737 -0.044768527 0.012779842 -0.013347613 0.014285267 0.034199145 -0.009130506 0.012270628
0.0033826095 0.0151462685 0.017877335 -0.008192941 0.029507548 -0.026603598 -0.015428167 -0.0011778191
-0.014166659 -0.004364363 -0.034988035 0.015884466 -0.005583163 -0.0012953166 -0.0073404694 -0.03502196
0.009953438 -0.009401149 -0.030073151 0.0007356763 0.010211048 -0.0004043786 -0.0066574155 -0.00019183103
-0.007670906 0.0057303435 0.02517065 0.007761354 -0.025249092 0.01202989 -0.010436928 0.02186445
-0.0049562743 0.0031949242 0.017563837 -0.015929516 -0.008324681 -0.07041372 0.01616056 0.03179841

onnx::MatMul_502 f4 [64, 64]
00000000: 891c 313a 5737 3f3b b846 013c 1244 50bb
00000010: d88d 43ba daa7 8d3b 63df b23b 99a5 483b
00000020: a537 653a 14e9 b6b7 3997 043c 1901 aaba
00000030: 57a7 e2b9 a271 b23b a37c 193c dd82 033b
00000040: c8f6 a0ba ad47 e93b 2ace a03b 0b57 0bbc
00000050: a751 b9ba 3069 52bc 044f 713c eced 16bb
00000060: 3722 0d3c a60b 283c 2576 1d3c dd4f 52bb
00000070: 62ae 48ba 98e7 a43b e945 38ba fd61 bd3b
00000080: 7a1a 7db9 f273 10bb 2d82 563b c1bb e73b
00000090: a0a6 15bc afac be3b e2c8 7538 4d64 4bbc
000000a0: 65ef 54bb ed0e 33bb f6c0 e3bb 820a 99ba
000000b0: 4833 763b a4f1 b2ba f467 363c f411 db3b
000000c0: 7aef 203c 463f 60bb 8fc9 d73a 0255 1dbc
000000d0: f1bb 13bc 4970 f53b beed 203b 6515 a0ba
000000e0: 1954 283c df12 ce3b 633b b53b 90ef 493b
000000f0: 2ab9 1abb 822d 71ba ad30 273c f6f4 013c
00000100: 701b a0ba d796 0c3c f12e 53bc e8dd 54bc
00000110: a2f1 97bb 775f 893a 1bd5 65bc f427 21bc
00000120: e75e 8a3b 2e7d b23a 485b eebb e954 56bb
00000130: c4ca f039 8995 4bbb 5af1 96bb 36a1 b03a
00000140: cd47 24bc 4475 bf3a d55a 6e3c a6c9 cdbb
00000150: c82a 63bb c02c 243b c7d7 ae3b 1d66 1c3b
00000160: 334f 9e3c c235 26bc 9944 173b 3127 65bb
00000170: 7fbd c9bb 46cf 343b 8bcd bd3b b18d 373c
00000180: 8a30 07bc 96bc ac3b 89cd 8fba f206 9cbb
00000190: 4b54 7ab9 4a31 133a 3d80 1d3a 11b1 4a3a
000001a0: 447f 463b 92d1 34ba 23eb 2abc a043 163a
000001b0: 6211 96bb e142 04bc f9a9 5d3b c5eb 1abb
000001c0: 6826 293c bd4b ecbb 2135 87bb f939 7f3c
000001d0: 8df8 e8bb 453f a13b 07d1 373b 5667 1f3c
000001e0: 8fd3 5fbc 14e2 94bb bfdc 10bc 3c55 8a3b
000001f0: befd 1e3a a5bd 1fbc 7303 03bc 66ae 41bc
00000200: 18fa b73b a536 0b3c e50b 6ebc a155 9cbb
00000210: a334 073b ae25 16bb f07a 7238 58f6 1bbb
00000220: e3dd 563c 93cb c3bb 283c 25bb db88 17bb
00000230: b590 54bb b41a 823b e60f 8f39 bdad dd39
00000240: 2ec0 b4bb fb31 ee3b 2f29 cd3b 2041 acbb
00000250: ae17 deba 9961 1d38 f767 24b9 9727 24ba
00000260: a5a5 a4bb 2c1f 3c3c e4ec e7bb 9c32 e6bb
00000270: 9340 8dbb 88c0 1a3c a64b 2bbb 6e54 6c3c
00000280: 1c36 013b fa7e 193c f37f 64bb 4d2a f53b
00000290: daea 19bc 35ea 993b 9e0c 253c a30b 383c
000002a0: 9f9a 283c a8b9 89bb 0802 2038 bec3 c1bb
000002b0: cd65 3eba b4d4 c23a 056a b8bb 9b1f c43a
000002c0: c228 aa3b 9452 00bc aa37 b63b 6a1f 9d3a
000002d0: b194 023c 1a58 daba b433 40bb 2f75 89bb
000002e0: 5bbc 75bb d070 97bb 53cb baba 9917 8c3c
000002f0: 885f 08bc 863b c5bb 3f72 a8ba 2646 8c3b
00000300: 3bd9 853c 13ea 973b b872 bbbb 3705 713b
00000310: 8ef3 eb3b 134f 4a3a 8d83 483b b957 44bb
00000320: 3603 11bb 4150 a139 683a c73b e33e a33b
00000330: 74be a5bb 2577 10ba f485 e9ba a2a2 8abb
00000340: 7556 263b 3cfc 59bc 9259 3fba ba00 25ba
00000350: 85dd 68bb a71d 493a fd15 0ebb 4309 7fbc
00000360: bc2b e23a 0303 f33b 0b7c 13bb 8016 853b
00000370: eb7b 47bb 047d 043c 7b60 de3b 504f bebb
00000380: e4db c13b 5459 56bb 16ef b73a b2fa 27bc
00000390: 07b2 6a3c 68fb 0dbc 547a 1c3c 3916 383b
000003a0: ad1b cebb fb88 1cb9 ee70 aeba 24b4 203c
000003b0: 32bf 4c3c 8e40 95bb a3b9 a63b 586d 45bc
000003c0: bc88 743b 054d 583c 7e37 643b a429 b5bb
000003d0: 63dd 08bc 1342 a3b8 bd22 68bc b556 9abb
000003e0: 25f4 133b 396c bdba 5175 53bc 1125 53bc
000003f0: 56de d7bb a097 a93b 9dd3 0bbc a951 e4ba
0.0006756266 0.0029177272 0.007890396 -0.0031778854 -0.0007459796 0.004322988 0.0054587587 0.0030616282
0.00087439484 -2.1804626e-05 0.008092695 -0.0012970298 -0.00043230757 0.005445675 0.009368095 0.0020067014
-0.0012280578 0.00711914 0.004907389 -0.008504639 -0.0014138714 -0.0128424615 0.014728311 -0.0023029996
0.0086141145 0.010256683 0.009610687 -0.003209106 -0.00076553796 0.005032491 -0.00070294604 0.0057795034
-0.00024137823 -0.0022041765 0.00327314 0.0070719426 -0.009133965 0.0058189253 5.859964e-05 -0.01241405
-0.0032491323 -0.002732213 -0.006950493 -0.0011676105 0.0037567187 -0.0013652337 0.011133183 0.00668549
0.009822721 -0.0034217401 0.0016463267 -0.009602787 -0.009016977 0.007490192 0.0024555768 -0.0012213407
0.010273957 0.0062888707 0.005530761 0.0030812956 -0.0023608902 -0.00092002016 0.010204476 0.007931938
-0.0012215208 0.008580885 -0.01288961 -0.01299236 -0.004636959 0.0010480721 -0.014027859 -0.009836186
0.004222739 0.0013617629 -0.007274065 -0.003270442 0.0004592744 -0.0031064472 -0.004606408 0.0013475779
-0.010026884 0.0014607091 0.014548023 -0.006280142 -0.003466295 0.0025051087 0.0053357813 0.0023864575
0.019324875 -0.010144653 0.002308166 -0.0034965987 -0.006156623 0.0027589365 0.005792325 0.011203215
-0.008251319 0.0052715046 -0.0010971288 -0.00476157 -0.0002387326 0.00056149496 0.00060081837 0.00077320734
0.0030288259 -0.00068976835 -0.0104320375 0.0005732123 -0.004579709 -0.008072586 0.0033823235 -0.0023639065
0.010324098 -0.007211177 -0.0041262065 0.015577787 -0.0071097077 0.0049208724 0.0028048174 0.009729227
-0.013661279 -0.004543552 -0.0088416925 0.0042215865 0.0006065032 -0.009749805 -0.007996428 -0.011821365
0.0056145303 0.008496915 -0.014529203 -0.00477095 0.002063074 -0.0022910642 5.781179e-05 -0.0023797955
0.013114425 -0.0059751957 -0.0025212858 -0.0023122344 -0.0032434885 0.0039704684 0.0002728693 0.0004228185
-0.0055160737 0.0072691417 0.006261013 -0.005256787 -0.0016944313 3.7522612e-05 -0.00015678989 -0.0006262003
-0.005024629 0.011482041 -0.0070778 -0.007025076 -0.0043106764 0.009445317 -0.002613762 0.0144244265
0.001971609 0.0093686525 -0.0034866303 0.0074818493 -0.009394372 0.004697109 0.010073809 0.011233243
0.010290771 -0.00420304 3.8148864e-05 -0.005913227 -0.00072630943 0.0014864416 -0.005627873 0.0014963032
0.005192847 -0.007832188 0.005560835 0.0011987512 0.007970021 -0.0016658336 -0.0029327692 -0.0041948776
-0.0037496302 -0.0046216026 -0.0014251269 0.017101096 -0.008323558 -0.0060190586 -0.0012851431 0.0042808233
0.016338935 0.004636058 -0.0057204627 0.003677679 0.007200665 0.00077174715 0.0030595989 -0.0029959513
-0.0022127158 0.00030768107 0.0060799606 0.004981862 -0.005058104 -0.0005510918 -0.001781641 -0.004230813
0.0025381122 -0.013304766 -0.0007299419 -0.0006294359 -0.0035532427 0.000767196 -0.0021680587 -0.015566173
0.0017255466 0.0074161305 -0.0022504355 0.00406152 -0.003043885 0.008086447 0.0067864037 -0.0058077946
0.0059161056 -0.0032707052 0.0014033045 -0.0102526415 0.014324672 -0.008665897 0.00955065 0.0028089418
-0.0062899203 -0.00014928349 -0.0013308802 0.009808574 0.012496756 -0.0045548147 0.0050880476 -0.012049995
0.0037312945 0.013201957 0.0034823115 -0.0055286456 -0.008353564 -7.784753e-05 -0.0141684385 -0.0047100433
0.0022575941 -0.0014451809 -0.012906388 -0.012887255 -0.006587784 0.005175546 -0.008534339 -0.0017419356

onnx::MatMul_503 f4 [64, 256]
00000000: c24e 0abc f2b6 df3c 1147 183c 413b b63c
00000010: b5f7 90bc cccb cf3a 13fd d4ba 13d8 403c
00000020: 4ea4 1cbc 553b 06bc c42a 91bc e6ed 7f3b
00000030: d31f 693b f324 2f3d 4ed7 f3bc 1992 a13c
00000040: 4530 6ebc 697b f2b9 5efd 17bc 8fa0 9bbb
00000050: ca63 333b 0b1e d73c fdf9 133c 65c1 5fbc
00000060: 7b58 3d3c 32e6 6dbc 6e73 d9bc b7a8 033d
00000070: 5c9d ec38 0b2c 4b3c c751 fabc a7d9 ec3b
00000080: c17e 543c c4c2 26bc f344 0cbc f078 9d3c
00000090: 846f 563d 2767 7a3c e2fc 1abd 2016 7f3c
000000a0: 5ded 18bd 4ab0 583c 9758 8dbc 459a 363d
000000b0: 5a62 9e3c 471b 2f3b 6e36 f83c c806 93bc
000000c0: 05b5 df3c 247b 2eba f9d3 873c 14b5 17bc
000000d0: e756 77bb 87ce 44bc 0a2d afbc b947 babc
000000e0: 3306 4a3c 8de9 1fbb 9e9e 363d f958 ecbb
000000f0: 3bb5 8cbc 108f 5f3b c23c 03b7 db52 363c
00000100: 3777 a83a 4887 863c fd85 85bc 72c3 293d
00000110: 8b35 4fbc a41b cf3c 38c9 cc3b d26e af3b
00000120: 789b c2bc 660e 823c a26e 86bc 02ca 9e3c
00000130: 1e78 adbc f494 2cbc 24c3 ad3c c609 93bb
00000140: 8c9b 81bb 9789 1d3c 863a 8a3b a54c 24bd
00000150: 25c4 8abc ccdd 99bb 4759 743b 2d2e 013d
00000160: 4df3 bf3c 2015 50bc 5bf3 19bc c0b2 8ebb
00000170: bf16 97bb 7d89 ce3c cf15 4d3c 2801 98b9
00000180: 1e06 713a 3cbf d9bc 1237 473c 26d6 563c
00000190: 7780 01ba 2b23 333c 5cc8 a5b9 d5aa 3ebc
000001a0: 241e dc3c adf2 b5bc 5ed5 ab3b 14c3 893c
000001b0: 7cac 903c 6f00 0dbc 3234 37bc 987d f9bb
000001c0: 6757 9b3c 39c2 3ebc 81be e03c a12b 2abc
000001d0: 384a 243c c6d0 1c3c 2a5c debb 2d9f aebc
000001e0: a798 94bb d3c5 123c 491d 46bc 4c33 7dbc
000001f0: 00c5 00bc ee22 f53c fb5d 9b3c 1b11 30bc
00000200: 3399 bd3c 6d29 80bc 3054 253c 738c 203d
00000210: 2ee4 7abc 94e4 223b 6c22 eaba 3245 14bc
00000220: 21b5 b6bc 6c94 813c 7747 dfbc e4b5 303b
00000230: 649c 3a3c 2190 ffbb 0942 863b b255 e4bc
00000240: 6b92 0d3c e164 c23c fdf7 23bc 65fe 4b3c
00000250: be25 5d3c 5623 9d3b c938 193c 87c1 6b3c
00000260: 3465 293d f265 073d 1bde 4bbc 1735 86bb
00000270: 5227 f7bc a6f1 313d e326 943b 843c 973a
00000280: 6928 8b3a d944 abbc 6ecb b23c 6f2a 153b
00000290: 10aa 793a 1e72 3d3c 0919 ee3b 17fe 073d
000002a0: 6fcc b8bc ec22 cf3c 4e10 b53b ce5b 303d
000002b0: 2ad8 8fbb 0e82 a43c 60df df3c 8bb8 993b
000002c0: 5152 15bd 0ae4 25bc 91f5 923b 1362 a9bc
000002d0: 42f2 063c 29cb 2dbc 349b 97bb c55c 89bb
000002e0: 7b54 2ebd b2db ab3b bfa3 8b3c 21a9 afbc
000002f0: 75e3 d33c d645 83bb 632d 033c ebd7 b03c
00000300: d4f6 873b 1e21 e6bb 62ad 873c 94df d43b
00000310: c1f9 d9bc 306d 183c 39d7 c8bc f284 8fbc
00000320: fbfb bb3b cf01 43ba eb6d 1d3c e785 fcbb
00000330: 3301 3abd 2260 563c ec5b 89bc 954c 693c
00000340: 12b0 a43b 121b f53b 0247 2d3b 4a7c 823b
00000350: cf2b babb 9872 ec3c 088c 0f3d fe87 b9bc
00000360: a26e d23c de7a 7839 26b6 903b ee98 be3c
00000370: f538 dabc 7205 8ebb 6a50 053c edbe a33c
00000380: c131 333c f30a 463c a78a 25bd 1002 c8bc
00000390: f5ea bfbb 0951 a33c efa9 513a d266 b73c
000003a0: fced 42bb b4c7 3cbc b243 a2ba 873e 95ba
000003b0: f21d ad3b fb0e 0a3c 0284 9e3c c556 ac3c
000003c0: 7db7 d53c c0f2 023c ad7b 90bc 37a8 b43c
000003d0: 523a 80bb 78a0 e1bc 002e e2bb 94b3 993c
000003e0: 92f2 8dbc 79da 913c bd18 563c f34d 3fbd
000003f0: 8bb3 863c e0d4 24bc 8c9f 4f3c 142c 1abd
-0.008441629 0.027308915 0.009294287 0.022245051 -0.01769624 0.0015853583 -0.0016249738 0.011770266
-0.009560658 -0.008192857 -0.017720588 0.003905171 0.0035571947 0.042759847 -0.029765751 0.019722985
-0.014537876 -0.00046249785 -0.009276716 -0.0047493647 0.0027372711 0.026259443 0.00903177 -0.013656949
0.01155674 -0.014520215 -0.026544299 0.03214332 0.000112826674 0.012400637 -0.030556573 0.0072280946
0.012969674 -0.010178272 -0.008561361 0.019222707 0.052352443 0.0152833825 -0.037838824 0.01556924
-0.037335742 0.013225624 -0.017254157 0.044580717 0.019334007 0.002671914 0.030299392 -0.01794757
0.027307997 -0.00066559226 0.016580569 -0.009259481 -0.0037741007 -0.012012131 -0.021383781 -0.022739278
0.01233058 -0.0024400682 0.044584863 -0.007212755 -0.017176261 0.0034112372 -7.822355e-06 0.011128153
0.0012852912 0.016421929 -0.016299242 0.041446157 -0.012647043 0.025281735 0.006249573 0.005353787
-0.023755774 0.015876006 -0.016410176 0.019383434 -0.02117544 -0.01053356 0.021211214 -0.004487249
-0.00395531 0.0096153235 0.0042184023 -0.040112156 -0.016939232 -0.0046956297 0.0037284659 0.031538177
0.023431445 -0.012700349 -0.009396399 -0.0043548048 -0.004610866 0.025212044 0.012517407 -0.0002899256
0.0009194332 -0.026580445 0.012159126 0.01311258 -0.0004940102 0.010933678 -0.00031620532 -0.011637409
0.02686984 -0.022210443 0.005243941 0.016816653 0.017660372 -0.00860606 -0.011181878 -0.007613849
0.018962575 -0.011642986 0.02743459 -0.0103863785 0.010027461 0.00957126 -0.006785889 -0.021316135
-0.004534799 0.008958298 -0.012091943 -0.015454125 -0.007859468 0.029923882 0.018965712 -0.010746266
0.02314434 -0.015644753 0.010090873 0.039196443 -0.015313191 0.0024855481 -0.0017863042 -0.009049701
-0.022303166 0.015817843 -0.027255757 0.0026963884 0.0113898255 -0.007799164 0.0040972275 -0.027872894
0.008640866 0.023729743 -0.0100078555 0.012450789 0.013497768 0.004795472 0.009351918 0.014389402
0.04135628 0.033056207 -0.012443091 -0.0040956843 -0.030170117 0.043443345 0.004521237 0.0011538421
0.0010616902 -0.020906853 0.021825518 0.0022760888 0.00095239375 0.011562852 0.007266168 0.033201303
-0.022558419 0.025285207 0.0055256253 0.0430563 -0.0043897824 0.020081546 0.027328193 0.0046911887
-0.036455456 -0.0101251695 0.00448484 -0.020676648 0.00823647 -0.010607519 -0.004626656 -0.004191967
-0.042561036 0.0052446956 0.017045854 -0.021442952 0.025865296 -0.004006128 0.0080064265 0.021587333
0.0041492973 -0.007022991 0.016562168 0.006496379 -0.02660835 0.009303376 -0.024516689 -0.017519448
0.0057368255 -0.0007438929 0.009608726 -0.007706392 -0.0454113 0.013084443 -0.016767465 0.01423945
0.005025872 0.0074800337 0.002644003 0.0039821016 -0.005681492 0.028863236 0.035045654 -0.022647854
0.02568752 0.00023696895 0.004416245 0.023266282 -0.026638487 -0.004334145 0.008136848 0.019988501
0.010937155 0.012087571 -0.040415432 -0.024415046 -0.0058568665 0.019936102 0.00079980394 0.022387896
-0.00297439 -0.011522222 -0.0012379794 -0.0011386432 0.005283111 0.008426423 0.019350056 0.021037469
0.02608847 0.007992446 -0.017637098 0.022052867 -0.0039132023 -0.027542338 -0.0069024563 0.018762387
-0.01732758 0.017804371 0.0130674215 -0.046705198 0.016443035 -0.010060519 0.012672316 -0.037639692

onnx::MatMul_504 f4 [256, 64]
00000000: 2989 e73b f97f 4dbb 53d6 bc3b 136e 3f3b
00000010: d962 a8ba d076 c03b a4ba d93a b1de 1ebc
00000020: 55b1 353b 9988 02bc bc42 333a 4868 a3bb
00000030: 3d83 93bb 03cc 133b ca43 913b fa36 e9bb
00000040: 1d49 293c f97c 6a3a c599 c7bb 9dad 31bb
00000050: 3188 9abb 9e1b a53b 69fd e83b bff0 05bc
00000060: 4264 90bb ed87 ccbb 01d4 4c3c 08d4 023c
00000070: e3d4 44bb 3499 273a 447b 7f3b 2f73 9bba
00000080: 6853 a13b 5df8 d53a 9838 a83b 0790 f9bb
00000090: 7ac0 563a 3970 843b b62c a63b 44e7 9aba
000000a0: 4d5c 4ebb 738b edbb c1cc 773a f5c2 05bc
000000b0: 5e84 993b 4486 75bb 1b6e 1b3b 09ea 903c
000000c0: cee5 113c dc2f 15bc 1cfa 5cbb 8bd4 163c
000000d0: de62 d13a ab7c c93a 5bfc 16bc e032 f8bb
000000e0: 62dd 6dba 2f56 083c 2203 98bb 3553 333c
000000f0: e050 87ba 0085 b6ba 1c22 a8bb 9db0 233c
00000100: 073f 84bb 0e9e 463c 9174 aa3b 3df7 77bb
00000110: 8ee2 d0ba b904 aabb 318c a73b c996 cfbb
00000120: 9ef0 9dbb 7af2 28bc 5d95 59bb 2dd4 aebb
00000130: 5651 313a 4625 dcbb e0ff 42ba 2e1f e4bb
00000140: fcc4 fa3b 385e ef3b 8e4a 02bc bc4d 423c
00000150: 42a4 cfba a668 033b 6fff ba39 8842 8d3b
00000160: 7ad4 a83b 73bf 75ba adeb 0aba 425f c43a
00000170: 1bb7 82bc cdbb a33a 7c47 533b 0580 373b
00000180: 2376 903b 9f61 593b 51ee 243b 3df2 0fbc
00000190: d0e1 debb 6b01 a03a e115 97ba 0078 fd3a
000001a0: c8a5 9cbb 0447 443c 138f 213b 5a06 8cbb
000001b0: 008e 843a d777 4f3a caff 21bc f099 09bb
000001c0: 972f b3ba 6e2d 15bc 81b5 0cbc 8f4e ccbb
000001d0: 71a2 60bb 77ab b3bb a2a4 fe3b 4b34 5fbb
000001e0: 6368 81ba 40fd 043c 1ffa 07bb 595d ff3b
000001f0: 7f29 09bc c0fd b6bb be05 c23a 43cf c3bb
00000200: 784b 4d3b aa92 313c 8bee fdba aef4 323c
00000210: 0759 44ba 10f9 993b db82 08b9 0e48 c23a
00000220: fa91 d93a 8ebf 5f3c 353f 173c 2f9c b83b
00000230: 0d1e 873b f715 ecbb 16dc 10bb 0e63 0d3c
00000240: 5eb3 99ba b74c 2bbc 87a6 fe39 17ca 1d3c
00000250: d79e 65bb 6e7b 773c 3cb9 d2bb 367d f93b
00000260: d90b a0bb 4e83 20bc f043 043b 8151 b9bb
00000270: dd15 00bc 086e 4d3c 9d16 2f3c be27 963b
00000280: a7b5 c03b 282c 283c eead 24bc dfbe fcbb
00000290: 0cda 2f3c e422 773c 7990 573c f6cb 563b
000002a0: b389 b83b b720 39bb 573b 0a3c fa0d ad3b
000002b0: 3e6e 89ba 9614 d5bb 322f 543b 4ee4 b63b
000002c0: 163e a33b 7ca2 d43a 8af8 8abc 6b3c 15ba
000002d0: 7af0 c23b f8c9 3c3c e284 21bc 559d 00ba
000002e0: 126e c33a 16fa 8dbb a7bd f3bb 95c6 f239
000002f0: 7506 493c a9dc 1d3c 23f0 213c 704d 4ab8
00000300: d188 f83b c926 6aba 21de 7fbb 0a2f f4bb
00000310: 80c2 713a f7a8 a8ba 8f54 cb3b 2af0 6fbc
00000320: d1c9 2f3c d6b5 03bc 076f 76bb ce3b 91bc
00000330: 73fb 24bb 8cc9 a33a 21b9 fdb9 f479 373c
00000340: 7c80 013c 8cb9 f6ba 2c02 95bb a090 fb3a
00000350: c224 fc3b aa16 49bc efdb 17bc 8abc e8bb
00000360: dcad 19bb bc4c 07bb babf fd3b 8ad7 09bc
00000370: f0c5 4fbb 2626 ba39 58ac 2bbc da2a 86bb
00000380: bc7c 05b9 619f 593b 33e4 7b3b 0edf 1d3c
00000390: 9925 07bc 3628 253b b301 36bc 81a4 8b3c
000003a0: 2c50 cd3a 5216 223b 0ca5 4c3b 66fa e33b
000003b0: af21 2b3b 3627 ddbb 17c2 98b9 c3da c83b
000003c0: 90e4 853a 0342 d5bb f14e 05bc f197 4dbb
000003d0: 3965 233b 04ec 37bc b513 cdba 3637 16ba
000003e0: 10e9 59bc 4f29 a03a 514a 34bb 9703 b2bb
000003f0: 9fd9 09bc b969 beba 021e e63b 7c9a bc3b
0.0070659113 -0.0031356795 0.005762854 0.0029209896 -0.0012846842 0.0058735386 0.0016611409 -0.009696648
0.0027724106 -0.007967138 0.00068382523 -0.0049867965 -0.004501729 0.002255202 0.00443313 -0.0071171494
0.010332373 0.0008945014 -0.006091329 -0.0027111538 -0.0047159423 0.0050386926 0.007110287 -0.008175074
-0.004406483 -0.0062417896 0.012501718 0.0079851225 -0.0030034117 0.00063933735 0.0038983384 -0.0011859889
0.004923273 0.0016324628 0.0051336996 -0.0076160464 0.00081921334 0.0040416983 0.005071248 -0.001181819
-0.003148812 -0.0072492897 0.0009452813 -0.008164157 0.004684969 -0.0037464062 0.002371675 0.017689722
0.008904887 -0.009105649 -0.0033718413 0.009205948 0.0015974899 0.0015372237 -0.00921544 -0.007574424
-0.0009073821 0.008321329 -0.0046390453 0.010945131 -0.0010323785 -0.0013925135 -0.0051310193 0.009990838
-0.0040358338 0.012122644 0.005201884 -0.0037836574 -0.0015936659 -0.0051885513 0.0051131477 -0.0063351137
-0.0048199436 -0.010311717 -0.00332006 -0.005335352 0.0006764134 -0.0067183105 -0.0007438641 -0.0069617247
0.007652877 0.007304933 -0.007952346 0.011859354 -0.0015841799 0.002005139 0.00035666997 0.0043109097
0.0051522823 -0.00093745365 -0.00052994007 0.0014982002 -0.015956452 0.0012491882 0.0032238653 0.002799989
0.0044086142 0.003316976 0.0025166462 -0.008785781 -0.0068018213 0.0012207454 -0.0011526906 0.0019338131
-0.004780505 0.011979822 0.002465193 -0.004273218 0.001011312 0.0007914281 -0.009887645 -0.0020996295
-0.0013670799 -0.00910507 -0.008588196 -0.006234951 -0.003427651 -0.0054830867 0.0077710906 -0.0034058269
-0.0009873029 0.00811702 -0.002074845 0.0077931103 -0.00837171 -0.0055844486 0.0014802737 -0.0059756353
0.00313255 0.01083819 -0.001937346 0.010922594 -0.0007490073 0.00469888 -0.00013018718 0.0014822499
0.001659929 0.01365651 0.009231378 0.005633853 0.0041234554 -0.007204767 -0.0022103838 0.0086295735
-0.0011726429 -0.010455302 0.00048570728 0.0096307015 -0.0035037303 0.0151051115 -0.006430773 0.0076138033
-0.004884225 -0.0097969305 0.0020182095 -0.005655468 -0.007817713 0.0125384405 0.010686544 0.0045823744
0.0058810296 0.010264434 -0.010051234 -0.0077131833 0.010733139 0.015084002 0.013157004 0.0032775379
0.0056316494 -0.002824826 0.008436999 0.005281207 -0.0010485125 -0.006502698 0.0032376763 0.0055814153
0.0049817665 0.001622274 -0.016964216 -0.0005692902 0.005949077 0.0115227625 -0.009858342 -0.0004906257
0.0014910123 -0.004332791 -0.00743838 0.00046305792 0.012269606 0.009635129 0.009883913 -4.8232672e-05
0.007584669 -0.0008932171 -0.0039042311 -0.0074518966 0.0009222403 -0.0012867738 0.0062051485 -0.014644662
0.010729269 -0.008038959 -0.0037602799 -0.017728712 -0.002517429 0.0012495979 -0.00048393852 0.0111985095
0.007904168 -0.0018823608 -0.004547378 0.0019192882 0.0076948116 -0.01227347 -0.009268745 -0.0071025537
-0.0023449576 -0.0020645102 0.007743803 -0.008413205 -0.0031703673 0.00035505107 -0.010478102 -0.004094464
-0.00012730336 0.003320657 0.0038435578 0.0096357 -0.00824871 0.002520097 -0.011108804 0.017046215
0.0015664152 0.0024732542 0.0031226305 0.00695734 0.0026112606 -0.006749059 -0.00029136307 0.006129594
0.0010215212 -0.0065081134 -0.008136497 -0.0031371082 0.002493216 -0.011225704 -0.0015646132 -0.0005730273
-0.013300195 0.0012219342 -0.0027510116 -0.005432557 -0.008413701 -0.0014527357 0.00702262 0.0057557207
