examples/onnx/nanoGPT/network.onnx (onnx, 904716 bytes, 21 tensors)

transformer.wte.weight f4 [65, 64]
000000 a9 96 f4 b9 ef 8c 33 3c 95 89 59 3c 98 3c bb bc
       -0.00046651557 0.010958894 0.013277431 -0.022856042
000010 88 69 0a bb 95 35 72 3b 54 df c3 3b bb 1a 23 3c
       -0.002112003 0.0036958207 0.0059775505 0.0099551035
000020 9b cb 22 bc a4 0d 01 3a c0 ca a5 bc 65 75 a7 bc
       -0.009936239 0.0004922992 -0.02023828 -0.02044172
000030 8a 20 05 3a 42 05 b8 3c 56 ce 9c bc 12 7f 85 3c
       0.0005078396 0.022463445 -0.019141357 0.016295943
000040 1e b2 73 3a a7 a9 67 3b 0b 9a 55 bc 42 7a cb 3b
       0.0009296256 0.0035348923 -0.013037215 0.0062096426
000050 21 e4 77 3b 06 45 5a 3c 1c 78 40 3d ca d4 4a 3c
       0.0037825184 0.0133221205 0.046989545 0.012379834
000060 3b 34 2d 3c 36 3a 28 bd 76 4c 0a bc 8e a8 92 3c
       0.010571535 -0.04107114 -0.008441081 0.017902639
000070 50 4d 5d bc 61 33 55 3c 36 5c 14 bc 2e e1 1d 3b
       -0.013507202 0.013012738 -0.009055188 0.0024090516
000080 37 42 68 bb fe 67 b0 3c 55 69 7d 3c 75 22 5f 3b
       -0.0035439858 0.021533962 0.015467008 0.0034047638
000090 c6 01 e6 bc 76 fc 83 bc 7c 99 a4 ba 2d a9 80 3c
       -0.028077018 -0.016111594 -0.0012557949 0.01570567
0000a0 7e 07 22 bb c6 46 88 bc 15 f3 3c 3d 2a 23 00 bd
       -0.0024723704 -0.01663531 0.04613026 -0.031283535
0000b0 b8 6a d0 bc 2a 95 2b bc 23 be ef 3c 15 a1 48 bc
       -0.025441512 -0.010472575 0.029265469 -0.012245436
0000c0 47 54 53 3c 8f 36 34 bc 86 16 25 bc ef 1e 59 bd
       0.012898511 -0.010999336 -0.010076171 -0.053008016
0000d0 7e 10 d6 3c 5e 0f 0f 3c 2a 20 b2 3c 4c e9 ff bb
       0.026130911 0.008731691 0.021743853 -0.0078097936
0000e0 44 fb 46 bc 73 b4 69 ba 12 67 c7 3b 26 c0 9c 3b
       -0.012144867 -0.00089151337 0.006085285 0.004783648
0000f0 41 60 b5 3c 62 aa be bc 03 ab f0 3b a5 cc f4 3c
       0.022140624 -0.023274604 0.007344605 0.029882738
000100 d4 1b e2 3b 4f bb 80 3b 4b de e5 3c c5 c2 44 3c
       0.00690029 0.003928579 0.0280601 0.012009327
000110 72 07 b3 bb fc 3c d5 3b b7 7a aa 3c b9 ef 03 3c
       -0.005463534 0.006507514 0.020810468 0.00805276
000120 1e eb c2 bb c0 91 9b bc ae c6 05 bd bb 5c 7f 3c
       -0.0059484383 -0.018990397 -0.03266018 0.0155860735
000130 c9 da 06 bd 1d 5c a5 3c cd c4 be 3b d4 23 2e bc
       -0.032923494 0.020185525 0.0058218003 -0.010628659
000140 2a b1 2d 3c 12 91 b9 bc 96 13 90 ba 7b b4 f2 3a
       0.010601321 -0.022652183 -0.0010992165 0.0018516922
000150 f4 7c b2 bc 60 42 b1 3b b5 9c b2 b9 66 c6 46 bc
       -0.021788098 0.005409524 -0.00034067562 -0.012132263
000160 13 50 db bc 17 c9 07 3d c6 d4 d0 3b 6a 7d 1e 3d
       -0.02677158 0.03315076 0.006373021 0.038693823
000170 46 83 8f bb 34 81 4b 3c 8f 46 88 bc af 3b 1e bc
       -0.0043796627 0.012420941 -0.016635207 -0.009657784
000180 c1 74 6e 3c e1 f5 bf 3c 90 93 5b bb 37 63 98 bc
       0.0145542035 0.023432674 -0.0033504702 -0.018601997
000190 17 63 27 3d e5 d5 d1 bc d7 65 33 bb 7c bd 02 3d
       0.040865984 -0.025614688 -0.0027373934 0.031918988
0001a0 89 12 db 3c 87 98 58 bc 97 0c 56 bc 98 a4 eb bb
       0.026742237 -0.013219959 -0.013064525 -0.007191252
0001b0 24 17 0d 3c 91 ff 1e bc 50 af 8a 3b ac cd f1 3b
       0.008611474 -0.0097044865 0.0042323247 0.0073792543
0001c0 00 e5 86 bc d2 68 4a bc 30 6f 52 bb 8b 5d 4d bb
       -0.016466618 -0.012354093 -0.003210973 -0.0031336274
0001d0 ec e6 88 3b 1c bb cd 3b bb 34 1f ba 46 02 13 3a
       0.0041779187 0.0062784087 -0.0006073226 0.0005607944
0001e0 4b 17 63 3a 2f 74 80 3c 2b 21 af 3c 01 3e eb 3c
       0.0008662834 0.0156804 0.02137812 0.02871609
0001f0 d0 c0 6c 3c 50 97 40 bc c5 31 e0 3c e2 9f e7 3b
       0.014450267 -0.011754826 0.027367482 0.00706862
000200 0f a9 3d 3c f3 61 37 bc 2d 98 02 bc 44 eb bb bc
       0.011575951 -0.0111927865 -0.007970852 -0.022939332
000210 0b 15 b6 bb 06 0e 1b bc 26 f7 8a 3b b7 cb 03 bd
       -0.0055567077 -0.009463793 0.004240888 -0.0321767
000220 79 c8 9c bc e7 29 8b 3c 52 8d 89 bc 34 4c 27 3b
       -0.019138562 0.016987754 -0.01679102 0.0025527598
000230 de 62 4f 3c b0 70 a0 bb d3 99 64 bb 0e b3 22 bc
       0.012657849 -0.004896246 -0.0034881725 -0.009930385
000240 a8 7a 90 bc 90 04 db bc 04 96 36 b9 40 fb 7b 3b
       -0.017636612 -0.026735574 -0.00017412758 0.0038449317
000250 0e 77 8f 3c 44 65 e0 bb bc fe e4 39 12 92 4a 3c
       0.017512824 -0.0068480093 0.0004367734 0.012363927
000260 52 8e 8c bb b9 7a 47 3c 5c c3 f2 3b ca 8d 58 bb
       -0.004289427 0.012175255 0.0074085426 -0.0033043497
000270 cd e9 8b bc d0 c0 8d 3c 85 a8 43 bc 2b 5e 3c bc
       -0.017079258 0.017303854 -0.011942034 -0.011497061
000280 e6 4f 8e 3c 75 cb ee 3c 45 b7 08 bc 17 ae 9b bc
       0.017372083 0.02914975 -0.008344476 -0.019003911
000290 14 4f e5 3b c2 37 c5 3c e3 44 f0 3c f9 71 c3 3c
       0.0069979522 0.024074439 0.029329723 0.023858057
0002a0 a4 75 37 3b 25 9f e4 ba 42 73 b9 3c e5 0b 34 3b
       0.0027993703 -0.0017442448 0.022637967 0.002747291
0002b0 d0 a9 d1 bc 93 49 7e 3c db 1d 62 3c 8b 75 d8 3b
       -0.025593668 0.015520471 0.013801063 0.006605809
0002c0 dd 29 01 bc a7 1d 6e 3b a3 2b f4 bb 77 01 f1 bc
       -0.007883516 0.0036333592 -0.007451491 -0.029419644
0002d0 b7 27 e8 3c 7c 9c 82 3c bc b4 83 bb f0 3a 13 3c
       0.02833925 0.015943758 -0.004019348 0.00898622
0002e0 29 0a fc 3c bf 51 90 bc a4 fc af 3b 02 67 3f bc
       0.030766563 -0.017617105 0.0053706933 -0.011682274
0002f0 df f5 82 bc 6e 40 27 bc 45 a5 05 3c 9c 94 74 3c
       -0.015986381 -0.010208232 0.008157079 0.014928009
000300 a2 41 a7 bb 59 0f 9d 3b 3c 2c 47 3c 97 4a 03 3c
       -0.0051042596 0.0047930893 0.012156542 0.008013389
000310 59 3d 5a bd 9d 7c 4e 3c 4c d5 06 bd f2 3c 72 3c
       -0.053281162 0.012602952 -0.03291826 0.014785038
000320 1c 2c a5 3b b7 74 5f bc 5e fa 8f bb 22 3a 98 3c
       0.0050406586 -0.013638667 -0.0043938598 0.018582407
000330 bc 2f f7 3b b8 3b dd bb 24 c2 00 bd 4d cf 24 bb
       0.007543532 -0.006751504 -0.031435147 -0.0025147975
000340 c9 73 ce bc 93 44 3b 3c cf 40 83 bc ce fb 2b bc
       -0.025201695 0.011429924 -0.016022114 -0.010497047
000350 29 09 62 3c b9 7e af bc f2 c4 a8 bc f6 c6 02 3c
       0.013796129 -0.02142273 -0.020601723 0.007982006
000360 94 d5 b7 3c 41 12 8f bc d3 d9 38 bc f6 17 30 bc
       0.02244071 -0.017464759 -0.011282402 -0.0107479
000370 59 da 1f bd 45 1c f5 3b 82 42 94 3c b7 72 c6 ba
       -0.039026592 0.0074801766 0.01809812 -0.0015140389
000380 68 cc 0b bc fb 38 6d 3c c0 95 0c bd b8 db 2a bd
       -0.008532621 0.014478917 -0.0343225 -0.041713446
000390 1f d2 80 bb 26 da 44 bd 2c 2f 11 3c 2a bf c4 bc
       -0.0039312984 -0.048059605 0.008861344 -0.024016935
0003a0 66 95 21 3c 69 28 b5 ba e2 c9 a4 bb 23 00 ee bc
       0.0098622795 -0.0013821247 -0.005028949 -0.0290528
0003b0 c9 8c 4c ba c9 8f fa 3b bd 68 a3 bc 5b 44 f0 bb
       -0.0007802961 0.007646535 -0.019947404 -0.0073323674
0003c0 34 e5 10 bd 00 02 80 bc 6f 73 f0 bc c1 96 ff 39
       -0.035374835 -0.015625954 -0.029351918 0.0004874971
0003d0 57 bf fa bc 07 73 c0 bc 07 31 88 3c 1b 46 ee bc
       -0.030608816 -0.02349235 0.01662494 -0.029086163
0003e0 5d 46 0c bd 25 af 02 bc 7c 58 2c bd e9 25 24 3d
       -0.03424679 -0.007976328 -0.042076573 0.040075216
0003f0 70 67 11 bd 1f e2 9a 3c 07 c4 de ba 04 fe b1 39
       -0.035499036 0.018906651 -0.0016995677 0.00033949327

transformer.wpe.weight f4 [64, 64]
000000 7d 2a 1a 3c 3b 80 c1 3c 9d 5f 4f 3c ce 1c 08 bc
       0.009409544 0.023620715 0.012657073 -0.008307649
000010 e6 b3 3c bc de 40 b6 3c 72 8c 91 ba 20 e4 a4 3c
       -0.0115175005 0.022247728 -0.0011104478 0.02012831
000020 1c a7 bb 3b d6 c0 92 3c 39 af 05 bb 92 80 25 3c
       0.005726708 0.017914217 -0.002039863 0.010101454
000030 4a 42 16 bc a0 e3 25 bd 21 e2 29 bd 81 c3 59 bc
       -0.009171078 -0.040500283 -0.04147542 -0.013291241
000040 d5 eb 66 bc d6 7e a8 3c a7 c2 d3 3c 44 f8 18 ba
       -0.014094313 0.020568293 0.025849653 -0.00058353343
000050 a3 50 92 bc 95 f9 33 3c c0 5d ce bb 19 88 90 bc
       -0.017860716 0.010984798 -0.006297797 -0.017643021
000060 62 79 92 3b 69 15 77 b9 c2 e5 a5 bc 4b 77 83 3c
       0.0044700364 -0.00023563732 -0.020251159 0.016048094
000070 80 bd f3 bc ca 4f 03 bd 5d 65 a6 3c 0c aa f1 bc
       -0.029753447 -0.032058515 0.020312006 -0.02950003
000080 c6 ca b2 3b 8e 82 61 3c d5 18 e1 bc 4c fc 08 3d
       0.0054563014 0.013764037 -0.027477661 0.033443734
000090 b9 91 52 bc 91 28 93 3c 01 c7 2c bc 21 07 4e bc
       -0.012852126 0.01796368 -0.010545493 -0.012574942
0000a0 60 39 e5 3c 74 9b ac 3c dc 58 76 3c 92 5f d3 3c
       0.02798146 0.02107022 0.015035834 0.025802407
0000b0 f1 f4 03 3c 26 40 d9 3b 3b 39 94 3c 5d d7 b6 3c
       0.008054004 0.0066299615 0.018093696 0.02231949
0000c0 9c 62 de bc c3 7b ec 3b 0f 6f c5 3c d7 d5 0f bd
       -0.02714663 0.007216902 0.024100808 -0.035116043
0000d0 af 7d 6d 3b c3 82 8b bc 45 4c 29 3d 45 c1 d3 bc
       0.0036238243 -0.017030125 0.041332502 -0.025848994
0000e0 b2 79 bb 3b 37 89 fb 3a 14 ec 21 bd 1e 06 b7 3b
       0.0057212943 0.0019190673 -0.039531782 0.005585446
0000f0 5e ce 1a bc 1b 80 ce 3c 70 8c 51 bc 59 9a 88 3b
       -0.009448616 0.02520757 -0.012789831 0.0041687903
000100 35 60 ca bc e9 25 1a bb 60 c0 c0 bc e5 c7 9b bd
       -0.024704078 -0.0023521131 -0.023529232 -0.07606486
000110 3d 6f eb bb bc 1f 14 bc 75 b8 62 bd 72 14 05 bd
       -0.0071848915 -0.009040769 -0.055351693 -0.0324902
000120 aa 74 a8 3c f4 12 c9 bc e7 df 3e bb d7 09 9a bc
       0.020563442 -0.02454517 -0.0029125155 -0.01880352
000130 a5 2f ec bc 87 20 96 bc 6e 58 b9 3c 39 c6 6f 3d
       -0.028831312 -0.018326057 0.022625174 0.05853865
000140 7f 79 95 3c 33 2b ac bb dd 9e bc bc 9e a4 e4 bc
       0.01824641 -0.005254173 -0.02302497 -0.027910527
000150 b7 3d 61 3c 25 03 fc 3c 8a 4b 5f bc b4 ec 44 3c
       0.013747624 0.030763218 -0.01362885 0.012019325
000160 aa 8f 33 bd 80 c5 22 bb c2 d8 a9 3c 5b 8b a5 3a
       -0.04383818 -0.0024836957 0.020733241 0.0012630032
000170 e0 09 a0 3c 14 b3 0e bc 45 cb c6 3c 65 b5 e9 3a
       0.019535959 -0.008709688 0.024266848 0.0017830549
000180 3b d6 2a bb 94 51 e8 bc 87 4f 13 bc c9 fa 80 bc
       -0.0026067633 -0.028359212 -0.008991129 -0.015744584
000190 64 98 bb bc 6e 16 5a ba e7 82 ce 3c 3b 7e f5 b9
       -0.022899814 -0.00083193823 0.025208903 -0.0004682409
0001a0 42 87 21 bd fd 81 28 3c 8c cc e0 3c 49 f3 b1 3b
       -0.039435633 0.010284898 0.027441286 0.005430613
0001b0 96 58 ab 3c cb 99 2d 3c 6b 1d bf 3c 29 68 d6 3b
       0.020916265 0.010595749 0.023329457 0.0065431786
0001c0 74 4e 16 3c bc bb 31 bc 10 62 b5 3c 86 8d 07 3d
       0.009173978 -0.010847982 0.022141486 0.03309395
0001d0 5b 80 94 bb 83 8c 68 bc 66 35 a1 3c ff dc 9d 3c
       -0.0045319027 -0.014193657 0.019678783 0.019270418
0001e0 84 47 0c bc 87 61 e3 bc 1c 25 5e ba dd 41 b6 bb
       -0.0085619725 -0.027756466 -0.00084741577 -0.0055620507
0001f0 73 9f 5d 3a 00 89 c3 bb 98 40 85 bc b2 13 06 bc
       0.0008454241 -0.0059672594 -0.016266152 -0.008183407
000200 41 df bd ba 21 a9 5a bb 69 23 50 3d d9 84 18 bd
       -0.001448609 -0.003336497 0.05081502 -0.03723607
000210 90 c1 a7 bc 01 2b b2 bc b0 32 b5 bc 2e 15 99 3c
       -0.02047804 -0.021749021 -0.022118896 0.018686857
000220 2f d4 5c 3c 92 2f 8a bc fd 92 a7 3c fb 93 42 3b
       0.013478323 -0.016868386 0.020455832 0.0029690254
000230 79 e3 16 bd e8 6f 0c bb 62 7c 85 bc c6 84 fd 3b
       -0.03683803 -0.0021429006 -0.016294662 0.007736775
000240 7e f1 f5 3b ae 1e ab 3a d4 80 c6 3c d2 7f a3 ba
       0.0075055948 0.0013055408 0.024231352 -0.0012474007
000250 9e 3c ac bc bd cf f0 bc c0 0e dc 3c 54 7a 36 bb
       -0.021024998 -0.029395932 0.026862502 -0.002784391
000260 98 a3 01 3c 39 eb 73 ba 03 45 8b bb cc 2a dd bc
       0.007912539 -0.0009304765 -0.00425017 -0.026997946
000270 8f f8 9b 3b 69 d1 11 3d f2 10 11 bd 74 3f b0 bc
       0.004759855 0.0356001 -0.03541655 -0.021514632
000280 f0 d7 d8 bb d3 68 50 3d 8d ad 12 ba 7c eb 84 3c
       -0.0066175386 0.05088122 -0.0005595319 0.016225569
000290 de 3c fe 3c 5b 39 01 3d bd f3 98 3a 02 f3 fe bb
       0.031034883 0.03154884 0.0011669319 -0.0077804336
0002a0 92 f6 b3 3b 40 98 15 ba 52 ea 94 bc 34 15 d2 3c
       0.00549204 -0.0005706586 -0.018178139 0.025644876
0002b0 52 86 f8 bc 60 5a 9b bb eb 73 10 bc a0 df 26 3c
       -0.030337486 -0.004740998 -0.0088166995 0.010185152
0002c0 e5 9b d2 bb cf c1 fa bc 6e 86 c1 3c ae 22 99 bc
       -0.0064272755 -0.030609993 0.023623671 -0.018693294
0002d0 d7 12 94 3c e4 2f 2c bc 9d 6e 7f 3a 73 4d 5d b9
       0.01807539 -0.010509465 0.00097439607 -0.00021105054
0002e0 94 c9 56 bc e1 13 13 3a 3e 7a 84 bc ef c7 fb bb
       -0.013109583 0.0005610567 -0.01617157 -0.007683746
0002f0 d7 6d 21 bc 7c 0b 0a 3d 0f 67 bd 3b b6 23 0d bc
       -0.009852848 0.03370236 0.005780108 -0.008614471
000300 3b b3 00 3d 21 73 a8 bc f7 cc bc 3b 45 67 98 bc
       0.031420927 -0.02056271 0.0057617384 -0.01860393
000310 41 0a 26 bc 9c cb c9 bb e0 51 ea 3c 5e 99 7d bc
       -0.010134281 -0.0061583053 0.028603494 -0.01547846
000320 c4 c7 c8 3c 55 c8 3d bc 22 ac 22 3c 1e da 34 3d
       0.024509318 -0.011583407 0.009928735 0.044153325
000330 db 92 4d 3b 53 2e 91 bc d3 55 f3 3b 99 c7 87 3c
       0.003136805 -0.017722284 0.0074260025 0.016574668
000340 a9 fd 3b bb 98 c7 2e 3c 07 3a 40 bc 07 47 9e bb
       -0.0028685129 0.010667704 -0.011732585 -0.0048302445
000350 20 bd ed bc bd 7f 16 bc 87 6c 70 ba 17 fd 10 bd
       -0.029020846 -0.009185729 -0.0009171445 -0.035397615
000360 2e 20 24 3c 73 5a 32 bb 5e e3 2c bc 5e 04 2e bd
       0.010017438 -0.0027214556 -0.010552255 -0.042484634
000370 50 b3 b9 bb 88 0b 9d 3c 6b 2b fd bb ee d9 f1 3a
       -0.0056671277 0.019170538 -0.007726123 0.0018451789
000380 cc f0 11 bd 9b 25 74 bb 20 0d 40 3d fc d9 d5 bc
       -0.035630032 -0.003725386 0.046887517 -0.02610492
000390 9b e2 06 bd f7 2a e9 bc c6 61 18 bd 66 d2 39 bc
       -0.03293095 -0.02846287 -0.03720262 -0.011341667
0003a0 26 67 b1 3b a6 f8 4c bd c0 69 1e 3a 33 02 7c 3c
       0.0054139076 -0.050041817 0.00060429797 0.015381384
0003b0 40 c9 46 3c 79 1e e3 bb 04 72 98 3b 6e 8a ad 3c
       0.012132943 -0.006931123 0.0046522636 0.021184172
0003c0 3d 26 26 bb 8d fa 96 3c 92 69 29 3d 86 b0 53 3c
       -0.0025352382 0.018430019 0.041360445 0.012920504
0003d0 53 ac 91 bc 98 0f c1 bc 20 01 3b 39 b8 39 1f bc
       -0.017782366 -0.023567006 0.00017834129 -0.009718351
0003e0 23 f6 fd 3c c7 67 86 bc ae 99 a4 3b 4d 3a a7 bc
       0.031001156 -0.016406907 0.005023203 -0.020413542
0003f0 2a 69 bd 3c e7 29 80 bc 6e 39 31 3c 4f 5b fa bc
       0.023121435 -0.01564498 0.010816915 -0.030561117

transformer.h.0.ln_1.weight f4 [64]
000000 00 00 80 3f 00 00 80 3f 00 00 80 3f 00 00 80 3f
       1.0 1.0 1.0 1.0
000010 00 00 80 3f 00 00 80 3f 00 00 80 3f 00 00 80 3f
       1.0 1.0 1.0 1.0
000020 00 00 80 3f 00 00 80 3f 00 00 80 3f 00 00 80 3f
       1.0 1.0 1.0 1.0
000030 00 00 80 3f 00 00 80 3f 00 00 80 3f 00 00 80 3f
       1.0 1.0 1.0 1.0
000040 00 00 80 3f 00 00 80 3f 00 00 80 3f 00 00 80 3f
       1.0 1.0 1.0 1.0
000050 00 00 80 3f 00 00 80 3f 00 00 80 3f 00 00 80 3f
       1.0 1.0 1.0 1.0
000060 00 00 80 3f 00 00 80 3f 00 00 80 3f 00 00 80 3f
       1.0 1.0 1.0 1.0
000070 00 00 80 3f 00 00 80 3f 00 00 80 3f 00 00 80 3f
       1.0 1.0 1.0 1.0
000080 00 00 80 3f 00 00 80 3f 00 00 80 3f 00 00 80 3f
       1.0 1.0 1.0 1.0
000090 00 00 80 3f 00 00 80 3f 00 00 80 3f 00 00 80 3f
       1.0 1.0 1.0 1.0
0000a0 00 00 80 3f 00 00 80 3f 00 00 80 3f 00 00 80 3f
       1.0 1.0 1.0 1.0
0000b0 00 00 80 3f 00 00 80 3f 00 00 80 3f 00 00 80 3f
       1.0 1.0 1.0 1.0
0000c0 00 00 80 3f 00 00 80 3f 00 00 80 3f 00 00 80 3f
       1.0 1.0 1.0 1.0
0000d0 00 00 80 3f 00 00 80 3f 00 00 80 3f 00 00 80 3f
       1.0 1.0 1.0 1.0
0000e0 00 00 80 3f 00 00 80 3f 00 00 80 3f 00 00 80 3f
       1.0 1.0 1.0 1.0
0000f0 00 00 80 3f 00 00 80 3f 00 00 80 3f 00 00 80 3f
       1.0 1.0 1.0 1.0

transformer.h.0.attn.bias f4 [1, 1, 64, 64]
000000 00 00 80 3f 00 00 00 00 00 00 00 00 00 00 00 00
       1.0 0.0 0.0 0.0
000010 00 00 00 00 00 00 00 00 00 00 00 00 00 00 00 00
       0.0 0.0 0.0 0.0
000020 00 00 00 00 00 00 00 00 00 00 00 00 00 00 00 00
       0.0 0.0 0.0 0.0
000030 00 00 00 00 00 00 00 00 00 00 00 00 00 00 00 00
       0.0 0.0 0.0 0.0
000040 00 00 00 00 00 00 00 00 00 00 00 00 00 00 00 00
       0.0 0.0 0.0 0.0
000050 00 00 00 00 00 00 00 00 00 00 00 00 00 00 00 00
       0.0 0.0 0.0 0.0
000060 00 00 00 00 00 00 00 00 00 00 00 00 00 00 00 00
       0.0 0.0 0.0 0.0
000070 00 00 00 00 00 00 00 00 00 00 00 00 00 00 00 00
       0.0 0.0 0.0 0.0
000080 00 00 00 00 00 00 00 00 00 00 00 00 00 00 00 00
       0.0 0.0 0.0 0.0
000090 00 00 00 00 00 00 00 00 00 00 00 00 00 00 00 00
       0.0 0.0 0.0 0.0
0000a0 00 00 00 00 00 00 00 00 00 00 00 00 00 00 00 00
       0.0 0.0 0.0 0.0
0000b0 00 00 00 00 00 00 00 00 00 00 00 00 00 00 00 00
       0.0 0.0 0.0 0.0
0000c0 00 00 00 00 00 00 00 00 00 00 00 00 00 00 00 00
       0.0 0.0 0.0 0.0
0000d0 00 00 00 00 00 00 00 00 00 00 00 00 00 00 00 00
       0.0 0.0 0.0 0.0
0000e0 00 00 00 00 00 00 00 00 00 00 00 00 00 00 00 00
       0.0 0.0 0.0 0.0
0000f0 00 00 00 00 00 00 00 00 00 00 00 00 00 00 00 00
       0.0 0.0 0.0 0.0
000100 00 00 80 3f 00 00 80 3f 00 00 00 00 00 00 00 00
       1.0 1.0 0.0 0.0
000110 00 00 00 00 00 00 00 00 00 00 00 00 00 00 00 00
       0.0 0.0 0.0 0.0
000120 00 00 00 00 00 00 00 00 00 00 00 00 00 00 00 00
       0.0 0.0 0.0 0.0
000130 00 00 00 00 00 00 00 00 00 00 00 00 00 00 00 00
       0.0 0.0 0.0 0.0
000140 00 00 00 00 00 00 00 00 00 00 00 00 00 00 00 00
       0.0 0.0 0.0 0.0
000150 00 00 00 00 00 00 00 00 00 00 00 00 00 00 00 00
       0.0 0.0 0.0 0.0
000160 00 00 00 00 00 00 00 00 00 00 00 00 00 00 00 00
       0.0 0.0 0.0 0.0
000170 00 00 00 00 00 00 00 00 00 00 00 00 00 00 00 00
       0.0 0.0 0.0 0.0
000180 00 00 00 00 00 00 00 00 00 00 00 00 00 00 00 00
       0.0 0.0 0.0 0.0
000190 00 00 00 00 00 00 00 00 00 00 00 00 00 00 00 00
       0.0 0.0 0.0 0.0
0001a0 00 00 00 00 00 00 00 00 00 00 00 00 00 00 00 00
       0.0 0.0 0.0 0.0
0001b0 00 00 00 00 00 00 00 00 00 00 00 00 00 00 00 00
       0.0 0.0 0.0 0.0
0001c0 00 00 00 00 00 00 00 00 00 00 00 00 00 00 00 00
       0.0 0.0 0.0 0.0
0001d0 00 00 00 00 00 00 00 00 00 00 00 00 00 00 00 00
       0.0 0.0 0.0 0.0
0001e0 00 00 00 00 00 00 00 00 00 00 00 00 00 00 00 00
       0.0 0.0 0.0 0.0
0001f0 00 00 00 00 00 00 00 00 00 00 00 00 00 00 00 00
       0.0 0.0 0.0 0.0
000200 00 00 80 3f 00 00 80 3f 00 00 80 3f 00 00 00 00
       1.0 1.0 1.0 0.0
000210 00 00 00 00 00 00 00 00 00 00 00 00 00 00 00 00
       0.0 0.0 0.0 0.0
000220 00 00 00 00 00 00 00 00 00 00 00 00 00 00 00 00
       0.0 0.0 0.0 0.0
000230 00 00 00 00 00 00 00 00 00 00 00 00 00 00 00 00
       0.0 0.0 0.0 0.0
000240 00 00 00 00 00 00 00 00 00 00 00 00 00 00 00 00
       0.0 0.0 0.0 0.0
000250 00 00 00 00 00 00 00 00 00 00 00 00 00 00 00 00
       0.0 0.0 0.0 0.0
000260 00 00 00 00 00 00 00 00 00 00 00 00 00 00 00 00
       0.0 0.0 0.0 0.0
000270 00 00 00 00 00 00 00 00 00 00 00 00 00 00 00 00
       0.0 0.0 0.0 0.0
000280 00 00 00 00 00 00 00 00 00 00 00 00 00 00 00 00
       0.0 0.0 0.0 0.0
000290 00 00 00 00 00 00 00 00 00 00 00 00 00 00 00 00
       0.0 0.0 0.0 0.0
0002a0 00 00 00 00 00 00 00 00 00 00 00 00 00 00 00 00
       0.0 0.0 0.0 0.0
0002b0 00 00 00 00 00 00 00 00 00 00 00 00 00 00 00 00
       0.0 0.0 0.0 0.0
0002c0 00 00 00 00 00 00 00 00 00 00 00 00 00 00 00 00
       0.0 0.0 0.0 0.0
0002d0 00 00 00 00 00 00 00 00 00 00 00 00 00 00 00 00
       0.0 0.0 0.0 0.0
0002e0 00 00 00 00 00 00 00 00 00 00 00 00 00 00 00 00
       0.0 0.0 0.0 0.0
0002f0 00 00 00 00 00 00 00 00 00 00 00 00 00 00 00 00
       0.0 0.0 0.0 0.0
000300 00 00 80 3f 00 00 80 3f 00 00 80 3f 00 00 80 3f
       1.0 1.0 1.0 1.0
000310 00 00 00 00 00 00 00 00 00 00 00 00 00 00 00 00
       0.0 0.0 0.0 0.0
000320 00 00 00 00 00 00 00 00 00 00 00 00 00 00 00 00
       0.0 0.0 0.0 0.0
000330 00 00 00 00 00 00 00 00 00 00 00 00 00 00 00 00
       0.0 0.0 0.0 0.0
000340 00 00 00 00 00 00 00 00 00 00 00 00 00 00 00 00
       0.0 0.0 0.0 0.0
000350 00 00 00 00 00 00 00 00 00 00 00 00 00 00 00 00
       0.0 0.0 0.0 0.0
000360 00 00 00 00 00 00 00 00 00 00 00 00 00 00 00 00
       0.0 0.0 0.0 0.0
000370 00 00 00 00 00 00 00 00 00 00 00 00 00 00 00 00
       0.0 0.0 0.0 0.0
000380 00 00 00 00 00 00 00 00 00 00 00 00 00 00 00 00
       0.0 0.0 0.0 0.0
000390 00 00 00 00 00 00 00 00 00 00 00 00 00 00 00 00
       0.0 0.0 0.0 0.0
0003a0 00 00 00 00 00 00 00 00 00 00 00 00 00 00 00 00
       0.0 0.0 0.0 0.0
0003b0 00 00 00 00 00 00 00 00 00 00 00 00 00 00 00 00
       0.0 0.0 0.0 0.0
0003c0 00 00 00 00 00 00 00 00 00 00 00 00 00 00 00 00
       0.0 0.0 0.0 0.0
0003d0 00 00 00 00 00 00 00 00 00 00 00 00 00 00 00 00
       0.0 0.0 0.0 0.0
0003e0 00 00 00 00 00 00 00 00 00 00 00 00 00 00 00 00
       0.0 0.0 0.0 0.0
0003f0 00 00 00 00 00 00 00 00 00 00 00 00 00 00 00 00
       0.0 0.0 0.0 0.0

onnx::MatMul_589 f4 [64, 192]
000000 96 12 80 bc 3d 40 a0 3c 62 05 f4 3c 41 c7 b4 3b
       -0.015633862 0.019561881 0.029787723 0.005516917
000010 a4 54 67 3c 76 92 80 ba ab a8 81 3c d9 20 38 3c
       0.014119301 -0.0009809274 0.015827497 0.0112383
000020 c9 45 9a bb d4 59 05 bd ed 60 bf 3c 02 75 76 ba
       -0.004708026 -0.03255637 0.023361648 -0.0009401591
000030 97 e0 3b 3c 51 c8 8f 3b 76 bb 0f bb 03 a7 13 bd
       0.011467121 0.0043878932 -0.0021931804 -0.036047947
000040 02 22 82 bc d1 ae 8c bb 52 85 34 bd a9 dd 30 bc
       -0.015885357 -0.0042933007 -0.044072457 -0.010795035
000050 58 16 be bc c9 c3 27 3c 2f d0 fb ba 9d c9 cb 3c
       -0.023204014 0.01023955 -0.0019211824 0.02487641
000060 78 43 59 bc 6d fb 1d bc 61 a4 6d 3c ae a9 ce b9
       -0.013260715 -0.009642464 0.014504523 -0.00039417803
000070 4e 54 2b 3b fb 3a 68 bc be a6 cb bc 66 16 e9 3c
       0.0026142779 -0.014174218 -0.024859782 0.028453063
000080 2e 89 dc bb 67 2f c2 ba e2 b3 4c 3a 26 f6 a5 bc
       -0.0067302203 -0.0014815152 0.0007808787 -0.020258974
000090 5a 02 8a 3c f0 b6 38 3c 50 2c c8 3c 00 39 a0 bc
       0.016846824 0.011274084 0.024435192 -0.01955843
0000a0 38 da 7a bc c6 6c 19 bd d0 0f ba bc 85 b8 0f bd
       -0.0153108165 -0.03745725 -0.022712618 -0.03508808
0000b0 47 f1 60 3c 21 3a c1 3c 7e 5d fa 3c 8c f7 79 bb
       0.0137294 0.023587288 0.030562159 -0.0038141934
0000c0 69 4a 44 3d c2 2f a9 3c d3 11 58 3c 0f 4b fd bb
       0.047922526 0.020652656 0.013187843 -0.007729895
0000d0 2d dc 27 bc f2 6b df 39 cc 50 01 bd 7d 07 9f bb
       -0.010245365 0.000426143 -0.031571195 -0.0048531876
0000e0 f3 cc a7 3b 80 d9 c3 bb cb 46 34 3d 8a e2 4d 3c
       0.0051208674 -0.0059768558 0.044012826 0.012566218
0000f0 2b ad 76 3b 2a 6b 7c 3c 66 b3 0b bc f1 11 99 3b
       0.0037639837 0.015406409 -0.008526659 0.0046713282
000100 f2 93 bb 3c b4 f5 4c bd fd 61 74 3c 53 07 6c 3c
       0.022897694 -0.05003901 0.01491594 0.014406043
000110 1d 71 91 bc 35 ee ca bc 24 2f 92 bc 12 9b 10 3c
       -0.017754132 -0.02477179 -0.017844744 0.008826034
000120 64 01 99 3c 07 53 30 bc 3d 24 91 3b 39 04 36 3c
       0.01867742 -0.010761983 0.004429369 0.011109405
000130 87 21 0e 3d e7 29 32 3c 8e 99 ee 3c c0 ce 94 bc
       0.034699943 0.010874248 0.029125955 -0.018164992
000140 5c 0c be bc 2f c8 f8 bc af ed 54 3d 7e 59 c7 3c
       -0.023199253 -0.030368892 0.051984485 0.024334665
000150 6b 9d a8 bc 20 31 5a 3c b8 fd b4 3b c0 8f c8 bc
       -0.020582875 0.013317376 0.0055234097 -0.024482608
000160 8a 37 8f bb 22 fe 68 bc 23 a5 ee bb 0d 82 86 3c
       -0.0043706344 -0.014220746 -0.0072828694 0.016419435
000170 98 14 3d 3c 9a 75 17 3b c8 ca 90 3b 09 bb 79 3c
       0.011540554 0.0023110867 0.0044187047 0.015242347
000180 54 e2 6c b9 c3 a1 76 bc 01 b9 3b 3c 30 dd 37 3d
       -0.00022591028 -0.015053215 0.011457683 0.044888675
000190 59 10 cd bb e5 30 f6 bc 84 71 82 bb 16 00 03 bc
       -0.0062580523 -0.030052612 -0.0039808173 -0.007995626
0001a0 5e 6c 99 bb 4a 36 b8 3c cb c0 a0 3c 89 94 81 3b
       -0.004682108 0.022486825 0.01962318 0.0039544743
0001b0 c5 56 7d 3c fd 4e 74 3c ec b7 ce 39 f2 1a 42 bc
       0.015462582 0.01491141 0.00039428414 -0.011847245
0001c0 41 c9 15 3d 48 65 18 3c 4b 95 02 3c 2b 2c a9 bc
       0.036568884 0.009301491 0.0079701645 -0.020650944
0001d0 fc 22 24 bd ce 4e 9f ba c1 74 df bb 21 17 7e bc
       -0.040072426 -0.0012154223 -0.006819338 -0.015508444
0001e0 d7 2b 04 bd b3 48 4b bc 6e 2e 9a bc c7 6f 6e bc
       -0.03226837 -0.01240747 -0.018820968 -0.014553017
0001f0 96 16 8a bc b2 83 35 bd cf b9 45 bc d2 38 67 3c
       -0.016856473 -0.044315048 -0.012068226 0.014112668
000200 c5 d4 0c 3a 8f 1d 8d bc 85 90 02 bd d2 1b 23 3d
       0.00053722813 -0.017226009 -0.031876106 0.039821453
000210 a7 f6 81 3c ea ae f6 bb b7 47 5e bc f4 25 4f 3c
       0.015864683 -0.0075281756 -0.013566903 0.012643326
000220 3a 66 21 3d 79 09 9b bb 84 66 d7 3c 06 76 08 bd
       0.03940413 -0.004731354 0.026294 -0.03331568
000230 56 35 1d 3c ad f5 ca 3c 1c 32 c4 3b c1 30 f3 3c
       0.009595236 0.02477535 0.005987419 0.029686334
000240 80 3d 48 bb d2 8a 85 ba c9 69 2c 3c b0 64 82 bc
       -0.0030554235 -0.0010188466 0.010523268 -0.015917152
000250 22 68 19 bd b2 7e 51 bb 99 cb da 3a fb 1b 10 bd
       -0.037452824 -0.0031966385 0.0016692757 -0.035182934
000260 c0 c0 b4 3c 94 c9 09 3c c3 9b 7d bc 18 b3 90 bb
       0.022064567 0.008409876 -0.015479031 -0.004415881
000270 c7 1b f4 bc 54 0b 57 3c 06 a9 fb 3c ee d4 2c 3c
       -0.029798402 0.013125259 0.030720245 0.010548813
000280 52 b5 a6 bc 84 9c 0b bd 29 8b d0 3c 2d 3c 3a bc
       -0.020350132 -0.03408481 0.025456982 -0.011366886
000290 97 b4 55 bc 3a f4 0d bc 0c 50 a3 bc 49 c4 3c 3c
       -0.013043544 -0.008664185 -0.01993563 0.011521407
0002a0 12 3b 05 3d 2c 98 91 bb c0 1e 05 bd 3a 51 a2 3b
       0.032527037 -0.004443189 -0.03250003 0.0049535306
0002b0 0e 95 bb 3c 21 68 fa 3c 89 d4 76 3c 93 6f 76 bc
       0.022898223 0.03056723 0.015065321 -0.01504125
0002c0 c4 f5 59 3c fd 89 13 3d b2 83 93 bc a2 bb be bb
       0.013303224 0.036020268 -0.018007133 -0.0058207074
0002d0 69 25 f2 bc 20 4a 4f bc 2f 6d 5e 3c 72 c2 0d 3b
       -0.029558854 -0.01265195 0.013575836 0.002163079
0002e0 bf ed 03 bc c2 19 e2 bc ab 6e c5 bc bc e0 6e bc
       -0.008052289 -0.027600173 -0.024100622 -0.014579948
0002f0 d6 22 15 3d d7 5a 94 3c 19 23 8b 3c 50 9a 21 bc
       0.036410175 0.018109722 0.01698451 -0.009863451
000300 9b d0 04 bc fd 7f 74 3c 13 dd 7c bc df 7f 9e 3c
       -0.008106376 0.014923093 -0.015433568 0.019348083
000310 d4 a7 a4 3b e1 48 1f 3c e7 9f 95 3c 9e 72 0f 3d
       0.0050248895 0.0097219655 0.018264724 0.035021417
000320 73 e2 2d 3c 02 f0 0f 3d 35 e6 d6 3c 07 e8 07 bc
       0.010613072 0.035141 0.026232818 -0.008295066
000330 4b 56 74 b9 b9 e9 c0 3c 38 61 ea bb 24 bb 14 bb
       -0.000233018 0.023548948 -0.0071527027 -0.0022694552
000340 dc b4 3f bb 62 c5 0f bc e7 21 97 3c 6b 4a a5 bb
       -0.0029252088 -0.008775087 0.018448783 -0.0050442717
000350 d3 30 3a bd be 05 1d bd c0 79 31 3c 4c e8 e3 3c
       -0.04545672 -0.038335554 0.01083225 0.027820729
000360 80 dc 6d bd 41 c3 32 3c fe 81 7c bc 59 40 6a bb
       -0.058071613 0.01091081 -0.015411852 -0.003574392
000370 97 14 bd bc 0e c3 a6 bb c0 f8 73 bc c4 d5 d9 bc
       -0.023081107 -0.0050891703 -0.01489085 -0.02659119
000380 ef f7 80 bc fd 60 be 3a a8 72 01 bd 76 bb 98 3c
       -0.015743224 0.0014524754 -0.031603485 0.018644076
000390 1c b1 e5 bb b8 64 72 3c 1c fa ce 3b 59 a0 6e 3c
       -0.0070096385 0.014794521 0.0063164365 0.014564597
0003a0 42 c0 31 3c d4 1d 4a bc 38 2d df 3b af 84 93 bb
       0.0108490605 -0.012336213 0.0068108104 -0.004501901
0003b0 dc 46 e3 bb 0e 74 88 bc e2 5b 0a bc 8e f2 39 3d
       -0.0069359373 -0.016656902 -0.008444758 0.045397334
0003c0 80 ef 04 bd 46 0c 95 3b 67 dc ba bc ce 25 1b bd
       -0.032454967 0.0045485822 -0.022810174 -0.03787785
0003d0 80 e3 b8 38 26 b3 27 bd 02 fe 27 bc 76 54 0b 3d
       8.816179e-05 -0.040942334 -0.010253431 0.034016095
0003e0 10 15 3a 3c 27 d5 5c bc 75 2b 46 ba d9 9a 95 3c
       0.011357561 -0.013478554 -0.0007559576 0.018262314
0003f0 42 82 e6 bc a7 ed c9 bb 44 bc d7 bb 30 68 b0 3b
       -0.028138284 -0.0061623636 -0.0065837223 0.005383514

onnx::MatMul_599 f4 [64, 64]
000000 8f 7d f9 3a 22 d9 c9 bb 1d 82 51 39 84 c8 11 bc
       0.0019034612 -0.0061599175 0.00019980264 -0.008897904
000010 ef 0a cb 3b 84 31 5c 3b 6d d8 e6 3b 44 ef 50 3b
       0.0061963717 0.003359885 0.007044843 0.0031880895
000020 b4 08 8b bb ba af 0b bc 89 8d a2 bb ec 55 7d bb
       -0.004242981 -0.008525783 -0.00496072 -0.003865595
000030 c4 49 5a 3c 80 52 a0 bb 17 9f 96 3b 19 83 6a 3a
       0.013323251 -0.0048926473 0.0045966017 0.00089459267
000040 7c 64 c3 3b 0c 03 7b 3b df ce a3 bb c4 dd ed 39
       0.0059629064 0.0038301377 -0.004999026 0.0004536939
000050 92 7c 65 39 43 00 86 3b 26 94 16 3b 60 46 8b bb
       0.00021885548 0.0040893867 0.0022976487 -0.0042503327
000060 35 63 25 3b 0f 09 05 bc c5 04 06 bc 7e ba a0 3b
       0.0025236134 -0.0081198355 -0.008179848 0.004905044
000070 cd 33 3e 3b 82 af 35 3b dc f8 fc bb 14 87 9e 37
       0.0029022575 0.002772302 -0.007720096 1.8897968e-05
000080 04 e7 c4 bb ac b1 13 3a d9 65 42 3b 01 ed d6 bb
       -0.0060089845 0.000563408 0.0029662757 -0.006559015
000090 de 5c 1a 3c b9 2b d3 3b 94 23 42 39 4b a6 28 bc
       0.009421555 0.006444421 0.00018514536 -0.010293554
0000a0 2b a6 47 3b 69 b5 05 3c 9f 0c 18 bc 93 12 94 ba
       0.0030464034 0.008160927 -0.009280353 -0.001129704
0000b0 52 f3 5b bb 15 24 2f bc 4b b2 03 bc 69 ce 09 ba
       -0.0033561778 -0.010689755 -0.008038114 -0.0005256893
0000c0 98 47 69 bb ed f1 04 bc 45 8c 87 3b 71 11 b5 3b
       -0.0035595652 -0.00811432 0.0041365945 0.005525761
0000d0 48 15 b2 bb cc 48 6a bc 32 67 b6 bb 5f cf 97 ba
       -0.005434666 -0.014299583 -0.005566501 -0.0011582187
0000e0 85 a4 26 3b dd e0 22 3b ba 73 b8 3a 02 c2 8c bc
       0.002542765 0.0024853267 0.0014072575 -0.017182354
0000f0 60 7b 49 3b 91 cd bd 3b cc 26 24 3c a4 d4 8d 3b
       0.0030743703 0.0057923277 0.0100190155 0.0043283273
000100 5c 57 cf 3a f5 71 ad ba 5a 0e a4 bb 53 dc 1d 3b
       0.0015818882 -0.0013232814 -0.0050065937 0.0024087622
000110 1f 03 8b bc a9 56 1d bc 7f 54 0c 3c ce 0b 83 bb
       -0.016969262 -0.009603181 0.008565067 -0.00399921
000120 be 02 85 bb 29 aa b7 ba 3c 40 50 3c b5 79 90 3b
       -0.004059165 -0.0014012504 0.012710627 0.00440904
000130 c0 1c ad bb d1 6d 48 bb 0d cc 0c 3c 02 e7 88 3b
       -0.0052829683 -0.0030583034 0.008593571 0.004177929
000140 58 cd 75 bb ac 86 d3 bb 97 6a 24 bc c9 ba 5a 3b
       -0.0037506428 -0.006455263 -0.010035179 0.0033375493
000150 cf 4e 60 b9 8a bc 68 bc 47 a1 02 3b e9 5c 2a bb
       -0.00021391663 -0.014205107 0.0019932555 -0.002599532
000160 fa 94 a4 ba b5 a1 9b bb 09 b6 57 bb 9b d5 78 bb
       -0.0012556606 -0.0047495016 -0.0032914898 -0.0037969116
000170 cc a8 dd 3b 27 0f e9 3b 02 fc a9 3c 49 62 87 b9
       0.006764507 0.007112402 0.02075005 -0.00025822435
000180 73 36 05 3c ba de 7d 3b 5c c1 82 bb 84 bc 2f 3b
       0.0081306575 0.0038737492 -0.0039903354 0.0026815245
000190 ff 60 04 3c f2 f0 34 bc 6f 74 d4 b9 a8 ad 4e bc
       0.008079766 -0.011043774 -0.0004052254 -0.012614645
0001a0 25 86 f8 ba 26 af 3c 3b 65 01 51 bb 8b 28 58 3c
       -0.0018960877 0.002879092 -0.00318917 0.01319326
0001b0 5e d1 ba 3b 9b 8d fa bb 1d ac f6 bb 04 65 3a 3b
       0.005701228 -0.007646275 -0.0075278417 0.0028441558
0001c0 91 f2 e3 b9 d4 95 73 3b d7 89 29 b9 95 36 c1 3b
       -0.0004347754 0.0037168162 -0.00016168445 0.0058963993
0001d0 12 ec 83 3b 01 c6 a4 bb f7 f8 c3 3b bd dd 50 bc
       0.0040259445 -0.0050284867 0.0059806067 -0.012748179
0001e0 24 78 8e bb 54 f7 a9 3a db 6f de 3a ce 8e 4c 3b
       -0.004347818 0.0012967386 0.0016970591 0.0031213048
0001f0 4d 69 37 3c 55 06 02 3c 2e 0c bf ba 86 be 48 3a
       0.011194539 0.00793608 -0.0014575773 0.0007657785
000200 05 67 6d 3c 3d ab 01 3c 9e 9d 9b 3b 67 fa 8c bb
       0.014489894 0.007914362 0.004749014 -0.004302311
000210 33 73 e6 3b fe 75 37 3a 72 4b 39 3b 1a af bc 3a
       0.007032776 0.0006998478 0.0028273729 0.0014395446
000220 2e 50 cd bb 2e 59 87 3b b9 d9 8f 3a 22 4f f3 bb
       -0.0062656617 0.004130504 0.0010974921 -0.007425205
000230 11 07 43 bc b9 81 95 3a 4d 1b 39 3c 66 c6 95 3b
       -0.01190354 0.0011406458 0.011298013 0.00457077
000240 fa d2 3b 3c 87 76 1c b8 3a 93 99 bb 8d c3 f3 ba
       0.011463875 -3.7303686e-05 -0.00468674 -0.0018597707
000250 dd 67 12 3c ce f8 1a bc 65 d7 5d bc a8 75 15 3c
       0.008935896 -0.009458734 -0.013540124 0.00912229
000260 ee 22 1c bc d4 39 8f bb a8 a7 13 3c 01 09 99 ba
       -0.009529812 -0.0043709073 0.00901214 -0.0011675657
000270 f9 66 ee 3b 9a 79 31 bc 68 35 e9 b9 af ed f8 bb
       0.007275459 -0.010832215 -0.00044481014 -0.0075966935
000280 ea c7 fb bb 98 f6 b9 ba 71 d6 a6 3a 52 44 16 ba
       -0.0076837437 -0.001418787 0.0012728703 -0.00057322264
000290 f6 5e 11 bc e2 49 54 3c e4 4f 0b 3c e6 5a 84 ba
       -0.008872738 0.012957068 0.008502934 -0.0010097891
0002a0 41 bf 0f 3c 46 19 8c 3b d1 fb fb 3b 7a be 3e bc
       0.008773626 0.0042754738 0.007689931 -0.011642093
0002b0 22 18 ae bb 29 9d 89 bb 71 9f aa bb 8b 13 9d bb
       -0.0053129354 -0.004199643 -0.005206995 -0.0047935895
0002c0 80 ca 32 bc 28 7c 42 ba 58 ea f3 3a b4 3f 81 3b
       -0.010912538 -0.00074190134 0.0018609269 0.0039443616
0002d0 6c 97 36 bb 9f 6e 76 3a c1 b5 59 bc 1f 81 f1 3b
       -0.002786125 0.0009400639 -0.013287962 0.0073701288
0002e0 dd 93 a8 3b bd a4 bc bb 86 2f d8 3b 62 79 03 b9
       0.00514458 -0.005756943 0.006597462 -0.00012538352
0002f0 e4 ca 02 bc 1a 23 f3 ba 85 48 33 3b 2e a6 44 3c
       -0.007982943 -0.001854989 0.0027356457 0.012002511
000300 88 51 b1 3b ed 18 63 bb f4 cb 91 39 6c a0 0f bb
       0.0054113306 -0.0034652308 0.00027808512 -0.0021915687
000310 ad f2 ea 3b e0 ed 35 3c fd 05 b1 bb 30 59 8e 3a
       0.0071700425 0.011104077 -0.005402325 0.001086032
000320 2c 57 b6 3b c6 69 00 3c d1 93 17 bb 1d 69 17 3a
       0.005564591 0.007837718 -0.0023128877 0.0005775856
000330 c7 63 87 bb 5b 8d cc 3b cf a1 75 bb 9b 44 a9 3b
       -0.0041317674 0.006242437 -0.0037480479 0.005165649
000340 9c 05 d2 bb ce 2b 64 ba 97 91 9e bb 98 4b 5e bb
       -0.00640936 -0.0008704037 -0.004839133 -0.003391957
000350 28 c0 2d bc 0b e9 3e bb 50 fa 1b bc 91 98 5d 3c
       -0.010604896 -0.0029130604 -0.009520128 0.013525144
000360 3c fa e8 bb 95 12 9f 3a c7 83 e3 3b b5 34 87 3b
       -0.0071099084 0.0012136275 0.0069431993 0.004126156
000370 a7 26 fd 3b ee d7 b0 3a 2e b4 45 bb a0 aa b6 bb
       0.007725555 0.0013492086 -0.003016721 -0.0055745393
000380 59 82 25 ba c2 e2 0a 3c 7e 65 b7 3b e5 44 10 bb
       -0.0006313674 0.008476915 0.0055968156 -0.002201372
000390 a5 4c 36 3b b6 c9 a1 bb c9 49 7a 3c 1c 9e c8 ba
       0.002781668 -0.004937376 0.015276381 -0.0015305909
0003a0 ad 02 3c bb 55 d0 80 bb 37 87 98 3b f6 9a 91 bb
       -0.0028688118 -0.003931085 0.0046547907 -0.0044435216
0003b0 a2 76 e5 bb 86 45 cc ba d4 ad 7b 3a 9a 5a 91 3c
       -0.0070026675 -0.0015584684 0.00096007925 0.017743398
0003c0 b3 0c 99 3b 74 55 50 bc 94 4d 27 ba 16 61 33 3b
       0.0046707033 -0.012715686 -0.00063821045 0.00273711
0003d0 8c 8a 11 3c 99 15 4d bb df 31 14 3c 52 de bf 3a
       0.00888313 -0.003129339 0.009045093 0.00146384
0003e0 2b 10 14 3c 74 91 5b 3c d5 18 05 bc 86 17 b0 3b
       0.009037058 0.013401378 -0.008123596 0.005373898
0003f0 31 7c 46 3c 30 09 e3 ba 06 57 6c bb 4e 06 bb ba
       0.0121145705 -0.0017321464 -0.0036062612 -0.0014268847

onnx::MatMul_600 f4 [64, 256]
000000 34 e0 2c bc b4 cf 0a 3b 18 ce e8 bb 75 dc db ba
       -0.010551501 0.002118093 -0.0071046464 -0.0016774075
000010 db ec d7 bb 42 aa ba 3a 22 16 50 3d 2a 24 b9 bc
       -0.0065895147 0.0014241415 0.050802357 -0.022600252
000020 7c 80 65 3b 67 be da bb b2 20 f9 3b ea 38 7c bb
       0.003501921 -0.0066755298 0.0076027745 -0.0038486072
000030 93 11 b6 3b b3 26 0e 3b c1 e9 bf 3b ee 21 55 3c
       0.005556294 0.0021690547 0.005856723 0.013008578
000040 54 5c bf 3c ce 69 18 3d b0 aa 99 3c ad 3d c9 bb
       0.023359455 0.03721028 0.018758148 -0.0061413855
000050 a9 91 f9 3c 1d d5 0b bd 27 be 41 3c 60 15 76 3b
       0.030464964 -0.034138788 0.011825121 0.0037549362
000060 b0 77 ee bb e9 45 5e 3d 39 72 b9 3c a6 57 6a bb
       -0.0072774515 0.05426589 0.022637473 -0.003575781
000070 d5 29 bf bc 07 85 e6 bb 40 e1 42 3c 61 46 bc bb
       -0.023335377 -0.007034901 0.011894524 -0.0057456945
000080 c7 79 30 bd fc 45 c6 3c 30 50 9c 3c e4 ba 92 3c
       -0.043084886 0.024203293 0.019081205 0.017911382
000090 15 0d 55 ba 60 86 85 bc 9e 1b 26 3d 5d 34 2d bc
       -0.00081272546 -0.016299427 0.04055368 -0.010571566
0000a0 1c 41 75 3a 60 7b 0b bc 64 c2 16 3c 27 81 e6 3a
       0.00093557104 -0.008513302 0.00920162 0.0017586098
0000b0 53 27 6a 3c 4e 00 98 b9 1d 51 3b 3b c2 30 ed bc
       0.014291602 -0.00028991926 0.0028582283 -0.028953914
0000c0 af f4 8c 3c d0 a2 2d 3c 41 fe 77 bc 89 ec b3 3c
       0.017206518 0.0105979 -0.015136302 0.021963375
0000d0 f0 a9 00 bd d2 47 0a bd d0 97 e6 ba 4f c7 32 bb
       -0.031412065 -0.0337599 -0.0017592851 -0.0027279442
0000e0 56 bf 81 3c 61 b9 05 3d 54 84 84 3b d9 c3 bf 3c
       0.015838306 0.032647494 0.004044095 0.023408817
0000f0 bc 97 40 3d ec 83 e6 b8 70 4d 0d bc 61 c5 6f bb
       0.047019705 -0.00010991827 -0.00862442 -0.0036586153
000100 58 eb 77 bc fb 9a 1b 3b c2 5b 05 bd 17 bc 08 3d
       -0.015131794 0.0023743499 -0.03255821 0.0333825
000110 07 50 8c 3c ad b3 0d bb 29 e3 02 bb c0 8e 5c ba
       0.017128004 -0.0021621988 -0.0019971824 -0.00084136054
000120 54 a3 15 3d 7a 69 01 bd 1a 7f a1 3a 8d 6a 36 bb
       0.036532715 -0.03159473 0.0012321204 -0.0027834505
000130 ab 92 71 bc ee 87 1a 3d 77 2b b8 bc 8e 81 6d 3d
       -0.014744441 0.03772729 -0.022481663 0.05798488
000140 78 b6 33 3c a3 c1 ef bc fe c6 e8 3c 70 58 bc 3c
       0.010968797 -0.029267138 0.0284152 0.022991389
000150 d2 e9 9c bc 39 47 a5 3c 3d 81 5f 3d ec 87 0b 3c
       -0.019154463 0.020175563 0.05456661 0.008516293
000160 c2 3a 97 bc 86 e8 8b bb aa a1 88 3c 27 f9 df bc
       -0.018460635 -0.0042696623 0.01667865 -0.027340485
000170 b7 7b b6 bc 38 db b6 3c 3e 68 36 3d 2f f2 60 3a
       -0.022275789 0.022321329 0.044533007 0.000858101
000180 1c 78 c6 bc 23 d4 8d bc 37 8c 8d 3c 20 13 a9 bb
       -0.024227194 -0.017313069 0.017278774 -0.0051597506
000190 e4 f2 b8 3c d9 19 15 3b 5d 88 59 3a 1d 34 1e 3c
       0.022576757 0.0022751002 0.0008298213 0.009655979
0001a0 94 55 49 3c b0 0a 01 bc b2 89 65 bc e9 4a 96 3b
       0.01228847 -0.007876083 -0.01400988 0.0045865667
0001b0 bc 3f 20 3b ae 3b b2 3c e5 79 cf 3a cd 27 92 3b
       0.002445205 0.021756973 0.0015829174 0.004460311
0001c0 40 fd e3 3c 3f cb 90 bc 4e 5f 4f 3c e7 c7 88 3c
       0.02783072 -0.01767504 0.012657 0.016696883
0001d0 4e 6b e7 bc f4 93 05 bc 32 8a 01 3d d7 52 d3 3c
       -0.028249409 -0.008152951 0.031625934 0.025796337
0001e0 01 49 aa bc 21 ce 7d 3c b0 fe bb bc 32 b2 22 bd
       -0.020786764 0.0154910395 -0.022948593 -0.03972072
0001f0 b5 70 09 bc d7 68 0f 3d 80 32 95 3c 47 0e 42 bc
       -0.008388688 0.035012092 0.018212557 -0.011844224
000200 5d be dd bc 24 40 5a bc f7 7d d5 ba 10 9d 00 bc
       -0.027068311 -0.013320956 -0.0016288151 -0.007849947
000210 66 cc 60 3c e1 40 0b bc 2b a8 c6 bc ef 1a b5 bc
       0.013720607 -0.008499355 -0.02425011 -0.02210757
000220 12 4d 64 bb f0 75 0a bd 39 9c 0f 3c 77 c9 b5 3a
       -0.0034835977 -0.03380388 0.008765274 0.0013869245
000230 79 89 cf bc 73 a4 a4 bc 2d 04 b7 bc 72 85 e2 bb
       -0.025334107 -0.020097947 -0.022340858 -0.0069128806
000240 9b bf fc 3c 38 65 54 bc 80 6b 25 bc 7e 53 20 3d
       0.030853083 -0.012963586 -0.010096431 0.039142124
000250 f4 ac 5a 3c ab 51 2b 3c cf a6 1c 3b 64 bb 98 3c
       0.013346899 0.010456483 0.0023903137 0.018644042
000260 f0 50 0a bd 96 99 82 bb 26 19 e1 bc 19 d4 a9 3c
       -0.033768594 -0.003985594 -0.027477812 0.020731019
000270 62 87 0b bd 56 e6 23 bd 7c 38 78 bc 4d ba b8 bc
       -0.034064658 -0.040014587 -0.015150186 -0.022549773
000280 35 6c e3 3c 58 7f c5 bb d5 76 e9 3c 6a 7f 28 3c
       0.027761558 -0.0060271434 0.028499046 0.010284284
000290 0f 52 5e ba e6 5a cc bc a2 8a 21 3c 7d 5b c7 bc
       -0.00084808556 -0.024945688 0.009859713 -0.024335617
0002a0 80 b0 ac 3a 07 f1 d2 bc 1c 0a b3 bb 13 a4 c3 3c
       0.001317516 -0.025749696 -0.0054638516 0.023881948
0002b0 4c ad df bc c0 0c 24 3d fc fd 0f 3d 74 b5 5c bc
       -0.027304314 0.04005122 0.035154328 -0.013470996
0002c0 a0 78 11 3d e9 1c bf bc c6 89 8b 3c 8a b8 5d 3c
       0.035515428 -0.023329215 0.017033469 0.013532767
0002d0 54 11 19 bc 90 8d 3f bc 53 b8 d8 3c 37 c5 af bb
       -0.00934251 -0.011691466 0.02645508 -0.005364086
0002e0 d0 eb 01 3c 2c 34 db bb e7 24 f4 3c 92 69 e1 bb
       0.007929757 -0.006689569 0.029802753 -0.00687904
0002f0 37 4a 3f 3c 75 82 d7 bc dc 3f d5 3b c7 0e cf 3b
       0.011675409 -0.026307324 0.006507857 0.0063189003
000300 a9 0c 04 bd d8 dc ea 3c ad e6 49 3a ff a5 95 bc
       -0.032238636 0.02866976 0.0007701915 -0.01826763
000310 ae 74 84 3c 60 0e b4 3c be 70 26 bc 42 5b 4a 3b
       0.016168918 0.02197951 -0.010158716 0.0030877148
000320 ed bc bc bb 77 62 2b bc 32 de 97 bb 69 7f 1b bd
       -0.0057598264 -0.010460488 -0.004634642 -0.037963305
000330 bb 15 be bc 22 da 4e bc 96 4d 8e 3c 0c d3 cd bc
       -0.023203721 -0.012625249 0.01737098 -0.025125049
000340 f9 57 05 bd 58 43 32 bc 82 70 40 bc c7 3f 77 bb
       -0.0325546 -0.010880314 -0.011745574 -0.0037727223
000350 1b 09 49 3b 13 20 ba 3c 41 03 75 bc 1d 91 c0 3c
       0.0030675593 0.022720372 -0.014954389 0.023506695
000360 49 cf 0c 3d 20 d1 bb 3c 77 49 0b 3c 0b 57 23 bc
       0.03437737 0.022926867 0.008501402 -0.009969483
000370 fa 93 11 bd f7 d4 bb 3c 80 96 bd ba 73 cb e9 bb
       -0.035541512 0.022928698 -0.0014464408 -0.0071348487
000380 33 ee 3c bc 00 47 00 bd 32 3d 9f bc 99 15 1e 3b
       -0.0115314005 -0.03131771 -0.01943836 0.002412176
000390 79 55 41 bb 8d 32 0e 3d 15 05 43 3d 66 e9 cf bc
       -0.0029500409 0.034716178 0.04761227 -0.025379848
0003a0 4b 06 eb 3b 32 b6 a0 3b c2 a7 43 3d 37 de 15 bd
       0.007172381 0.004904532 0.04776741 -0.036588874
0003b0 c2 27 8d bc 83 f7 6e 3c 2b c5 28 bc fb 10 e4 3c
       -0.017230872 0.014585379 -0.010300915 0.027840128
0003c0 cf f9 2b 3c c2 eb f5 3b 80 3f 44 3c bc fd 64 3c
       0.010496571 0.007504911 0.01197803 0.013976511
0003d0 ab cd 0f bc f2 de 53 bc 19 d4 55 3c 2b e7 ff 3a
       -0.008777062 -0.012931572 0.013051056 0.001952385
0003e0 34 e2 00 3d 6d b1 bf 3c 18 e3 cf 3b ea 43 5f 3d
       0.031465724 0.023400033 0.0063442104 0.054508127
0003f0 aa e7 97 bc 5e 61 26 bc af 5a 11 bd 7e af b2 3b
       -0.018543083 -0.01015505 -0.035486873 0.005453049

onnx::MatMul_601 f4 [256, 64]
000000 fc e2 75 bb 4e 66 74 3b ab 12 83 3b f4 f1 5e bc
       -0.0037519326 0.0037292424 0.004000028 -0.013607491
000010 be 2c 38 3a 26 bb a0 3b 28 49 44 3c 82 e1 a7 3b
       0.000702571 0.0049051223 0.011980332 0.005123318
000020 45 77 e7 bb 61 8b b7 3b 9e cf c5 3b 99 89 1b 3b
       -0.0070637786 0.005601332 0.006036713 0.0023733138
000030 68 b8 2a bb c8 30 10 bb 66 25 55 3c 7a e5 88 bb
       -0.0026049856 -0.0022001732 0.013009405 -0.0041777464
000040 38 6a d0 ba 9f 87 23 bc 80 af 0f 3c da 9e ce 3b
       -0.0015900796 -0.009981065 0.00876987 0.0063055577
000050 25 79 d7 bb 34 c3 ad ba 7c 1c ce bb 43 ae e8 bb
       -0.006575721 -0.0013257028 -0.0062900167 -0.0071008517
000060 f4 fe b0 3b 76 cc 96 3b 02 5f c6 3b 20 93 84 bb
       0.0054014865 0.0046020104 0.0060538063 -0.004045859
000070 6a 8e 56 bc 2c 41 3e bb ce 08 85 ba 2b df ca 3b
       -0.013095478 -0.0029030545 -0.0010149719 0.0061911545
000080 af 5c b7 3b 05 6f e8 3b 91 71 ca ba d5 b5 0e 3c
       0.0055957655 0.0070933127 -0.0015445222 0.008710344
000090 ed 21 31 bc 4b e0 36 bb 68 10 fd bb 91 03 c9 3a
       -0.010811311 -0.0027904685 -0.007722903 0.0015336146
0000a0 fd 0c a2 3a 42 24 07 bc 9b fb 05 3a fd b0 92 3c
       0.001236349 -0.008248391 0.00051110395 0.01790666
0000b0 c7 20 14 3b 4a 28 42 3c fe 6b 51 bb 1d 75 50 3b
       0.0022602545 0.011850426 -0.0031955238 0.0031808086
0000c0 b2 1f a3 ba 6e 88 18 3a fc 3d 43 3c e5 48 62 3b
       -0.0012445359 0.00058186695 0.011916634 0.0034528312
0000d0 ac b1 30 3c ef d0 19 bb 39 2f bd bc 0b 6b 4c bb
       0.010784548 -0.0023470481 -0.023093807 -0.0031191732
0000e0 97 0d d2 3b cd 7b 27 b9 c3 be f3 ba ff fd 94 bb
       0.0064103114 -0.0001597248 -0.001859628 -0.0045468803
0000f0 40 c1 b1 bb 59 65 8c bb ee 5d ea bb 35 ab d9 3a
       -0.0054246485 -0.0042845425 -0.0071523106 0.001660681
000100 0b 13 98 3b a1 5a 8b 3a 02 0e 80 bb 4d ba 4b 3a
       0.004640942 0.0010631868 -0.00390792 0.00077715964
000110 16 bb 49 bb f5 3f 8f 3b cb 9b 29 bb a0 26 41 3b
       -0.0030781678 0.004371638 -0.0025880213 0.0029472485
000120 ae 20 f7 ba bd f2 53 b8 a2 3b 62 3c de 5a 5b 3b
       -0.0018854344 -5.0532388e-05 0.013808163 0.003347091
000130 18 6b da 3a 6b 26 93 ba a1 ee 67 bc ab ab 0c 3c
       0.0016663997 -0.0011226659 -0.014156015 0.008585851
000140 83 6e 3b 3c 9b 8c 83 3a f8 4b ca bb c1 da d0 bb
       0.011439922 0.001003641 -0.006173607 -0.0063737337
000150 56 cd c9 bb d0 ad 4b bb 92 78 b0 3b 0f a5 78 bc
       -0.006158511 -0.0031078942 0.005385467 -0.015176072
000160 3a c8 16 bb be 0b af ba ba 27 f4 bb 07 8b 48 bb
       -0.0023007528 -0.001335494 -0.007451025 -0.0030600445
000170 28 f3 3d 3c 71 65 5c 3b 8a 0f 69 bb ef 4e 73 ba
       0.0115936175 0.00336298 -0.003556224 -0.00092814764
000180 d0 72 47 3b e6 2c 13 bb 49 f2 53 bc 02 b8 3d 3c
       0.0030433424 -0.0022457181 -0.012936183 0.011579515
000190 36 91 42 3b 39 87 4c ba 7d 49 83 ba 34 91 ad 3a
       0.0029688603 -0.0007802132 -0.0010016408 0.0013242126
0001a0 89 ce 6e 3b 44 f1 83 bb a9 03 be 3a fc 5e e0 ba
       0.0036439023 -0.004026564 0.001449694 -0.0017118151
0001b0 53 ee 54 ba 92 a8 8d 3b 85 26 1f bc ad 7e e4 ba
       -0.0008122671 0.0043230737 -0.009713774 -0.0017432772
0001c0 84 1a 3e 3c 33 29 dc 3b d2 e9 f6 bb d5 0f 00 bb
       0.0116030015 0.0067187785 -0.007535198 -0.0019540687
0001d0 90 9e b3 3b fc 62 08 bc ee 15 41 3c 02 a9 b9 3b
       0.0054815486 -0.008324381 0.011785014 0.0056658993
0001e0 48 c0 1a bb 24 49 f7 3a 8e 99 3b bb 55 cb fd 3a
       -0.0023613144 0.0018866402 -0.0028625461 0.0019362966
0001f0 83 4c c3 bb b1 13 e2 b9 cf 13 de ba b2 8f 2d ba
       -0.0059600486 -0.0004312075 -0.0016943159 -0.00066208385
000200 43 9b 8d 3a 84 ba 7f 3b b8 30 69 3b 46 d9 1d 39
       0.0010803718 0.0039021084 0.0035582017 0.00015053627
000210 47 f8 01 37 2c d9 c1 bb c7 90 21 3a 6b 0c 7e bc
       7.746806e-06 -0.0059157815 0.0006163236 -0.01550589
000220 91 64 b6 bb c7 f6 7e bc b7 10 88 bb 1f 97 21 ba
       -0.0055661877 -0.015561766 -0.004152383 -0.00061641814
000230 5b ba b1 bb fa 9a 9f bb e1 af 04 bc d1 6d 5b 3c
       -0.0054238266 -0.0048707696 -0.008098573 0.0133928815
000240 fe 38 c9 b9 93 65 a8 bb 73 1a 78 bb 79 93 2f bb
       -0.0003838017 -0.0051390617 -0.0037857562 -0.0026790781
000250 aa 89 58 3c 01 16 d9 ba f4 fa 13 3c 64 0f 08 bc
       0.013216415 -0.0016562344 0.009032 -0.008304451
000260 b7 3b c4 bb f1 a0 cb 3b 10 4d 82 bb 0b 2e 75 ba
       -0.005988564 0.006214254 -0.0039764717 -0.0009352869
000270 5f 9b 22 bc d0 cc 6b ba d1 cd a1 3b 53 0f 92 3b
       -0.009924739 -0.0008995058 0.0049378653 0.004457393
000280 73 00 15 bb 36 e4 b7 3b cd b5 02 3c 83 9f fc bb
       -0.0022735863 0.0056119217 0.007977915 -0.007709445
000290 be 21 6a bb 2e 36 bc 3b e7 bf c7 bb ee 43 e0 3b
       -0.0035725678 0.0057437634 -0.0060958746 0.0068440353
0002a0 48 bb 41 bb 8f ab 61 3a 37 4e f5 bb 8a fd a2 3b
       -0.0029561091 0.0008608633 -0.0074861306 0.004974072
0002b0 13 de 44 bb 1f c0 de bb f9 6f c5 bb 0d 88 9a 3c
       -0.0030039593 -0.006797805 -0.006025311 0.018863702
0002c0 f3 25 b7 3b 05 df c8 3b b9 96 9a ba af 0f 8c bb
       0.0055892407 0.0061301016 -0.0011794186 -0.0042743306
0002d0 e1 77 40 bb a5 d6 03 bc 48 01 8a 3c c3 b8 5d 3c
       -0.0029368328 -0.008046781 0.016846314 0.01353282
0002e0 56 66 5e bb 1c 2b 1d bc 8a c2 ec bb 95 fd af bb
       -0.0033935509 -0.009592798 -0.0072253393 -0.0053708055
0002f0 56 e9 ff ba a8 27 77 bb f9 b6 27 bc f2 ae 40 bc
       -0.0019524496 -0.0037712846 -0.010236495 -0.01176046
000300 51 c4 01 3c 46 08 ea 3b 79 d3 d3 bb bd e0 13 ba
       0.007920341 0.0071420996 -0.0064644185 -0.00056410936
000310 a6 47 3d ba 62 df 0a 3c 76 17 23 3b 46 eb 2b 39
       -0.0007220454 0.00847611 0.002488581 0.00016395477
000320 f9 bd f6 3a 8b 02 64 bc ff 46 4b 3c b4 24 7e 3b
       0.0018824927 -0.013916622 0.0124070635 0.00387792
000330 fd eb 53 bc 45 48 f7 bb 68 fa 0d 3a 0e 97 5d bb
       -0.012934682 -0.007546457 0.00054160366 -0.003381196
000340 cc 55 6f 3a 66 a1 1d 3c d4 0f 8a bb c9 dc 11 3b
       0.0009129911 0.009621 -0.0042133126 0.0022256842
000350 3e eb 83 bb b1 df e3 bb 36 58 3d 3a 90 ef 93 3b
       -0.004025846 -0.0069541563 0.0007222922 0.004514642
000360 ce 1f 8e 3b 63 59 9d ba 6d 9f 6f 3b 4e 52 c8 b9
       0.0043372875 -0.0012004789 0.003656353 -0.00038208294
000370 a3 04 54 bc ab 65 74 3b 9d ca 10 b9 1c 34 3b 3a
       -0.012940559 0.0037292044 -0.0001380839 0.0007141249
000380 8d e2 c3 bb de ad f8 3b 60 0e 0e 3c d0 cd 2a ba
       -0.0059779347 0.007589086 0.008670419 -0.0006515654
000390 20 62 09 3c 32 da 2e 3c 9c 97 ce b8 00 f0 c9 bb
       0.008385211 0.010672139 -9.851085e-05 -0.0061626434
0003a0 6c 4e de 3b a8 01 a3 bb 1f 7f e9 3b 35 eb 19 3c
       0.006784251 -0.0049745627 0.0071257497 0.009394457
0003b0 c0 0f 65 3a e1 86 1f 3a 6d 9f 73 3b de 0e 07 bc
       0.00087380037 0.0006085467 0.0037173883 -0.008243291
0003c0 63 87 12 bb 0d 6b 3e 3a 1d fe 9d bb db ea f1 3b
       -0.0022358529 0.00072638766 -0.0048215524 0.0073827333
0003d0 dc d8 b4 ba fb 6d ce 3b b6 5b f1 3b 27 43 d7 3b
       -0.0013797539 0.006299732 0.007365669 0.0065692845
0003e0 fd 86 a3 3a b6 d8 a2 ba f8 a7 68 3b 9b d4 8c 3b
       0.0012476143 -0.0012424204 0.0035500508 0.0042978055
0003f0 b5 78 4c 3b 02 e0 a5 b9 2f f6 c1 bb 06 bc 8f b9
       0.0031199877 -0.0003163815 -0.00591924 -0.00027415174
