examples/onnx/nanoGPT/network.onnx (onnx, 904716 bytes, 21 tensors)

transformer.wte.weight f4 [65, 64]
-0.005433134 -0.011005906 0.014373712 -0.012131099 0.015737029 -0.0014502472 0.0138744395 -0.01001758
0.014705143 0.00025968274 0.02417287 0.005004734 -0.011231244 -0.012870855 -0.014135229 -0.0057959477
0.0145106865 -0.013808699 0.033600375 0.008454114 0.00034735358 0.034215663 -0.026947878 0.0042428584
0.021988954 -0.015988128 0.0024823588 0.004546247 -0.041245397 -0.006966629 -0.018367553 0.026067719
0.027162429 -0.003099445 -0.00809608 0.00015692711 0.012878369 -0.001448551 -0.041945253 0.011638966
0.006402048 -0.022673156 0.00534639 -0.032939315 0.025585284 -0.0029970878 -0.00826594 -0.0019654126
-0.0038684271 0.015429573 0.028773123 0.021333382 -0.027814034 0.013263767 0.033732414 0.0036903897
0.027031055 0.010599896 -0.043937024 -0.027873436 0.0137898205 0.017770514 0.025465634 0.008216327
0.03039472 -0.016471123 -0.021068634 -0.012550214 -0.022934427 0.023723528 -0.019265922 -0.013254648
0.02025817 0.010260208 -0.004000952 -0.02613789 0.022212667 -0.00019089435 -0.031864185 -0.0042209914
-0.0038475923 -0.0012947299 -0.016202835 0.011082168 -0.035963643 -0.020756533 0.01158822 0.025681233
-0.020408336 0.014549192 -0.006623782 -0.016241902 -0.023785872 0.013043864 0.028083235 0.018909398
-0.000398999 0.070288084 0.0026729663 -0.00091305975 -0.022100365 0.017250502 -0.0034200388 -0.03835985
-0.016349662 0.0074439947 0.0037223962 -0.011128792 -0.002772493 -0.016199954 0.027897293 0.008394024
-0.014516929 0.029656824 -0.0031994854 -0.02263683 0.014317743 0.016660169 -0.024257315 -0.02831301
-0.03433667 0.021799648 -0.02788789 -0.007896951 0.011521175 -0.027102424 0.018856993 0.016469698
0.0016306476 0.015634865 0.016930155 0.0033945634 -0.010262154 0.00041543448 -0.026244469 0.029989438
-0.030864993 -0.01648125 -0.018927304 0.024526851 0.004509239 0.011957343 -0.028728856 -0.008049726
0.0072597414 -0.0069990065 0.0008027 0.019484362 -0.02468513 0.035873175 -0.00554618 -0.012042986
0.031358045 -0.0014194475 0.007934822 -0.005161201 -0.0071986644 0.0015468817 0.00509587 -0.0053151036
0.022349775 0.006799437 -0.014305453 0.0054807924 0.004865027 -0.018010104 -0.0048131347 0.0014943978
-0.023110969 0.006157778 0.007632522 0.0030009102 0.014325935 0.0019796586 0.002626948 0.017800018
-0.029051866 0.011265832 0.005169669 0.017480493 -0.019281426 -0.0054324833 0.01410179 -0.017594501
-0.017007157 0.014550853 -0.0022543897 0.011294442 -0.03384159 0.023993177 0.0112492265 0.0056500225
-0.014317736 -0.005230585 0.0011762241 -0.029109929 -0.006145777 0.02128857 0.00086541526 0.0071746334
0.026755208 0.0013165667 0.02687361 -0.031375863 -0.026008569 -0.0007522173 -0.0136477845 0.00076827017
0.032137215 -0.04587361 -0.027934844 -0.021996848 -0.0057782857 -0.025410555 -0.016733285 0.010856978
0.030291166 -0.0006814149 0.02292716 -0.021601204 0.003782167 0.005620016 0.0059872144 0.014638848
0.018275974 -0.0141843185 -0.009095222 -0.008381922 0.011998549 0.001296648 0.00026651326 0.009461138
-0.03243271 -0.00091150287 -0.014000997 0.05686531 0.025576068 0.0137853855 0.008599816 0.0030539571
0.009720929 0.02525766 0.011521233 0.010235706 0.02119485 -0.022537602 -0.030870454 -0.019752167
0.005873101 0.020834422 0.021068236 0.0056895213 -0.012229176 -0.016732462 0.014305814 -0.021274444
00000000: 6e08 b2bb 1e52 34bc b87f 6b3c 84c1 46bc
00000010: f1ea 803c 3916 beba 9e51 633c c720 24bc
00000020: d7ed 703c 0726 8839 2f06 c63c c0fe a33b
00000030: 4003 38bc 47e0 52bc 7397 67bc efeb bdbb
00000040: 3bbe 6d3c e23d 62bc 8ca0 093d 2083 0a3c
00000050: 021d b639 b925 0c3d ccc1 dcbc ad07 8b3b
00000060: 2e22 b43c 89f9 82bc 12af 223b aff8 943b
00000070: eff0 28bd 5248 e4bb 8d77 96bc f88b d53c
00000080: be83 de3c 0f20 4bbb 6ca5 04bc cd8c 2439
00000090: cbff 523c 4edd bdba c9ce 2bbd 5db1 3e3c
000000a0: 45c8 d13b 0ebd b9bc c530 af3b 60eb 06bd
000000b0: 3b98 d13c ca6a 44bb dd6d 07bc 27ce 00bb
000000c0: 7085 7dbb 52cc 7c3c 9db5 eb3c 58c3 ae3c
000000d0: 42da e3bc 4550 593c 002b 0a3d 77da 713b
000000e0: 3b70 dd3c 30ab 2d3c 4ff7 33bd d556 e4bc
000000f0: b3ee 613c 7893 913c 4e9d d03c c69d 063c
00000100: 59fe f83c 73ee 86bc 2198 acbc 6a9f 4dbc
00000110: fbe0 bbbc d857 c23c 91d3 9dbc 062a 59bc
00000120: 76f4 a53c 6e1a 283c 6b1a 83bb 211f d6bc
00000130: 57f7 b53c d02a 48b9 0584 02bd 3e50 8abb
00000140: e327 7cbb edb3 a9ba cfbb 84bc fb91 353c
00000150: 9d4e 13bd 9b09 aabc 84dc 3d3c 7361 d23c
00000160: 622f a7bc bc5f 6e3c 500c d9bb bd0d 85bc
00000170: 97da c2bc eeb5 553c d00e e63c e2e7 9a3c
00000180: bd30 d1b9 33f3 8f3d ef2c 2f3b 675a 6fba
00000190: d30b b5bc ed50 8d3c bb22 60bb 381f 1dbd
000001a0: baef 85bc c1ec f33b 72f3 733b 8955 36bc
000001b0: b7b2 35bb c4b5 84bc dd88 e43c 1787 093c
000001c0: 6ad8 6dbc def2 f23c 75ae 51bb e070 b9bc
000001d0: f794 6a3c e87a 883c 47b7 c6bc b0f0 e7bc
000001e0: 9ca4 0cbd 2d95 b23c 2575 e4bc 3762 01bc
000001f0: 4fc3 3c3c e705 debc fb79 9a3c 76eb 863c
00000200: 74bb d53a b014 803c 1cb1 8a3c 5377 5e3b
00000210: 9822 28bc acce d939 a4fe d6bc 69ac f53c
00000220: 95d8 fcbc b003 87bc 6f0d 9bbc 89ec c83c
00000230: 3dc2 933b bbe8 433c c758 ebbc ffe2 03bc
00000240: 20e3 ed3b ec57 e5bb 496c 523a ab9d 9f3c
00000250: 7838 cabc c0ef 123d bbbc b5bb f24f 45bc
00000260: 4b71 003d c10c baba 0e01 023c 4b1f a9bb
00000270: c6e2 ebbb bdc0 ca3a 41fb a63b 522a aebb
00000280: e016 b73c d0cd de3b 6b61 6abc 3898 b33b
00000290: ce6a 9f3b ed89 93bc 80b7 9dbb abdf c33a
000002a0: 3753 bdbc 30c7 c93b 3c1a fa3b ebaa 443b
000002b0: 54b7 6a3c 29bd 013b e028 2c3b 58d1 913c
000002c0: 2efe edbc 5394 383c 5466 a93b 4033 8f3c
000002d0: 15f4 9dbc f902 b2bb 320b 673c 5822 90bc
000002e0: 9852 8bbc b366 6e3c 62be 13bb 530c 393c
000002f0: 7b9d 0abd 578d c43c ad4e 383c d323 b93b
00000300: f094 6abc 5465 abbb 882b 9a3a f277 eebc
00000310: 8462 c9bb 5e65 ae3c 09dd 623a 3019 eb3b
00000320: bd2d db3c a690 ac3a 0c26 dc3c fa83 00bd
00000330: ec0f d5bc 7330 45ba f59a 5fbc bd65 493a
00000340: 50a2 033d f7e5 3bbd 9dd7 e4bc bc32 b4bc
00000350: c657 bdbb cc29 d0bc 3e14 89bc 77e1 313c
00000360: 2e25 f83c fba0 32ba bdd1 bb3c 02f5 b0bc
00000370: 3cde 773b 1c28 b83b 6530 c43b c7d7 6f3c
00000380: 7fb7 953c 5865 68bc 2004 15bc 5454 09bc
00000390: 9095 443c 4af4 a93a ceba 8b39 e402 1b3c
000003a0: 29d8 04bd ecf1 6eba 7064 65bc 99eb 683d
000003b0: e784 d13c 19dc 613c 3ee6 0c3c e624 483b
000003c0: 8844 1f3c 27e9 ce3c 8ec3 3c3c aab3 273c
000003d0: d2a0 ad3c c7a0 b8bc 09e4 fcbc 4ccf a1bc
000003e0: 2473 c03b f3ac aa3c 4b97 ac3c 2a6f ba3b
000003f0: e25c 48bc 8412 89bc ef62 6a3c be47 aebc

transformer.wpe.weight f4 [64, 64]
-0.0074573336 -0.033367068 0.011693512 -0.020345196 -0.013020543 -0.019975057 -0.022469094 0.013735326
0.02105555 0.03539085 0.021009823 -0.026871758 -0.000332427 0.011608581 0.007935638 -0.01810335
-0.00028913553 0.0464641 0.012726982 0.014288803 -0.025010621 0.020246949 0.0009483223 -0.008192366
-0.021635942 -0.012174122 -0.005461484 0.03593082 4.3348846e-05 -0.020183777 -0.028149005 -0.006220145
-0.01908539 -0.0026285881 0.011775831 -0.0008875265 0.023952281 0.0282728 0.004010505 -0.0016435711
-0.040334277 0.021189984 -0.014768438 -0.0123311775 -0.008345296 -0.010318093 0.0028291813 0.0018254676
-0.022880165 0.000822969 0.0028669718 0.015220787 -0.0008951466 -0.028020032 0.030253395 -0.016687766
-0.018676218 0.0051452434 0.008082962 0.031830087 0.037162505 -0.024695247 0.005889929 -0.02892865
-0.019916952 -0.0016229912 -0.005056903 0.028535085 0.012850324 0.03360582 0.026506497 0.016168252
0.003765346 0.008422007 -0.026307961 -0.005644852 0.014418377 -0.03166429 -0.04753239 -0.024485894
0.00887792 0.012031288 0.031246297 0.0057799434 0.0018212324 -0.01048132 -0.008717956 0.012564639
0.030948265 -0.009754924 0.007496417 0.001293574 0.0367474 -0.010553315 0.0021705152 -0.0069257217
-0.010069193 -0.009354728 0.0040173503 0.016795523 -0.0046269344 -0.0054928544 -0.03009896 0.029613702
-0.0027195804 0.012103189 -0.038453266 0.016319303 -0.021400962 -0.03166417 -0.024270693 -0.010093226
0.020250354 -0.0063958517 -0.01741259 0.016509172 0.022138758 0.0008776915 0.024141094 -0.008465162
-0.012515342 -0.026367519 -0.012729607 0.012410055 -0.021993894 -0.0008156122 0.013827048 0.011656789
0.027823558 0.009494794 -0.011456555 0.022470662 -0.00774677 -0.0013029424 0.016024312 -0.023371005
-0.0054456512 0.025188422 0.026449768 -0.02753868 -0.017983254 -0.032635286 0.0015865649 -0.022844495
0.029779548 -0.015332394 0.028797517 0.026961122 0.024537563 -0.019492676 0.008781452 0.02188322
0.019755479 -0.013616355 0.03257032 -0.047969878 0.020792292 0.01892253 0.019576384 -0.029185096
0.04261267 -0.012059278 0.006713836 0.005655502 0.009993793 0.035970464 -0.008201778 -0.017163603
0.004640409 -0.015500194 -0.020352656 0.026679777 0.033533297 -0.0020835665 0.0013768227 0.0138003845
-0.0183886 0.0055469773 -0.041190304 -0.0021239885 -0.018435594 0.032731775 0.0042054984 -0.012792882
-0.014910958 0.022851117 0.004306918 0.0077682654 -0.025628857 0.038662195 0.03498285 0.0065198485
-0.018264657 0.01837159 -0.0029301208 0.027903656 0.012338511 0.028009297 -0.0119217755 0.006837194
0.024846762 -0.0043242928 -0.00498057 0.0068650926 -0.031960413 0.0380843 0.009168673 -0.01572588
0.027531005 0.016884126 0.012721077 -0.004718194 -0.027823802 -0.041337818 -0.018235128 0.0021709532
-0.014837015 0.015109296 -0.0061695096 0.009572125 0.03526881 -0.00960336 0.031260498 -0.00956554
-0.0054166047 -0.047941823 -0.008413633 0.0061086616 0.012069449 -0.024447007 0.015617089 -0.032976568
-0.0019668613 0.011761542 -0.014505579 -0.020810954 0.008391485 -0.0071494523 -0.034564357 0.012823233
-0.017378548 -0.014079332 -0.040129274 0.019709582 -0.006038975 -0.029237738 -0.012509271 0.022093093
-0.003131918 -0.05252276 -0.031219449 0.032308716 0.0025868188 0.0021079124 -0.014061521 0.0052330624
00000000: a65c f4bb e8ab 08bd 2596 3f3c f8aa a6bc
00000010: 1e54 55bc bba2 a3bc 1b11 b8bc 220a 613c
00000020: b07c ac3c fff5 103d cb1c ac3c 2922 dcbc
00000030: 9949 aeb9 eb31 3e3c 7a04 023c 7a4d 94bc
00000040: 1d97 97b9 2451 3e3d d584 503c 951b 6a3c
00000050: 13e3 ccbc eedc a53c d598 783a 4639 06bc
00000060: dc3d b1bc f875 47bc 40f6 b2bb 322c 133d
00000070: 78d1 3538 7358 a5bc be98 e6bc 5cd2 cbbb
00000080: f758 9cbc 6444 2cbb 6aef 403c e5a8 68ba
00000090: 9337 c43c 5c9c e73c 8e6a 833b 186d d7ba
000000a0: 8e35 25bd 9e96 ad3c 52f7 71bc b508 4abc
000000b0: b5ba 08bc 380d 29bc c969 393b 8744 ef3a
000000c0: 2f6f bbbc 84bc 573a cee3 3b3b 9c60 793c
000000d0: 45a8 6aba 448a e5bc f8d5 f73c c8b4 88bc
000000e0: defe 98bc 6e99 a83b 666e 043c 4460 023d
000000f0: b637 183d b04d cabc 4e00 c13b c7fb ecbc
00000100: e028 a3bc 8cba d4ba 61b4 a5bb 69c2 e93c
00000110: 2a8a 523c 42a6 093d 2724 d93c 4873 843c
00000120: 06c4 763b 75fc 093c cb83 d7bc 73f8 b8bb
00000130: 0e3b 6c3c 6ab2 01bd 53b1 42bd a496 c8bc
00000140: b274 113c e11e 453c 3cf8 ff3c ae65 bd3b
00000150: 6bb6 ee3a d8b9 2bbc c2d5 0ebc eadb 4d3c
00000160: 3787 fd3c 1ed3 1fbc 81a4 f53b 248d a93a
00000170: 7184 163d d0e7 2cbc 343f 0e3b 2af1 e2bb
00000180: 42f9 24bc 9344 19bc faa3 833b c496 893c
00000190: 8a9d 97bb 67fd b3bb 1892 f6bc 6f98 f23c
000001a0: fd3a 32bb 744c 463c 2c81 1dbd 0fb0 853c
000001b0: 1251 afbc 4ab2 01bd 55d3 c6bc 0f5e 25bc
000001c0: 12e4 a53c 4b94 d1bb d9a4 8ebc 3e3e 873c
000001d0: 575c b53c e114 663a 8bc3 c53c 76b1 0abc
000001e0: 260d 4dbc b200 d8bc d78f 50bc 8b53 4b3c
000001f0: 8a2c b4bc cfce 55ba d88a 623c 1efc 3e3c
00000200: 3bee e33c 0d90 1b3c 46b4 3bbc 6514 b83c
00000210: 9ed8 fdbb 7ec7 aaba 6b45 833c 8d74 bfbc
00000220: 6f71 b2bb f357 ce3c 2fad d83c cc98 e1bc
00000230: 9e51 93bc 94ac 05bd 49f4 cf3a 6124 bbbc
00000240: 3df4 f33c b934 7bbc c5e8 eb3c 92dd dc3c
00000250: 0003 c93c 1baf 9fbc 14e0 0f3c 7044 b33c
00000260: 3ed6 a13c 2217 5fbc 7568 053d 107c 44bd
00000270: 9954 aa3c 6c03 9b3c a75e a03c 9515 efbc
00000280: a08a 2e3d 4794 45bc bdff db3b ca51 b93b
00000290: 02bd 233c c455 133d c060 06bc af9a 8cbc
000002a0: 920e 983b 87f4 7dbc 9dba a6bc 8c8f da3c
000002b0: 365a 093d 728c 08bb 8176 b43a 021b 623c
000002c0: b0a3 96bc 6bc3 b53b 2ab7 28bd 9d32 0bbb
000002d0: 3e06 97bc c111 063d 47ce 893b 3c99 51bc
000002e0: 174d 74bc 4432 bb3c 0c21 8d3b ef8c fe3b
000002f0: 9cf3 d1bc 405c 1e3d 2d4a 0f3d 74a4 d53b
00000300: c39f 95bc 0480 963c 4507 40bb 3596 e43c
00000310: 7727 4a3c c173 e53c 8d53 43bc 8a0a e03b
00000320: 708b cb3c ccb2 8dbb 0d34 a3bb 92f4 e03b
00000330: ece8 02bd 48fe 1b3d 3438 163c 90d3 80bc
00000340: b488 e13c 9450 8a3c 106c 503c 149b 9abb
00000350: beee e3bc d851 29bd d661 95bc 8d46 0e3b
00000360: f416 73bc fb8c 773c 9929 cabb 67d4 1c3c
00000370: 0776 103d 6957 1dbc 020b 003d c8b8 1cbc
00000380: c67d b1bb a55e 44bd 56d9 09bc 2b2b c83b
00000390: f0be 453c 1745 c8bc d2de 7f3c 7012 07bd
000003a0: 75e6 00bb 7cb3 403c cfa8 6dbc bc7b aabc
000003b0: 707c 093c f445 eabb 5b93 0dbd 8a18 523c
000003c0: 755d 8ebc 00ad 66bc 985e 24bd fd75 a13c
000003d0: 98e2 c5bb fb83 efbc aff3 4cbc 93fc b43c
000003e0: dd40 4dbb 1b22 57bd eebf ffbc 2556 043d
000003f0: 9e87 293b e724 0a3b 4b62 66bc 1c7a ab3b

transformer.h.0.ln_1.weight f4 [64]
1.0 1.0 1.0 1.0 1.0 1.0 1.0 1.0
1.0 1.0 1.0 1.0 1.0 1.0 1.0 1.0
1.0 1.0 1.0 1.0 1.0 1.0 1.0 1.0
1.0 1.0 1.0 1.0 1.0 1.0 1.0 1.0
1.0 1.0 1.0 1.0 1.0 1.0 1.0 1.0
1.0 1.0 1.0 1.0 1.0 1.0 1.0 1.0
1.0 1.0 1.0 1.0 1.0 1.0 1.0 1.0
1.0 1.0 1.0 1.0 1.0 1.0 1.0 1.0
00000000: 0000 803f 0000 803f 0000 803f 0000 803f
00000010: 0000 803f 0000 803f 0000 803f 0000 803f
00000020: 0000 803f 0000 803f 0000 803f 0000 803f
00000030: 0000 803f 0000 803f 0000 803f 0000 803f
00000040: 0000 803f 0000 803f 0000 803f 0000 803f
00000050: 0000 803f 0000 803f 0000 803f 0000 803f
00000060: 0000 803f 0000 803f 0000 803f 0000 803f
00000070: 0000 803f 0000 803f 0000 803f 0000 803f
00000080: 0000 803f 0000 803f 0000 803f 0000 803f
00000090: 0000 803f 0000 803f 0000 803f 0000 803f
000000a0: 0000 803f 0000 803f 0000 803f 0000 803f
000000b0: 0000 803f 0000 803f 0000 803f 0000 803f
000000c0: 0000 803f 0000 803f 0000 803f 0000 803f
000000d0: 0000 803f 0000 803f 0000 803f 0000 803f
000000e0: 0000 803f 0000 803f 0000 803f 0000 803f
000000f0: 0000 803f 0000 803f 0000 803f 0000 803f

transformer.h.0.attn.bias f4 [1, 1, 64, 64]
1.0 0.0 0.0 0.0 0.0 0.0 0.0 0.0
0.0 0.0 0.0 0.0 0.0 0.0 0.0 0.0
0.0 0.0 0.0 0.0 0.0 0.0 0.0 0.0
0.0 0.0 0.0 0.0 0.0 0.0 0.0 0.0
0.0 0.0 0.0 0.0 0.0 0.0 0.0 0.0
0.0 0.0 0.0 0.0 0.0 0.0 0.0 0.0
0.0 0.0 0.0 0.0 0.0 0.0 0.0 0.0
0.0 0.0 0.0 0.0 0.0 0.0 0.0 0.0
1.0 1.0 0.0 0.0 0.0 0.0 0.0 0.0
0.0 0.0 0.0 0.0 0.0 0.0 0.0 0.0
0.0 0.0 0.0 0.0 0.0 0.0 0.0 0.0
0.0 0.0 0.0 0.0 0.0 0.0 0.0 0.0
0.0 0.0 0.0 0.0 0.0 0.0 0.0 0.0
0.0 0.0 0.0 0.0 0.0 0.0 0.0 0.0
0.0 0.0 0.0 0.0 0.0 0.0 0.0 0.0
0.0 0.0 0.0 0.0 0.0 0.0 0.0 0.0
1.0 1.0 1.0 0.0 0.0 0.0 0.0 0.0
0.0 0.0 0.0 0.0 0.0 0.0 0.0 0.0
0.0 0.0 0.0 0.0 0.0 0.0 0.0 0.0
0.0 0.0 0.0 0.0 0.0 0.0 0.0 0.0
0.0 0.0 0.0 0.0 0.0 0.0 0.0 0.0
0.0 0.0 0.0 0.0 0.0 0.0 0.0 0.0
0.0 0.0 0.0 0.0 0.0 0.0 0.0 0.0
0.0 0.0 0.0 0.0 0.0 0.0 0.0 0.0
1.0 1.0 1.0 1.0 0.0 0.0 0.0 0.0
0.0 0.0 0.0 0.0 0.0 0.0 0.0 0.0
0.0 0.0 0.0 0.0 0.0 0.0 0.0 0.0
0.0 0.0 0.0 0.0 0.0 0.0 0.0 0.0
0.0 0.0 0.0 0.0 0.0 0.0 0.0 0.0
0.0 0.0 0.0 0.0 0.0 0.0 0.0 0.0
0.0 0.0 0.0 0.0 0.0 0.0 0.0 0.0
0.0 0.0 0.0 0.0 0.0 0.0 0.0 0.0
00000000: 0000 803f 0000 0000 0000 0000 0000 0000
00000010: 0000 0000 0000 0000 0000 0000 0000 0000
00000020: 0000 0000 0000 0000 0000 0000 0000 0000
00000030: 0000 0000 0000 0000 0000 0000 0000 0000
00000040: 0000 0000 0000 0000 0000 0000 0000 0000
00000050: 0000 0000 0000 0000 0000 0000 0000 0000
00000060: 0000 0000 0000 0000 0000 0000 0000 0000
00000070: 0000 0000 0000 0000 0000 0000 0000 0000
00000080: 0000 0000 0000 0000 0000 0000 0000 0000
00000090: 0000 0000 0000 0000 0000 0000 0000 0000
000000a0: 0000 0000 0000 0000 0000 0000 0000 0000
000000b0: 0000 0000 0000 0000 0000 0000 0000 0000
000000c0: 0000 0000 0000 0000 0000 0000 0000 0000
000000d0: 0000 0000 0000 0000 0000 0000 0000 0000
000000e0: 0000 0000 0000 0000 0000 0000 0000 0000
000000f0: 0000 0000 0000 0000 0000 0000 0000 0000
00000100: 0000 803f 0000 803f 0000 0000 0000 0000
00000110: 0000 0000 0000 0000 0000 0000 0000 0000
00000120: 0000 0000 0000 0000 0000 0000 0000 0000
00000130: 0000 0000 0000 0000 0000 0000 0000 0000
00000140: 0000 0000 0000 0000 0000 0000 0000 0000
00000150: 0000 0000 0000 0000 0000 0000 0000 0000
00000160: 0000 0000 0000 0000 0000 0000 0000 0000
00000170: 0000 0000 0000 0000 0000 0000 0000 0000
00000180: 0000 0000 0000 0000 0000 0000 0000 0000
00000190: 0000 0000 0000 0000 0000 0000 0000 0000
000001a0: 0000 0000 0000 0000 0000 0000 0000 0000
000001b0: 0000 0000 0000 0000 0000 0000 0000 0000
000001c0: 0000 0000 0000 0000 0000 0000 0000 0000
000001d0: 0000 0000 0000 0000 0000 0000 0000 0000
000001e0: 0000 0000 0000 0000 0000 0000 0000 0000
000001f0: 0000 0000 0000 0000 0000 0000 0000 0000
00000200: 0000 803f 0000 803f 0000 803f 0000 0000
00000210: 0000 0000 0000 0000 0000 0000 0000 0000
00000220: 0000 0000 0000 0000 0000 0000 0000 0000
00000230: 0000 0000 0000 0000 0000 0000 0000 0000
00000240: 0000 0000 0000 0000 0000 0000 0000 0000
00000250: 0000 0000 0000 0000 0000 0000 0000 0000
00000260: 0000 0000 0000 0000 0000 0000 0000 0000
00000270: 0000 0000 0000 0000 0000 0000 0000 0000
00000280: 0000 0000 0000 0000 0000 0000 0000 0000
00000290: 0000 0000 0000 0000 0000 0000 0000 0000
000002a0: 0000 0000 0000 0000 0000 0000 0000 0000
000002b0: 0000 0000 0000 0000 0000 0000 0000 0000
000002c0: 0000 0000 0000 0000 0000 0000 0000 0000
000002d0: 0000 0000 0000 0000 0000 0000 0000 0000
000002e0: 0000 0000 0000 0000 0000 0000 0000 0000
000002f0: 0000 0000 0000 0000 0000 0000 0000 0000
00000300: 0000 803f 0000 803f 0000 803f 0000 803f
00000310: 0000 0000 0000 0000 0000 0000 0000 0000
00000320: 0000 0000 0000 0000 0000 0000 0000 0000
00000330: 0000 0000 0000 0000 0000 0000 0000 0000
00000340: 0000 0000 0000 0000 0000 0000 0000 0000
00000350: 0000 0000 0000 0000 0000 0000 0000 0000
00000360: 0000 0000 0000 0000 0000 0000 0000 0000
00000370: 0000 0000 0000 0000 0000 0000 0000 0000
00000380: 0000 0000 0000 0000 0000 0000 0000 0000
00000390: 0000 0000 0000 0000 0000 0000 0000 0000
000003a0: 0000 0000 0000 0000 0000 0000 0000 0000
000003b0: 0000 0000 0000 0000 0000 0000 0000 0000
000003c0: 0000 0000 0000 0000 0000 0000 0000 0000
000003d0: 0000 0000 0000 0000 0000 0000 0000 0000
000003e0: 0000 0000 0000 0000 0000 0000 0000 0000
000003f0: 0000 0000 0000 0000 0000 0000 0000 0000

onnx::MatMul_589 f4 [64, 192]
-0.013744909 0.015503748 -0.01474508 0.00535974 -0.03425514 0.0028625145 0.022689452 -0.03813741
-0.033550736 -0.0006117775 0.0013325084 0.0018658587 0.027642021 -0.0014030013 -0.017490668 -0.008294177
0.018480245 -0.008630697 -0.01092171 -0.0129288705 0.021630837 0.014978409 -0.0015655087 -0.0042013493
-0.01668404 -0.008721671 0.011030131 -0.015219051 -0.0038407606 -0.0026374515 -0.017291546 -0.01788456
-0.024884192 -0.013045349 0.0016634465 0.043614704 0.02059655 0.029990226 0.0017645818 0.02662705
-0.018287564 0.014603782 0.021485252 -0.0316939 -0.0226811 0.05166146 0.025589528 -0.018471126
0.037336558 0.008781883 -0.014522804 0.021965262 0.022327742 0.0055593704 0.002026649 0.03382173
0.0505266 -0.007508646 0.013157664 0.017375289 -0.03774229 0.027947437 -0.039259057 -0.010240118
0.0007852992 0.013661318 0.003998609 -0.03971545 -0.007960729 0.011398841 -0.009445385 0.020143049
0.024491847 -0.019753404 0.022606075 0.01653899 -0.007852556 -0.008962789 -0.0066159125 -0.01688376
0.005598671 -0.004821567 0.0031608678 -0.00011582182 -0.019280847 -0.04345917 -0.0031112388 0.0033093237
0.0349457 0.002121725 -0.022320982 -0.035714116 -0.0016783632 -0.0054274653 -0.016069556 -0.011861848
-0.017814875 0.008358797 0.013305436 -0.004758404 -0.0070929853 0.0036750713 0.025257481 -0.02086809
0.00468426 -0.0033031013 -0.03758884 0.03407352 -0.0029374352 0.0052170637 0.005473648 -0.004116392
-0.01902413 -0.024588102 0.032051142 0.03085895 0.01973575 -0.009579213 0.00064377935 0.0080869775
-0.041602544 -0.00020847165 -0.0032198413 -0.011679507 0.026257984 -0.0039447746 0.009952899 -0.021534543
-0.023827342 -0.00012027356 -0.01915305 -0.0066089826 -0.018427206 0.009864913 -0.006443701 -0.028655712
0.012814115 -0.01218883 -0.009971984 -0.015663086 0.021064643 0.02014029 0.0035814368 -0.000933138
0.019584684 -0.010865923 -0.002161804 -0.0077179736 0.011900078 -0.04851519 0.013711471 0.01357567
-0.0033568433 0.021234188 0.011534717 0.005736894 0.030551035 -0.0011736051 0.0017121966 -0.042937607
-0.0064098337 -0.01639704 -0.0016559163 0.005149819 -0.014107947 0.024551174 -0.016285347 -0.045746975
-0.030691275 0.0032789882 -0.0015065819 -0.01814379 0.007517221 -0.013625539 -0.014474173 -0.010565315
0.042942796 -0.02523254 -0.041168384 -0.021405028 -0.012704652 0.00924153 0.024137445 0.010374026
0.021263445 -0.00059683394 -0.0020430177 -0.023307854 -0.011055513 0.016566059 0.0031794885 -0.037613377
0.014866839 0.0051928596 0.0044766557 -0.0017498636 -0.019682936 0.019579334 0.046597965 0.029867917
0.020097427 -0.019322919 -0.012872932 0.0360048 -0.025497884 0.0317013 -0.02622658 0.0155881
0.0021155216 0.04332189 -0.015544481 0.016304044 0.004870897 0.008938602 -0.016653039 0.021166513
-0.026542893 -0.018916802 -0.00080591236 -0.01685328 -0.044216793 0.011125753 0.0017902167 -0.008365007
-0.0037878044 0.0022309883 -0.0006472099 -0.015202281 0.025859851 -0.025734166 0.013920555 -0.0038841453
-0.0008803213 0.0022610184 0.011440637 0.021888103 0.038001068 0.03560476 0.01675162 0.0011015758
-0.0013486565 0.023608115 -0.011820526 0.0003452653 -0.031973306 -0.01684968 -0.016905641 -0.028420828
-0.0013835417 0.0071411845 -0.00021904842 0.018637866 0.021354295 0.007523846 -0.017395614 0.032339264
00000000: 5432 61bc 6f03 7e3c 5995 71bc c2a0 af3b
00000010: 1e4f 0cbd 0699 3b3b 3bdf b93c f935 1cbd
00000020: 7f6c 09bd b15f 20ba 90a7 ae3a d48f f43a
00000030: 8571 e23c e9e4 b7ba 9748 8fbc 4de4 07bc
00000040: e263 973c c467 0dbc f9f0 32bc 9dd3 53bc
00000050: 2733 b13c 0068 753c c131 cdba 79ab 89bb
00000060: f8ac 88bc 57e5 0ebc b9b7 343c 5459 79bc
00000070: 45b5 7bbb 18d9 2cbb 00a7 8dbc a482 92bc
00000080: efd9 cbbc 29bc 55bc 0108 da3a 55a5 323d
00000090: 19ba a83c 10ae f53c 8a49 e73a f920 da3c
000000a0: cdcf 95bc b444 6f3c d701 b03c 76d1 01bd
000000b0: b7cd b9bc f89a 533d 21a1 d13c c250 97bc
000000c0: 38ee 183d e3e1 0f3c 0ef1 6dbc 7ef0 b33c
000000d0: abe8 b63c 612b b63b 87d1 043b a888 0a3d
000000e0: fbf4 4e3d 170b f6bb 3e93 573c 9f56 8e3c
000000f0: a997 1abd 06f2 e43c 1bce 20bd 2bc6 27bc
00000100: 8adc 4d3a b9d3 5f3c c306 833b abac 22bd
00000110: b86d 02bc 34c2 3a3c d1c0 1abc 0903 a53c
00000120: 20a3 c83c e4d1 a1bc 6030 b93c c77c 873c
00000130: 02a8 00bc a9d8 12bc 4cca d8bb d04f 8abc
00000140: 0e75 b73b 3cfe 9dbb 9026 4f3b 5ee5 f2b8
00000150: def2 9dbc 3e02 32bd ede5 4bbb 3de1 583b
00000160: 3923 0f3d a30c 0b3b 7eda b6bc f748 12bd
00000170: 86fc dbba e1d8 b1bb 4da4 83bc 3258 42bc
00000180: 80f0 91bc 56f3 083c 0bff 593c 63ec 9bbb
00000190: 466c e8bb 77d9 703b c7e8 ce3c 8ff3 aabc
000001a0: 6c7e 993b d878 58bb c1f6 19bd ad90 0b3d
000001b0: fc81 40bb e7f3 aa3b 4a5c b33b cde2 86bb
000001c0: 7ed8 9bbc fd6c c9bc 0f48 033d e9cb fc3c
000001d0: deac a13c 22f2 1cbc 4dc3 283a 3e7f 043c
000001e0: 6e67 2abd 2f99 5ab9 f903 53bb 675b 3fbc
000001f0: fc1a d73c 2b43 81bb 7c11 233c 3669 b0bc
00000200: 8f31 c3bc 603b fcb8 dbe6 9cbc 2a90 d8bb
00000210: a7f4 96bc 72a0 213c af25 d3bb 62bf eabc
00000220: 4bf2 513c a9b3 47bc 8861 23bc df4f 80bc
00000230: c28f ac3c 40fd a43c 8ab6 6a3b d59d 74ba
00000240: 0f70 a03c fc06 32bc 0dad 0dbb 0ee7 fcbb
00000250: 8bf8 423c ddb7 46bd 14a6 603c 7d6c 5e3c
00000260: 7cfe 5bbb 52f3 ad3c 1cfc 3c3c 8efc bb3b
00000270: 2a46 fa3c a7d3 99ba c96b e03a 58df 2fbd
00000280: 9509 d2bb 1653 86bc 550b d9ba d0bf a83b
00000290: 0525 67bc 8b1f c93c d968 85bc 2e61 3bbd
000002a0: 456c fbbc 4be4 563b 8078 c5ba 49a2 94bc
000002b0: 0553 f63b a73d 5fbc 1525 6dbc 251a 2dbc
000002c0: c9e4 2f3d 79b4 cebc 2ea0 28bd 9959 afbc
000002d0: 2c27 50bc c969 173c e4bb c53c d2f7 293c
000002e0: ad30 ae3c d974 1cba 26e4 05bb 1df0 bebc
000002f0: 2f22 35bc 8bb5 873c f75e 503b 7c10 1abd
00000300: 0b94 733c dd28 aa3b e9b0 923b ae5b e5ba
00000310: 1c3e a1bc d764 a03c 82dd 3e3d 90ad f43c
00000320: 5ca3 a43c 194b 9ebc fde8 52bc c579 133d
00000330: f0e0 d0bc 39d9 013d 20d9 d6bc 3b65 7f3c
00000340: 90a4 0a3b 4b72 313d 47ae 7ebc 0f90 853c
00000350: 0c9c 9f3b 3773 123c f46b 88bc 6565 ad3c
00000360: 7b70 d9bc 69f7 9abc dd43 53ba e40f 8abc
00000370: ab1c 35bd ca48 363c b4a5 ea3a 620d 09bc
00000380: d03c 78bb c635 123b 85a9 29ba fd12 79bc
00000390: 0ad8 d33c 75d0 d2bc 0a13 643c 258d 7ebb
000003a0: 5dc5 66ba 982d 143b 8271 3b3c ae4e b33c
000003b0: 02a7 1b3d 4cd6 113d b23a 893c c062 903a
000003c0: 67c5 b0ba ce65 c13c e1aa 41bc b904 b539
000003d0: 71f6 02bd 5708 8abc b37d 8abc ccd2 e8bc
000003e0: f557 b5ba 9900 ea3b 5db0 65b9 70ae 983c
000003f0: 34ef ae3c 988a f63b 3f81 8ebc 2d76 043d

onnx::MatMul_599 f4 [64, 64]
-0.002143403 0.0029560188 4.9976017e-05 -0.0014988206 0.01226327 -0.0013557445 0.008563383 -0.0018305684
0.0016092593 0.012112647 -0.0056157485 0.0023671594 0.0004648226 0.014254962 0.013346202 -0.004126095
-0.005356126 -0.00065571815 -0.0057370225 -0.002077532 0.00042466368 -0.013420751 0.0010370006 -0.0026852076
-0.0048136846 0.00820401 0.014406064 -0.011867703 -0.013119152 -0.0013421683 0.0064931177 -0.006566387
0.007213239 0.014859434 0.013596593 -0.0028743409 -0.0024961645 -0.0031383252 -0.003970425 0.009469647
-0.008725965 0.0068104905 -3.8945004e-06 -0.0034426854 -0.008405539 -0.0007401566 -0.0023357794 0.006389443
-0.0083643785 0.00093178754 0.011255639 -0.005613662 0.0017820003 -0.010278967 -0.008042824 -0.008199065
0.0016136811 -0.0028185805 -0.0064521725 0.0070587588 -0.0050514643 0.0031139904 0.002100192 0.008870767
0.009107632 -0.0065827076 -0.0026872794 -0.0047695003 0.008988215 0.0034476384 -0.00040416038 -0.0023910417
0.005666682 0.0053414092 -0.0022709009 0.006645837 -0.0051444136 0.0065158755 -0.004319385 -0.0010297046
0.006426539 -0.0002647404 0.010283335 -0.00645645 -0.0013350137 -0.0012022667 0.005554478 -0.009878456
0.0024792962 0.006121778 -0.01201231 -0.0029390226 0.00062104996 0.0018579318 -0.0015199418 0.006181347
0.006774823 0.001408207 -0.0017726768 -0.0057739965 0.002259627 0.0056634024 -0.007050217 0.0017620254
-0.00011381694 0.0043768845 -0.0056788195 0.007266424 0.0010339366 -0.00068268174 0.0020896716 -0.0005600223
0.0069839265 -0.002334501 -0.0103876535 0.0065147155 0.008684756 -0.008387621 -0.0057918387 0.0007463697
0.0023650972 -0.0061533423 0.0030712748 -0.012925705 -0.008015576 -0.0035724472 7.347498e-05 -0.005204107
0.0050028195 -0.0062081087 -0.0069303284 -0.00064308674 0.0068213055 -0.0063244067 -0.0021043785 -0.0012955472
-0.012226984 0.0028862453 -0.004442645 -0.0011025759 0.0059219054 -0.0022809696 -0.0011769934 -0.0062005
0.0057262448 0.0032908272 -0.0067483135 -0.0066782245 -0.01788638 -0.0008865932 -0.0012055084 -0.004520527
-0.008176311 0.010599316 -0.004296959 -0.0033976245 -0.006309796 0.0018085064 0.007825907 -0.010230983
0.0051998026 -0.0053182757 0.0027676763 0.0012082554 -0.005084892 0.002439105 0.0016347036 -0.003948226
-0.0062374887 0.0040810886 0.007944867 -0.0063259327 0.0006181944 0.0037431302 -0.002005052 -0.009295681
-0.002706442 -0.0016558644 -0.0052377256 -0.00053458195 -0.0016507658 -0.0058066254 -0.023157883 -0.0018730864
-0.0015288449 -0.0021501703 -0.007830561 -0.0037697572 -0.004134362 0.010071982 0.0006564869 0.005609689
-0.0038212312 0.007525665 -0.0033184628 -0.0015000346 -0.011735747 -0.0058696307 -0.011718514 -0.012164681
-0.010100182 -0.008308014 0.015804907 0.0057812054 -0.0070263757 0.00428718 0.0025320938 0.010700308
-0.006813339 -0.00024173845 -0.01515449 -0.0068050143 0.006121239 -0.00449395 -0.0026750066 0.0113611305
-0.0059960033 0.0031815963 0.014861759 0.01269483 0.012008758 0.0033945574 0.0025774818 0.013713589
0.0031941165 0.0077103637 -0.00026246408 -0.007453553 0.008868922 -0.005778276 -0.0048730285 0.016152376
0.0054642325 0.010905166 -0.002898889 0.0003032686 -0.0052109566 -0.005773404 0.0021090002 0.00027237527
0.0064808414 0.0001635995 -0.0098310085 0.00645658 0.003254013 0.006910917 0.013457558 0.00046068142
-0.0045346613 -0.009269531 -0.0045125685 0.004069198 0.006539017 0.0051351795 -0.013944739 0.005307499
00000000: 5678 0cbb c4b9 413b 579d 5138 1374 c4ba
00000010: e2eb 483c 3db3 b1ba 6e4d 0c3c afef efba
00000020: c8ed d23a 2074 463c 5004 b8bb 5822 1b3b
00000030: 6fb3 f339 a58d 693c 07aa 5a3c 3234 87bb
00000040: 7182 afbb 80e4 2bba a2fd bbbb 3427 08bb
00000050: 65a5 de39 b6e2 5bbc f7eb 873a 4ffa 2fbb
00000060: 1dbc 9dbb 1d6a 063c 6907 6c3c c170 42bc
00000070: b6f1 56bc b2eb afba 38c4 d43b d92a d7bb
00000080: 095d ec3b fc74 733c 3fc4 5e3c 705f 3cbb
00000090: b196 23bb 5cac 4dbb 571a 82bb 9426 1b3c
000000a0: 5af7 0ebc 892a df3b 81ad 82b6 ad9e 61bb
000000b0: 63b7 09bc 1207 42ba e013 19bb 885e d13b
000000c0: bf0a 09bc 3443 743a 9269 383c cff2 b7bb
000000d0: 0292 e93a 1d69 28bc 0dc6 03bc 5f55 06bc
000000e0: 2782 d33a efb7 38bb bf6c d3bb 294d e73b
000000f0: c186 a5bb 1714 4c3b 60a3 093b b256 113c
00000100: 2d38 153c c1b3 d7bb 111d 30bb 7849 9cbb
00000110: 4e43 133c c6f1 613b 7de5 d3b9 06b3 1cbb
00000120: 93af b93b fd06 af3b 65d3 14bb 52c5 d93b
00000130: 7892 a8bb 2083 d53b a189 8dbb 27f7 86ba
00000140: b795 d23b dbcc 8ab9 6f7b 283c a190 d3bb
00000150: a0fb aeba 6095 9dba 5702 b63b 3fd9 21bc
00000160: b07b 223b 3299 c83b 48cf 44bc 9e9c 40bb
00000170: f5cd 223a d985 f33a c938 c7ba e68c ca3b
00000180: 56ff dd3b 9693 b83a 2a59 e8ba cb33 bdbb
00000190: 4016 143b 1094 b93b 8205 e7bb c3f3 e63a
000001a0: 01b1 eeb8 f86b 8f3b 6415 babb 2f1b ee3b
000001b0: 2885 873a fff5 32ba dff2 083b 76ce 12ba
000001c0: 6cd9 e43b 6dfe 18bb fa30 2abc 6579 d53b
000001d0: 824a 0e3c 3b6c 09bc 77c9 bdbb 06a8 433a
000001e0: bfff 1a3b faa1 c9bb 7147 493b 56c6 53bc
000001f0: c353 03bc b81f 6abb 9416 9a38 3787 aabb
00000200: b1ee a33b 646d cbbb cf17 e3bb d294 28ba
00000210: 4285 df3b f83c cfbb 9de9 09bb 5acf a9ba
00000220: b053 48bc 2927 3d3b 9b93 91bb 4f84 90ba
00000230: 8b0c c23b 527c 15bb 5845 9aba 902d cbbb
00000240: 39a3 bb3b ebaa 573b f520 ddbb 02d5 dabb
00000250: 7586 92bc 436a 68ba 2602 9eba ee20 94bb
00000260: eff5 05bc c1a8 2d3c 81cd 8cbb aeaa 5ebb
00000270: 68c2 cebb 680b ed3a 3c38 003c da9f 27bc
00000280: 1b63 aa3b ee44 aebb e761 353b 535e 9e3a
00000290: 2a9f a6bb 64d9 1f3b 8d43 d63a 1f60 81bb
000002a0: d963 ccbb a7ba 853b 302b 023c c549 cfbb
000002b0: 530e 223a 4e4f 753b 3167 03bb e94c 18bc
000002c0: 905e 31bb 9709 d9ba 3aa1 abbb 3023 0cba
000002d0: 825e d8ba 8145 bebb 9ab5 bdbc 5a82 f5ba
000002e0: 8663 c8ba dfe9 0cbb c14b 00bc 080e 77bb
000002f0: 8b79 87bb f404 253c 1718 2c3a 7bd1 b73b
00000300: 9f6d 7abb db99 f63b 917a 59bb cf9c c4ba
00000310: 4a47 40bc 0856 c0bb 03ff 3fbc 5f4e 47bc
00000320: 3c7b 25bc 561e 08bc 4b79 813c 4470 bd3b
00000330: 833d e6bb 797b 8c3b 7cf1 253b 5850 2f3c
00000340: 6e42 dfbb 2c7b 7db9 8a4a 78bc 99fc debb
00000350: ad94 c83b fc41 93bb 2a4f 2fbb 0924 3a3c
00000360: 1f7a c4bb 5482 503b bc7e 733c fafd 4f3c
00000370: 62c0 443c 3977 5e3b f8ea 283b f6ae 603c
00000380: 6254 513b 38a7 fc3b 559b 89b9 ef3c f4bb
00000390: f44e 113c b157 bdbb edad 9fbb fd51 843c
000003a0: 4e0d b33b 95ab 323c 49fb 3dbb 0600 9f39
000003b0: acc0 aabb d32e bdbb 2737 0a3b 97cd 8e39
000003c0: 3d5d d43b e88b 2b39 3d12 21bc b891 d33b
000003d0: 4741 553b f974 e23b 177d 5c3c 9d87 f139
000003e0: 7f97 94bb 3bdf 17bc 2bde 93bb e856 853b
000003f0: 4045 d63b 0245 a83b 7978 64bc 87ea ad3b

onnx::MatMul_600 f4 [64, 256]
-0.006607526 0.007371298 -0.014504908 0.015551099 -0.003516883 0.0029024943 0.013960396 -0.0056743133
-0.005603929 0.015373789 -0.0038907605 0.003156967 0.013151122 -0.0103813205 -0.007080628 -0.012497849
0.006106041 -0.0042263824 -0.03278202 0.023693096 -0.021238066 -0.0015695553 -0.017955389 0.009185944
0.030194215 -0.035517953 0.008122632 -0.0014355989 -0.004154712 -0.008500047 0.0011475739 0.007944553
0.027690087 -0.0047585494 0.024762528 -0.033531237 -0.019379538 0.005718262 0.010365834 -0.0458691
-0.027157402 -0.04766364 -0.0064559286 -0.0016038109 -0.00795796 -0.026589949 -0.03213712 -0.032620832
-0.0024482028 0.020444298 0.010811019 -0.004581945 -0.023883492 0.012601774 0.0006561771 -0.003577364
0.019708555 -0.00046256545 0.014102612 0.023617499 0.03373695 0.02377634 -0.026305491 0.019463917
-0.01942033 0.004109503 0.028245952 0.004803028 0.008012069 -0.0010002505 -0.026996648 0.0036798944
0.019121666 -0.0142607875 -0.039793752 0.0092094755 -0.018656159 -0.008183945 0.003507932 -0.0016482112
0.00391697 0.0033924554 0.017686257 -0.025286224 -0.004513287 0.0035073631 -0.02251502 -0.014788053
0.047331065 -0.024148831 -0.008057404 0.012334915 0.006751303 8.091421e-05 -0.013489359 -0.009892594
0.028528966 0.026101666 -0.030629465 -0.009456154 0.030208005 0.020125967 0.030324226 0.024077408
0.013965598 -0.010276416 0.0127975 -0.0006881911 -0.019240633 -0.019318273 -0.017146213 -0.013971407
-0.005832575 -0.00096676423 -0.00813679 0.008751475 0.007195952 0.0016478406 -0.028304825 -0.0033098075
-0.011159566 -0.033305198 -0.028605193 0.009955955 0.00061215047 -0.003819554 0.009254568 0.0018328072
-0.0051044314 0.04023012 -0.029859716 0.037520867 0.014140923 -0.008536727 0.0012871557 -0.03690238
-0.015604501 -0.0017940494 -0.0044557615 0.018685482 0.017163513 -0.013055044 -0.03077628 0.013683055
0.0245913 0.013721291 0.011571982 0.009011447 0.0013682796 -0.02057486 -0.022016278 8.73461e-05
0.010351405 0.0298801 0.0018530058 -0.016429683 -0.0034218554 -0.04281094 0.013754649 0.01801054
-0.004480234 -0.008265849 0.0053035594 0.008918051 -0.0036736864 -0.0065761106 -0.020144612 -0.03484298
0.037878443 0.040128488 0.0062968573 -0.018995626 0.0067061572 -0.01562681 -0.00417476 -0.011147406
0.030357502 0.009815317 0.0032713003 -0.0031348055 0.013469126 -0.020243056 -0.03655202 -0.0017050069
0.043450005 -0.007034038 0.009110658 0.0027705117 0.008002962 -0.02459335 -0.008215224 0.008797364
-0.004908543 -0.018096877 -0.0018628392 -0.028156102 0.0055151205 0.025713857 0.0024456335 0.029485498
0.026180346 -0.0076790387 -0.0005529491 0.0125137735 -0.0012315449 -0.027934946 -0.03593725 -0.012070189
0.015459586 0.024441464 -0.026167242 -0.018778596 -0.020867188 0.019860862 0.0059055844 -0.007448725
-0.010465076 -0.002992778 -0.00601669 -0.017383868 -0.002843981 -0.035130896 0.010396043 0.03397153
0.033374783 0.024793414 -0.012276119 0.0094825 -0.007356278 -0.028213719 -0.011071697 -0.008420489
-0.023863105 0.03842584 -0.020500967 -0.019968951 0.026024036 -0.023395551 -0.041437667 0.00956928
-0.02454435 0.008305586 0.018128436 -0.006468253 -0.0081136115 0.004824079 -0.016740387 0.035785254
0.019599935 -0.011686338 -0.012009616 0.02424484 0.013940999 0.00182824 -0.0046621966 0.01738621
00000000: f283 d8bb ee8a f13b fea5 6dbc 09ca 7e3c
00000010: 817b 66bb c637 3e3b 25ba 643c 97ef b9bb
00000020: 2aa1 b7bb 58e2 7b3c 21fc 7ebb 1ee5 4e3b
00000030: ce77 573c 6a16 2abc 9d04 e8bb c7c3 4cbc
00000040: 2f15 c83b 777d 8abb 7046 06bd 0618 c23c
00000050: 74fb adbc 89b9 cdba 2e17 93bc a480 163c
00000060: dc59 f73c 467b 11bd ca14 053c b52a bcba
00000070: 4024 88bb c843 0bbc 316a 963a df29 023c
00000080: 52d6 e23c 9bed 9bbb c9da ca3c 0d58 09bd
00000090: d6c1 9ebc 4260 bb3b 76d5 293c 3de1 3bbd
000000a0: 3379 debc f33a 43bd 418c d3bb f736 d2ba
000000b0: 1a62 02bc 2ad3 d9bc 36a2 03bd 6c9d 05bd
000000c0: 0772 20bb cd7a a73c b320 313c 2424 96bb
000000d0: 50a7 c3bc ac77 4e3c 4d03 2c3a 3572 6abb
000000e0: d673 a13c 7c84 f2b9 a40e 673c 7c79 c13c
000000f0: c22f 0a3d 99c6 c23c 9d7e d7bc cb72 9f3c
00000100: 6217 9fbc 02a9 863b 0e64 e73c b862 9d3b
00000110: 0e45 033c d61a 83ba 1328 ddbc 622a 713b
00000120: 0aa5 9c3c 14a6 69bc c6fe 22bd 57e3 163c
00000130: cdd4 98bc f415 06bc 55e5 653b ca08 d8ba
00000140: ed59 803b f553 5e3b c5e2 903c 0e25 cfbc
00000150: 32e4 93bb cadb 653b 6b71 b8bc 9749 72bc
00000160: 38de 413d c5d3 c5bc 3403 04bc 6218 4a3c
00000170: 093a dd3b 7cb0 a938 7902 5dbc 8c14 22bc
00000180: 94b5 e93c 29d3 d53c a5ea fabc fced 1abc
00000190: c776 f73c 36df a43c 836a f83c fc3d c53c
000001a0: f7cf 643c 6a5e 28bc 9bac 513c b967 34ba
000001b0: 889e 9dbc 5b41 9ebc 3776 8cbc 54e8 64bc
000001c0: 2f1f bfbb 736e 7dba 2c50 05bc 5962 0f3c
000001d0: 05cc eb3b 5bfc d73a 85df e7bc 5be9 58bb
000001e0: 9dd6 36bc 086b 08bd 7055 eabc 4d1e 233c
000001f0: b978 203a 7c51 7abb 79a0 173c ce3a f03a
00000200: 1343 a7bb 57c8 243d 5d9c f4bc 7baf 193d
00000210: 54af 673c a1dd 0bbc c7b5 a83a f326 17bd
00000220: 05aa 7fbc 4f26 ebba a301 92bb 4c12 993c
00000230: 7f9a 8c3c d3e4 55bc 8a1e fcbc e42e 603c
00000240: b273 c93c 44cf 603c 6998 3d3c c0a4 133c
00000250: d857 b33a 9c8c a8bc 7b5b b4bc 952d b738
00000260: f098 293c 1dc7 f43c 8fe0 f23a 8b97 86bc
00000270: 3541 60bb 865a 2fbd 2e5b 613c d78a 933c
00000280: edce 92bb 7c6d 07bc 7bc9 ad3b 041d 123c
00000290: 3bc2 70bb 6a7c d7bb 5006 a5bc 83b7 0ebd
000002a0: 6d26 1b3d c55d 243d de55 ce3b b79c 9bbc
000002b0: 53bf db3b cc03 80bc 6dcc 88bb 9ca3 36bc
000002c0: 4cb0 f83c 6cd0 203c 5063 563b 4f71 4dbb
000002d0: 9cad 5c3c c4d4 a5bc 92b7 15bd 8a7a dfba
000002e0: a2f8 313d ca7d e6bb df44 153c 7991 353b
000002f0: db1e 033c fe77 c9bc 2699 06bc d222 103c
00000300: d8d7 a0bb e73f 94bc 832a f4ba a0a7 e6bc
00000310: 2fb8 b43b dea5 d23c ec46 203b 928b f13c
00000320: 2a78 d63c 72a0 fbbb c9f3 10ba 9206 4d3c
00000330: ca6b a1ba d4d7 e4bc f032 13bd 0bc2 45bc
00000340: 344a 7d3c 7739 c83c af5c d6bc 92d5 99bc
00000350: aaf1 aabc 3fb3 a23c a283 c13b 6f14 f4bb
00000360: b675 2bbc 7c22 44bb a727 c5bb 9d68 8ebc
00000370: 1562 3abb 6ae5 0fbd 2a54 2a3c bb25 0b3d
00000380: ffb3 083d 8f1b cb3c c621 49bc 7d5c 1b3c
00000390: ef0c f1bb 7520 e7bc 1066 35bc 17f6 09bc
000003a0: 8f7c c3bc 6a64 1d3d a5f1 a7bc ed95 a3bc
000003b0: 5c30 d53c 07a8 bfbc 8bba 29bd 78c8 1c3c
000003c0: 3c11 c9bc 2714 083c 1682 943c a4f3 d3bb
000003d0: f4ee 04bc 4f13 9e3b 2323 89bc 8f93 123d
000003e0: 0b90 a03c 0e78 3fbc fbc3 44bc 1d9d c63c
000003f0: ca68 643c 8ea1 ef3a 57c5 98bb 866d 8e3c

onnx::MatMul_601 f4 [256, 64]
0.0048166923 0.008680653 0.0070807924 -0.0053099995 -0.005284866 0.0006175294 0.010390265 -0.0009850195
0.009610914 -0.012223734 0.008663535 0.0068461127 -0.006305705 -0.0057745106 -0.008356119 0.0017837945
-0.012676538 -0.0049320315 -0.012818782 -0.00090308924 -0.008848684 -0.0014334157 -0.0022438038 0.0006221406
-0.007124851 0.008286447 -0.01118775 -0.013210237 -0.018661493 -0.009433317 0.0004678621 0.0022835168
-0.007224949 -0.008101102 0.009466765 -0.007732752 -0.010310326 0.01514218 0.0006795906 -0.005330791
-0.0025314454 -0.0061401194 0.0023728316 -0.009377653 0.00302604 0.009515181 -0.0026362333 0.000341006
-6.7597735e-05 -0.005258828 0.009175703 0.006958273 -0.0006829451 0.010981127 -0.010849095 0.00867313
0.0026674727 0.00022067437 0.012566298 -0.0020791998 0.0045296354 -0.0039420207 -0.0034841923 0.0060913423
0.0077334135 -0.0013883888 -0.0047077583 0.003771209 -0.0036076335 -0.007815562 -0.0069220387 0.004895299
-0.0023914264 0.004704326 0.011760353 -0.0067853434 0.01022982 0.0015744782 0.009137237 0.0019289571
0.004895154 0.015014615 -0.00366609 -0.0018423034 -0.0050872234 -0.012160917 -0.00582093 -0.005966256
-0.008093668 0.0059479987 0.0122596035 -0.0037832055 -0.008270673 0.011230143 -0.0038032548 -0.005759212
-0.005029994 0.0029735581 0.0031549735 -0.0032875913 0.011818736 -0.005544998 0.0052749887 0.005680269
-0.006177328 -0.00033562005 -0.0024992123 0.001377897 0.009506763 0.01445415 0.01102178 0.0007763615
-0.000992792 -0.0076202857 0.0028328118 0.0057800636 -0.008110504 0.00066384685 -0.010896059 0.0024492657
7.718693e-05 -0.004145202 0.0055937744 0.009529533 -0.01032622 0.0034913348 -0.010796118 -0.0047345455
0.002216628 0.0037878999 0.00083504454 0.0019477141 0.009266752 0.0011043674 -0.0051999534 0.008136097
-0.0021985702 0.00822296 0.006434411 0.0021359771 0.0064959424 -0.0062164525 0.012219597 -0.0140663935
-0.0018924417 0.0150938295 -0.004185404 0.0041998923 -0.0053925617 -0.010642772 -0.005944554 0.0031560336
0.008253578 0.00060605333 0.008076275 7.228035e-05 0.0014370673 -0.004465625 0.0031130144 -0.0010062397
-0.008351479 -0.008403496 -0.0031574836 -0.00047617417 0.0028176396 0.005694201 0.0038809853 0.007223143
-0.0022957597 -0.011582775 0.0023188759 -0.007019929 -0.008942365 0.009417309 -0.00051261036 -0.012156884
0.00529131 0.0013537459 0.00923032 -0.009219372 -0.011658529 0.0014033837 0.009666183 0.0050230655
0.0014200285 0.004316637 0.000907192 0.0061127674 -0.008315596 0.009459486 0.011465657 -0.00089461246
-0.007976811 -0.0031481255 0.0055321013 0.0021877668 0.009706599 -0.007258561 0.0050654616 0.01416645
-0.0028433353 0.0010887358 -0.0034684418 -0.0046444773 0.011113049 0.0050817947 -0.0013986134 0.0031870874
-0.00058063056 -0.002514546 -0.021118088 -0.0027388271 0.003225207 0.0071231006 0.0027892217 0.0056958627
-0.0022716958 -0.004390998 0.0069155204 0.003045985 -0.011495241 0.0014723107 0.014731911 0.0017848783
0.011916686 -0.008790717 -0.0007271218 0.0007743527 0.0007324165 0.00051352347 -0.0009122531 0.006870868
-0.004375491 0.009732106 0.007872826 -0.00635316 -0.0037203385 -0.0062916647 0.0007661404 -0.005866817
-0.0015667414 0.0013085935 0.010230955 0.0068532545 0.0025133565 0.002007955 -0.0043141674 0.0022720755
-0.0051816925 0.0018762038 -0.01331328 -0.013841926 0.0047636726 0.0012159235 0.007918854 -0.012828201
00000000: 58d5 9d3b 4c39 0e3c fe05 e83b 81ff adbb
00000010: ab2c adbb b2e1 213a ee3b 2a3c c51b 81ba
00000020: 1877 1d3c 0e46 48bc 80f1 0d3c 5b55 e03b
00000030: 16a0 cebb 1b38 bdbb 1ae8 08bc 36ce e93a
00000040: 41b1 4fbc e19c a1bb de05 52bc 4bbd 6cba
00000050: 12fa 10bc 73e1 bbba c80c 13bb 2617 233a
00000060: 9577 e9bb e1c3 073c d34c 37bc c06f 58bc
00000070: fddf 98bc 338e 1abc 634b f539 0ea7 153b
00000080: 44bf ecbb 7cba 04bc 7e1a 1b3c 0663 fdbb
00000090: a4ec 28bc e816 783c 8e26 323a ebad aebb
000000a0: 9be6 25bb 0e33 c9bb 8281 1b3b baa4 19bc
000000b0: 8750 463b 90e5 1b3c a8c4 2cbb 0dc9 b239
000000c0: 42c3 8db8 3f52 acbb b055 163c 3902 e43b
000000d0: ab07 33ba 2fea 333c 67c0 31bc be19 0e3c
000000e0: c4d0 2e3b d364 6739 e0e2 4d3c 2f43 08bb
000000f0: 566d 943b 112c 81bb 0c57 64bb e299 c73b
00000100: 9368 fd3b 99fa b5ba 8a43 9abb 6326 773b
00000110: 0c6e 6cbb d80c 00bc 45d2 e2bb bf68 a03b
00000120: 7ab9 1cbb bf26 9a3b 7fae 403c 9657 debb
00000130: fa9a 273c b95e ce3a 5ab4 153c 0fd5 fc3a
00000140: 8767 a03b dcff 753c c942 70bb 7279 f1ba
00000150: b9b2 a6bb 953e 47bc 80bd bebb 9580 c3bb
00000160: 4e9b 04bc 6ee7 c23b 81dc 483c a8ef 77bb
00000170: b881 07bc a2fe 373c 0740 79bb c6b7 bcbb
00000180: a6d2 a4bb 07e0 423b acc3 4e3b a174 57bb
00000190: 5fa3 413c d1b2 b5bb d0d9 ac3b 8d21 ba3b
000001a0: 2f6b cabb 29f6 afb9 d3c9 23bb 8d9a b43a
000001b0: 41c2 1b3c 19d1 6c3c b294 343c bd84 4b3a
000001c0: 9220 82ba 97b3 f9bb b2a6 393b b066 bd3b
000001d0: ebe1 04bc 0206 2e3a 6285 32bc dc83 203b
000001e0: 6bdf a138 7ad4 87bb fb4b b73b c221 1c3c
000001f0: 4e2f 29bc e1ce 643b 33e2 30bc 3f24 9bbb
00000200: d944 113b 6a3e 783b e4e6 5a3a 714a ff3a
00000210: 93d3 173c 6cc0 903a 5f64 aabb 444d 053c
00000220: e315 10bb 98b9 063c c0d7 d23b c0fb 0b3b
00000230: eadb d43b 62b3 cbbb b434 483c bb76 66bc
00000240: ce0b f8ba 1c4c 773c b725 89bb 409f 893b
00000250: 16b4 b0bb 055f 2ebc 89ca c2bb 75d5 4e3b
00000260: 043a 073c 8ddf 1e3a 5a52 043c 3895 9738
00000270: fa5b bc3a 6154 92bb b703 4c3b cde3 83ba
00000280: a4d4 08bc d1ae 09bc c9ed 4ebb 04a7 f9b9
00000290: 26a8 383b 6c96 ba3b 2158 7e3b 1db0 ec3b
000002a0: 7574 16bb aec5 3dbc 48f8 173b 6f07 e6bb
000002b0: ff82 12bc 0f4b 1a3c b360 06ba ab2d 47bc
000002c0: ba62 ad3b 2d70 b13a c53a 173c d90c 17bc
000002d0: 6a03 3fbc bef1 b73a e95e 1e3c 8798 a43b
000002e0: 4020 ba3a 9372 8d3b a0d0 6d3a 9c4d c83b
000002f0: 233e 08bc f6fb 1a3c 73da 3b3c 6d84 6aba
00000300: 2cb1 02bc c850 4ebb a146 b53b a360 0f3b
00000310: 6d08 1f3c 39d9 edbb 2cfc a53b 661a 683c
00000320: 4057 3abb e9b3 8e3a cc4e 63bb b330 98bb
00000330: 8213 363c 2f85 a63b ae51 b7ba 74de 503b
00000340: 7535 18ba 15cb 24bb d7ff acbc e57d 33bb
00000350: ff5d 533b e668 e93b 60cb 363b 5ca4 ba3b
00000360: bbe0 14bb 5ce2 8fbb 979b e23b 269f 473b
00000370: 8956 3cbc 8dfa c03a 1d5e 713c 94f2 e93a
00000380: 343e 433c f106 10bc 519c 3eba eefd 4a3a
00000390: a4ff 3f3a fa9d 063a 4524 6fba 0525 e13b
000003a0: 4760 8fbb 6973 1f3c 07fd 003c 2b2e d0bb
000003b0: ecd0 73bb 4f2a cebb d0d6 483a 6e3e c0bb
000003c0: 1e5b cdba 1d85 ab3a bc9f 273c 4491 e03b
000003d0: 20b7 243b e597 033b dc5d 8dbb 1ae7 143b
000003e0: 30cb a9bb f4ea f53a f21f 5abc 3fc9 62bc
000003f0: 9518 9c3b 9f5f 9f3a 15be 013c 602d 52bc
