network.onnx (onnx, 905016 bytes, 21 tensors)

transformer.wte.weight f4 [65, 64]
0	0x3d04e25f	0.032442447
1	0x3c50ad25	0.012736593
2	0x3d5ad07e	0.05342149
3	0xbc42d6d5	-0.01189204
4	0xbcb4048e	-0.021974828
5	0x3cec880b	0.028873464
6	0xbc0cf169	-0.008602479
7	0x3bd96c82	0.0066352496
8	0xbc741aa0	-0.014898926
9	0xbcafe44f	-0.02147117
10	0xbd29839b	-0.041385274
11	0x3be7ba5e	0.0070717772
12	0x3cbf7bf4	0.023374535
13	0x3abcf2cb	0.001441562
14	0xbc3614e4	-0.011113379
15	0xbc8f99ef	-0.017529456
16	0xbbe304af	-0.0069280486
17	0xbb0af410	-0.0021202601
18	0x3d1f2ee6	0.038863085
19	0xbc8a9b8a	-0.01691987
20	0x3ccbfe39	0.024901496
21	0x3cc65ca2	0.024214093
22	0xbb20ff76	-0.002456633
23	0x3c5500ae	0.01300065
24	0x3bbb8b30	0.0057233796
25	0xbc81fc38	-0.015867338
26	0x3c2860f7	0.0102770245
27	0x3bcb29d4	0.0062000547
28	0xbccb3644	-0.02480615
29	0x3c4d9be5	0.012549375
30	0x3c9ebeeb	0.019378146
31	0xbca4e8b8	-0.0201305
32	0xbbc9c0c0	-0.006157011
33	0x3ac05a64	0.0014675376
34	0xbb9f6bb2	-0.004865133
35	0xbc4a9cd7	-0.012366495
36	0x3ba90b70	0.005158834
37	0x3c5b58d2	0.013387876
38	0xbcfc9ba5	-0.030835936
39	0x3cc5bc09	0.024137514
40	0xbca7c39d	-0.020479018
41	0xbb3c948a	-0.002877506
42	0x3d448152	0.047974892
43	0x3bbce770	0.005764894
44	0xbb849b87	-0.0040468606
45	0x3cd92332	0.02650604
46	0xbc87488d	-0.016514087
47	0x3cca817e	0.02471995
48	0xbba37626	-0.0049884496
49	0x3b7550f4	0.0037432285
50	0x3a9ef172	0.00121264
51	0x3d693977	0.05693957
52	0xbc90963e	-0.017649766
53	0xbcacfc7d	-0.02111649
54	0x3d3c6998	0.04599914
55	0xbc8970d0	-0.016777426
56	0x3c74bd81	0.014937759
57	0x3c8593f4	0.016305901
58	0xbcb84b35	-0.022496799
59	0x3c15a178	0.009132735
60	0xbd23541d	-0.03987514
61	0xbb8d2cf0	-0.0043083355
62	0x3abc2847	0.0014355265
63	0x3ca63b5d	0.020291978
64	0x3b211b0e	0.0024582776
65	0x3bba5d90	0.005687423
66	0x3c823346	0.01589359
67	0xbc760387	-0.015015489
68	0x3c7f405c	0.015579309
69	0x3bdd04f4	0.006744975
70	0x3a66e687	0.0008808155
71	0x3d00ed90	0.031476557
72	0xbd3db6f0	-0.04631704
73	0x3c732363	0.01483998
74	0x3b98b994	0.0046607945
75	0x3c3aa612	0.011392133
76	0xbb5e1f94	-0.0033893334
77	0xbd0583de	-0.03259646
78	0x3b94591b	0.0045272238
79	0x3c15c617	0.009141467
80	0xbc97cbc8	-0.018529788
81	0x3c79f1a7	0.015255368
82	0x3c0da1b6	0.008644512
83	0xbc97b5d5	-0.018519321
84	0x3c93ba12	0.018033061
85	0x3c94dfeb	0.018173179
86	0xbc7968d5	-0.015222748
87	0x3d0f8492	0.03503854
88	0xbc30178e	-0.010747803
89	0x3bdb4445	0.006691488
90	0x3c85bd23	0.016325539
91	0x3afd85a7	0.00193422
92	0xbd1cecef	-0.038311895
93	0xbd050da0	-0.032483697
94	0x3c4dede4	0.012568925
95	0xbb8480c1	-0.004043669
96	0xbcae8a4b	-0.021306178
97	0x3bcf743d	0.0063309954
98	0x3d0bf37f	0.034167763
99	0x3cf7ed3b	0.030264487
100	0x3c70736c	0.014675956
101	0x3b70dab7	0.0036751458
102	0x3cf305a3	0.029665774
103	0xba3caec7	-0.0007197675
104	0xbb8b1d8b	-0.004245465
105	0xbaea4dd5	-0.0017875979
106	0x3ce2a2bb	0.027665487
107	0xbb14fa8d	-0.0022732348
108	0x3c183fdd	0.00929257
109	0x3ccd3039	0.025047408
110	0xbb2472ca	-0.0025092834
111	0xbca5c5ae	-0.020235863
112	0xbc071447	-0.008244581
113	0xbbfe6d00	-0.0077644587
114	0x3c31a098	0.010841511
115	0x3c63ce32	0.013904141
116	0x3d39a24a	0.045320787
117	0x3cc5db3e	0.024152394
118	0xbca620fc	-0.0202794
119	0xbc1eee07	-0.009700305
120	0xb8c73529	-9.498961e-05
121	0xbb555c93	-0.00325564
122	0x3ce488d0	0.027897269
123	0x3c8ca7bc	0.017169826
124	0xbcb61bfb	-0.022230139
125	0xb9b632aa	-0.00034751493
126	0x3cfca3a9	0.030839758
127	0x3c8c7eda	0.017150331
128	0x3b05cf49	0.002041774
129	0x3d042a84	0.03226711
130	0x3ca95f40	0.020675302
131	0xbca06ba4	-0.019582577
132	0xbcd06eaf	-0.025443403
133	0x3b3e5372	0.0029041437
134	0x399954c2	0.00029245584
135	0xbd4888af	-0.048958477
136	0x3cbda819	0.023151444
137	0x3bf18a52	0.0073712254
138	0xbb80c9ae	-0.003930292
139	0xbd479680	-0.048727512
140	0x3c0086ad	0.007844609
141	0x3c4502ab	0.012024562
142	0x3c8e8bca	0.017400641
143	0x3c6cad3d	0.0144456
144	0xbcb41c62	-0.02198619
145	0xbc951ad4	-0.01820127
146	0xbc1f62ee	-0.0097281765
147	0xbc502ade	-0.012705533
148	0xbb83f984	-0.0040275473
149	0x3c689fa7	0.01419822
150	0xbc8c4687	-0.017123474
151	0xbc2a4b14	-0.010393877
152	0xbc2285ca	-0.009919593
153	0x3d06b9cd	0.032892037
154	0x3bdf38ee	0.0068122065
155	0x3cd1039c	0.025514416
156	0xbc086682	-0.008325221
157	0xbd46b252	-0.048509903
158	0x3ce9cfcb	0.028541466
159	0x3c28d789	0.010305294
160	0x3c9d4572	0.019198153
161	0xbac4260a	-0.001496495
162	0x3c8951ca	0.016762633
163	0x3d2e5296	0.04255923
164	0xbd040f71	-0.03224129
165	0x3c6a4a29	0.014299908
166	0xbb82e486	-0.0039945273
167	0xbcb37fb2	-0.021911476
168	0x3cc25e9d	0.023726756
169	0x3c0fe15e	0.008781759
170	0xbcdd45b0	-0.027010769
171	0xbc93bb62	-0.018033687
172	0xba504f3d	-0.0007946378
173	0x3c061909	0.00818468
174	0xbce9f295	-0.028558055
175	0xb91bf865	-0.00014874486
176	0xbc42411b	-0.011856343
177	0x3b26796a	0.0025401958
178	0xbb64f417	-0.0034935528
179	0xbc15974f	-0.009130313
180	0x3ca3da9d	0.020001704
181	0x3cf04f30	0.029334635
182	0xbc6a124f	-0.014286592
183	0xbc2eed57	-0.010676703
184	0xbc2cc004	-0.010543827
185	0xba1cd06e	-0.0005981986
186	0xbc2f4925	-0.010698591
187	0x3cd42b17	0.025899453
188	0x3baa4fae	0.005197487
189	0x3ca1a77e	0.019733187
190	0x3c2a3afd	0.01039004
191	0xbcb60db7	-0.022223337
192	0xbcb26f5d	-0.021781618
193	0xbb9c7776	-0.004774983
194	0xbccc4f52	-0.024940167
195	0x3c47215d	0.0121539505
196	0xbc47f10b	-0.012203465
197	0x3cbb6305	0.022874365
198	0xbd18d112	-0.03730876
199	0xbc0e9484	-0.008702401
200	0x3c871b01	0.016492369
201	0x3bd36870	0.006451659
202	0x3d32fc1d	0.043697465
203	0x3ca0128e	0.019540098
204	0x3c766d99	0.015040779
205	0x3b1dfce7	0.002410704
206	0x3bba3854	0.0056829844
207	0xbc623c92	-0.013808386
208	0x3c2594a5	0.01010624
209	0xbd3e3661	-0.04643858
210	0x3d2d1577	0.0422568
211	0x3c69b4d0	0.0142643
212	0x3d444129	0.047913704
213	0x3cdba7c4	0.026813395
214	0x3cd4d99e	0.025982674
215	0x3c3b757e	0.011441587
216	0x3caf73b0	0.021417469
217	0xbd022b24	-0.031779423
218	0xba584a61	-0.00082508294
219	0x3d188009	0.03723148
220	0x3b85d535	0.004084254
221	0x3b8b8948	0.0042583086
222	0x3cf77f39	0.030212032
223	0x3d781983	0.060571205
224	0x3bc7df95	0.006099651
225	0xbc7e6979	-0.015528076
226	0xbb9e4705	-0.0048302435
227	0xbbd0d9e9	-0.006373633
228	0xbbeabb4c	-0.007163441
229	0x3bbea675	0.005818183
230	0xbc060824	-0.008180652
231	0x3d117389	0.035510574
232	0xbcc4ae0a	-0.02400877
233	0xbc2e7793	-0.010648626
234	0x3c2ad69c	0.010427143
235	0xbc3e2b1c	-0.011606958
236	0xbc52e365	-0.012871598
237	0x3ca576e0	0.020198286
238	0x3c4e728b	0.012600551
239	0x3b22e840	0.002485767
240	0xbcfffc72	-0.031248305
241	0x3c94031f	0.018067895
242	0x3d413080	0.047165394
243	0x3c5254af	0.012837573
244	0x3bf12592	0.007359215
245	0x3cc64c04	0.024206169
246	0xbb78480f	-0.0037884747
247	0x3ce73ed8	0.028228208
248	0xbccd0360	-0.025026023
249	0xbbb4dd19	-0.005519521
250	0x3b34e545	0.0027602476
251	0x3b289dc4	0.0025728801
252	0xbd34b37b	-0.04411648
253	0xbc010a61	-0.00787601
254	0xbb5d3b2b	-0.003375719
255	0x3cec180f	0.028820066

transformer.wpe.weight f4 [64, 64]
0	0x3d394160	0.045228362
1	0xbb8e2c93	-0.0043388098
2	0x3cfaadde	0.030600484
3	0x3c10bce9	0.008834102
4	0x3aedff15	0.0018157685
5	0x3cfd1f7d	0.030898804
6	0x3d1056b9	0.035238955
7	0x3c41bc6a	0.011824707
8	0xbcae6cfd	-0.021292204
9	0x38e5f7db	0.000109657376
10	0xbc863ae9	-0.016385512
11	0x3d2e7517	0.042592134
12	0x3d1721b6	0.036897384
13	0xbc0112fe	-0.007878063
14	0x3c015394	0.007893462
15	0xbb321f67	-0.0027179362
16	0xbcddb2e4	-0.02706284
17	0x3c04ed39	0.008113199
18	0xbc6d19f5	-0.014471521
19	0xbbd0baef	-0.0063699405
20	0x3b4b1798	0.0030989405
21	0x3cc0d047	0.023536814
22	0xbcd6a8f2	-0.026203606
23	0x3bf09454	0.007341901
24	0x3c853292	0.016259465
25	0x3c76abb4	0.015055586
26	0xbd54e8c2	-0.051979788
27	0xbcb98bb3	-0.022649622
28	0x3c5e8769	0.013582089
29	0xbcb5ff50	-0.022216469
30	0x3d1e71f7	0.038682904
31	0x3be446cb	0.006966447
32	0xbbefdda2	-0.007320122
33	0xbad1d7cf	-0.001600975
34	0xbcf722b8	-0.030167922
35	0x3a07026a	0.0005150201
36	0xbc85a97c	-0.016316168
37	0xbc8cd07e	-0.01718926
38	0xbcf45a37	-0.029828174
39	0x3cad537b	0.02115797
40	0x3c61aa24	0.013773475
41	0xbcee97eb	-0.029125175
42	0xbca03ab3	-0.01955924
43	0xbba66d13	-0.0050789206
44	0x3cfeaf0e	0.031089332
45	0x3c58bdec	0.013228875
46	0x3cb66ba9	0.022268133
47	0xbc2d1641	-0.010564388
48	0x3c86c264	0.016450115
49	0x3b2c587b	0.0026297856
50	0x3bdefc9c	0.0068050157
51	0xbc9bdd37	-0.019026382
52	0xbcf90bee	-0.030401196
53	0xbc844b06	-0.016149055
54	0x3d020c19	0.03174982
55	0xbc8e5fcc	-0.017379664
56	0x3a813147	0.0009856605
57	0xbbfbf4e6	-0.0076891063
58	0x3ba82ab6	0.0051320447
59	0x3ca492aa	0.020089466
60	0xbccfe3d5	-0.025377193
61	0xbc32e0d8	-0.010917865
62	0x3b31c7fe	0.0027127261
63	0xbc38613c	-0.011253651
64	0xbc98be17	-0.01864533
65	0x3ba66e06	0.005079034
66	0x3c15bd60	0.009139389
67	0xbcbc8434	-0.023012258
68	0xba32d784	-0.00068222755
69	0xbd02dfcb	-0.031951707
70	0x3c6d498a	0.014482865
71	0xbbfe1837	-0.0077543515
72	0xbbf35589	-0.007425968
73	0x3d041026	0.032241963
74	0xbc424465	-0.011857127
75	0x3d1a5639	0.037679885
76	0x3b0c9183	0.0021449036
77	0xbc9a1df9	-0.01881312
78	0x3d08f176	0.0334334
79	0xbca00ff0	-0.01953885
80	0x3c81af94	0.015830792
81	0x3cdb0fc5	0.026740918
82	0xb9146fa3	-0.00014155968
83	0xbb92d9c1	-0.0044815247
84	0x3b5c1544	0.0033582011
85	0xba16f2eb	-0.00057582435
86	0x3c82cb9a	0.015966225
87	0x3c829ab2	0.015942905
88	0xbcb25b5e	-0.021772083
89	0x3d000620	0.03125584
90	0x3d538255	0.051637966
91	0x3c366b4d	0.011133981
92	0xbc411112	-0.011783855
93	0x3c47ea59	0.012201869
94	0xbd15c3f5	-0.036563832
95	0x3b83a8aa	0.004017909
96	0xbc021d25	-0.007941519
97	0x3cdf172b	0.027232727
98	0x3b1556b7	0.0022787282
99	0x3ce9e4e3	0.028551525
100	0xba52ae7c	-0.00080368645
101	0x3ce02f0c	0.027366184
102	0xbccbfd54	-0.02490107
103	0xbbb5374b	-0.005530273
104	0x3c6c27ef	0.014413818
105	0xb9de3f85	-0.00042390465
106	0xba3e8ddc	-0.00072690635
107	0x3c00496a	0.007830003
108	0xbca63eca	-0.020293612
109	0x3c35b2bb	0.011089976
110	0x3d01d9c8	0.031701833
111	0x3d1e8f16	0.038710676
112	0x3ad65a2f	0.0016353781
113	0xbbbd3882	-0.0057745585
114	0xbabb938d	-0.0014310941
115	0x395f0cd5	0.00021271718
116	0xbc622802	-0.013803484
117	0x3c935175	0.017983178
118	0xbbc36b8a	-0.0059637474
119	0x3ce3eb33	0.027822113
120	0xbc03ac82	-0.008036735
121	0xb9d77247	-0.0004109314
122	0x3c209f61	0.009803624
123	0xbc9adb2c	-0.018903337
124	0x3cbb3657	0.02285306
125	0xbc7b3917	-0.0153334355
126	0xbc274332	-0.010208892
127	0x3c2190e6	0.009861207
128	0xbca3a370	-0.019975394
129	0x3c6de85e	0.014520733
130	0x3b87a351	0.004139342
131	0xbcb3db7d	-0.021955246
132	0xbc9bb689	-0.019007938
133	0xbc1af1a2	-0.009457024
134	0x3c840fb2	0.016120765
135	0xbcad712b	-0.021172127
136	0x3d0d2ae2	0.034464724
137	0xbc63d03c	-0.013904627
138	0xbcbbb122	-0.022911612
139	0xbb2111b5	-0.0024577205
140	0x394d862e	0.0001960031
141	0x3b59b29c	0.0033218032
142	0x3c9cc0b2	0.019134853
143	0x3bedad4a	0.0072533237
144	0xbc8ed519	-0.017435597
145	0xbcb75387	-0.022378696
146	0x3d19b51f	0.037526246
147	0xbc6c640f	-0.014428153
148	0x3cf95d07	0.030439867
149	0xbaa2668d	-0.0012390182
150	0xbc2dbef7	-0.010604612
151	0x3d081bc2	0.033229597
152	0xbcfdfcb3	-0.031004285
153	0x3c762478	0.015023343
154	0x3bfb5b34	0.0076707844
155	0x3cacc640	0.021090627
156	0x3c9152e5	0.017739723
157	0x3c796601	0.0152220735
158	0xbb055670	-0.002034571
159	0xbb9f17b9	-0.004855123
160	0xbd551c81	-0.052029137
161	0xbd2e79be	-0.04259657
162	0x3b38bebb	0.0028189856
163	0xbcc397eb	-0.023876151
164	0x3ce2e42e	0.027696695
165	0xbbe4fd60	-0.0069882125
166	0xbc15e6d9	-0.009149277
167	0x3c8f4210	0.017487556
168	0x3cb72ad9	0.022359299
169	0x3d62d1d8	0.055375904
170	0xbcd73cc4	-0.026274092
171	0x3c01ccf0	0.007922396
172	0xbcc97697	-0.02459268
173	0xbb57e009	-0.0032939932
174	0x39cff4ea	0.00039664592
175	0x3c2dfc8d	0.010619295
176	0xbcb0d937	-0.021587951
177	0x3c596479	0.013268583
178	0x3cd29334	0.025704958
179	0x3b56d8d3	0.0032783046
180	0x3c2596e0	0.010106772
181	0xbb6376a1	-0.003470816
182	0x3d044054	0.03228791
183	0xbc82ee61	-0.015982809
184	0x3d42356b	0.047414225
185	0x3c54b633	0.012982893
186	0x39c93c29	0.0003838253
187	0xbcd7be0b	-0.026335737
188	0x3c9c8ca8	0.019110039
189	0xbc97d0e9	-0.018532233
190	0xbc8c57fb	-0.017131796
191	0x3c81cbbd	0.01584422
192	0x3a19fca7	0.0005874135
193	0xbc66f02f	-0.01409535
194	0xbb94d35b	-0.004541797
195	0x3d1679c0	0.036737204
196	0xbcc48f0e	-0.023993995
197	0x3d29a970	0.041421354
198	0x3cc1073c	0.02356302
199	0x3cafc199	0.02145462
200	0xbb929fad	-0.0044746012
201	0xbce5f1e6	-0.028069448
202	0x3b92c746	0.0044793217
203	0x3cc0f952	0.023556385
204	0x3bb3f65d	0.0054920153
205	0x3c921110	0.017830402
206	0x3d2697c9	0.040672097
207	0xbcf515f4	-0.029917695
208	0x3c800c78	0.015630946
209	0x3c9b7e5b	0.01898115
210	0x3d120f5d	0.035659183
211	0xbbbbec49	-0.0057349545
212	0x3d41e6be	0.047339194
213	0xbc699293	-0.014256137
214	0xbbf9ea67	-0.00762682
215	0xba5c427d	-0.00084022415
216	0xbc36cf60	-0.0111578405
217	0xbcc42e13	-0.023947751
218	0x3b39ef59	0.0028371422
219	0xbc3038cf	-0.010755732
220	0x3bbb2167	0.005710769
221	0xbb0ace3d	-0.0021180057
222	0xbd4935b2	-0.049123473
223	0xbc95bd24	-0.018278666
224	0x3d3dd8c6	0.04634931
225	0xbc82bfbe	-0.01596057
226	0xbcb59b26	-0.022168707
227	0xbc82d30d	-0.015969777
228	0x3ce46ec1	0.027884843
229	0xbc85c28b	-0.016328117
230	0x3d0ea8fd	0.03482913
231	0xbc1307e4	-0.008974049
232	0x3c10382d	0.008802456
233	0x3c9acb30	0.018895715
234	0xbb929bd5	-0.004474143
235	0x3ce1dbe4	0.027570672
236	0xbc4ef8d0	-0.012632564
237	0xbb891684	-0.0041835923
238	0x3ce61085	0.028084049
239	0x3c80d908	0.015728489
240	0xbcfffe93	-0.03124932
241	0xbca3418e	-0.01992872
242	0xbc2e0a2b	-0.010622541
243	0xbc4559ed	-0.012045366
244	0x3bd00066	0.0063477037
245	0xbd0f1f0a	-0.03494171
246	0x3b162794	0.0022911774
247	0x3b23021f	0.002487309
248	0xbd06660f	-0.032812174
249	0xbc1a364f	-0.009412362
250	0xba8b9c4e	-0.0010651441
251	0xbb63bc82	-0.003474981
252	0xbc3a7c40	-0.011382163
253	0xbcb25ef9	-0.021773802
254	0xbcbc2e20	-0.022971213
255	0x3ba31e50	0.0049779788

transformer.h.0.ln_1.weight f4 [64]
0	0x3f800000	1.0
1	0x3f800000	1.0
2	0x3f800000	1.0
3	0x3f800000	1.0
4	0x3f800000	1.0
5	0x3f800000	1.0
6	0x3f800000	1.0
7	0x3f800000	1.0
8	0x3f800000	1.0
9	0x3f800000	1.0
10	0x3f800000	1.0
11	0x3f800000	1.0
12	0x3f800000	1.0
13	0x3f800000	1.0
14	0x3f800000	1.0
15	0x3f800000	1.0
16	0x3f800000	1.0
17	0x3f800000	1.0
18	0x3f800000	1.0
19	0x3f800000	1.0
20	0x3f800000	1.0
21	0x3f800000	1.0
22	0x3f800000	1.0
23	0x3f800000	1.0
24	0x3f800000	1.0
25	0x3f800000	1.0
26	0x3f800000	1.0
27	0x3f800000	1.0
28	0x3f800000	1.0
29	0x3f800000	1.0
30	0x3f800000	1.0
31	0x3f800000	1.0
32	0x3f800000	1.0
33	0x3f800000	1.0
34	0x3f800000	1.0
35	0x3f800000	1.0
36	0x3f800000	1.0
37	0x3f800000	1.0
38	0x3f800000	1.0
39	0x3f800000	1.0
40	0x3f800000	1.0
41	0x3f800000	1.0
42	0x3f800000	1.0
43	0x3f800000	1.0
44	0x3f800000	1.0
45	0x3f800000	1.0
46	0x3f800000	1.0
47	0x3f800000	1.0
48	0x3f800000	1.0
49	0x3f800000	1.0
50	0x3f800000	1.0
51	0x3f800000	1.0
52	0x3f800000	1.0
53	0x3f800000	1.0
54	0x3f800000	1.0
55	0x3f800000	1.0
56	0x3f800000	1.0
57	0x3f800000	1.0
58	0x3f800000	1.0
59	0x3f800000	1.0
60	0x3f800000	1.0
61	0x3f800000	1.0
62	0x3f800000	1.0
63	0x3f800000	1.0

transformer.h.0.attn.bias f4 [1, 1, 64, 64]
0	0x3f800000	1.0
1	0x00000000	0.0
2	0x00000000	0.0
3	0x00000000	0.0
4	0x00000000	0.0
5	0x00000000	0.0
6	0x00000000	0.0
7	0x00000000	0.0
8	0x00000000	0.0
9	0x00000000	0.0
10	0x00000000	0.0
11	0x00000000	0.0
12	0x00000000	0.0
13	0x00000000	0.0
14	0x00000000	0.0
15	0x00000000	0.0
16	0x00000000	0.0
17	0x00000000	0.0
18	0x00000000	0.0
19	0x00000000	0.0
20	0x00000000	0.0
21	0x00000000	0.0
22	0x00000000	0.0
23	0x00000000	0.0
24	0x00000000	0.0
25	0x00000000	0.0
26	0x00000000	0.0
27	0x00000000	0.0
28	0x00000000	0.0
29	0x00000000	0.0
30	0x00000000	0.0
31	0x00000000	0.0
32	0x00000000	0.0
33	0x00000000	0.0
34	0x00000000	0.0
35	0x00000000	0.0
36	0x00000000	0.0
37	0x00000000	0.0
38	0x00000000	0.0
39	0x00000000	0.0
40	0x00000000	0.0
41	0x00000000	0.0
42	0x00000000	0.0
43	0x00000000	0.0
44	0x00000000	0.0
45	0x00000000	0.0
46	0x00000000	0.0
47	0x00000000	0.0
48	0x00000000	0.0
49	0x00000000	0.0
50	0x00000000	0.0
51	0x00000000	0.0
52	0x00000000	0.0
53	0x00000000	0.0
54	0x00000000	0.0
55	0x00000000	0.0
56	0x00000000	0.0
57	0x00000000	0.0
58	0x00000000	0.0
59	0x00000000	0.0
60	0x00000000	0.0
61	0x00000000	0.0
62	0x00000000	0.0
63	0x00000000	0.0
64	0x3f800000	1.0
65	0x3f800000	1.0
66	0x00000000	0.0
67	0x00000000	0.0
68	0x00000000	0.0
69	0x00000000	0.0
70	0x00000000	0.0
71	0x00000000	0.0
72	0x00000000	0.0
73	0x00000000	0.0
74	0x00000000	0.0
75	0x00000000	0.0
76	0x00000000	0.0
77	0x00000000	0.0
78	0x00000000	0.0
79	0x00000000	0.0
80	0x00000000	0.0
81	0x00000000	0.0
82	0x00000000	0.0
83	0x00000000	0.0
84	0x00000000	0.0
85	0x00000000	0.0
86	0x00000000	0.0
87	0x00000000	0.0
88	0x00000000	0.0
89	0x00000000	0.0
90	0x00000000	0.0
91	0x00000000	0.0
92	0x00000000	0.0
93	0x00000000	0.0
94	0x00000000	0.0
95	0x00000000	0.0
96	0x00000000	0.0
97	0x00000000	0.0
98	0x00000000	0.0
99	0x00000000	0.0
100	0x00000000	0.0
101	0x00000000	0.0
102	0x00000000	0.0
103	0x00000000	0.0
104	0x00000000	0.0
105	0x00000000	0.0
106	0x00000000	0.0
107	0x00000000	0.0
108	0x00000000	0.0
109	0x00000000	0.0
110	0x00000000	0.0
111	0x00000000	0.0
112	0x00000000	0.0
113	0x00000000	0.0
114	0x00000000	0.0
115	0x00000000	0.0
116	0x00000000	0.0
117	0x00000000	0.0
118	0x00000000	0.0
119	0x00000000	0.0
120	0x00000000	0.0
121	0x00000000	0.0
122	0x00000000	0.0
123	0x00000000	0.0
124	0x00000000	0.0
125	0x00000000	0.0
126	0x00000000	0.0
127	0x00000000	0.0
128	0x3f800000	1.0
129	0x3f800000	1.0
130	0x3f800000	1.0
131	0x00000000	0.0
132	0x00000000	0.0
133	0x00000000	0.0
134	0x00000000	0.0
135	0x00000000	0.0
136	0x00000000	0.0
137	0x00000000	0.0
138	0x00000000	0.0
139	0x00000000	0.0
140	0x00000000	0.0
141	0x00000000	0.0
142	0x00000000	0.0
143	0x00000000	0.0
144	0x00000000	0.0
145	0x00000000	0.0
146	0x00000000	0.0
147	0x00000000	0.0
148	0x00000000	0.0
149	0x00000000	0.0
150	0x00000000	0.0
151	0x00000000	0.0
152	0x00000000	0.0
153	0x00000000	0.0
154	0x00000000	0.0
155	0x00000000	0.0
156	0x00000000	0.0
157	0x00000000	0.0
158	0x00000000	0.0
159	0x00000000	0.0
160	0x00000000	0.0
161	0x00000000	0.0
162	0x00000000	0.0
163	0x00000000	0.0
164	0x00000000	0.0
165	0x00000000	0.0
166	0x00000000	0.0
167	0x00000000	0.0
168	0x00000000	0.0
169	0x00000000	0.0
170	0x00000000	0.0
171	0x00000000	0.0
172	0x00000000	0.0
173	0x00000000	0.0
174	0x00000000	0.0
175	0x00000000	0.0
176	0x00000000	0.0
177	0x00000000	0.0
178	0x00000000	0.0
179	0x00000000	0.0
180	0x00000000	0.0
181	0x00000000	0.0
182	0x00000000	0.0
183	0x00000000	0.0
184	0x00000000	0.0
185	0x00000000	0.0
186	0x00000000	0.0
187	0x00000000	0.0
188	0x00000000	0.0
189	0x00000000	0.0
190	0x00000000	0.0
191	0x00000000	0.0
192	0x3f800000	1.0
193	0x3f800000	1.0
194	0x3f800000	1.0
195	0x3f800000	1.0
196	0x00000000	0.0
197	0x00000000	0.0
198	0x00000000	0.0
199	0x00000000	0.0
200	0x00000000	0.0
201	0x00000000	0.0
202	0x00000000	0.0
203	0x00000000	0.0
204	0x00000000	0.0
205	0x00000000	0.0
206	0x00000000	0.0
207	0x00000000	0.0
208	0x00000000	0.0
209	0x00000000	0.0
210	0x00000000	0.0
211	0x00000000	0.0
212	0x00000000	0.0
213	0x00000000	0.0
214	0x00000000	0.0
215	0x00000000	0.0
216	0x00000000	0.0
217	0x00000000	0.0
218	0x00000000	0.0
219	0x00000000	0.0
220	0x00000000	0.0
221	0x00000000	0.0
222	0x00000000	0.0
223	0x00000000	0.0
224	0x00000000	0.0
225	0x00000000	0.0
226	0x00000000	0.0
227	0x00000000	0.0
228	0x00000000	0.0
229	0x00000000	0.0
230	0x00000000	0.0
231	0x00000000	0.0
232	0x00000000	0.0
233	0x00000000	0.0
234	0x00000000	0.0
235	0x00000000	0.0
236	0x00000000	0.0
237	0x00000000	0.0
238	0x00000000	0.0
239	0x00000000	0.0
240	0x00000000	0.0
241	0x00000000	0.0
242	0x00000000	0.0
243	0x00000000	0.0
244	0x00000000	0.0
245	0x00000000	0.0
246	0x00000000	0.0
247	0x00000000	0.0
248	0x00000000	0.0
249	0x00000000	0.0
250	0x00000000	0.0
251	0x00000000	0.0
252	0x00000000	0.0
253	0x00000000	0.0
254	0x00000000	0.0
255	0x00000000	0.0

onnx::MatMul_589 f4 [64, 192]
0	0xbc542e69	-0.012950518
1	0x3c347f1c	0.011016633
2	0xbb1d5ffa	-0.0024013505
3	0xbc823a0f	-0.015896825
4	0x3ada1653	0.0016638733
5	0x3baabfa1	0.005210832
6	0xbcf503bc	-0.029909007
7	0xbc1d4901	-0.009599925
8	0x3c8c19bd	0.017102117
9	0x3c6159c2	0.01375431
10	0x3cff0342	0.031129483
11	0xbd05f4c7	-0.03270414
12	0x3b82b8de	0.003989323
13	0x3c6823d8	0.014168702
14	0xbb824643	-0.003975661
15	0x3c544d4a	0.01295788
16	0xbcb93d9b	-0.022612384
17	0x3b3a9d7e	0.002847522
18	0x3bc6c8db	0.0060664243
19	0x3cee6f14	0.0291057
20	0x3bb0a261	0.005390451
21	0xbc18b130	-0.009319589
22	0x3a9a47c7	0.0011770659
23	0xbbed36d8	-0.007239204
24	0x3ccd2921	0.025044026
25	0x3d585fd2	0.052825756
26	0x3c9ec939	0.01938306
27	0xbcb0aa17	-0.02156548
28	0xb95e3760	-0.00021192199
29	0x3ae65f06	0.0017575927
30	0xbc21fd29	-0.009887018
31	0x3c0b8d20	0.008517534
32	0xbacdb635	-0.0015694561
33	0xbca42217	-0.020035787
34	0x3c49307e	0.012279628
35	0x3ca8eea6	0.020621609
36	0xbae7ca9b	-0.0017684283
37	0x3c02f26b	0.007992367
38	0x3c5e9582	0.01358545
39	0xbca7d645	-0.020487914
40	0xbc974a52	-0.018468056
41	0xbcecb6c6	-0.028895747
42	0x3c8da17d	0.017288918
43	0x3cc84d1d	0.024450833
44	0x3b873342	0.0041259835
45	0x3d391a01	0.045190815
46	0x3c9276bd	0.017878884
47	0x3c2e1ecd	0.010627461
48	0x3c86606c	0.0164034
49	0x3bcaf405	0.00619364
50	0xbcfb7658	-0.03069608
51	0x3a91c114	0.0011120164
52	0xbc258272	-0.010101901
53	0x3cc502bc	0.024049155
54	0xbc634a90	-0.013872758
55	0xbc3abc2a	-0.011397401
56	0xbb90c03b	-0.004417447
57	0xbc29b05c	-0.010356989
58	0xbbf71c52	-0.007541218
59	0xbb85d772	-0.004084521
60	0xbc883f90	-0.016631871
61	0xbbd89c60	-0.006610438
62	0xbc8b512d	-0.017006481
63	0xbcc5c120	-0.02413994
64	0x3c2109ad	0.009828967
65	0x3c4221e7	0.011848903
66	0xbca92cab	-0.020651182
67	0xbc147ce2	-0.0090629775
68	0x3c83f5a2	0.016108338
69	0x3cee4739	0.029086696
70	0xbc128409	-0.008942612
71	0xbb8a78e5	-0.0042258375
72	0xbc4cd6a7	-0.012502349
73	0xbc83e5a7	-0.016100718
74	0xbcb98fe9	-0.02265163
75	0x3c68b003	0.014202121
76	0x3c0d0e71	0.0086094
77	0xbc8d7a11	-0.01727012
78	0xbce7c8e1	-0.028294029
79	0x3c25ca36	0.010119012
80	0x3be22ce2	0.006902323
81	0x3bafea79	0.0053685275
82	0x3bc7decf	0.006099559
83	0xbc199e09	-0.009376057
84	0xbca2a4d4	-0.019853987
85	0xbc3594ed	-0.01108287
86	0xbb2cf542	-0.0026391302
87	0xbc3987fd	-0.011323926
88	0x3d085a99	0.033289526
89	0x3cd94493	0.026521957
90	0x3caada70	0.020856112
91	0xbc4dec0c	-0.012568485
92	0xbc3c51e1	-0.011494131
93	0x3c27a5e5	0.010232423
94	0xbbd937dd	-0.006628974
95	0xbbf8af0b	-0.007589226
96	0x3b5aa7bc	0.0033364138
97	0xbc6964b3	-0.0142452
98	0x3cc1c6f3	0.023654437
99	0x3c3f75a9	0.011685767
100	0x3b52895d	0.0032125332
101	0x3c977712	0.018489394
102	0xbc332990	-0.010935202
103	0xbbe91f6a	-0.0071143406
104	0xbc2e754e	-0.010648085
105	0x3c1a4594	0.009416003
106	0x3cc4a649	0.024005072
107	0x3bac8796	0.0052651865
108	0xbc917cad	-0.017759645
109	0xbc9e5ccd	-0.01933136
110	0x3c0da65c	0.00864562
111	0xbc7cbade	-0.015425412
112	0xbc19f491	-0.009396688
113	0xbc6e2e99	-0.014537477
114	0x3c9a8059	0.018860029
115	0x3bd40a38	0.0064709447
116	0xbc4a1ab7	-0.012335471
117	0xbc5f0e98	-0.013614319
118	0xbc0e7ad8	-0.00869628
119	0xbcc9c45b	-0.024629762
120	0xbc10dc67	-0.0088416105
121	0xba83bcef	-0.0010050813
122	0xbcb35d7b	-0.02189516
123	0x3b589efe	0.003305375
124	0x3c05101b	0.008121516
125	0x3cd151e6	0.025551748
126	0x3d177972	0.036981054
127	0x3c05cb95	0.0081662135
128	0xbc5c723d	-0.013454971
129	0xbbc57167	-0.0060254815
130	0xbd0192bb	-0.031634074
131	0x3d00c2e2	0.031435855
132	0xbb851e60	-0.004062459
133	0xbc19c4ca	-0.009385297
134	0xbc1645b0	-0.009171888
135	0xbc3b4cd8	-0.011431895
136	0xbc7ccffc	-0.015430447
137	0xbb3687c0	-0.002785191
138	0xbc36ecc1	-0.011164845
139	0x3d1b42c8	0.037905484
140	0x3d333ac6	0.043757223
141	0x3c80f9b4	0.015744068
142	0xbd0c2136	-0.03421136
143	0xbbe67e38	-0.0070340894
144	0x3c136bb1	0.008997844
145	0xbc4f2f32	-0.01264553
146	0x3c94f1dd	0.018181736
147	0xbcbaf3a7	-0.02282126
148	0xbc2624f4	-0.010140646
149	0x3c1d7133	0.009609508
150	0xbbfa4ca6	-0.0076385317
151	0xbc909315	-0.01764826
152	0x3c16af26	0.009197032
153	0xbd38e09c	-0.04513608
154	0x3c3af6c7	0.011411375
155	0xbba7a709	-0.0051163477
156	0x3afc0193	0.0019226543
157	0x3c84d7b3	0.016216135
158	0xbbe0ef52	-0.0068644667
159	0xbca2074d	-0.019778872
160	0xbc2ae5dc	-0.010430779
161	0xbc10c3fb	-0.008835788
162	0xbd2f4714	-0.042792395
163	0xbb8bd232	-0.0042670006
164	0xbc417bfe	-0.011809347
165	0x3c283b2e	0.010268016
166	0xbcaff0bd	-0.021477098
167	0xbbd31266	-0.0064414022
168	0xbc6ffee1	-0.01464817
169	0xbc0f61ed	-0.008751375
170	0x3c64ad30	0.013957307
171	0xbbeda066	-0.007251787
172	0xbbc118bd	-0.0058928416
173	0xbb6ce48a	-0.0036146962
174	0x3b8b9024	0.0042591263
175	0x3cbc591d	0.022991711
176	0xbce29152	-0.027657185
177	0x3c08133c	0.008305367
178	0xbc6b72b3	-0.014370608
179	0xbbf1bc7d	-0.007377206
180	0xbbf7dd25	-0.0075642043
181	0x3c5b78e7	0.013395525
182	0xbc54ec6f	-0.012995823
183	0x3c390747	0.011293239
184	0x3cc30ba5	0.023809263
185	0x3d2ce4dd	0.04221045
186	0x3d1ab586	0.03777077
187	0x3caa3d10	0.02078107
188	0x3d475546	0.048665307
189	0xbae284cf	-0.0017282012
190	0xbc9ac6c0	-0.0188936
191	0x3d03fa7d	0.032221306
192	0xbc2f02db	-0.010681833
193	0xbc65a3e2	-0.0140161235
194	0x3c025e32	0.007957028
195	0xbd11a5c1	-0.035558466
196	0xbbfcc867	-0.0077143195
197	0xbc8e9d1e	-0.017408904
198	0xbc11ff59	-0.008910977
199	0x3cc5f6a9	0.024165468
200	0xbad4448a	-0.0016194743
201	0x3c976097	0.018478675
202	0xbc3b7e85	-0.011443739
203	0x3cf73650	0.030177265
204	0x3bd2d7a6	0.0064343987
205	0xbd0c2acd	-0.034220506
206	0x3af88db2	0.0018963127
207	0xbc21a05b	-0.009864892
208	0x3cbf0bf3	0.023321128
209	0x3c931560	0.017954528
210	0x3cd178cb	0.025570294
211	0x3c4e77f9	0.012601846
212	0xbcdd6669	-0.027026372
213	0x3c808a45	0.015690932
214	0x3c729987	0.014807112
215	0xbc9d7ce9	-0.0192246
216	0x3cd3f79b	0.025874903
217	0x3d4524be	0.048130743
218	0x3c20a06d	0.0098038735
219	0x3b6cbb06	0.0036122217
220	0x3d107b94	0.035274103
221	0xbc6728be	-0.014108835
222	0xbc9a894e	-0.0188643
223	0x3c1739c2	0.009230079
224	0xbc2d315d	-0.010570851
225	0x3b66b31d	0.0035201975
226	0xbbdd150a	-0.006746893
227	0x3b395e46	0.002828495
228	0xbb6dbd70	-0.0036276244
229	0x3bc5becd	0.006034708
230	0xbd1fa502	-0.038975723
231	0xbbfdd766	-0.0077466248
232	0x3ccaaeb3	0.024741506
233	0xbc903dd0	-0.0176076
234	0x3c05c3da	0.00816437
235	0x3c439f0e	0.011939777
236	0xbbc3a22a	-0.005970259
237	0x3b8fa555	0.004383723
238	0xbc4e3e0b	-0.012588034
239	0xbba9ce22	-0.0051820436
240	0x3af62935	0.0018780591
241	0xbbc932d7	-0.006140094
242	0x3c143c57	0.009047589
243	0x3b942279	0.004520711
244	0x3b5d9489	0.0033810458
245	0xbc945d25	-0.018110821
246	0xbce68f02	-0.028144363
247	0x3b5045f2	0.0031779972
248	0x3c7b36c0	0.015332878
249	0xbc8c8537	-0.017153366
250	0x3d390a7e	0.04517602
251	0x3cdad604	0.026713379
252	0x3b13e53a	0.002256705
253	0xbd214489	-0.039372
254	0xbc1229e9	-0.008921125
255	0xbc88f63d	-0.016718978

onnx::MatMul_599 f4 [64, 64]
0	0x3bef3a93	0.0073006838
1	0xba92703a	-0.0011172362
2	0x3bde255d	0.0067793564
3	0x3c6adacb	0.014334391
4	0xbc0d1c4e	-0.008612705
5	0x3a659b58	0.0008758805
6	0xbb734119	-0.0037117659
7	0x3c35d41e	0.011097936
8	0xbb21ddfd	-0.0024698966
9	0xbbdb7e15	-0.0066983798
10	0x3bbae65b	0.00570373
11	0x3a0f69d9	0.00054707896
12	0xb9e709ea	-0.0004406714
13	0xbb98a303	-0.0046581044
14	0xbbd54b38	-0.006509211
15	0x3bf0314e	0.0073300963
16	0xbc241093	-0.010013717
17	0xbb9adeb6	-0.0047262562
18	0xbbc3eb42	-0.0059789727
19	0x39423952	0.00018522635
20	0xbc7bdcee	-0.015372498
21	0x3c07c692	0.008287089
22	0x3c93f9c5	0.018063435
23	0xbbbe035c	-0.0057987403
24	0x38f285a3	0.00011564351
25	0x3a9fc989	0.00121908
26	0xbc0574c2	-0.008145513
27	0x3ac0c1ad	0.0014706157
28	0xbbdd3443	-0.006750615
29	0x3c3a1356	0.011357149
30	0xbc7fbe75	-0.015609373
31	0xbc70dc8f	-0.014701023
32	0x3c4ff50c	0.012692701
33	0x3cad4397	0.021150393
34	0x3bfb6275	0.007671649
35	0x3b3040cc	0.002689409
36	0xbaf70604	-0.0018846397
37	0x3bd5297c	0.0065051895
38	0x3be68930	0.007035397
39	0x3c005c72	0.007834541
40	0xba9f4f29	-0.0012154329
41	0xbc1740a8	-0.009231724
42	0x3c44e26d	0.012016875
43	0xbb005957	-0.00195845
44	0x3bf2d898	0.007411074
45	0x3c1e59e1	0.0096649835
46	0xbb8bfc32	-0.0042720074
47	0xbb918719	-0.0044411537
48	0xbbff108d	-0.0077839554
49	0x3b1af6f0	0.0023645721
50	0xba3a127b	-0.0007098091
51	0xbc80d545	-0.015726695
52	0x3b1c4b6c	0.0023848666
53	0x3998cd90	0.00029144855
54	0x3bd93e32	0.0066297287
55	0x3bec15c9	0.0072047454
56	0xbbae8660	-0.0053260773
57	0x3b7fafdd	0.0039014735
58	0xbc6aa826	-0.014322316
59	0x38ad376f	8.259608e-05
60	0xbbb5c885	-0.0055475854
61	0x39d0b9f3	0.00039811395
62	0xbbc709cb	-0.0060741655
63	0x3c2eb92e	0.010664267
64	0x3c14130f	0.009037747
65	0xbcb06db0	-0.021536678
66	0xba492c2d	-0.0007674124
67	0xb9f3d4b4	-0.00046507048
68	0xbb9f4090	-0.0048599914
69	0xbbb1261e	-0.0054061553
70	0xb9d16c37	-0.00039944213
71	0xbb822c9f	-0.0039726044
72	0xbb4dec43	-0.003142134
73	0xbb9873b9	-0.004652467
74	0xbbf03292	-0.007330247
75	0x3c1492e8	0.009068228
76	0x3c35d14b	0.011097263
77	0x3c53a34c	0.012917351
78	0x3b80f6a8	0.0039356537
79	0xbc58938c	-0.013218772
80	0x3affa86e	0.0019505152
81	0x3b7d0b15	0.0038611342
82	0xbb20ced0	-0.0024537332
83	0x3a0c010c	0.0005340732
84	0xbb997a09	-0.004683737
85	0x39cba1ac	0.00038839632
86	0xbbd4f2ce	-0.006498671
87	0xba8254d8	-0.0009943498
88	0x3b35bd4d	0.002773124
89	0x3a9db430	0.001203185
90	0x3b9b82fe	0.00474584
91	0x3bf62751	0.007512011
92	0x3b131e8b	0.0022448625
93	0xbb9d6cd4	-0.004804233
94	0x3cc5dc3a	0.024152864
95	0xb602cfcd	-1.9492466e-06
96	0xbb6aebac	-0.0035846038
97	0xbb0fc662	-0.0021938314
98	0x3c6cf553	0.014462787
99	0x3bca2c0a	0.0061698006
100	0xbbdac0f7	-0.0066758352
101	0xbc92a4f5	-0.017900923
102	0xb97cf28a	-0.00024122946
103	0xbb94a46b	-0.0045362017
104	0x3b084fdc	0.0020799553
105	0xbaef28e7	-0.0018246443
106	0xbc997a69	-0.018735128
107	0x3c2602e9	0.01013253
108	0x3bd8602a	0.0066032605
109	0x3bc3faca	0.005980824
110	0x3baec227	0.0053332034
111	0xbc00ad68	-0.007853843
112	0xbc24e86d	-0.01006518
113	0xbbab7ae3	-0.005233155
114	0xbbabfad8	-0.0052484088
115	0x3bddfd0d	0.006774551
116	0xbc060db3	-0.008181977
117	0x39e0db4b	0.00042887995
118	0x3c0f7805	0.008756642
119	0x3b94cec9	0.0045412523
120	0x3b6f2ac1	0.003649399
121	0xbbe1cea7	-0.00689109
122	0x3bcc0039	0.0062256125
123	0x3c0fd9b4	0.008779932
124	0x3ba46816	0.005017291
125	0x3ba42bf0	0.0050101206
126	0x3bcd4b43	0.0062650754
127	0x3c3d6d37	0.011561683
128	0x3b627bf4	0.0034558745
129	0x3bc73243	0.0060789897
130	0xbc0d6fdf	-0.008632629
131	0xbc60e969	-0.013727524
132	0x3bfccea4	0.007715063
133	0x3a9d01dc	0.0011978704
134	0x39afbebb	0.00033520706
135	0x3c176fee	0.009242995
136	0x3a22040e	0.0006180414
137	0xba30cadc	-0.00067440956
138	0xbb8ab127	-0.004232544
139	0xbc93ec31	-0.01805696
140	0xbc895373	-0.016763425
141	0xbbba98bb	-0.0056944764
142	0x3b1884b4	0.0023272457
143	0xbbfcbaaa	-0.007712682
144	0xbb3bbf6f	-0.002864804
145	0x3b51515b	0.003193936
146	0x3a9c0327	0.0011902795
147	0x3b850082	0.0040588984
148	0xbb1e3a79	-0.002414374
149	0xbb31d497	-0.002713477
150	0xbc295ffe	-0.010337828
151	0xbac67a88	-0.0015142718
152	0x3b6583a6	0.0035021096
153	0xbc258539	-0.010102564
154	0x3c1c4df8	0.009540074
155	0x3c927239	0.017876731
156	0x3baeaddb	0.005330784
157	0xbb6411ec	-0.0034800721
158	0xbbc6ed02	-0.006070734
159	0xb9bc9b5b	-0.00035973903
160	0x3b3c1300	0.0028697848
161	0x3c2a5c63	0.010398003
162	0x3a92232f	0.0011149402
163	0x394ecca8	0.00019721931
164	0x3a0715e6	0.00051531044
165	0x3c0dfd78	0.008666389
166	0xba3cd72f	-0.0007203696
167	0xbb8d3a60	-0.0043099374
168	0xbbfbe3d6	-0.0076870723
169	0x3b976424	0.004620092
170	0x3c425d6b	0.011863093
171	0x3a8f6f60	0.0010943227
172	0x3c037099	0.008022451
173	0x3a8db13b	0.0010810265
174	0x3bb1f5cd	0.005430913
175	0xbaed1ffc	-0.0018091197
176	0x3a0991e0	0.00052478723
177	0xbb13f983	-0.002257914
178	0x3c3a3236	0.01136451
179	0xbac1b723	-0.001477931
180	0x3c68e41e	0.014214544
181	0xbbbff5e4	-0.00585817
182	0x3c9b801c	0.018981986
183	0x3ba06df7	0.0048959213
184	0x3c86e947	0.016468657
185	0xbba22bd4	-0.0049490724
186	0x3ac0b339	0.001470185
187	0xb9a4ca2a	-0.00031431142
188	0x3c30b144	0.010784451
189	0x3af0ec5b	0.0018380986
190	0xbc65108b	-0.013980995
191	0x3c081795	0.008306404
192	0xbb89cbb2	-0.0042051906
193	0x3a812e74	0.0009855763
194	0xba0d2462	-0.00053841446
195	0xbc19b482	-0.009381415
196	0xbc41282c	-0.011789363
197	0x3c955d87	0.018233074
198	0x3adfced6	0.0017075192
199	0xbc611197	-0.013737104
200	0xbaed3a2f	-0.0018099005
201	0xbb831b79	-0.0040010777
202	0x3ba6168b	0.0050686053
203	0xbb9efd07	-0.0048519406
204	0xbc1628c2	-0.009164991
205	0xbbbb0106	-0.005706909
206	0xbba67ee6	-0.0050810454
207	0xbc06ee5d	-0.008235541
208	0x3b9f2ac3	0.0048573925
209	0xbc3bee76	-0.011470428
210	0xbc1e6163	-0.0096667735
211	0x3c362326	0.0111167785
212	0x3b07a757	0.0020699108
213	0xbbbe1505	-0.0058008456
214	0x3b1f634a	0.0024320656
215	0xbb2f6419	-0.0026762544
216	0x3bca70d0	0.006177999
217	0x3b5d63e3	0.003378146
218	0x3b46df33	0.003034544
219	0xbc09b00d	-0.00840379
220	0x3b31e527	0.0027144642
221	0xbbdeda90	-0.006800957
222	0x3b5475e2	0.0032418896
223	0x3b6595ca	0.0035031908
224	0xbc33d9f5	-0.010977258
225	0xbaa7e086	-0.0012808002
226	0xbbf71a90	-0.0075410083
227	0xba9058d3	-0.00110128
228	0xbbef5f40	-0.007305056
229	0x3c041167	0.00806079
230	0x3b7aaf86	0.0038251593
231	0xbc01f834	-0.007932711
232	0x3b205bf3	0.0024468869
233	0xbaa3df0a	-0.0012502384
234	0x3b1e6b87	0.0024172978
235	0xbbfd7442	-0.0077348063
236	0xbadb0f5d	-0.0016712953
237	0xbc1ff8f1	-0.009763942
238	0xbb23f673	-0.0025018721
239	0xbb87fadb	-0.0041497773
240	0x3b5e6a91	0.003393803
241	0xb92ce1f2	-0.0001648737
242	0x3c444169	0.011978486
243	0x3bf1d67e	0.007380306
244	0xbb02211d	-0.0019856163
245	0xbbd3ba4e	-0.0064614182
246	0x3c2b74ba	0.0104648415
247	0x3b894482	0.004189075
248	0x3bba1058	0.005678218
249	0xba8e7a10	-0.0010870118
250	0xbc0faf48	-0.008769818
251	0x3b3b511d	0.0028582283
252	0xbc138042	-0.009002747
253	0x3bf7c76a	0.007561614
254	0x3aba906a	0.0014233713
255	0xba4b1b7b	-0.00077479304

onnx::MatMul_600 f4 [64, 256]
0	0x3ba2811e	0.0049592396
1	0xbcfd4b3d	-0.030919665
2	0x3cf56d02	0.029959206
3	0xbbd7029d	-0.006561591
4	0xbc2138c4	-0.009840194
5	0x3c8c10eb	0.01709791
6	0x3d5e4878	0.05426833
7	0x3cbea905	0.023273954
8	0xbb1a9fd4	-0.00235938
9	0xbd3ef029	-0.046615753
10	0x3d30ee09	0.043195758
11	0xbd29c336	-0.041445933
12	0xbbdab565	-0.006674456
13	0x3c01ecd4	0.007929999
14	0x3d5fcfe2	0.054641612
15	0x3b8ea274	0.004352862
16	0xbd13d609	-0.03609279
17	0xbc6229eb	-0.013803939
18	0x3cbc5239	0.022988426
19	0xbbc11ade	-0.0058930954
20	0x396b6721	0.00022449765
21	0xbcc7d338	-0.02439271
22	0xbbabe04d	-0.0052452446
23	0x3c0d2347	0.008614368
24	0xba6289b5	-0.0008641736
25	0x3c622079	0.013801687
26	0x3b9456bf	0.0045269425
27	0x3c1f1366	0.009709215
28	0x3c13188c	0.00897802
29	0xbd0b1e78	-0.033964604
30	0x3c996111	0.018723043
31	0xbabba120	-0.0014314987
32	0xbc94e280	-0.01817441
33	0x3c893ecd	0.016753579
34	0xbc6fdce1	-0.014640064
35	0x3b9062bb	0.004406301
36	0xbc33022f	-0.010925814
37	0xbc715938	-0.014730744
38	0x3ba55ae0	0.0050462335
39	0x3c43ba66	0.011946296
40	0x3b1053f2	0.0022022692
41	0x3c1824eb	0.009286146
42	0x3ca09c05	0.019605646
43	0xbcd86909	-0.026417272
44	0xbc7e917d	-0.015537617
45	0xbb13e289	-0.0022565445
46	0xbc3e374d	-0.011609864
47	0xbb9a42bb	-0.004707662
48	0x3baa8479	0.0052037803
49	0x3ca6c5f0	0.020358056
50	0x3c2e004a	0.010620186
51	0x3c1ad3e2	0.009449931
52	0xbd34db6e	-0.044154577
53	0x3d882c95	0.06649128
54	0x3ce2514f	0.027626662
55	0x3c14d160	0.009083122
56	0xbc2d645b	-0.010583009
57	0x3d4087c9	0.047004495
58	0xbc846437	-0.016161067
59	0xbc33d2f5	-0.010975589
60	0x3c0397fb	0.00803184
61	0x3ba107b4	0.0049142484
62	0xbd0991d2	-0.03358633
63	0xbcdf4a82	-0.027257208
64	0x3cbb446d	0.022859776
65	0xbcbacc94	-0.022802629
66	0xbc50390a	-0.012708912
67	0xbd024af6	-0.03180977
68	0x3c911710	0.017711192
69	0xbce18b0e	-0.027532127
70	0x3cdf1d09	0.027235525
71	0xbbf417ae	-0.007449112
72	0x3d20d779	0.03926799
73	0xbce518c0	-0.027965903
74	0xbce3ab65	-0.027791688
75	0xbcfeccd0	-0.031103522
76	0x3ca4f43b	0.02013599
77	0xbc86cbb2	-0.016454551
78	0x3c7dc830	0.015489623
79	0xbcf79266	-0.030221175
80	0x3c9cd8b2	0.019146297
81	0xbc2183d3	-0.0098580895
82	0xbd1e7e3c	-0.038694605
83	0x3c44242a	0.011971513
84	0xbbd904d2	-0.006622889
85	0x3c1ee55b	0.009698237
86	0x3c94cd91	0.018164428
87	0xbc826154	-0.01591555
88	0xbd0554eb	-0.032551687
89	0x3c8d1b5c	0.01722496
90	0xbd25df3d	-0.0404961
91	0x3cae46e4	0.021274038
92	0xbc896f86	-0.016776811
93	0x3d02fc27	0.031978752
94	0xbc09994f	-0.008398368
95	0x3c680b99	0.014162921
96	0x3c34382d	0.0109997215
97	0x3c02da39	0.007986599
98	0x3c7a8901	0.015291453
99	0xbcbd8a90	-0.02313736
100	0xbcc5e215	-0.024155656
101	0x36f5fa75	7.330726e-06
102	0xbb312e60	-0.0027035698
103	0xbc94e862	-0.018177215
104	0x3b3a7030	0.0028448217
105	0xbc1b00c6	-0.009460634
106	0x3c96615c	0.018356971
107	0x3c872973	0.016499257
108	0xbc8517a0	-0.016246617
109	0xbca3f405	-0.020013819
110	0x3d2dd240	0.04243684
111	0xbba01e60	-0.0048864335
112	0x3c86a69f	0.016436873
113	0x3c8c06a9	0.01709302
114	0xbbe1c20c	-0.0068895873
115	0x3c69f8e3	0.014280531
116	0x3c6a516e	0.014301641
117	0xbc66f0ec	-0.014095526
118	0x384f1f2a	4.938167e-05
119	0xbc180ea0	-0.009280831
120	0xbc71c68b	-0.014756809
121	0xbcbd7d79	-0.02313112
122	0x3c29719d	0.010342029
123	0x3cc9e054	0.0246431
124	0xbcc9b8bc	-0.024624221
125	0x3cfb2b82	0.030660395
126	0x3bdfea2c	0.0068333354
127	0xbc8bd0c6	-0.017067324
128	0xbc0f9cfe	-0.008765457
129	0xbc1372e6	-0.008999562
130	0x3c162e7d	0.009166357
131	0xbc0ef49e	-0.0087253135
132	0x3d0fa676	0.03507086
133	0x3c9fdc9a	0.01951437
134	0xbc9be67d	-0.019030804
135	0xbce6fc74	-0.02819655
136	0xbd350ad3	-0.044199776
137	0xb973e597	-0.00023259815
138	0xbc13af2b	-0.009013931
139	0x3c95746c	0.01824399
140	0xbcb31959	-0.021862673
141	0x3d1d2eae	0.038374595
142	0x3b787d9b	0.0037916664
143	0xbcee3f37	-0.029082878
144	0xba19a2a9	-0.0005860725
145	0xbae7bb2c	-0.0017679683
146	0xbc1fc9a1	-0.009752662
147	0xbc614d5c	-0.013751354
148	0x3b8d40a2	0.0043106833
149	0xbc0b6796	-0.0085085835
150	0xbb9e6256	-0.0048335
151	0x3c6c5649	0.014424869
152	0x3c10b523	0.008832249
153	0x3d03aeb9	0.03214905
154	0x3c861812	0.0163689
155	0x3caebe2a	0.021330912
156	0x3bf4ee1c	0.007474674
157	0x3c81a050	0.015823513
158	0x3cac20e1	0.021011772
159	0xbb378781	-0.002800435
160	0x3c92f779	0.01794027
161	0xbc1576de	-0.009122578
162	0xbaaec0b3	-0.0013332575
163	0x3c385d2d	0.011252684
164	0x3ca8f1c1	0.02062309
165	0xbb062c80	-0.0020473301
166	0xbc1039fd	-0.008802888
167	0x3c82b98a	0.015957613
168	0xbbcaf3a6	-0.006193596
169	0xbc60e4a7	-0.01372639
170	0x3ba9e009	0.005184178
171	0xbcd7a992	-0.026325975
172	0xbbc624ef	-0.0060468833
173	0x3cba12b0	0.022713989
174	0xbc8ffd24	-0.017576762
175	0x3c1b46a6	0.009477293
176	0x3cc0927e	0.023507353
177	0x3cbcc374	0.023042418
178	0x3bcdc590	0.006279655
179	0x3d0700f1	0.032959882
180	0x3c1f5ba2	0.009726437
181	0x3d3a21f7	0.045442548
182	0x3cad9b8f	0.02119234
183	0xbba20185	-0.004944029
184	0x3c494c4b	0.012286256
185	0x3c529087	0.012851841
186	0xbafc9005	-0.0019268995
187	0xbaa9109d	-0.0012898628
188	0x3c09b6ca	0.008405397
189	0xbbfbec0f	-0.0076880525
190	0xbafd463e	-0.0019323302
191	0x3d2d2b29	0.04227749
192	0x3bb84c14	0.0056243036
193	0xbb8428cb	-0.004033183
194	0xbc9a0ceb	-0.018804988
195	0x3cff6a7b	0.031178704
196	0xbc9acf75	-0.018897751
197	0x3b88ad52	0.004171052
198	0x3baa7032	0.005201363
199	0x3c5fb9eb	0.013655166
200	0x3c80bd9f	0.015715418
201	0xbcb9381e	-0.022609767
202	0xbcaf129d	-0.02137118
203	0x3bba9804	0.005694391
204	0xbc8c4c7d	-0.017126316
205	0xbc95de3d	-0.018294448
206	0x3be6e6e2	0.0070465663
207	0x3acd727b	0.0015674377
208	0xbc9eb8b1	-0.019375177
209	0x3abe2fe7	0.0014510126
210	0x3b81b362	0.0039581517
211	0xbb38845d	-0.0028155067
212	0x3c82550a	0.01590969
213	0x3b3d8518	0.0028918441
214	0xbbfc4797	-0.007698964
215	0x3c9a2dd7	0.018820686
216	0x3ba3d4b7	0.004999723
217	0x3ca0c189	0.019623535
218	0xb8fc78d9	-0.00012038806
219	0xbc9597a6	-0.018260788
220	0xbac8d7b7	-0.0015323077
221	0xbaf7bef2	-0.0018901511
222	0x3a12f0e3	0.0005605353
223	0x3c8be060	0.017074764
224	0x3c23d2f7	0.009999028
225	0x3bf976d8	0.007613044
226	0xbbba5ab4	-0.005687082
227	0x3b7b50f2	0.0038347808
228	0xbac40dcd	-0.0014957726
229	0xbca0bc64	-0.019621082
230	0xbb38d924	-0.0028205598
231	0xbca8afe9	-0.020591693
232	0x3b880ea6	0.004152137
233	0xbc2e5e36	-0.010642579
234	0xbc07b6ba	-0.0082833115
235	0x3bebb4fe	0.007193207
236	0xbc62256e	-0.013802869
237	0xbc6f6142	-0.01461059
238	0x3c443820	0.011976272
239	0x3cbb06ad	0.022830332
240	0xbc5f1a35	-0.013617088
241	0xbb8c0826	-0.0042734323
242	0xbbd64186	-0.0065385727
243	0x3c706d00	0.014674425
244	0xbc19a5b0	-0.009377882
245	0x3d1c479b	0.038154226
246	0x3b1d29a4	0.0023981119
247	0xbd07d43a	-0.03316138
248	0xbbd0a421	-0.006367222
249	0x3bc6edfb	0.00607085
250	0x3cf0a0af	0.029373495
251	0xbc0f63cf	-0.008751824
252	0xbca1af45	-0.019736895
253	0x3afa0909	0.0019076179
254	0x3c0c431c	0.008560922
255	0x3bf28519	0.0074011204

onnx::MatMul_601 f4 [256, 64]
0	0x3bf9f2ce	0.0076278215
1	0x3b0f3a74	0.002185491
2	0x3c559bdb	0.013037647
3	0xba27b49c	-0.00063974573
4	0xbb03bcd4	-0.0020101564
5	0xbb4b9f2f	-0.0031070223
6	0xb99b75cd	-0.00029651672
7	0xbb2e15ef	-0.0026563366
8	0xbb77a8cc	-0.003778982
9	0x3bd7b65d	0.0065830187
10	0xbbed7fa6	-0.007247883
11	0xbac3a694	-0.0014926963
12	0xbb16c464	-0.0023005242
13	0xbc7d8838	-0.015474372
14	0x3bab65b9	0.005230632
15	0x3b4ebc3d	0.0031545304
16	0x3abf18fb	0.0014579588
17	0xbba54860	-0.005044028
18	0x3ad4ff05	0.0016250318
19	0xbc5177b2	-0.012784885
20	0xbc185fc5	-0.009300177
21	0x3b6e0df2	0.003632423
22	0x3bdb3c9f	0.006690576
23	0xbc33f85c	-0.010984506
24	0xbb93dccf	-0.0045124064
25	0x3c109132	0.00882368
26	0xbc661642	-0.014043393
27	0x3a8b6c1d	0.0010637079
28	0x3bec95ef	0.007220022
29	0x3b0f793b	0.0021892327
30	0xba8b0afb	-0.0010608131
31	0x3bd2533d	0.006418614
32	0xbb105fe0	-0.0022029802
33	0xbbe29e9d	-0.006915881
34	0xbc099883	-0.008398178
35	0xbc109698	-0.008824967
36	0xba452ad4	-0.00075213355
37	0xb91df1ab	-0.00015062715
38	0xbb53ef6a	-0.0032338747
39	0x3bf5a135	0.007496024
40	0xbc1f5d90	-0.009726897
41	0xbb3161a9	-0.0027066267
42	0xbaa84364	-0.0012837467
43	0xbb688c71	-0.00354841
44	0x3b11ffd8	0.002227774
45	0xbbf84f7c	-0.0075778347
46	0xbb3f9b3b	-0.0029236812
47	0xbb8abfb5	-0.004234279
48	0x3b49c7df	0.0030789298
49	0xbb5e08d8	-0.0033879783
50	0xbb8f1eba	-0.0043676766
51	0xbbf74d35	-0.0075470456
52	0xbb21c577	-0.0024684349
53	0xbbeffcf3	-0.007323855
54	0xb97e1d55	-0.00024234255
55	0xbb2987fe	-0.0025868411
56	0xbc440aaf	-0.011965438
57	0xbbfc2b93	-0.007695624
58	0xbbebe17b	-0.00719851
59	0x3bc35387	0.005960885
60	0x3c1bda9f	0.009512573
61	0xbc222984	-0.009897593
62	0xba869ce1	-0.0010270142
63	0xb9823c3a	-0.00024840405
64	0x3ae0814a	0.0017128375
65	0xbbea185e	-0.007144018
66	0xbb8f6a4e	-0.004376686
67	0x39abde2a	0.00032781187
68	0x3b3d1150	0.002884943
69	0x3bb481b2	0.005508625
70	0xbc18ee30	-0.009334132
71	0x3a6bbd14	0.00089927134
72	0x3bb897ef	0.0056333463
73	0x3c0d6a59	0.008631312
74	0xbc5bc2fe	-0.013413189
75	0xbae6bf00	-0.001760453
76	0x3b87bcfd	0.004142402
77	0xbbc046c8	-0.005867813
78	0x3b90850d	0.004410392
79	0x3ba9bde4	0.0051801074
80	0xbb7f7730	-0.0038980953
81	0x3c72204f	0.014778211
82	0x3c1aac4d	0.009440494
83	0xbc4167c9	-0.0118045295
84	0xbb24e8df	-0.0025163216
85	0xbbbe97a5	-0.0058164173
86	0xbc5257be	-0.012838302
87	0x3c237f01	0.009979011
88	0xbbdae5ed	-0.0066802413
89	0x3c4001f0	0.011719212
90	0x3aba210b	0.0014200521
91	0xbca915dd	-0.020640308
92	0x3b009128	0.001961777
93	0x3aadbcd9	0.0013255134
94	0x3b848b37	0.004044916
95	0x3c50719a	0.012722397
96	0x3ab96b64	0.0014146385
97	0xb9e51cf5	-0.00043699858
98	0xbbd2183d	-0.006411581
99	0x3c6a694d	0.014307332
100	0xbb892347	-0.0041851136
101	0xbc0e21c9	-0.008675047
102	0xbb882c7c	-0.0041556936
103	0x3c4ec5b8	0.012620382
104	0x3aaccd1d	0.0013183687
105	0xbabda659	-0.0014469131
106	0x3c14d6a4	0.009084377
107	0xbb2c9d54	-0.0026338892
108	0x3c19db0d	0.009390605
109	0xb86a84d4	-5.5913653e-05
110	0x3c28139d	0.010258582
111	0xbc0f3ae6	-0.00874207
112	0xbc8f4016	-0.017486613
113	0xbbf671aa	-0.007520874
114	0x3c261265	0.010136222
115	0x3bcc79d3	0.0062401085
116	0xbb286833	-0.0025696873
117	0xbbe08d26	-0.0068527637
118	0x3c2d9973	0.010595667
119	0x3bc4dc60	0.006007716
120	0x3b853744	0.004065426
121	0xba454747	-0.0007525575
122	0xbb83e87d	-0.0040255175
123	0x3bd6e65f	0.006558224
124	0x3c71e4eb	0.014764051
125	0xbbdb9361	-0.0067009185
126	0x3a596e85	0.0008294362
127	0xbc36d6e1	-0.01115963
128	0x3af56d2a	0.001872455
129	0xbbb69a5b	-0.0055726
130	0x3a3ce134	0.0007205189
131	0x3c0825f7	0.008309833
132	0x3c90b846	0.017665993
133	0x3c665b49	0.01405985
134	0xbb12cf58	-0.0022401419
135	0x39085614	0.00013002037
136	0xbba6f0bc	-0.0050946157
137	0xbbc83a9c	-0.0061105024
138	0xbaa93704	-0.0012910073
139	0xbb6d258c	-0.003618571
140	0xbb566e3a	-0.0032719509
141	0x3c10d494	0.008839745
142	0xbc3a2b75	-0.0113629
143	0x3b2f621f	0.0026761366
144	0x3ac2b5ac	0.0014855168
145	0x3b3fb08b	0.0029249515
146	0xbac4e100	-0.0015020669
147	0x3b1215f3	0.0022290915
148	0xbb290509	-0.0025790355
149	0x3c99d513	0.01877836
150	0xbc11da2f	-0.008902117
151	0x3c216570	0.009850845
152	0xbb1a235d	-0.0023519613
153	0x3b82fc6a	0.0039973753
154	0x3b774b4f	0.0037734096
155	0xbb024096	-0.0019874922
156	0x3a7eb7f1	0.00097167405
157	0x3c09c562	0.008408876
158	0xbba3ebcc	-0.0050024744
159	0xbaee5142	-0.0018182176
160	0xbb83c044	-0.0040207226
161	0xbb00a550	-0.0019629784
162	0xbbc99778	-0.0061520897
163	0xbc438fba	-0.011936123
164	0x3acd40bc	0.0015659551
165	0x3b838f7d	0.004014908
166	0x39fd1256	0.00048269582
167	0x393217e4	0.00016984303
168	0x3b1650f0	0.0022936426
169	0xbb9c9186	-0.00477809
170	0x3bc451ea	0.00599121
171	0xbb44e9f2	-0.0030046669
172	0x3978d978	0.00023732136
173	0x3abb5bd5	0.0014294336
174	0x3b728223	0.0037003837
175	0x3c70e09a	0.014701987
176	0xba5a9339	-0.0008337978
177	0x3bb09d22	0.0053898254
178	0xbbe2270a	-0.0069016265
179	0xb88e47b4	-6.7844434e-05
180	0x3a130a8f	0.00056091783
181	0x3c0ebc6c	0.008711915
182	0x3a9945c7	0.0011693769
183	0x3c0bd2e9	0.008534172
184	0xbc21d16c	-0.00987659
185	0xbb0097b5	-0.0019621674
186	0x3bec2d64	0.0072075594
187	0xb99160df	-0.0002772873
188	0xb98dd6a9	-0.0002705355
189	0x3b959e67	0.004566002
190	0x3c906e5f	0.017630754
191	0xbbce15c0	-0.006289214
192	0xbb03592f	-0.0020042171
193	0x3b3273b0	0.00272296
194	0xb9c80234	-0.00038148614
195	0x3b5de211	0.003385667
196	0x3b06bab3	0.0020558059
197	0x3b95267e	0.0045517078
198	0x3c85eb43	0.016347533
199	0x3c32c2aa	0.010910669
200	0x3b7cac85	0.0038554978
201	0x3a7e69b2	0.0009705081
202	0x3c10eef8	0.008846037
203	0x3c31f50b	0.010861645
204	0xbc090146	-0.00836212
205	0xbc3d5cfa	-0.011557812
206	0xbb301817	-0.0026869827
207	0x3b032d72	0.0020016101
208	0x3b5d7949	0.0033794215
209	0x3b306220	0.0026913956
210	0x3bd7a64e	0.0065811044
211	0x3b489025	0.0030603495
212	0x3c139fad	0.009010238
213	0xbbaea3f7	-0.0053296047
214	0x3bb915e4	0.0056483615
215	0x399ad46e	0.0002953144
216	0x3bcd96b4	0.0062740687
217	0xbaa0dd53	-0.0012272991
218	0x3ba85a2f	0.005137704
219	0x3af65876	0.0018794674
220	0x3bd15e0c	0.006389385
221	0x3c4db06a	0.012554267
222	0x3ac124f0	0.001473574
223	0xbbc01fec	-0.0058631804
224	0xbc36df6d	-0.011161667
225	0x3be46db0	0.0069710836
226	0x3b003bad	0.001956682
227	0xbb84f812	-0.0040578926
228	0x3bcb7f17	0.0062102186
229	0x3bb4a51d	0.005512847
230	0xba7c6f35	-0.0009629608
231	0xbad3f66c	-0.0016171462
232	0xbb3eaccb	-0.0029094692
233	0x3b38674c	0.0028137742
234	0x3aeb3f93	0.0017948024
235	0xbc2865e3	-0.010278198
236	0x3b93b126	0.0045072017
237	0x3b88304b	0.0041561476
238	0x3b922c40	0.0044608414
239	0x3ba9405b	0.0051651425
240	0x3ac1bce4	0.0014781025
241	0xb964eb48	-0.00021831424
242	0x3c908fad	0.017646635
243	0xbc18bfa0	-0.009323031
244	0xbb9b3831	-0.004736923
245	0xbc2e696c	-0.010645252
246	0xbcb786ef	-0.022403209
247	0xbb5ceb27	-0.0033709498
248	0xbc0c9c4b	-0.008582185
249	0xbb819b5a	-0.003955287
250	0x3aacaf55	0.0013174812
251	0xbbfd0de6	-0.007722604
252	0x3ab00b2e	0.0013431066
253	0xb8bd6312	-9.0306756e-05
254	0x3c3ec15c	0.01164278
255	0xbbb3e509	-0.0054899496
