network.onnx (onnx, 13353 bytes, 8 tensors)

conv1.weight f4 [2, 1, 5, 5]
-0.11914654 -0.089292005 -0.1983892 0.029016996 -0.1395611 -0.049149133 0.1314096 0.069697335
0.104310706 0.068182446 -0.041741636 0.15876248 0.030801391 -0.07846775 0.09732597 0.18553439
0.010396409 0.13056473 0.13019295 0.087665275 -0.14362276 0.15214582 0.11378186 0.05708766
0.19038375 0.16737747 0.16558738 -0.14075509 -0.15272498 -0.121836066 -0.1037417 0.12572293
0.15534373 -0.0697968 0.17797709 0.008381224 -0.11180444 0.0026959658 0.042471766 -0.082100324
-0.1153672 0.06563878 -0.12841545 0.016326094 -0.12470758 -0.08435979 -0.011404586 0.19849245
0.046902776 -0.026039004
00000000: 1a03 f4bd bade b6bd 8a26 4bbe 0db5 ed3c
00000010: 1be9 0ebe 9a50 49bd 3d90 063e 7abd 8e3d
00000020: daa0 d53d 3da3 8b3d 47f9 2abd a292 223e
00000030: 3353 fc3c b3b3 a0bd d752 c73d bafc 3d3e
00000040: b355 2a3c c3b2 053e 4d51 053e da89 b33d
00000050: d811 13be 1dcc 1b3e 7706 e93d c0d4 693d
00000060: f5f3 423e 0065 2b3e bd8f 293e 1a22 10be
00000070: f063 1cbe 3085 f9bd 8776 d4bd 83bd 003e
00000080: 6d12 1f3e a0f1 8ebd a03f 363e 6751 093c
00000090: baf9 e4bd cdae 303b e0f6 2d3d 3724 a8bd
000000a0: a345 ecbd a06d 863d 577f 03be 4dbe 853c
000000b0: b066 ffbd d3c4 acbd 4dda 3abc 9b41 4b3e
000000c0: 201d 403d c04f d5bc

conv1.bias f4 [2]
0.1962976 0.02581103
00000000: 3d02 493e a771 d33c

conv2.weight f4 [3, 2, 5, 5]
0.05102689 -0.02262824 -0.08602936 -0.10674351 0.109039836 -0.06780088 -0.018123113 -0.026157482
0.03496592 -0.10462608 0.11851008 0.11298959 -0.10142308 -0.10173796 0.05373423 -0.10295555
-0.062911555 0.040365286 -0.07667114 -0.015911616 0.037987698 0.106411286 -0.12498807 0.078775786
0.10085153 -0.10398716 0.109846935 -0.12716633 -0.024007706 -0.100068495 0.11289735 -0.008371292
0.05849767 -0.076960705 0.014249648 0.062204048 -0.011277941 -0.01931656 -0.015152518 0.066475935
0.046470307 0.033212394 0.069491506 -0.061017394 -0.032117806 0.06443124 -0.015329197 -0.086554915
0.08990685 0.096938394 0.031630114 0.024604775 -0.10189672 -0.04572323 -0.110326916 -0.044258997
-0.049583375 -0.07629611 -0.037932333 -0.07121193 -0.12904955 -0.0617288 0.043793324 0.049101822
-0.11249227 -0.035196226 -0.13005884 -0.102535196 0.12247538 -0.07962796 -0.030507525 0.106299214
0.0004794457 -0.0098441895 0.09747853 -0.038158815 0.07786192 0.052609064 -0.01289429 -0.047259163
-0.0698257 0.0939293 -0.10295129 -0.11272428 0.09616687 -0.03101022 0.1261965 -0.12640277
0.00014626644 0.0879233 -0.01677625 -0.037252504 -0.13234797 -0.08604396 -0.019184707 0.106340215
-0.110565044 0.12407689 0.106370404 0.13912119 0.13075165 0.0019598622 -0.020825382 -0.11338418
-0.05818169 -0.06816056 -0.06287912 -0.06633139 0.0063740704 -0.043877147 -0.14128982 0.0025842595
0.09448005 -0.076399766 0.020485088 -0.046389826 -0.023163168 -0.072217934 -0.048232432 0.13726775
-0.0036521258 -0.014869712 0.09440372 -0.031822607 0.034486018 -0.07462107 -0.06995347 0.052309316
0.10159488 0.09134352 0.1086198 0.13812482 -0.01675285 -0.11681669 -0.073608615 -0.01587166
-0.07907427 -0.057806816 0.026351374 -0.047261287 0.13475555 -0.1063156 -0.0068201357 0.12758428
-0.06956963 -0.06970924 -0.06328375 -0.08573374 -0.13349882 -0.097906105
00000000: 9201 513d dc5e b9bc 2930 b0bd 579c dabd
00000010: 4750 df3d 30db 8abd ec76 94bc 3748 d6bc
00000020: 6d38 0f3d 3346 d6bd 6ab5 f23d 1667 e73d
00000030: e7b6 cfbd fe5b d0bd 6d18 5c3d 5cda d2bd
00000040: c6d7 80bd 1256 253d c205 9dbd 1459 82bc
00000050: fd98 1b3d 29ee d93d bff9 ffbd 3355 a13d
00000060: 3f8b ce3d 38f7 d4bd 6ef7 e03d e437 02be
00000070: cfab c4bc b6f0 ccbd ba36 e73d be27 09bc
00000080: 419b 6f3d 939d 9dbd 5b77 693c acc9 7e3d
00000090: 1dc7 38bc c33d 9ebc 4442 78bc 8924 883d
000000a0: a657 3e3d b809 083d 9051 8e3d 60ed 79bd
000000b0: f68d 03bd 87f4 833d 5027 7bbc b443 b1bd
000000c0: 1521 b83d a387 c63d 948e 013d f48f c93c
000000d0: 3aaf d0bd 4848 3bbd 14f3 e1bd ec48 35bd
000000e0: f017 4bbd 2341 9cbd ef5e 1bbd 8fd7 91bd
000000f0: 9125 04be 57d7 7cbd a160 333d fe1e 493d
00000100: 5962 e6bd eb29 10bd 252e 05be f9fd d1bd
00000110: 5fd4 fa3d fc13 a3bd ebea f9bc 67b3 d93d
00000120: 1d5e fb39 8649 21bc d3a2 c73d 6b4c 1cbd
00000130: 1276 9f3d 9a7c 573d 9242 53bc d392 41bd
00000140: c700 8fbd 015e c03d 20d8 d2bd fddb e6bd
00000150: 23f3 c43d 2509 febc a839 013e ba6f 01be
00000160: 195f 1939 2211 b43d 596e 89bc 1596 18bd
00000170: 3a86 07be d137 b0bd 3f29 9dbc e6c8 d93d
00000180: ed6f e2bd 061c fe3d bad8 d93d c975 0e3e
00000190: c3e3 053e 0871 003b fe99 aabc f735 e8bd
000001a0: ec4f 6ebd c497 8bbd c5c6 80bd c0d8 87bd
000001b0: 94dd d03b 86b8 33bd 47ae 10be ae5c 293b
000001c0: c27e c13d 7b77 9cbd 58d0 a73c 4203 3ebd
000001d0: afc0 bdbc ffe6 93bd 5f8f 45bd eb8f 0c3e
000001e0: 8158 6fbb 18a0 73bc bd56 c13d 6c58 02bd
000001f0: 3641 0d3d eed2 98bd c443 8fbd 4b42 563d
00000200: fa10 d03d 5012 bb3d 0f74 de3d 9870 0d3e
00000210: 463d 89bc 973d efbd 1dc0 96bd 4905 82bc
00000220: b1f1 a1bd d7c6 6cbd d6de d73c 0d95 41bd
00000230: 5cfd 093e febb d9bd 727b dfbb 74a5 023e
00000240: 867a 8ebd b8c3 8ebd e99a 81bd 2c95 afbd
00000250: eab3 08be ff82 c8bd

conv2.bias f4 [3]
0.081140675 -0.05655322 -0.06987904
00000000: 152d a63d 59a4 67bd be1c 8fbd

d1.weight f4 [48, 48]
0.13433544 0.01562704 -0.04222683 -0.014406694 0.053282768 -0.038581055 -0.13747525 0.13951069
-0.13753717 -0.049506124 -0.11916374 0.13629298 0.10799133 0.10047764 0.04595466 -0.10894662
-0.057150796 -0.11109634 0.08614837 0.05279631 -0.069744594 -0.0004399499 0.039581537 0.0040079504
-0.042206764 -0.104419045 -0.077305056 -0.08367071 -0.0031065084 -0.0561361 -0.13221468 -0.13468137
0.073762745 0.102809146 0.020778818 0.0058350614 0.028235978 -0.04847641 -0.06084585 0.08441618
0.010973884 0.12104092 -0.014523938 -0.06627596 0.10206989 -0.13056949 -0.085088745 -0.05918313
0.04513839 0.11593818 0.013294663 0.10578628 -0.07140205 -0.07210078 0.03945314 0.14270277
-0.12757148 -0.08052952 -0.077336565 0.13617317 -0.07652391 -0.07871385 0.034816936 0.097797684
0.08587234 -0.065246895 -0.14112887 -0.06828262 -0.027563 0.0250726 0.12571265 0.017105222
0.13453592 -0.040276587 0.048847567 0.00019570535 -0.094073035 -0.1409818 0.046110995 0.02347153
0.03956985 -0.06900465 0.12344764 0.12235003 0.060840704 -0.050796103 0.05136295 0.08413626
0.019191049 0.12609941 -0.011960825 0.14129582 -0.056024555 -0.080015354 0.0058775097 -0.123913184
-0.07853439 -0.11141106 -0.11734578 0.045601375 0.051018152 0.04589748 0.1435977 0.13139285
0.030307177 0.074413165 0.0475214 -0.082811154 -0.0628262 0.12423907 0.11764278 0.12013567
0.14091085 -0.04711822 -0.12566854 -0.02423785 0.13540311 -0.12725446 0.11643302 0.047338706
-0.06739986 0.034284655 0.034250244 0.099556416 -0.11408368 -0.06872245 0.030415699 0.0070220265
0.09172664 -0.069778524 0.10041864 0.09087678 0.10911508 0.06531567 -0.009704157 -0.08039312
-0.012247311 0.061229017 -0.124046825 0.02766636 -0.061328094 0.012762728 -0.03919498 -0.10543611
-0.11319558 0.11748362 0.090811804 -0.09690584 0.12828603 -0.0917389 0.0012693146 0.09623467
0.13977091 0.017918687 -0.055215597 0.007118537 -0.14289984 0.058323275 -0.039280545 -0.022978155
-0.08789916 -0.002368871 0.11524187 -0.13957605 0.029992111 0.09324332 0.005049332 -0.119627655
0.10114353 -0.032578934 0.0958269 -0.05079605 -0.10980044 0.10688489 0.13732813 -0.09398642
-0.1355434 0.08934209 0.05897918 0.13833183 0.14157084 0.1205739 0.0077837873 -0.1412138
0.03854757 -0.07915758 -0.1137338 -0.0045789788 -0.06586628 0.087796375 0.13027546 -0.12818585
-0.10985311 0.04863689 0.093874454 -0.13531062 0.003250199 -0.07922319 -0.099595405 0.12413354
-0.136455 0.1147823 0.11577654 -0.12740326 0.12049983 0.051830947 -0.050939087 -0.009692491
0.14122206 0.0424784 0.1337194 0.08090379 -0.06686096 0.08576943 -0.019144693 0.094439946
-0.023589034 -0.0569213 0.10169307 -0.039600275 -0.12231698 0.022614602 0.12182477 0.12318805
0.11859457 -0.13875178 0.027825862 0.0341793 -0.1093772 0.12318668 -0.07551057 0.010781534
-0.020232223 -0.10536603 -0.116940826 -0.1270197 0.0534346 -0.0025681036 -0.036513846 -0.114817336
-0.09942949 -0.09906256 0.08874153 0.017173497 -0.09646396 0.086976886 0.08020659 0.11708135
0.06138064 0.11063586 -0.006595067 -0.099519834 -0.0275491 -0.097624205 0.07761804 0.07002729
00000000: 3b8f 093e 4704 803c 0af6 2cbd 0e0a 6cbc
00000010: 083f 5a3d 2b07 1ebd 50c6 0cbe e4db 0e3e
00000020: 8bd6 0cbe efc6 4abd 1e0c f4bd 6390 0b3e
00000030: 8f2a dd3d 39c7 cd3d f43a 3c3d 681f dfbd
00000040: f416 6abd 7a86 e3bd 8e6e b03d f240 583d
00000050: 41d6 8ebd 13a9 e6b9 4020 223d 2055 833b
00000060: 00e1 2cbd a7d9 d5bd 1d52 9ebd 8d5b abbd
00000070: 9096 4bbb f8ee 65bd 4963 07be eae9 09be
00000080: ec10 973d 9a8d d23d 5738 aa3c 0b34 bf3b
00000090: 234f e73c 338f 46bd 7f39 79bd 64e2 ac3d
000000a0: cecb 333c 4de4 f73d d0f5 6dbc b1bb 87bd
000000b0: 050a d13d 02b4 05be 0243 aebd 026a 72bd
000000c0: 08e3 383d ff70 ed3d dcd1 593c 7aa6 d83d
000000d0: 3d3b 92bd 93a9 93bd 9e99 213d ad20 123e
000000e0: 19a2 02be a9ec a4bd a262 9ebd fb70 0b3e
000000f0: 91b8 9cbd ba34 a1bd 349c 0e3d 274a c83d
00000100: d6dd af3d 2aa0 85bd 1684 10be c2d7 8bbd
00000110: cdcb e1bc 0e65 cd3c d1ba 003e 4020 8c3c
00000120: c9c3 093e 10f9 24bd 6314 483d 4136 4d39
00000130: 5da9 c0bd 885d 10be e2de 3c3d 5e47 c03c
00000140: ff13 223d 4f52 8dbd 1ed2 fc3d a792 fa3d
00000150: 1a34 793d 930f 50bd f561 523d a24f ac3d
00000160: 8c36 9d3c 3420 013e 56f7 43bc daaf 103e
00000170: 017a 65bd 17df a3bd 2098 c03b 32c6 fdbd
00000180: a3d6 a0bd 7b2b e4bd fc52 f0bd 82c8 3a3d
00000190: 69f8 503d fffe 3b3d 470b 133e d98b 063e
000001a0: c246 f83c ee65 983d cda5 423d e598 a9bd
000001b0: 06ab 80bd 0e71 fe3d b3ee f03d b109 f63d
000001c0: ef4a 103e 09ff 40bd 41af 00be 758e c6bc
000001d0: 1da7 0a3e fe4e 02be 6f74 ee3d 3be6 413d
000001e0: f008 8abd 116e 0c3d fc49 0c3d 3ce4 cb3d
000001f0: b4a4 e9bd 5bbe 8cbd 582a f93c 0719 e63b
00000200: 2ddb bb3d 0be8 8ebd 4aa8 cd3d 9b1d ba3d
00000210: ba77 df3d 39c4 853d 2ffe 1ebc 26a5 a4bd
00000220: f2a8 48bc 47cb 7a3d 430c febd 90a4 e23c
00000230: 2b33 7bbd c31a 513c ea8a 20bd e3ee d7bd
00000240: 16d3 e7bd 419b f03d 8afb b93d 9276 c6bd
00000250: 6a5d 033e 9be1 bbbd 215f a63a af16 c53d
00000260: 1b20 0f3e 36ca 923c c029 62bd 9e42 e93b
00000270: 5654 12be 63e4 6e3d a3e4 20bd af3c bcbc
00000280: 7a04 b4bd 0f3f 1bbb ee03 ec3d 06ed 0ebe
00000290: 04b2 f53c 5bf6 be3d de74 a53b 58ff f4bd
000002a0: 5724 cf3d 7d71 05bd e540 c43d 850f 50bd
000002b0: 0edf e0bd 77e6 da3d bf9f 0c3e f47b c0bd
000002c0: e4cb 0abe fcf8 b63d 2794 713d dca6 0d3e
000002d0: f2f7 103e 73ef f63d 240f ff3b 5a9a 10be
000002e0: 0fe4 1d3d 5f1d a2bd 44ed e8bd 420b 96bb
000002f0: e6e4 86bd 96ce b33d ee66 053e 2743 03be
00000300: abfa e0bd 7a37 473d 4041 c03d de8e 0abe
00000310: 4a01 553b c53f a2bd adf8 cbbd ba39 fe3d
00000320: dcba 0bbe fc12 eb3d 401c ed3d 0076 02be
00000330: 9dc8 f63d b04c 543d 81a5 50bd 41cd 1ebc
00000340: 849c 103e d5fd 2d3d bded 083e e3b0 a53d
00000350: 66ee 88bd e2a7 af3d 55d5 9cbc bb69 c13d
00000360: ca3d c1bc 4f26 69bd 7544 d03d e633 22bd
00000370: 5381 fabd 4242 b93c 447f f93d 044a fc3d
00000380: b6e1 f23d f214 0ebe 10f3 e33c 98ff 0b3d
00000390: 2701 e0bd 4c49 fc3d 49a5 9abd 08a5 303c
000003a0: 0cbe a5bc 25ca d7bd ac7e efbd 7411 02be
000003b0: 3dde 5a3d a14d 28bb 8b8f 15bd 5a25 ebbd
000003c0: b0a1 cbbd 50e1 cabd 1fbe b53d 6faf 8c3c
000003d0: e68e c5bd f020 b23d 5a43 a43d 59c8 ef3d
000003e0: 446a 7b3d 0e95 e23d 6f1b d8bb 0ed1 cbbd
000003f0: a6ae e1bc 33ef c7bd 35f6 9e3d 786a 8f3d

d1.bias f4 [48]
-0.108010784 0.08582337 -0.0929639 0.045731593 0.11262294 0.0069745197 0.021479428 0.054969646
-0.02199285 -0.11847013 -0.10559921 0.089508474 0.116081424 0.11607734 -0.07887401 0.0044645905
0.018243562 0.09296804 0.13041691 0.009052379 0.041273404 0.11019552 0.04597219 -0.1441117
-0.09526485 0.13004611 -0.038108807 0.017009778 -0.09549516 -0.033425506 -0.086572744 -0.034969263
-0.048709728 0.096124396 -0.070036724 -0.106078595 -0.0003779381 -0.037877485 -0.07352327 0.027500043
-0.054393046 -0.13538761 0.035219237 0.12748839 -0.050735552 -0.06839978 0.0054074144 0.007237846
00000000: c234 ddbd 2ac4 af3d db63 bebd 0d51 3b3d
00000010: dba6 e63d 838a e43b a0f5 af3c da27 613d
00000020: 592a b4bc 78a0 f2bd 6644 d8bd 3850 b73d
00000030: 19bc ed3d f5b9 ed3d b288 a1bd b34b 923b
00000040: 8673 953c 0766 be3d 038c 053e 6e50 143c
00000050: 4d0e 293d 30ae e13d 564d 3c3d 0492 13be
00000060: 381a c3bd cf2a 053e fb17 1cbd 1758 8b3c
00000070: f792 c3bd 2fe9 08bd 0d4d b1bd ee3b 0fbd
00000080: da83 47bd dedc c43d 6a6f 8fbd bc3f d9bd
00000090: fe25 c6b9 6c25 1bbd 5e93 96bd c547 e13c
000000a0: 3ecb 5ebd 0da3 0abe 0c42 103d 518c 023e
000000b0: 15d0 4fbd 2f15 8cbd ae30 b13b 742b ed3b

d2.weight f4 [10, 48]
0.102363035 0.016613308 -0.01100489 0.016979134 0.13761908 -0.043438174 -0.029455341 0.07345751
0.08554096 0.11336822 -0.063476846 0.038854565 0.068242766 0.048256095 0.07184324 -0.13129036
-0.12909198 -0.03445665 0.046663422 -0.1408372 -0.04726525 0.032023583 0.030168373 0.0025667788
-0.10468509 -0.12019612 0.0052519715 0.032367125 0.103263184 0.06718017 -0.020463478 -0.046869848
0.0023658255 0.10064128 0.10611845 0.065661415 -0.056283336 -0.009461942 -0.010659231 -0.122674525
0.083512396 -0.029250242 0.06520918 0.04663877 0.055903334 0.080998205 0.103061095 0.039232142
-0.032370206 -0.111272894 -0.0032297578 -0.10973755 0.10985428 0.031366058 -0.098196425 -0.006312108
-0.07384499 -0.010603224 -0.053080954 0.082392246 -0.115506366 -0.054736055 -0.08084212 -0.05643735
-0.13262874 -0.13261338 -0.14257152 0.119030334 0.073547326 -0.07544785 0.11022181 -0.0483077
-0.12956725 0.06909215 0.01726421 -0.039567288 -0.027765641 -0.03868333 -0.08724477 0.028363975
0.06747685 0.042284556 -0.12885554 -0.12980144 -0.07196927 -0.13812064 -0.10916909 -0.108491726
0.0067198994 -0.007409342 0.13291389 -0.113946125 -0.10131776 0.08671344 0.048465397 0.054579113
-0.068365864 -0.04845447 -0.13394983 -0.04465377 0.13714494 0.05489893 -0.096689336 -0.045642585
0.072358534 0.030662317 0.0021807535 -0.11165443 0.035300933 0.06821462 0.059012458 0.038427986
-0.14354925 0.076475024 0.08888466 0.09156935 0.02854213 0.030294737 0.1278616 -0.112087905
-0.06794057 0.023622086 0.030851226 0.10052572 0.14302197 -0.05952096 -0.112250835 -0.12877217
-0.08099867 -0.14180708 -0.053003132 0.017945789 0.033406425 0.0063634864 -0.0255837 0.13357434
0.12111361 -0.09577755 -0.106043085 0.06469936 0.14254272 -0.1000755 -0.07801694 0.07693512
-0.039320085 -0.09797176 0.018753886 0.016736988 -0.05598792 0.12035922 -0.13660276 0.043001425
0.07534391 -0.08880085 -0.0058749975 -0.030511675 -0.09618078 -0.052552942 -0.07524329 -0.11869451
-0.09520112 0.13234861 0.041270256 0.10976138 0.11546538 0.024314059 -0.029319927 -0.11828265
0.030380253 -0.0065696705 -0.040949717 0.11611014 -0.10741529 -0.11398355 0.0028698002 0.08894767
0.14116666 -0.081940815 0.13353997 0.018445995 -0.06791547 0.006568862 0.07645839 -0.07683349
0.0417998 -0.08037986 0.11283463 -0.08103286 -0.018465197 -0.123403855 0.04212748 -0.0583395
0.0667852 0.01465789 0.11080192 -0.11613621 0.023802822 -0.0629388 -0.00974922 0.069243185
-0.12362506 0.08259774 -0.13470879 -0.0392642 0.098277636 0.024491077 -0.052875753 -0.13454768
0.044463947 0.07859142 -0.010108679 0.09211851 0.0070745056 -0.0670361 -0.12012685 -0.09986831
-0.09259907 -0.12256833 0.0264711 -0.011383619 -0.014088927 0.14053251 0.002768558 -0.0298722
-0.010230483 0.06387419 0.040821996 0.08126123 0.13301769 0.059024554 0.13486822 -0.0021373248
-0.047603406 0.10215957 0.13820398 0.06739274 0.068101846 0.009155893 0.11655279 -0.1015783
0.06263729 0.039866507 -0.11545007 0.034101114 -0.13214675 -0.005879007 -0.06607282 -0.11376331
-0.11645353 -0.119994 -0.08623584 -0.06059665 0.12095771 0.026536314 0.040701516 -0.05912793
00000000: b6a3 d13d a218 883c db4d 34bc d317 8b3c
00000010: 04ec 0c3e 3aec 31bd 544c f1bc e470 963d
00000020: 1930 af3d 992d e83d 2600 82bd f725 1f3d
00000030: ddc2 8b3d 2fa8 453d 8c22 933d fb70 06be
00000040: b030 04be 6b22 0dbd 2522 3f3d a137 10be
00000050: 3599 41bd 292b 033d aa23 f73c 6737 283b
00000060: 2365 d6bd 6229 f6bd bb18 ac3b 6493 043d
00000070: a67b d33d c295 893d 06a3 a7bc 99fa 3fbd
00000080: f70b 1b3b 041d ce3d a154 d93d 7e79 863d
00000090: 5b89 66bd 4306 1bbc 0ea4 2ebc c83c fbbd
000000a0: 8c08 ab3d 349e efbc 648c 853d 4b08 3f3d
000000b0: e5fa 643d 63e2 a53d b211 d33d e2b1 203d
000000c0: 9f96 04bd 0be3 e3bd 58aa 53bb 15be e0bd
000000d0: 48fb e03d b279 003d 351b c9bd cdd5 cebb
000000e0: 0b3c 97bd 25b9 2dbc 6a6b 59bd 44bd a83d
000000f0: 9a8e ecbd ea32 60bd 8e90 a5bd da2a 67bd
00000100: d4cf 07be cdcb 07be 45fe 11be 2dc6 f33d
00000110: fb9f 963d 6784 9abd f9bb e13d 4bde 45bd
00000120: 47ad 04be 2f80 8d3d ac6d 8d3c 4f11 22bd
00000130: c574 e3bc 6972 1ebd 63ad b2bd 915b e83c
00000140: 4d31 8a3d 9232 2d3d b5f2 03be abea 04be
00000150: a064 93bd 7f6f 0dbe 0b94 dfbd e930 debd
00000160: 9a32 dc3b 11ca f2bb 941a 083e 965c e9bd
00000170: b07f cfbd d196 b13d a783 463d 598e 5f3d
00000180: 6703 8cbd 3278 46bd 252a 09be dfe6 36bd
00000190: b96f 0c3e b3dd 603d 0f05 c6bd b8f3 3abd
000001a0: b630 943d 8a2f fb3c f9ea 0e3b 14ab e4bd
000001b0: b697 103d 1bb4 8b3d 0cb7 713d aa66 1d3d
000001c0: 93fe 12be f09e 9c3d 2909 b63d b688 bb3d
000001d0: 2fd1 e93c ab2c f83c 27ee 023e 588e e5bd
000001e0: 6d24 8bbd 1b83 c13c b6bb fc3c 6ee0 cd3d
000001f0: 5a74 123e 40cc 73bd c4e3 e5bd dadc 03be
00000200: a1e2 a5bd e035 11be d019 59bd 0c03 933c
00000210: 2dd5 083d cb84 d03b e894 d1bc b6c7 083e
00000220: 6a0a f83d 0527 c4bd 1e2d d9bd 1981 843d
00000230: b8f6 113e 62f4 ccbd 58c7 9fbd 2990 9d3d
00000240: 190e 21bd 6ba5 c8bd c0a1 993c 021c 893c
00000250: 9753 65bd e57e f63d 98e1 0bbe 4322 303d
00000260: e84d 9a3d 38dd b5bd 0d83 c0bb 9ff3 f9bc
00000270: 6efa c4bd c141 57bd 2719 9abd 1b16 f3bd
00000280: cef8 c2bd 6586 073e 000b 293d 93ca e03d
00000290: 1d79 ec3d 472e c73c 5830 f0bc 2d3e f2bd
000002a0: 02e0 f83c 6446 d7bb e4ba 27bd 27cb ed3d
000002b0: 8cfc dbbd 3570 e9bd 4213 3c3b 322a b63d
000002c0: fe8d 103e 96d0 a7bd b4be 083e 0e1c 973c
000002d0: 4417 8bbd 9c3f d73b 3796 9c3d e05a 9dbd
000002e0: 4436 2b3d 329e a4bd d815 e73d 8ef4 a5bd
000002f0: 5344 97bc 29bb fcbd dd8d 2c3d 66f5 6ebd
00000300: aec6 883d a627 703c 1eec e23d d2d8 edbd
00000310: 23fe c23c 0fe6 80bd 31bb 1fbc 5fcf 8d3d
00000320: 232f fdbd 0129 a93d 1af1 09be 7fd3 20bd
00000330: c945 c93d 83a1 c83c 3f94 58bd dec6 09be
00000340: d41f 363d 8af4 a03d df9e 25bc a1a8 bc3d
00000350: 41d1 e73b 394a 89bd 1105 f6bd c287 ccbd
00000360: 95a4 bdbd 1b05 fbbd ecd9 d83c 5c82 3abc
00000370: 3ed5 66bc c1e7 0f3e b270 353b 8bb6 f4bc
00000380: c19d 27bc 79d0 823d f734 273d 4a6c a63d
00000390: ca35 083e bbc3 713d e51a 0a3e 5c12 0cbb
000003a0: cafb 42bd 0939 d13d 5885 0d3e 3405 8a3d
000003b0: fb78 8b3d 9902 163c 3bb3 ee3d 4908 d0bd
000003c0: fb47 803d 104b 233d 1671 ecbd 9cad 0b3d
000003d0: 7a51 07be afa4 c0bb 3051 87bd bdfc e8bd
000003e0: 307f eebd 6abf f5bd 6b9c b0bd 3134 78bd
000003f0: adb8 f73d af62 d93c a2b6 263d 2130 72bd

d2.bias f4 [10]
0.04760267 0.028806023 0.0764881 0.019081341 0.061072372 0.095032535 0.054605234 -0.065210454
0.07077687 -0.13765784
00000000: 04fb 423d 9cfa eb3c cba5 9c3d 7950 9c3c
00000010: 0627 7a3d 6ba0 c23d bda9 5f3d 0f8d 85bd
00000020: 77f3 903d 2df6 0cbe
