proof_spliting/relu/network.onnx (onnx, 763 bytes, 2 tensors)

conv1.weight f4 [1, 3, 2, 2]
000000 c0 9e e1 3d fc 27 e7 3d a4 e3 8a be f2 67 02 3e
       0.11016607 0.11286923 -0.271268 0.12734964
000010 43 b3 1f 3e 3a ab 92 3e 60 b5 aa bc 9e 41 ae bd
       0.15595727 0.2864626 -0.02083844 -0.08508609
000020 1e 62 1e bd 16 7f 69 be 2b f1 80 be 7c f5 ce bd
       -0.03866779 -0.22802386 -0.25183997 -0.10105416

conv2.weight f4 [1, 1, 2, 2]
000000 98 bc ac 3d 1e b6 85 3e e6 16 b3 be 62 13 88 be
       0.08434409 0.26115507 -0.34978408 -0.26577288
