test_parts/part2_model.onnx (onnx, 156167 bytes, 3 tensors)

onnx::MatMul_502 f4 [64, 64]
00000000: 891c 313a 5737 3f3b b846 013c 1244 50bb
00000010: d88d 43ba daa7 8d3b 63df b23b 99a5 483b
00000020: a537 653a 14e9 b6b7 3997 043c 1901 aaba
00000030: 57a7 e2b9 a271 b23b a37c 193c dd82 033b
00000040: c8f6 a0ba ad47 e93b 2ace a03b 0b57 0bbc
00000050: a751 b9ba 3069 52bc 044f 713c eced 16bb
00000060: 3722 0d3c a60b 283c 2576 1d3c dd4f 52bb
00000070: 62ae 48ba 98e7 a43b e945 38ba fd61 bd3b
00000080: 7a1a 7db9 f273 10bb 2d82 563b c1bb e73b
00000090: a0a6 15bc afac be3b e2c8 7538 4d64 4bbc
000000a0: 65ef 54bb ed0e 33bb f6c0 e3bb 820a 99ba
000000b0: 4833 763b a4f1 b2ba f467 363c f411 db3b
000000c0: 7aef 203c 463f 60bb 8fc9 d73a 0255 1dbc
000000d0: f1bb 13bc 4970 f53b beed 203b 6515 a0ba
000000e0: 1954 283c df12 ce3b 633b b53b 90ef 493b
000000f0: 2ab9 1abb 822d 71ba ad30 273c f6f4 013c
00000100: 701b a0ba d796 0c3c f12e 53bc e8dd 54bc
00000110: a2f1 97bb 775f 893a 1bd5 65bc f427 21bc
00000120: e75e 8a3b 2e7d b23a 485b eebb e954 56bb
00000130: c4ca f039 8995 4bbb 5af1 96bb 36a1 b03a
00000140: cd47 24bc 4475 bf3a d55a 6e3c a6c9 cdbb
00000150: c82a 63bb c02c 243b c7d7 ae3b 1d66 1c3b
00000160: 334f 9e3c c235 26bc 9944 173b 3127 65bb
00000170: 7fbd c9bb 46cf 343b 8bcd bd3b b18d 373c
00000180: 8a30 07bc 96bc ac3b 89cd 8fba f206 9cbb
00000190: 4b54 7ab9 4a31 133a 3d80 1d3a 11b1 4a3a
000001a0: 447f 463b 92d1 34ba 23eb 2abc a043 163a
000001b0: 6211 96bb e142 04bc f9a9 5d3b c5eb 1abb
000001c0: 6826 293c bd4b ecbb 2135 87bb f939 7f3c
000001d0: 8df8 e8bb 453f a13b 07d1 373b 5667 1f3c
000001e0: 8fd3 5fbc 14e2 94bb bfdc 10bc 3c55 8a3b
000001f0: befd 1e3a a5bd 1fbc 7303 03bc 66ae 41bc
00000200: 18fa b73b a536 0b3c e50b 6ebc a155 9cbb
00000210: a334 073b ae25 16bb f07a 7238 58f6 1bbb
00000220: e3dd 563c 93cb c3bb 283c 25bb db88 17bb
00000230: b590 54bb b41a 823b e60f 8f39 bdad dd39
00000240: 2ec0 b4bb fb31 ee3b 2f29 cd3b 2041 acbb
00000250: ae17 deba 9961 1d38 f767 24b9 9727 24ba
00000260: a5a5 a4bb 2c1f 3c3c e4ec e7bb 9c32 e6bb
00000270: 9340 8dbb 88c0 1a3c a64b 2bbb 6e54 6c3c
00000280: 1c36 013b fa7e 193c f37f 64bb 4d2a f53b
00000290: daea 19bc 35ea 993b 9e0c 253c a30b 383c
000002a0: 9f9a 283c a8b9 89bb 0802 2038 bec3 c1bb
000002b0: cd65 3eba b4d4 c23a 056a b8bb 9b1f c43a
000002c0: c228 aa3b 9452 00bc aa37 b63b 6a1f 9d3a
000002d0: b194 023c 1a58 daba b433 40bb 2f75 89bb
000002e0: 5bbc 75bb d070 97bb 53cb baba 9917 8c3c
000002f0: 885f 08bc 863b c5bb 3f72 a8ba 2646 8c3b
00000300: 3bd9 853c 13ea 973b b872 bbbb 3705 713b
00000310: 8ef3 eb3b 134f 4a3a 8d83 483b b957 44bb
00000320: 3603 11bb 4150 a139 683a c73b e33e a33b
00000330: 74be a5bb 2577 10ba f485 e9ba a2a2 8abb
00000340: 7556 263b 3cfc 59bc 9259 3fba ba00 25ba
00000350: 85dd 68bb a71d 493a fd15 0ebb 4309 7fbc
00000360: bc2b e23a 0303 f33b 0b7c 13bb 8016 853b
00000370: eb7b 47bb 047d 043c 7b60 de3b 504f bebb
00000380: e4db c13b 5459 56bb 16ef b73a b2fa 27bc
00000390: 07b2 6a3c 68fb 0dbc 547a 1c3c 3916 383b
000003a0: ad1b cebb fb88 1cb9 ee70 aeba 24b4 203c
000003b0: 32bf 4c3c 8e40 95bb a3b9 a63b 586d 45bc
000003c0: bc88 743b 054d 583c 7e37 643b a429 b5bb
000003d0: 63dd 08bc 1342 a3b8 bd22 68bc b556 9abb
000003e0: 25f4 133b 396c bdba 5175 53bc 1125 53bc
000003f0: 56de d7bb a097 a93b 9dd3 0bbc a951 e4ba
0.0006756266 0.0029177272 0.007890396 -0.0031778854 -0.0007459796 0.004322988 0.0054587587 0.0030616282
0.00087439484 -2.1804626e-05 0.008092695 -0.0012970298 -0.00043230757 0.005445675 0.009368095 0.0020067014
-0.0012280578 0.00711914 0.004907389 -0.008504639 -0.0014138714 -0.0128424615 0.014728311 -0.0023029996
0.0086141145 0.010256683 0.009610687 -0.003209106 -0.00076553796 0.005032491 -0.00070294604 0.0057795034
-0.00024137823 -0.0022041765 0.00327314 0.0070719426 -0.009133965 0.0058189253 5.859964e-05 -0.01241405
-0.0032491323 -0.002732213 -0.006950493 -0.0011676105 0.0037567187 -0.0013652337 0.011133183 0.00668549
0.009822721 -0.0034217401 0.0016463267 -0.009602787 -0.009016977 0.007490192 0.0024555768 -0.0012213407
0.010273957 0.0062888707 0.005530761 0.0030812956 -0.0023608902 -0.00092002016 0.010204476 0.007931938
-0.0012215208 0.008580885 -0.01288961 -0.01299236 -0.004636959 0.0010480721 -0.014027859 -0.009836186
0.004222739 0.0013617629 -0.007274065 -0.003270442 0.0004592744 -0.0031064472 -0.004606408 0.0013475779
-0.010026884 0.0014607091 0.014548023 -0.006280142 -0.003466295 0.0025051087 0.0053357813 0.0023864575
0.019324875 -0.010144653 0.002308166 -0.0034965987 -0.006156623 0.0027589365 0.005792325 0.011203215
-0.008251319 0.0052715046 -0.0010971288 -0.00476157 -0.0002387326 0.00056149496 0.00060081837 0.00077320734
0.0030288259 -0.00068976835 -0.0104320375 0.0005732123 -0.004579709 -0.008072586 0.0033823235 -0.0023639065
0.010324098 -0.007211177 -0.0041262065 0.015577787 -0.0071097077 0.0049208724 0.0028048174 0.009729227
-0.013661279 -0.004543552 -0.0088416925 0.0042215865 0.0006065032 -0.009749805 -0.007996428 -0.011821365
0.0056145303 0.008496915 -0.014529203 -0.00477095 0.002063074 -0.0022910642 5.781179e-05 -0.0023797955
0.013114425 -0.0059751957 -0.0025212858 -0.0023122344 -0.0032434885 0.0039704684 0.0002728693 0.0004228185
-0.0055160737 0.0072691417 0.006261013 -0.005256787 -0.0016944313 3.7522612e-05 -0.00015678989 -0.0006262003
-0.005024629 0.011482041 -0.0070778 -0.007025076 -0.0043106764 0.009445317 -0.002613762 0.0144244265
0.001971609 0.0093686525 -0.0034866303 0.0074818493 -0.009394372 0.004697109 0.010073809 0.011233243
0.010290771 -0.00420304 3.8148864e-05 -0.005913227 -0.00072630943 0.0014864416 -0.005627873 0.0014963032
0.005192847 -0.007832188 0.005560835 0.0011987512 0.007970021 -0.0016658336 -0.0029327692 -0.0041948776
-0.0037496302 -0.0046216026 -0.0014251269 0.017101096 -0.008323558 -0.0060190586 -0.0012851431 0.0042808233
0.016338935 0.004636058 -0.0057204627 0.003677679 0.007200665 0.00077174715 0.0030595989 -0.0029959513
-0.0022127158 0.00030768107 0.0060799606 0.004981862 -0.005058104 -0.0005510918 -0.001781641 -0.004230813
0.0025381122 -0.013304766 -0.0007299419 -0.0006294359 -0.0035532427 0.000767196 -0.0021680587 -0.015566173
0.0017255466 0.0074161305 -0.0022504355 0.00406152 -0.003043885 0.008086447 0.0067864037 -0.0058077946
0.0059161056 -0.0032707052 0.0014033045 -0.0102526415 0.014324672 -0.008665897 0.00955065 0.0028089418
-0.0062899203 -0.00014928349 -0.0013308802 0.009808574 0.012496756 -0.0045548147 0.0050880476 -0.012049995
0.0037312945 0.013201957 0.0034823115 -0.0055286456 -0.008353564 -7.784753e-05 -0.0141684385 -0.0047100433
0.0022575941 -0.0014451809 -0.012906388 -0.012887255 -0.006587784 0.005175546 -0.008534339 -0.0017419356

onnx::MatMul_503 f4 [64, 256]
00000000: c24e 0abc f2b6 df3c 1147 183c 413b b63c
00000010: b5f7 90bc cccb cf3a 13fd d4ba 13d8 403c
00000020: 4ea4 1cbc 553b 06bc c42a 91bc e6ed 7f3b
00000030: d31f 693b f324 2f3d 4ed7 f3bc 1992 a13c
00000040: 4530 6ebc 697b f2b9 5efd 17bc 8fa0 9bbb
00000050: ca63 333b 0b1e d73c fdf9 133c 65c1 5fbc
00000060: 7b58 3d3c 32e6 6dbc 6e73 d9bc b7a8 033d
00000070: 5c9d ec38 0b2c 4b3c c751 fabc a7d9 ec3b
00000080: c17e 543c c4c2 26bc f344 0cbc f078 9d3c
00000090: 846f 563d 2767 7a3c e2fc 1abd 2016 7f3c
000000a0: 5ded 18bd 4ab0 583c 9758 8dbc 459a 363d
000000b0: 5a62 9e3c 471b 2f3b 6e36 f83c c806 93bc
000000c0: 05b5 df3c 247b 2eba f9d3 873c 14b5 17bc
000000d0: e756 77bb 87ce 44bc 0a2d afbc b947 babc
000000e0: 3306 4a3c 8de9 1fbb 9e9e 363d f958 ecbb
000000f0: 3bb5 8cbc 108f 5f3b c23c 03b7 db52 363c
00000100: 3777 a83a 4887 863c fd85 85bc 72c3 293d
00000110: 8b35 4fbc a41b cf3c 38c9 cc3b d26e af3b
00000120: 789b c2bc 660e 823c a26e 86bc 02ca 9e3c
00000130: 1e78 adbc f494 2cbc 24c3 ad3c c609 93bb
00000140: 8c9b 81bb 9789 1d3c 863a 8a3b a54c 24bd
00000150: 25c4 8abc ccdd 99bb 4759 743b 2d2e 013d
00000160: 4df3 bf3c 2015 50bc 5bf3 19bc c0b2 8ebb
00000170: bf16 97bb 7d89 ce3c cf15 4d3c 2801 98b9
00000180: 1e06 713a 3cbf d9bc 1237 473c 26d6 563c
00000190: 7780 01ba 2b23 333c 5cc8 a5b9 d5aa 3ebc
000001a0: 241e dc3c adf2 b5bc 5ed5 ab3b 14c3 893c
000001b0: 7cac 903c 6f00 0dbc 3234 37bc 987d f9bb
000001c0: 6757 9b3c 39c2 3ebc 81be e03c a12b 2abc
000001d0: 384a 243c c6d0 1c3c 2a5c debb 2d9f aebc
000001e0: a798 94bb d3c5 123c 491d 46bc 4c33 7dbc
000001f0: 00c5 00bc ee22 f53c fb5d 9b3c 1b11 30bc
00000200: 3399 bd3c 6d29 80bc 3054 253c 738c 203d
00000210: 2ee4 7abc 94e4 223b 6c22 eaba 3245 14bc
00000220: 21b5 b6bc 6c94 813c 7747 dfbc e4b5 303b
00000230: 649c 3a3c 2190 ffbb 0942 863b b255 e4bc
00000240: 6b92 0d3c e164 c23c fdf7 23bc 65fe 4b3c
00000250: be25 5d3c 5623 9d3b c938 193c 87c1 6b3c
00000260: 3465 293d f265 073d 1bde 4bbc 1735 86bb
00000270: 5227 f7bc a6f1 313d e326 943b 843c 973a
00000280: 6928 8b3a d944 abbc 6ecb b23c 6f2a 153b
00000290: 10aa 793a 1e72 3d3c 0919 ee3b 17fe 073d
000002a0: 6fcc b8bc ec22 cf3c 4e10 b53b ce5b 303d
000002b0: 2ad8 8fbb 0e82 a43c 60df df3c 8bb8 993b
000002c0: 5152 15bd 0ae4 25bc 91f5 923b 1362 a9bc
000002d0: 42f2 063c 29cb 2dbc 349b 97bb c55c 89bb
000002e0: 7b54 2ebd b2db ab3b bfa3 8b3c 21a9 afbc
000002f0: 75e3 d33c d645 83bb 632d 033c ebd7 b03c
00000300: d4f6 873b 1e21 e6bb 62ad 873c 94df d43b
00000310: c1f9 d9bc 306d 183c 39d7 c8bc f284 8fbc
00000320: fbfb bb3b cf01 43ba eb6d 1d3c e785 fcbb
00000330: 3301 3abd 2260 563c ec5b 89bc 954c 693c
00000340: 12b0 a43b 121b f53b 0247 2d3b 4a7c 823b
00000350: cf2b babb 9872 ec3c 088c 0f3d fe87 b9bc
00000360: a26e d23c de7a 7839 26b6 903b ee98 be3c
00000370: f538 dabc 7205 8ebb 6a50 053c edbe a33c
00000380: c131 333c f30a 463c a78a 25bd 1002 c8bc
00000390: f5ea bfbb 0951 a33c efa9 513a d266 b73c
000003a0: fced 42bb b4c7 3cbc b243 a2ba 873e 95ba
000003b0: f21d ad3b fb0e 0a3c 0284 9e3c c556 ac3c
000003c0: 7db7 d53c c0f2 023c ad7b 90bc 37a8 b43c
000003d0: 523a 80bb 78a0 e1bc 002e e2bb 94b3 993c
000003e0: 92f2 8dbc 79da 913c bd18 563c f34d 3fbd
000003f0: 8bb3 863c e0d4 24bc 8c9f 4f3c 142c 1abd
-0.008441629 0.027308915 0.009294287 0.022245051 -0.01769624 0.0015853583 -0.0016249738 0.011770266
-0.009560658 -0.008192857 -0.017720588 0.003905171 0.0035571947 0.042759847 -0.029765751 0.019722985
-0.014537876 -0.00046249785 -0.009276716 -0.0047493647 0.0027372711 0.026259443 0.00903177 -0.013656949
0.01155674 -0.014520215 -0.026544299 0.03214332 0.000112826674 0.012400637 -0.030556573 0.0072280946
0.012969674 -0.010178272 -0.008561361 0.019222707 0.052352443 0.0152833825 -0.037838824 0.01556924
-0.037335742 0.013225624 -0.017254157 0.044580717 0.019334007 0.002671914 0.030299392 -0.01794757
0.027307997 -0.00066559226 0.016580569 -0.009259481 -0.0037741007 -0.012012131 -0.021383781 -0.022739278
0.01233058 -0.0024400682 0.044584863 -0.007212755 -0.017176261 0.0034112372 -7.822355e-06 0.011128153
0.0012852912 0.016421929 -0.016299242 0.041446157 -0.012647043 0.025281735 0.006249573 0.005353787
-0.023755774 0.015876006 -0.016410176 0.019383434 -0.02117544 -0.01053356 0.021211214 -0.004487249
-0.00395531 0.0096153235 0.0042184023 -0.040112156 -0.016939232 -0.0046956297 0.0037284659 0.031538177
0.023431445 -0.012700349 -0.009396399 -0.0043548048 -0.004610866 0.025212044 0.012517407 -0.0002899256
0.0009194332 -0.026580445 0.012159126 0.01311258 -0.0004940102 0.010933678 -0.00031620532 -0.011637409
0.02686984 -0.022210443 0.005243941 0.016816653 0.017660372 -0.00860606 -0.011181878 -0.007613849
0.018962575 -0.011642986 0.02743459 -0.0103863785 0.010027461 0.00957126 -0.006785889 -0.021316135
-0.004534799 0.008958298 -0.012091943 -0.015454125 -0.007859468 0.029923882 0.018965712 -0.010746266
0.02314434 -0.015644753 0.010090873 0.039196443 -0.015313191 0.0024855481 -0.0017863042 -0.009049701
-0.022303166 0.015817843 -0.027255757 0.0026963884 0.0113898255 -0.007799164 0.0040972275 -0.027872894
0.008640866 0.023729743 -0.0100078555 0.012450789 0.013497768 0.004795472 0.009351918 0.014389402
0.04135628 0.033056207 -0.012443091 -0.0040956843 -0.030170117 0.043443345 0.004521237 0.0011538421
0.0010616902 -0.020906853 0.021825518 0.0022760888 0.00095239375 0.011562852 0.007266168 0.033201303
-0.022558419 0.025285207 0.0055256253 0.0430563 -0.0043897824 0.020081546 0.027328193 0.0046911887
-0.036455456 -0.0101251695 0.00448484 -0.020676648 0.00823647 -0.010607519 -0.004626656 -0.004191967
-0.042561036 0.0052446956 0.017045854 -0.021442952 0.025865296 -0.004006128 0.0080064265 0.021587333
0.0041492973 -0.007022991 0.016562168 0.006496379 -0.02660835 0.009303376 -0.024516689 -0.017519448
0.0057368255 -0.0007438929 0.009608726 -0.007706392 -0.0454113 0.013084443 -0.016767465 0.01423945
0.005025872 0.0074800337 0.002644003 0.0039821016 -0.005681492 0.028863236 0.035045654 -0.022647854
0.02568752 0.00023696895 0.004416245 0.023266282 -0.026638487 -0.004334145 0.008136848 0.019988501
0.010937155 0.012087571 -0.040415432 -0.024415046 -0.0058568665 0.019936102 0.00079980394 0.022387896
-0.00297439 -0.011522222 -0.0012379794 -0.0011386432 0.005283111 0.008426423 0.019350056 0.021037469
0.02608847 0.007992446 -0.017637098 0.022052867 -0.0039132023 -0.027542338 -0.0069024563 0.018762387
-0.01732758 0.017804371 0.0130674215 -0.046705198 0.016443035 -0.010060519 0.012672316 -0.037639692

onnx::MatMul_504 f4 [256, 64]
00000000: 2989 e73b f97f 4dbb 53d6 bc3b 136e 3f3b
00000010: d962 a8ba d076 c03b a4ba d93a b1de 1ebc
00000020: 55b1 353b 9988 02bc bc42 333a 4868 a3bb
00000030: 3d83 93bb 03cc 133b ca43 913b fa36 e9bb
00000040: 1d49 293c f97c 6a3a c599 c7bb 9dad 31bb
00000050: 3188 9abb 9e1b a53b 69fd e83b bff0 05bc
00000060: 4264 90bb ed87 ccbb 01d4 4c3c 08d4 023c
00000070: e3d4 44bb 3499 273a 447b 7f3b 2f73 9bba
00000080: 6853 a13b 5df8 d53a 9838 a83b 0790 f9bb
00000090: 7ac0 563a 3970 843b b62c a63b 44e7 9aba
000000a0: 4d5c 4ebb 738b edbb c1cc 773a f5c2 05bc
000000b0: 5e84 993b 4486 75bb 1b6e 1b3b 09ea 903c
000000c0: cee5 113c dc2f 15bc 1cfa 5cbb 8bd4 163c
000000d0: de62 d13a ab7c c93a 5bfc 16bc e032 f8bb
000000e0: 62dd 6dba 2f56 083c 2203 98bb 3553 333c
000000f0: e050 87ba 0085 b6ba 1c22 a8bb 9db0 233c
00000100: 073f 84bb 0e9e 463c 9174 aa3b 3df7 77bb
00000110: 8ee2 d0ba b904 aabb 318c a73b c996 cfbb
00000120: 9ef0 9dbb 7af2 28bc 5d95 59bb 2dd4 aebb
00000130: 5651 313a 4625 dcbb e0ff 42ba 2e1f e4bb
00000140: fcc4 fa3b 385e ef3b 8e4a 02bc bc4d 423c
00000150: 42a4 cfba a668 033b 6fff ba39 8842 8d3b
00000160: 7ad4 a83b 73bf 75ba adeb 0aba 425f c43a
00000170: 1bb7 82bc cdbb a33a 7c47 533b 0580 373b
00000180: 2376 903b 9f61 593b 51ee 243b 3df2 0fbc
00000190: d0e1 debb 6b01 a03a e115 97ba 0078 fd3a
000001a0: c8a5 9cbb 0447 443c 138f 213b 5a06 8cbb
000001b0: 008e 843a d777 4f3a caff 21bc f099 09bb
000001c0: 972f b3ba 6e2d 15bc 81b5 0cbc 8f4e ccbb
000001d0: 71a2 60bb 77ab b3bb a2a4 fe3b 4b34 5fbb
000001e0: 6368 81ba 40fd 043c 1ffa 07bb 595d ff3b
000001f0: 7f29 09bc c0fd b6bb be05 c23a 43cf c3bb
00000200: 784b 4d3b aa92 313c 8bee fdba aef4 323c
00000210: 0759 44ba 10f9 993b db82 08b9 0e48 c23a
00000220: fa91 d93a 8ebf 5f3c 353f 173c 2f9c b83b
00000230: 0d1e 873b f715 ecbb 16dc 10bb 0e63 0d3c
00000240: 5eb3 99ba b74c 2bbc 87a6 fe39 17ca 1d3c
00000250: d79e 65bb 6e7b 773c 3cb9 d2bb 367d f93b
00000260: d90b a0bb 4e83 20bc f043 043b 8151 b9bb
00000270: dd15 00bc 086e 4d3c 9d16 2f3c be27 963b
00000280: a7b5 c03b 282c 283c eead 24bc dfbe fcbb
00000290: 0cda 2f3c e422 773c 7990 573c f6cb 563b
000002a0: b389 b83b b720 39bb 573b 0a3c fa0d ad3b
000002b0: 3e6e 89ba 9614 d5bb 322f 543b 4ee4 b63b
000002c0: 163e a33b 7ca2 d43a 8af8 8abc 6b3c 15ba
000002d0: 7af0 c23b f8c9 3c3c e284 21bc 559d 00ba
000002e0: 126e c33a 16fa 8dbb a7bd f3bb 95c6 f239
000002f0: 7506 493c a9dc 1d3c 23f0 213c 704d 4ab8
00000300: d188 f83b c926 6aba 21de 7fbb 0a2f f4bb
00000310: 80c2 713a f7a8 a8ba 8f54 cb3b 2af0 6fbc
00000320: d1c9 2f3c d6b5 03bc 076f 76bb ce3b 91bc
00000330: 73fb 24bb 8cc9 a33a 21b9 fdb9 f479 373c
00000340: 7c80 013c 8cb9 f6ba 2c02 95bb a090 fb3a
00000350: c224 fc3b aa16 49bc efdb 17bc 8abc e8bb
00000360: dcad 19bb bc4c 07bb babf fd3b 8ad7 09bc
00000370: f0c5 4fbb 2626 ba39 58ac 2bbc da2a 86bb
00000380: bc7c 05b9 619f 593b 33e4 7b3b 0edf 1d3c
00000390: 9925 07bc 3628 253b b301 36bc 81a4 8b3c
000003a0: 2c50 cd3a 5216 223b 0ca5 4c3b 66fa e33b
000003b0: af21 2b3b 3627 ddbb 17c2 98b9 c3da c83b
000003c0: 90e4 853a 0342 d5bb f14e 05bc f197 4dbb
000003d0: 3965 233b 04ec 37bc b513 cdba 3637 16ba
000003e0: 10e9 59bc 4f29 a03a 514a 34bb 9703 b2bb
000003f0: 9fd9 09bc b969 beba 021e e63b 7c9a bc3b
0.0070659113 -0.0031356795 0.005762854 0.0029209896 -0.0012846842 0.0058735386 0.0016611409 -0.009696648
0.0027724106 -0.007967138 0.00068382523 -0.0049867965 -0.004501729 0.002255202 0.00443313 -0.0071171494
0.010332373 0.0008945014 -0.006091329 -0.0027111538 -0.0047159423 0.0050386926 0.007110287 -0.008175074
-0.004406483 -0.0062417896 0.012501718 0.0079851225 -0.0030034117 0.00063933735 0.0038983384 -0.0011859889
0.004923273 0.0016324628 0.0051336996 -0.0076160464 0.00081921334 0.0040416983 0.005071248 -0.001181819
-0.003148812 -0.0072492897 0.0009452813 -0.008164157 0.004684969 -0.0037464062 0.002371675 0.017689722
0.008904887 -0.009105649 -0.0033718413 0.009205948 0.0015974899 0.0015372237 -0.00921544 -0.007574424
-0.0009073821 0.008321329 -0.0046390453 0.010945131 -0.0010323785 -0.0013925135 -0.0051310193 0.009990838
-0.0040358338 0.012122644 0.005201884 -0.0037836574 -0.0015936659 -0.0051885513 0.0051131477 -0.0063351137
-0.0048199436 -0.010311717 -0.00332006 -0.005335352 0.0006764134 -0.0067183105 -0.0007438641 -0.0069617247
0.007652877 0.007304933 -0.007952346 0.011859354 -0.0015841799 0.002005139 0.00035666997 0.0043109097
0.0051522823 -0.00093745365 -0.00052994007 0.0014982002 -0.015956452 0.0012491882 0.0032238653 0.002799989
0.0044086142 0.003316976 0.0025166462 -0.008785781 -0.0068018213 0.0012207454 -0.0011526906 0.0019338131
-0.004780505 0.011979822 0.002465193 -0.004273218 0.001011312 0.0007914281 -0.009887645 -0.0020996295
-0.0013670799 -0.00910507 -0.008588196 -0.006234951 -0.003427651 -0.0054830867 0.0077710906 -0.0034058269
-0.0009873029 0.00811702 -0.002074845 0.0077931103 -0.00837171 -0.0055844486 0.0014802737 -0.0059756353
0.00313255 0.01083819 -0.001937346 0.010922594 -0.0007490073 0.00469888 -0.00013018718 0.0014822499
0.001659929 0.01365651 0.009231378 0.005633853 0.0041234554 -0.007204767 -0.0022103838 0.0086295735
-0.0011726429 -0.010455302 0.00048570728 0.0096307015 -0.0035037303 0.0151051115 -0.006430773 0.0076138033
-0.004884225 -0.0097969305 0.0020182095 -0.005655468 -0.007817713 0.0125384405 0.010686544 0.0045823744
0.0058810296 0.010264434 -0.010051234 -0.0077131833 0.010733139 0.015084002 0.013157004 0.0032775379
0.0056316494 -0.002824826 0.008436999 0.005281207 -0.0010485125 -0.006502698 0.0032376763 0.0055814153
0.0049817665 0.001622274 -0.016964216 -0.0005692902 0.005949077 0.0115227625 -0.009858342 -0.0004906257
0.0014910123 -0.004332791 -0.00743838 0.00046305792 0.012269606 0.009635129 0.009883913 -4.8232672e-05
0.007584669 -0.0008932171 -0.0039042311 -0.0074518966 0.0009222403 -0.0012867738 0.0062051485 -0.014644662
0.010729269 -0.008038959 -0.0037602799 -0.017728712 -0.002517429 0.0012495979 -0.00048393852 0.0111985095
0.007904168 -0.0018823608 -0.004547378 0.0019192882 0.0076948116 -0.01227347 -0.009268745 -0.0071025537
-0.0023449576 -0.0020645102 0.007743803 -0.008413205 -0.0031703673 0.00035505107 -0.010478102 -0.004094464
-0.00012730336 0.003320657 0.0038435578 0.0096357 -0.00824871 0.002520097 -0.011108804 0.017046215
0.0015664152 0.0024732542 0.0031226305 0.00695734 0.0026112606 -0.006749059 -0.00029136307 0.006129594
0.0010215212 -0.0065081134 -0.008136497 -0.0031371082 0.002493216 -0.011225704 -0.0015646132 -0.0005730273
-0.013300195 0.0012219342 -0.0027510116 -0.005432557 -0.008413701 -0.0014527357 0.00702262 0.0057557207
