test_parts/part3_model.onnx (onnx, 159484 bytes, 3 tensors)

onnx::MatMul_515 f4 [64, 64]
0	0x3c5ccf7a	0.013477201
1	0xbc0a6c67	-0.008448697
2	0x3c66556c	0.014058452
3	0x3976166f	0.00023468745
4	0x3b7c0714	0.0038456367
5	0x3b97c939	0.004632142
6	0x3b83c6b9	0.0040214923
7	0x3bf6f716	0.007536779
8	0xbbb435d3	-0.0054995804
9	0xbb6bde37	-0.0035990605
10	0x3b1b6370	0.0023710392
11	0x3c7903c4	0.015198652
12	0xba0f3a95	-0.00054637465
13	0x3b8eadc9	0.004354213
14	0xbbfebbc6	-0.007773849
15	0xbc37d178	-0.011219375
16	0xbc1f939e	-0.0097397845
17	0xbacf6778	-0.0015823683
18	0xba871cca	-0.0010308262
19	0xbc6c1696	-0.014409682
20	0x3adbcd76	0.0016769606
21	0x3abc6883	0.0014374409
22	0xbbe5b3b8	-0.0070099495
23	0xbb9313a2	-0.0044884244
24	0xbc2df483	-0.010617378
25	0xbb1b8521	-0.0023730474
26	0xbb6b591c	-0.0035911268
27	0xbb6832b4	-0.0035430612
28	0xbbbddd7d	-0.0057942257
29	0x3c188150	0.009308174
30	0xbb700323	-0.0036622963
31	0x3b0a2ab0	0.0021082573
32	0x3c58f73c	0.013242539
33	0xba15bfe2	-0.00057124917
34	0x3bb18b67	0.0054182294
35	0xba90b65a	-0.0011040673
36	0xbb59aeac	-0.0033215685
37	0xbb3ca6fb	-0.0028786052
38	0x3c19e545	0.009393041
39	0xbc0ca827	-0.0085850125
40	0xba48f08a	-0.00076652376
41	0x3b9bd0c5	0.004755112
42	0xbbbd1cfe	-0.0057712784
43	0xbb9cac65	-0.004781293
44	0xbb3eedb3	-0.002913338
45	0x3b75ed87	0.003752561
46	0xbc2ff4ff	-0.010739564
47	0x3bd920d1	0.0066262265
48	0x3b89fd4c	0.0042111035
49	0x3bd79aa5	0.0065797144
50	0xb90888cc	-0.00013020932
51	0xbb924b1d	-0.0044645206
52	0xbb56e702	-0.00327915
53	0x3c160800	0.009157181
54	0xbc4b994b	-0.012426685
55	0x3c23246e	0.009957416
56	0xbc112463	-0.008858773
57	0x3b890538	0.0041815303
58	0xba4b5ec7	-0.00077579584
59	0x3ba5641d	0.005047335
60	0x3bbe3643	0.0058048083
61	0x3be79452	0.0070672417
62	0xbbc22d10	-0.005925782
63	0x3c3cf51a	0.011533046
64	0xbb8d44cb	-0.0043111793
65	0xbbe7facd	-0.0070794583
66	0xbb446b31	-0.0029971118
67	0xbb79f508	-0.0038140435
68	0x3bd3f95f	0.0064689363
69	0xbb1dbe76	-0.0024069822
70	0x3c370cd9	0.011172497
71	0x3bcda675	0.0062759467
72	0xbbf53c6d	-0.00748401
73	0x3b9b3c29	0.0047373963
74	0xbacf6c5f	-0.0015825144
75	0x3bbfd09c	0.0058537256
76	0x3c8e9955	0.017407099
77	0xbb38ead6	-0.0028216145
78	0xbbb83a59	-0.00562219
79	0x3b6004c0	0.0034182519
80	0xbbbfb59a	-0.005850506
81	0x3c388204	0.011261467
82	0x3b8bd7cf	0.0042676697
83	0xbad614ba	-0.0016333081
84	0xbbccfcb1	-0.006255709
85	0x3b9a78c0	0.0047141016
86	0xbb62be55	-0.003459831
87	0x3b941cbd	0.0045200274
88	0x3c44b0fa	0.012005085
89	0xbad89f21	-0.0016526916
90	0x3ac48406	0.0014992959
91	0x3b744d32	0.0037277457
92	0x3b4f4e62	0.0031632413
93	0x3bffcdd4	0.007806519
94	0xbb606b3c	-0.0034243604
95	0x3a03e7e9	0.0005031811
96	0xbbb2019b	-0.0054323203
97	0x3babd7b2	0.0052442187
98	0xbb1a7113	-0.0023565933
99	0xbbfb3b2f	-0.0076669673
100	0x3b7c718b	0.0038519825
101	0xba3a1b27	-0.0007099383
102	0x3aae19f5	0.0013282882
103	0x3c59eea1	0.0133015225
104	0xbb9a08d9	-0.0047007618
105	0xbb14acd7	-0.0022686028
106	0x3b868f8f	0.004106469
107	0x3bfac1c6	0.007652494
108	0x3c101ec2	0.008796396
109	0x3c3a67de	0.011377303
110	0xbbc7eeab	-0.0061014495
111	0xbb299cf3	-0.0025880903
112	0x3bb695e8	0.0055720694
113	0xbb89a1f0	-0.0042002127
114	0xbbfa136e	-0.0076317107
115	0x3b944701	0.004525066
116	0xbbf4480c	-0.0074548777
117	0xba880ac7	-0.0010379188
118	0x3b725ecf	0.003698278
119	0xbbc918dd	-0.006136997
120	0xbbd6b3d9	-0.006552201
121	0x3ab02d8c	0.0013441308
122	0xbbfda9ac	-0.0077411737
123	0x3bb3e228	0.0054896064
124	0x3b30c9da	0.0026975782
125	0x3aafa2e3	0.0013399984
126	0x3bcb96b6	0.0062130345
127	0x3bdb7afa	0.0066980096
128	0xbc3fd2f3	-0.011708009
129	0xbbddcdc0	-0.006768912
130	0x3c9e8450	0.0193502
131	0x3ae5b709	0.0017525862
132	0xb992daee	-0.00028010405
133	0xbaa13e85	-0.0012301957
134	0xbbd3ecac	-0.0064674225
135	0xbada3b54	-0.0016649761
136	0xb9edb96d	-0.00045342316
137	0xbc392cf7	-0.011302224
138	0x3ba4a3c7	0.0050244066
139	0x3ba990b2	0.0051747197
140	0xbb76a866	-0.0037636994
141	0x3b536ae2	0.0032259752
142	0x3b83c497	0.004021238
143	0x3aea7080	0.0017886311
144	0xbbce8736	-0.0063027395
145	0xbb001d6a	-0.0019548782
146	0xbb65006b	-0.0034942876
147	0xbbf2b29b	-0.0074065453
148	0xbc4fb767	-0.012678004
149	0xbada41a0	-0.0016651638
150	0xbc050705	-0.008119349
151	0xbb2454ac	-0.0025074882
152	0x3b65b106	0.003504814
153	0x3a040ce5	0.0005037322
154	0xbbba3654	-0.005682746
155	0xbb6a78da	-0.00357776
156	0x3b3a17b4	0.0028395476
157	0x3b1e0885	0.0024113965
158	0xbbb6ac36	-0.0055747284
159	0xbb947126	-0.00453009
160	0xbbf837bb	-0.007575003
161	0xbbc62967	-0.006047416
162	0x3c56440b	0.013077746
163	0xbc001011	-0.0078163305
164	0xb98b8453	-0.00026610735
165	0xbb24a89c	-0.0025124913
166	0xbb39b257	-0.0028335059
167	0x3c5dd522	0.013539584
168	0x3bdf1586	0.0068079857
169	0xba55bb95	-0.0008153257
170	0x3a4e258f	0.0007863873
171	0xbb1e02ac	-0.002411048
172	0x3b2fcdbd	0.002682551
173	0xbc11e5fe	-0.008904932
174	0xbbe76d08	-0.007062558
175	0xbbed7c09	-0.007247452
176	0xbb91351f	-0.0044313814
177	0x3a181305	0.0005801174
178	0x3c2350d4	0.009968001
179	0x3bd1c2c6	0.0064013926
180	0xbc5d46ba	-0.013505632
181	0xbbedbf82	-0.0072554955
182	0xbb00d386	-0.0019657328
183	0xba138786	-0.00056277995
184	0x3c163503	0.009167912
185	0xbc3b8e56	-0.01144751
186	0xbc559837	-0.013036779
187	0xbb256e82	-0.002524287
188	0xbbae1d59	-0.005313557
189	0xbae89d59	-0.0017747089
190	0xbc06faad	-0.008238477
191	0xbbc738ed	-0.006079784
192	0xbb0271af	-0.0019904186
193	0x3b122a4b	0.002230304
194	0x3bcb52d3	0.006204942
195	0x3ac54bc1	0.0015052484
196	0x3be3df1b	0.0069540865
197	0xbb379fbf	-0.00280188
198	0x3b824942	0.003976018
199	0x3b38ac29	0.0028178787
200	0xbb64a95b	-0.0034890983
201	0xbc4a8d04	-0.012362722
202	0xbb933d39	-0.0044933823
203	0xbaa33dad	-0.0012454294
204	0x3b765edc	0.0037593162
205	0xbb508eff	-0.0031823514
206	0x3aaa43b5	0.0012990149
207	0xbbf79835	-0.0075559863
208	0x3b38be92	0.002818976
209	0xbc17cd3e	-0.009265242
210	0xba6c6f37	-0.0009019258
211	0x3ba26b66	0.0049566505
212	0xbc52c23f	-0.012863695
213	0x3bd4cfbe	0.0064944914
214	0xbb68a6de	-0.0035499851
215	0xb9b9e393	-0.00035455506
216	0x3b1617a1	0.0022902268
217	0x3a2079bd	0.0006121656
218	0x3b5b0676	0.00334206
219	0x3c6a80d0	0.014312938
220	0x3b2863c1	0.0025694224
221	0x3a948589	0.00113313
222	0xb9e64f95	-0.00043928312
223	0x3c2f133d	0.010685739
224	0xbb828d08	-0.0039840974
225	0xbac41a03	-0.0014961365
226	0x3b7b7d78	0.0038374346
227	0x3ba578ed	0.005049816
228	0xbbc90a70	-0.0061352775
229	0xbbfadd53	-0.0076557784
230	0xbbf301c3	-0.0074159815
231	0xbb613ff4	-0.0034370394
232	0x3c110cf8	0.00885319
233	0x3c4f2bfd	0.012644765
234	0xbc0d3876	-0.008619418
235	0x3bb35fc8	0.0054740645
236	0xba0e46a6	-0.00054273976
237	0xbb077662	-0.0020669927
238	0x3c37e44c	0.011223864
239	0x3ae66674	0.0017578141
240	0xbb135d97	-0.0022486204
241	0x3c950065	0.018188665
242	0x3c0e9fbb	0.008705075
243	0x3bcf38e3	0.00632392
244	0xbba9117f	-0.0051595564
245	0x3c5b0f79	0.013370388
246	0xbb312401	-0.0027029517
247	0xbb9edd42	-0.0048481533
248	0x3c17aea9	0.009257951
249	0xbb4ca8bd	-0.0031228506
250	0xbc2f6fe8	-0.010707833
251	0xbc32ac36	-0.010905316
252	0xbc5bab7b	-0.013407583
253	0x3a03edf1	0.00050327095
254	0xbc7fa293	-0.015602726
255	0xbc23bf4b	-0.009994338

onnx::MatMul_516 f4 [64, 256]
0	0x3c7976f5	0.0152261155
1	0x3c0e4818	0.008684181
2	0x3be49820	0.0069761425
3	0x3cbaba69	0.022793965
4	0x3b17b09d	0.0023146041
5	0x3c850e0d	0.016242051
6	0xbd1e42e6	-0.038638018
7	0x3c893c4f	0.01675239
8	0xbd320d1d	-0.043469537
9	0xbcb8072d	-0.02246436
10	0xbc0a8730	-0.008455083
11	0x3c4816aa	0.012212435
12	0xbba7db87	-0.0051226052
13	0x3b438c4d	0.0029838264
14	0xba8528fe	-0.0010159311
15	0xbcb88b73	-0.022527432
16	0xbd530b1e	-0.051524274
17	0x3d20eb57	0.039286938
18	0x3cbe53f3	0.02323339
19	0x3c33a5a6	0.010964787
20	0xbc0bf9d2	-0.0085434485
21	0x3c8e57e9	0.017375903
22	0x3d354854	0.04425843
23	0x3d115c15	0.035488207
24	0xba6a5152	-0.0008938509
25	0x3cc7edf3	0.024405455
26	0xbd15d5ac	-0.036580727
27	0x3cc1cfbe	0.02365863
28	0xbbd54a8f	-0.006509132
29	0xbb042828	-0.0020165537
30	0xbc27e89c	-0.0102483295
31	0x3c47288b	0.012155662
32	0x3d113890	0.035454333
33	0x3cb7ac24	0.02242095
34	0x3d048bad	0.032359768
35	0x3b85f5b8	0.00408813
36	0xbbd3cda2	-0.0064637223
37	0x3cd19b06	0.025586616
38	0xbc0c1ee4	-0.008552287
39	0x3c4827a0	0.012216479
40	0xbc06296f	-0.0081885895
41	0x3bd8a181	0.0066110496
42	0xbc1fe276	-0.009758582
43	0x3b88c720	0.004174128
44	0xbc89af3c	-0.016807191
45	0xbcac1dde	-0.021010336
46	0x3a156820	0.0005699415
47	0xbc71b1cb	-0.014751862
48	0x3d4baa24	0.049722806
49	0x3c8c4c2b	0.017126163
50	0x3b9cc0d8	0.004783731
51	0xbb089ac8	-0.002084421
52	0xbd09b9a7	-0.033624317
53	0x3cd248cc	0.025669478
54	0xbce5b1e7	-0.028038932
55	0x3caf41f4	0.021393754
56	0x3bfcda21	0.0077164327
57	0x3c198f39	0.009372526
58	0x3cb4c9b5	0.022068838
59	0xbce691b7	-0.028145654
60	0xbd18ea5e	-0.037332885
61	0x3c47fd55	0.012206395
62	0x3c22a206	0.009926325
63	0xbb1d8b76	-0.0024039424
64	0x3c5dd1f8	0.01353883
65	0xbc709523	-0.014683994
66	0x3c49c8a2	0.012315901
67	0x3bca6715	0.006176839
68	0x3d068c5d	0.032848705
69	0x3ba8da47	0.005152974
70	0xbc11a95c	-0.008890476
71	0x3c2da3ca	0.010598132
72	0x3ca69f0f	0.020339517
73	0xbc7a53af	-0.015278741
74	0xbbb3ce5e	-0.0054872474
75	0x3ba0eeb9	0.0049112705
76	0xbcd2e553	-0.025744116
77	0xbc1aa491	-0.00943865
78	0x3d0f015f	0.034913417
79	0x3c9e235b	0.019303968
80	0x38b9e014	8.863225e-05
81	0x3bc06205	0.00587106
82	0xbbcbb675	-0.006216819
83	0x3c30b359	0.010784947
84	0xbc58037d	-0.013184425
85	0x3c982946	0.018574368
86	0x3b72e0ce	0.0037060264
87	0xbcf01de6	-0.029311132
88	0xbabe87a7	-0.0014536277
89	0xbcbf04bb	-0.023317685
90	0xbd02e15c	-0.0319532
91	0x3ce9cbf4	0.028539635
92	0x3ca8458d	0.020540977
93	0xbbd24b27	-0.0064176503
94	0x3c319c24	0.0108404495
95	0x3ce7e9c0	0.028309703
96	0xbb866776	-0.004101689
97	0xbc8b2619	-0.01698594
98	0xbb8bf17d	-0.004270731
99	0xbc2fa72f	-0.010721012
100	0xbc81686d	-0.015796864
101	0x3b24e177	0.0025158802
102	0x3b863f7e	0.0040969243
103	0xbc1c1a2e	-0.009527726
104	0xbc24ab61	-0.010050626
105	0x3b31bf99	0.0027122258
106	0xba27d8e6	-0.0006402865
107	0xbb833a77	-0.0040047723
108	0x3c5f8ecf	0.013644888
109	0xbb7e4de0	-0.0038803741
110	0xbc28daa0	-0.0103060305
111	0xbc8d56d0	-0.01725331
112	0xbce28c1c	-0.0276547
113	0x3d1f9b3c	0.038966402
114	0x3bdb171d	0.006686105
115	0xbbc20435	-0.0059209117
116	0xbbc7507d	-0.006082593
117	0x3c06f836	0.008237889
118	0xbc0b87e8	-0.008516289
119	0x3c706310	0.014672056
120	0x3c332c80	0.010935903
121	0x3cbe9b55	0.023267427
122	0xbad60a19	-0.0016329914
123	0xbd069dac	-0.03286521
124	0x3c3f7b4e	0.011687113
125	0x3c9c86bf	0.01910722
126	0x3c69640e	0.014245046
127	0xbc93fea0	-0.01806575
128	0x39c1e338	0.0003698112
129	0x3cc0d46f	0.023538796
130	0xbd123c50	-0.03570205
131	0xbb561c9e	-0.0032670866
132	0xbd8e34b9	-0.0694365
133	0xbce3375e	-0.027736362
134	0x3cd6b4b5	0.026209215
135	0xbc4fc258	-0.0126806125
136	0xbc6a5d41	-0.01430446
137	0xbc6f0d99	-0.014590644
138	0xbd0bd81b	-0.03414164
139	0xbb8ffaec	-0.004393926
140	0xbceebb50	-0.029142052
141	0x3bca5ed3	0.0061758547
142	0x3b08e3e4	0.0020887787
143	0x3c27535c	0.0102127455
144	0xbb3aef95	-0.002852415
145	0xbc05a639	-0.008157306
146	0x3ce708b8	0.0282024
147	0x3c832257	0.016007585
148	0x3c8ef3ed	0.017450297
149	0x3c204f43	0.0097845225
150	0xbcb3c921	-0.021946492
151	0xbc85f002	-0.016349796
152	0x3ba0f3a2	0.004911856
153	0x3be217f8	0.00689983
154	0xbc16ad50	-0.009196594
155	0x3c353f18	0.011062406
156	0x3c6e04c5	0.014527504
157	0xbcf07399	-0.029351996
158	0x3d02364c	0.031790063
159	0xbb2b735b	-0.0026161287
160	0xbd6c0258	-0.057619423
161	0xbc9f9e06	-0.019484531
162	0xbc17fc27	-0.009276426
163	0x3b90fc78	0.004424628
164	0x3c02b5fd	0.00797796
165	0x3ba0052b	0.0048834286
166	0x3c286180	0.010277152
167	0x3aa5da9b	0.001265365
168	0xbd12cc2b	-0.03583924
169	0xbd05ba88	-0.032648593
170	0xbd166daf	-0.036725696
171	0x3c9b78c2	0.01897848
172	0x3c97654d	0.018480921
173	0x3bf04122	0.007331983
174	0x3c4d711c	0.012539174
175	0x3d22674d	0.039649297
176	0xbc679187	-0.0141338175
177	0xbc11550a	-0.008870373
178	0x3ac8a54d	0.0015308053
179	0x3a656c30	0.0008751778
180	0xbca66aca	-0.020314593
181	0x3a8ecc49	0.0010894622
182	0x3d0ec3aa	0.03485457
183	0x3c640717	0.013917706
184	0x3c0a7859	0.008451545
185	0x3c114ab2	0.008867906
186	0x3ca18172	0.019715045
187	0x3d0c18bd	0.03420328
188	0xbd19a980	-0.037515163
189	0xbb5e0b06	-0.0033881082
190	0xbd2ffee5	-0.042967696
191	0x3c53b4f2	0.012921559
192	0x3c89ad2a	0.016806204
193	0xbc18e653	-0.009332257
194	0xba1b6126	-0.0005927257
195	0x3c05120f	0.008121981
196	0xba2bf092	-0.000655898
197	0xbba66cb9	-0.0050788787
198	0xbcf5c812	-0.030002628
199	0x3cd3d98b	0.025860569
200	0x3c25a625	0.010110413
201	0xbc2e96ee	-0.010656102
202	0x3c6819f4	0.014166344
203	0xbc1c5578	-0.009541862
204	0xbb1a3600	-0.0023530722
205	0x3d0f39d3	0.034967255
206	0xbb5e69c2	-0.0033937548
207	0xba87e8bf	-0.0010369046
208	0x3be9d85b	0.0071363873
209	0x3cdba30c	0.026811145
210	0x3c26ec8d	0.010188234
211	0x3c5edd72	0.013602601
212	0x3bf134c9	0.007361029
213	0x3c028d41	0.007968248
214	0xbc319753	-0.010839301
215	0xbb24065e	-0.002502821
216	0xbbe9964b	-0.007128512
217	0x3d1bf3d2	0.038074322
218	0x3d194770	0.037421644
219	0x3bb93346	0.005651864
220	0x3cba150f	0.02271512
221	0xbc602873	-0.013681519
222	0xbccc20bc	-0.024917953
223	0x3c2648af	0.010149165
224	0x3ce9e57e	0.028551813
225	0x3abfbf2a	0.0014629115
226	0x3d2db6b9	0.042410586
227	0x3b0fb860	0.0021929964
228	0xbbc3be69	-0.0059736264
229	0x3c829092	0.015938077
230	0xba4937f2	-0.0007675878
231	0x3b573d50	0.0032842942
232	0xbd00da60	-0.03145826
233	0x3baab9ae	0.005210123
234	0x3d1c41f3	0.03814883
235	0xbc2928c0	-0.010324657
236	0xbc09da4e	-0.008413864
237	0x3c2c3cab	0.010512511
238	0x3c176e47	0.009242601
239	0xbc2bb6ef	-0.0104806265
240	0x3c6d4f49	0.014484235
241	0x3caf2357	0.021379156
242	0x3c27f8f8	0.01025223
243	0x3b313020	0.0027036741
244	0x3c9bcb12	0.01901773
245	0x3c1a70fe	0.0094263535
246	0x3cc2306f	0.023704736
247	0x3c9d1564	0.019175239
248	0xbb1ca047	-0.0023899244
249	0x3c135fc8	0.008995004
250	0xbc23d2fb	-0.009999032
251	0x3c1ed0b9	0.009693318
252	0xbcc00ff4	-0.023445107
253	0xbc53c920	-0.01292637
254	0xbd0fefc7	-0.03514078
255	0xbc85e41f	-0.016344128

onnx::MatMul_517 f4 [256, 64]
0	0xbbb7dbdf	-0.0056109275
1	0x3a0b4f38	0.0005314234
2	0xbafe8489	-0.0019418161
3	0x3c0c39bd	0.008558688
4	0x3c41b52e	0.011822982
5	0xbb6aa746	-0.003580527
6	0xbba7ab92	-0.0051168883
7	0xbb946fc6	-0.004529926
8	0xbac8c581	-0.001531765
9	0xbc0577f8	-0.008146279
10	0x3a550e2d	0.00081274175
11	0xbc26b785	-0.01017559
12	0x3b122f2b	0.0022305946
13	0x3b9d9c74	0.0048099104
14	0x3c1c0a09	0.009523877
15	0x397b01ad	0.0002393785
16	0xb9fae965	-0.00047857608
17	0xbb111c11	-0.0022141973
18	0x3b2c6fb7	0.0026311704
19	0xbbc7f59d	-0.0061022774
20	0x3ba240ea	0.004951586
21	0x3ad04530	0.001588976
22	0xbbadba9d	-0.005301787
23	0xbb8248da	-0.0039759697
24	0x3ab35cac	0.0013684235
25	0xbbc1a7da	-0.005909902
26	0x3c00b4a3	0.007855567
27	0x3c657a24	0.014006171
28	0xbaebcf3d	-0.0017990839
29	0x3c55ac54	0.0130415745
30	0x3c2f456b	0.010697703
31	0x393859f9	0.00017581125
32	0xbb33fe6d	-0.0027464882
33	0xbb16585c	-0.002294085
34	0x3c3e02aa	0.011597315
35	0x3bd0cee3	0.006372319
36	0x3bcc13e1	0.0062279557
37	0xbb83cef3	-0.004022473
38	0x39939ff4	0.000281572
39	0x3c8ce530	0.017199129
40	0xbc27165d	-0.010198203
41	0x3b7184bb	0.0036852795
42	0x3ac8fb4a	0.0015333679
43	0x3bd646fc	0.0065392237
44	0x3b96e25d	0.0046046213
45	0x3c24dca1	0.010062368
46	0x3b4639cd	0.0030246854
47	0xbbc7cc37	-0.0060973424
48	0x3bb60443	0.0055547073
49	0xbb8b4fe6	-0.004251468
50	0x3a5c0350	0.00083928276
51	0x3c88e21b	0.016709378
52	0x3ba3455e	0.0049826344
53	0x3b356bb7	0.0027682611
54	0x3c28c514	0.010300893
55	0x3bf39e27	0.0074346247
56	0x3c32bacc	0.010908794
57	0x3c1e6397	0.009667299
58	0x39127431	0.0001396693
59	0x3bf679ad	0.007521829
60	0xbb66cc7d	-0.00352171
61	0xb862853f	-5.4006694e-05
62	0x3bb0bff0	0.0053939745
63	0x3c3fac7d	0.011698839
64	0x3c042dc0	0.008067548
65	0x3bdaf234	0.006681705
66	0xbb000857	-0.001953622
67	0xb9ed5fd6	-0.00045275566
68	0xbbc7cf6e	-0.0060977256
69	0xbb8cf795	-0.004301975
70	0x3a9f8fbb	0.0012173572
71	0x3a944a83	0.001131371
72	0x3c6d3ba0	0.014479548
73	0xbc1bc24a	-0.009506771
74	0xbbbf124b	-0.005831038
75	0x3a78c7b8	0.00094902096
76	0xbb646c9d	-0.0034854778
77	0xbb9a99b9	-0.004718032
78	0xbbe84a13	-0.0070889085
79	0x3c87f674	0.01659701
80	0xbc494c72	-0.012286292
81	0xbb63c6c1	-0.0034755918
82	0x3a439e82	0.0007462279
83	0xbc29efd9	-0.010372126
84	0x3c1aa67d	0.009439108
85	0xbc218613	-0.009858626
86	0xbb39eb87	-0.0028369145
87	0xbb768f62	-0.0037622084
88	0x3b2500b8	0.002517743
89	0xbb80faec	-0.003936162
90	0xbab7ce16	-0.001402321
91	0x3c6d8b11	0.014498488
92	0x3b996ed5	0.0046824017
93	0xbc6530dd	-0.013988701
94	0x3bb9624a	0.005657469
95	0x3c0ec8a3	0.008714828
96	0xbb7da17c	-0.0038700989
97	0x3c40c0aa	0.011764685
98	0xbb30b3df	-0.002696268
99	0xbb7c1891	-0.003846679
100	0xbbf1fdf3	-0.0073850094
101	0xbad01b44	-0.0015877266
102	0x3ab9ba1a	0.0014169842
103	0xbbb239af	-0.0054390053
104	0xbc06ecab	-0.008235137
105	0x3c3ce3b4	0.011528898
106	0xbb8c21b8	-0.0042764805
107	0xbbd0ae4b	-0.0063684336
108	0xbb082295	-0.0020772566
109	0x3c9021fa	0.017594326
110	0x3b845e10	0.0040395334
111	0x3c0d4460	0.008622259
112	0xba37d577	-0.0007012705
113	0x3bc9b093	0.0061550825
114	0xbc20dbd2	-0.009818034
115	0x3bc137d1	0.0058965464
116	0xbc5afa5d	-0.013365355
117	0xbb99e93c	-0.004696993
118	0x3aabf1d5	0.0013118336
119	0xbc29b6e3	-0.010358545
120	0x3c20a228	0.009804286
121	0xbc426337	-0.011864475
122	0xbbc9a620	-0.006153837
123	0xbbfc522d	-0.007700226
124	0x3b603615	0.0034211923
125	0xbba8ef99	-0.0051555154
126	0xbc702b42	-0.014658751
127	0xbbca8a1b	-0.0061810142
128	0xbb0d20ef	-0.0021534523
129	0x3a7b4c72	0.00095862814
130	0xbc59747d	-0.013272402
131	0xbc02ef9f	-0.0079917
132	0xbb1f170a	-0.0024275207
133	0xbbbe1de4	-0.005801903
134	0xbbf4715a	-0.0074598016
135	0x3bdecd7b	0.0067993975
136	0xba364079	-0.0006952356
137	0xbc1c399a	-0.009535218
138	0x3c4edafc	0.012625452
139	0x3c5ca3bb	0.013466771
140	0x3c567244	0.0130887665
141	0xbb06c851	-0.0020566175
142	0x3b807d06	0.003921154
143	0x3c467b9a	0.01211443
144	0xbbbb37be	-0.005713432
145	0x3abcd753	0.0014407433
146	0x3c2f46b7	0.010698012
147	0xbb02bb5e	-0.0019948105
148	0x3adaa774	0.0016681985
149	0xb9c9f210	-0.00038518058
150	0x3b554656	0.0032543144
151	0xbc002559	-0.007821404
152	0xbafe14d7	-0.0019384873
153	0x3bcdb346	0.0062774746
154	0xba191521	-0.0005839635
155	0x3bf8daf4	0.0075944606
156	0x3b5f294b	0.0034051712
157	0x3c3b4776	0.011430612
158	0x3c6ba76a	0.014383176
159	0xbb92a47e	-0.0044751754
160	0x3b605ed3	0.0034236207
161	0x3bed7041	0.0072460477
162	0x3c7b9b2d	0.015356821
163	0x3c1205f9	0.008912557
164	0xbb43aff2	-0.002985951
165	0x3b99f4d3	0.004698375
166	0x3be6e867	0.0070467475
167	0x3aba57b8	0.0014216816
168	0xbc0ece2f	-0.00871615
169	0xbbb42d4c	-0.005498564
170	0x3b63dfa5	0.0034770754
171	0xbbf54471	-0.0074849655
172	0xba99f74d	-0.0011746675
173	0x3b16d9eb	0.0023018073
174	0xbc778f39	-0.015109831
175	0x3c311c00	0.010809898
176	0xbaf233fc	-0.0018478627
177	0xbc01518e	-0.007892979
178	0xbc1770d3	-0.009243208
179	0x3a869404	0.0010267501
180	0x3b47c51c	0.0030482477
181	0xbc1b43b7	-0.009476594
182	0xbc328fa9	-0.010898509
183	0xba4c8e3a	-0.0007803176
184	0x38af2bd3	8.352813e-05
185	0xba04cc48	-0.00050658407
186	0xbc1ff70b	-0.0097634895
187	0x3bd290f9	0.0064259735
188	0xbb563522	-0.0032685478
189	0x3b8b37c6	0.004248592
190	0xbb334038	-0.002735151
191	0x3c3f6fd3	0.011684376
192	0x3bd30110	0.0064393356
193	0x3afdc12a	0.0019359936
194	0x3c04a5f1	0.008096204
195	0x3ad4157f	0.0016180723
196	0x3a919f3f	0.0011110081
197	0x3c9690e9	0.018379645
198	0xbbc28912	-0.00593675
199	0xbb539b52	-0.0032288623
200	0x3b0c90d3	0.0021448627
201	0xbb9fd715	-0.0048779347
202	0xbba6eef5	-0.005094404
203	0xbbfc31f4	-0.0076963846
204	0x38a2a4f2	7.7554854e-05
205	0x3c348f11	0.011020438
206	0x3c587c05	0.013213162
207	0x3b907bce	0.00440929
208	0xbc0b5b80	-0.008505702
209	0x3c0e4b37	0.008684925
210	0x3bc61a96	0.0060456498
211	0xb9d1928b	-0.0003997277
212	0x3c60b51a	0.013715053
213	0xbc833f64	-0.016021438
214	0xbb68464a	-0.0035442286
215	0x3bfab842	0.00765136
216	0x3b580d40	0.0032966882
217	0x3c2b6178	0.01046025
218	0xbb9f542d	-0.0048623295
219	0x3b1404b9	0.0022585823
220	0x3b9db4ce	0.0048128134
221	0x3ba6f89f	0.005095556
222	0xbb924b10	-0.0044645146
223	0x3b08f21f	0.0020896269
224	0xba919f8e	-0.0011110173
225	0x3c8915c3	0.01673401
226	0xbc59caff	-0.013293027
227	0xba40bd21	-0.0007352401
228	0xbbf3419b	-0.0074235923
229	0xba20d123	-0.00061346794
230	0x38998855	7.321002e-05
231	0x3bf5d05c	0.007501645
232	0x3b89aa6f	0.0042012255
233	0xbaf0b610	-0.0018364806
234	0x3b1af2eb	0.0023643326
235	0x3af9052d	0.0018998735
236	0x3bcc1f77	0.006229337
237	0x3a4a79ce	0.0007723839
238	0x3aff0285	0.0019455707
239	0xbb6ddfcb	-0.003629672
240	0x3b8ad84a	0.0042372094
241	0x3c2d3868	0.01057253
242	0xbaf4e5e9	-0.0018684241
243	0x3aceff31	0.0015792606
244	0xb919bdef	-0.00014661973
245	0x3a117da4	0.0005550033
246	0xb8cc6075	-9.7454445e-05
247	0x3b7b8fe0	0.0038385317
248	0xbbe429a1	-0.0069629704
249	0xbafef656	-0.0019452076
250	0x3a3e45e0	0.0007258337
251	0x3a324776	0.00068008096
252	0xbbb1e934	-0.0054294113
253	0x39f7a1b1	0.0004723198
254	0x3c2f3ea5	0.010696088
255	0xbc4b92d4	-0.012425143
