test_parts/part6_model.onnx (onnx, 16962 bytes, 1 tensors)

transformer.wte.weight f4 [65, 64]
0	0x3c42dec1	0.011893929
1	0xbc1a6374	-0.009423126
2	0x3c85c97b	0.016331425
3	0x3d164162	0.036683448
4	0xbd01673e	-0.0315926
5	0xbbdf0bab	-0.006806811
6	0xbc82fb9d	-0.01598912
7	0xbcc4f753	-0.024043715
8	0x3c6d7e92	0.014495509
9	0x3c777fca	0.015106151
10	0x3c37dbdb	0.011221851
11	0xbca25b8e	-0.019819047
12	0xbbfd4577	-0.007729228
13	0x3c80b178	0.015709624
14	0x3aec5832	0.0018031655
15	0xbc8f5e00	-0.017500877
16	0xbc7b13a5	-0.015324508
17	0x3c058d82	0.008151414
18	0x3bd3c35c	0.0064624976
19	0x3cb6f857	0.022335215
20	0x3c779d60	0.015113205
21	0x3d219afc	0.039454445
22	0x3c2ebd6f	0.010665282
23	0xbd03d879	-0.032188866
24	0xbc35d3e9	-0.011097887
25	0xbba2f9bd	-0.004973619
26	0x3cb72610	0.022357017
27	0x3a39df3e	0.00070904556
28	0x3bce8270	0.0063021705
29	0x3c3bbfd7	0.011459312
30	0xbced5c5c	-0.028974704
31	0x3c3ce50b	0.0115292175
32	0x3b8c0c04	0.0042738933
33	0xbcaf65fc	-0.021410935
34	0xbd1cebfe	-0.038310997
35	0xb9305da0	-0.00016819546
36	0x3c362693	0.011117595
37	0x3be9416f	0.007118396
38	0xbd1b3591	-0.03789288
39	0x3d32e034	0.043670848
40	0xba609541	-0.00085671624
41	0xbb826c42	-0.0039801905
42	0xbd4b14a2	-0.049580224
43	0x3af21719	0.0018470018
44	0x3ba6ff06	0.005096319
45	0xbc28a302	-0.01029277
46	0xbb371c61	-0.00279405
47	0xbc1121a4	-0.008858118
48	0x3bc04c89	0.0058684987
49	0xbb62196c	-0.0034500016
50	0xbcee9f2e	-0.029128637
51	0x3d36c067	0.044617083
52	0x3d06a4d1	0.032872025
53	0x3c532a24	0.012888465
54	0xbc4ffda0	-0.012694746
55	0xbcc979a7	-0.024594141
56	0x3c89992f	0.016796676
57	0x3ce5dbe0	0.028058946
58	0xbc931b6c	-0.017957412
59	0x3d478d02	0.04871846
60	0x3c7cf358	0.015438877
61	0x3b196921	0.002340861
62	0x3c321d6e	0.010871274
63	0xbcc1d805	-0.023662576
64	0x3b8e396f	0.0043403427
65	0x3d02a306	0.031893753
66	0x3c921ee9	0.017837005
67	0x3bac5732	0.005259418
68	0x3c3282dc	0.010895457
69	0x3d09f841	0.03368402
70	0xbd00d327	-0.03145137
71	0x3cbcdec7	0.023055447
72	0x3c0df017	0.008663199
73	0xbcb8ea9b	-0.022572806
74	0x3cd1ff3e	0.025634404
75	0xbcd19a1d	-0.025586182
76	0xbc3bd524	-0.011464391
77	0xbd4c0409	-0.049808536
78	0x3a223e11	0.0006189058
79	0xbc4111ce	-0.01178403
80	0x3c0b9fe6	0.0085220095
81	0xbb378cb5	-0.0028007452
82	0xbaaf066a	-0.0013353352
83	0xbb88f8c0	-0.004180044
84	0xbd398889	-0.045296226
85	0xbaf61962	-0.0018775875
86	0x3c96102f	0.018318264
87	0x3c1beee1	0.009517402
88	0xbccbbd24	-0.024870463
89	0x3cbaf9ab	0.02282413
90	0xbc8fe731	-0.017566295
91	0x3cae8e2f	0.021308033
92	0xbd3a5fa6	-0.045501374
93	0x3ce07484	0.027399309
94	0xbbbc033e	-0.005737691
95	0x3b2946e4	0.0025829608
96	0x3b927bb9	0.0044703153
97	0xbc709f58	-0.014686428
98	0xbb6e92c3	-0.0036403395
99	0x3b9f2bfc	0.0048575383
100	0xbc8f352a	-0.017481405
101	0x3c3e99f4	0.011633385
102	0xbc2b0498	-0.010438107
103	0x3bad9b60	0.005298063
104	0xbb42060d	-0.0029605657
105	0x3c469f86	0.012122994
106	0xbb82d7dd	-0.003993018
107	0x3a2fea77	0.0006710658
108	0xbaeb2d7d	-0.0017942634
109	0xbd453002	-0.048141487
110	0xbc2030b3	-0.009777236
111	0x3caec619	0.021334695
112	0xbc229698	-0.0099236
113	0x3bc3fbc4	0.0059809405
114	0x3c3db95d	0.011579839
115	0xbbb4645c	-0.005505128
116	0x38622385	5.391568e-05
117	0x3b107296	0.0022040955
118	0x3cf5b5f4	0.029993989
119	0x3d019e2f	0.031644996
120	0xbb0a0ab0	-0.00210635
121	0x3bb47a8e	0.0055077737
122	0xbaa9d6a5	-0.0012957646
123	0xbc999cbd	-0.018751496
124	0x3d06b917	0.03289136
125	0x3b11b4c9	0.0022233
126	0x3c32ac67	0.010905362
127	0xbcb577f9	-0.022151934
128	0xbc19309e	-0.00934997
129	0x3c1e83f2	0.009675013
130	0x3c7a4406	0.015275007
131	0xbcd6938a	-0.026193399
132	0xbcf0a035	-0.029373268
133	0xbd2c6fa1	-0.042098645
134	0x3d37f11b	0.04490767
135	0x3cdbd7e5	0.026836345
136	0x3c9822fe	0.018571373
137	0xbc4487c9	-0.011995264
138	0xbb0d5293	-0.002156411
139	0x3aedc9a0	0.0018141754
140	0xbc651980	-0.01398313
141	0xbd166dbd	-0.03672575
142	0x3c26c301	0.0101783285
143	0xbb865256	-0.0040991707
144	0x3be36be1	0.0069403504
145	0xbc9a791b	-0.018856576
146	0xbc722bb0	-0.014780924
147	0x3c53001d	0.012878445
148	0x3c8983b8	0.016786441
149	0xbc894cc9	-0.016760247
150	0x3cb2f373	0.021844601
151	0x3bd64cc6	0.006539914
152	0xbca6d5a4	-0.020365544
153	0xbc88eefa	-0.016715515
154	0x3d05ccbd	0.032665957
155	0x3ce2902e	0.02765664
156	0x3c5dfdbe	0.013549266
157	0x3cbe7af5	0.02325199
158	0x3cb7dff2	0.022445653
159	0x3c152ab0	0.009104416
160	0xbbba6df5	-0.0056893774
161	0xbc159c47	-0.009131498
162	0x3a141e8b	0.0005650303
163	0x3d338141	0.043824438
164	0x3c2a76b2	0.010404276
165	0xbc46b84e	-0.012128903
166	0xbc01c19b	-0.007919694
167	0x3c3b53c7	0.011433548
168	0xbd068e47	-0.03285053
169	0x3d36d885	0.044640083
170	0x3ca52747	0.02016033
171	0xbcc6a9c5	-0.024250874
172	0xbbff0838	-0.007782962
173	0x3a2345b0	0.0006228341
174	0x3c00c432	0.007859277
175	0x3ca675e6	0.02031989
176	0x3c3f8315	0.011688967
177	0xbc04b6fd	-0.008100268
178	0x3c708eb9	0.014682465
179	0x3bfb6e55	0.0076730647
180	0x3d133f00	0.035948753
181	0xbc90b5b3	-0.017664766
182	0x3a8032c9	0.000978076
183	0x3ca02221	0.019547524
184	0xbb8a6965	-0.00422399
185	0x3b844daa	0.0040375786
186	0xbc18a5f7	-0.009316913
187	0xbb1cc36a	-0.0023920187
188	0xb91e0b04	-0.00015072158
189	0x3b3e6dd2	0.0029057157
190	0xbb94f4b0	-0.0045457706
191	0xbc355d98	-0.011069678
192	0x3c8b4e8d	0.01700523
193	0xbb559c42	-0.0032594358
194	0xbc67f2c0	-0.014156997
195	0xbc0780d7	-0.008270464
196	0x3cbd923e	0.023141023
197	0x3c24b0e9	0.010051944
198	0xbbe7d519	-0.0070749638
199	0xbcca700a	-0.024711628
200	0xbd0308c6	-0.03199079
201	0x3ca0f254	0.019646801
202	0xbc9f5d8b	-0.019453784
203	0xbc27701b	-0.010219599
204	0xbd10875b	-0.035285335
205	0x3af8867e	0.001896098
206	0xbbf33517	-0.0074221003
207	0x3c172ced	0.00922702
208	0x3d16cd46	0.036816858
209	0xbc693b02	-0.01423526
210	0xbba651f6	-0.0050756885
211	0xbbcf7797	-0.006331395
212	0xbb949bc0	-0.0045351684
213	0x3afd7e0e	0.0019339935
214	0x3cbd9454	0.023142017
215	0x3bf9867c	0.0076149087
216	0xbd6f3c9b	-0.058407407
217	0xbd36eb97	-0.04465827
218	0xbbe449a9	-0.006966789
219	0xbcb73600	-0.022364616
220	0x3ce7e8e4	0.028309293
221	0x3c97fbbf	0.01855266
222	0x3be095c9	0.0068537933
223	0x3d487ca6	0.048947
224	0xbc841050	-0.01612106
225	0xbc4b99fb	-0.0124268485
226	0xbb9ab82e	-0.004721663
227	0xbc9ce791	-0.019153388
228	0xbc9d1ee3	-0.019179767
229	0x3c2258ad	0.009908837
230	0xbc767030	-0.015041396
231	0xbc009c04	-0.007849697
232	0x3d04edd4	0.032453373
233	0x3ca7e0fd	0.020493025
234	0xbcf2fcec	-0.029661618
235	0x3cb35874	0.021892764
236	0xbc2bff0d	-0.010497821
237	0x3ac793bb	0.0015226522
238	0x3bc1b1bd	0.0059110806
239	0xbbc7f90b	-0.0061026863
240	0x3c880597	0.016604228
241	0x3b7d9210	0.0038691796
242	0xbb0ae6e6	-0.0021194755
243	0xbca84afd	-0.02054357
244	0xbb9acd46	-0.0047241775
245	0xbb07238d	-0.0020620555
246	0x3d0320af	0.03201359
247	0xbc81941f	-0.0158177
248	0xbc5b7dcc	-0.0133966915
249	0xbc3b9fbe	-0.01145166
250	0x3c0b4ef2	0.008502709
251	0x3c7d65fb	0.015466209
252	0xbc0dfebf	-0.008666693
253	0xbc7721ae	-0.015083713
254	0x3bceb59b	0.00630827
255	0xbc89cf36	-0.016822439
