test_parts/part1_model.onnx (onnx, 55366 bytes, 4 tensors)

transformer.wte.weight f4 [65, 64]
00000000: c1de 423c 7463 1abc 7bc9 853c 6241 163d
00000010: 3e67 01bd ab0b dfbb 9dfb 82bc 53f7 c4bc
00000020: 927e 6d3c ca7f 773c dbdb 373c 8e5b a2bc
00000030: 7745 fdbb 78b1 803c 3258 ec3a 005e 8fbc
00000040: a513 7bbc 828d 053c 5cc3 d33b 57f8 b63c
00000050: 609d 773c fc9a 213d 6fbd 2e3c 79d8 03bd
00000060: e9d3 35bc bdf9 a2bb 1026 b73c 3edf 393a
00000070: 7082 ce3b d7bf 3b3c 5c5c edbc 0be5 3c3c
00000080: 040c 8c3b fc65 afbc feeb 1cbd a05d 30b9
00000090: 9326 363c 6f41 e93b 9135 1bbd 34e0 323d
000000a0: 4195 60ba 426c 82bb a214 4bbd 1917 f23a
000000b0: 06ff a63b 02a3 28bc 611c 37bb a421 11bc
000000c0: 894c c03b 6c19 62bb 2e9f eebc 67c0 363d
000000d0: d1a4 063d 242a 533c a0fd 4fbc a779 c9bc
000000e0: 2f99 893c e0db e53c 6c1b 93bc 028d 473d
000000f0: 58f3 7c3c 2169 193b 6e1d 323c 05d8 c1bc
00000100: 6f39 8e3b 06a3 023d e91e 923c 3257 ac3b
00000110: dc82 323c 41f8 093d 27d3 00bd c7de bc3c
00000120: 17f0 0d3c 9bea b8bc 3eff d13c 1d9a d1bc
00000130: 24d5 3bbc 0904 4cbd 113e 223a ce11 41bc
00000140: e69f 0b3c b58c 37bb 6a06 afba c0f8 88bb
00000150: 8988 39bd 6219 f6ba 2f10 963c e1ee 1b3c
00000160: 24bd cbbc abf9 ba3c 31e7 8fbc 2f8e ae3c
00000170: a65f 3abd 8474 e03c 3e03 bcbb e446 293b
00000180: b97b 923b 589f 70bc c392 6ebb fc2b 9f3b
00000190: 2a35 8fbc f499 3e3c 9804 2bbc 609b ad3b
000001a0: 0d06 42bb 869f 463c ddd7 82bb 77ea 2f3a
000001b0: 7d2d ebba 0230 45bd b330 20bc 19c6 ae3c
000001c0: 9896 22bc c4fb c33b 5db9 3d3c 5c64 b4bb
000001d0: 8523 6238 9672 103b f4b5 f53c 2f9e 013d
000001e0: b00a 0abb 8e7a b43b a5d6 a9ba bd9c 99bc
000001f0: 17b9 063d c9b4 113b 67ac 323c f977 b5bc
00000200: 9e30 19bc f283 1e3c 0644 7a3c 8a93 d6bc
00000210: 35a0 f0bc a16f 2cbd 1bf1 373d e5d7 db3c
00000220: fe22 983c c987 44bc 9352 0dbb a0c9 ed3a
00000230: 8019 65bc bd6d 16bd 01c3 263c 5652 86bb
00000240: e16b e33b 1b79 9abc b02b 72bc 1d00 533c
00000250: b883 893c c94c 89bc 73f3 b23c c64c d63b
00000260: a4d5 a6bc faee 88bc bdcc 053d 2e90 e23c
00000270: befd 5d3c f57a be3c f2df b73c b02a 153c
00000280: f56d babb 479c 15bc 8b1e 143a 4181 333d
00000290: b276 2a3c 4eb8 46bc 9bc1 01bc c753 3b3c
000002a0: 478e 06bd 85d8 363d 4727 a53c c5a9 c6bc
000002b0: 3808 ffbb b045 233a 32c4 003c e675 a63c
000002c0: 1583 3f3c fdb6 04bc b98e 703c 556e fb3b
000002d0: 003f 133d b3b5 90bc c932 803a 2122 a03c
000002e0: 6569 8abb aa4d 843b f7a5 18bc 6ac3 1cbb
000002f0: 040b 1eb9 d26d 3e3b b0f4 94bb 985d 35bc
00000300: 8d4e 8b3c 429c 55bb c0f2 67bc d780 07bc
00000310: 3e92 bd3c e9b0 243c 19d5 e7bb 0a70 cabc
00000320: c608 03bd 54f2 a03c 8b5d 9fbc 1b70 27bc
00000330: 5b87 10bd 7e86 f83a 1735 f3bb ed2c 173c
00000340: 46cd 163d 023b 69bc f651 a6bb 9777 cfbb
00000350: c09b 94bb 0e7e fd3a 5494 bd3c 7c86 f93b
00000360: 9b3c 6fbd 97eb 36bd a949 e4bb 0036 b7bc
00000370: e4e8 e73c bffb 973c c995 e03b a67c 483d
00000380: 5010 84bc fb99 4bbc 2eb8 9abb 91e7 9cbc
00000390: e31e 9dbc ad58 223c 3070 76bc 049c 00bc
000003a0: d4ed 043d fde0 a73c ecfc f2bc 7458 b33c
000003b0: 0dff 2bbc bb93 c73a bdb1 c13b 0bf9 c7bb
000003c0: 9705 883c 1092 7d3b e6e6 0abb fd4a a8bc
000003d0: 46cd 9abb 8d23 07bb af20 033d 1f94 81bc
000003e0: cc7d 5bbc be9f 3bbc f24e 0b3c fb65 7d3c
000003f0: bffe 0dbc ae21 77bc 9bb5 ce3b 36cf 89bc
0.011893929 -0.009423126 0.016331425 0.036683448 -0.0315926 -0.006806811 -0.01598912 -0.024043715
0.014495509 0.015106151 0.011221851 -0.019819047 -0.007729228 0.015709624 0.0018031655 -0.017500877
-0.015324508 0.008151414 0.0064624976 0.022335215 0.015113205 0.039454445 0.010665282 -0.032188866
-0.011097887 -0.004973619 0.022357017 0.00070904556 0.0063021705 0.011459312 -0.028974704 0.0115292175
0.0042738933 -0.021410935 -0.038310997 -0.00016819546 0.011117595 0.007118396 -0.03789288 0.043670848
-0.00085671624 -0.0039801905 -0.049580224 0.0018470018 0.005096319 -0.01029277 -0.00279405 -0.008858118
0.0058684987 -0.0034500016 -0.029128637 0.044617083 0.032872025 0.012888465 -0.012694746 -0.024594141
0.016796676 0.028058946 -0.017957412 0.04871846 0.015438877 0.002340861 0.010871274 -0.023662576
0.0043403427 0.031893753 0.017837005 0.005259418 0.010895457 0.03368402 -0.03145137 0.023055447
0.008663199 -0.022572806 0.025634404 -0.025586182 -0.011464391 -0.049808536 0.0006189058 -0.01178403
0.0085220095 -0.0028007452 -0.0013353352 -0.004180044 -0.045296226 -0.0018775875 0.018318264 0.009517402
-0.024870463 0.02282413 -0.017566295 0.021308033 -0.045501374 0.027399309 -0.005737691 0.0025829608
0.0044703153 -0.014686428 -0.0036403395 0.0048575383 -0.017481405 0.011633385 -0.010438107 0.005298063
-0.0029605657 0.012122994 -0.003993018 0.0006710658 -0.0017942634 -0.048141487 -0.009777236 0.021334695
-0.0099236 0.0059809405 0.011579839 -0.005505128 5.391568e-05 0.0022040955 0.029993989 0.031644996
-0.00210635 0.0055077737 -0.0012957646 -0.018751496 0.03289136 0.0022233 0.010905362 -0.022151934
-0.00934997 0.009675013 0.015275007 -0.026193399 -0.029373268 -0.042098645 0.04490767 0.026836345
0.018571373 -0.011995264 -0.002156411 0.0018141754 -0.01398313 -0.03672575 0.0101783285 -0.0040991707
0.0069403504 -0.018856576 -0.014780924 0.012878445 0.016786441 -0.016760247 0.021844601 0.006539914
-0.020365544 -0.016715515 0.032665957 0.02765664 0.013549266 0.02325199 0.022445653 0.009104416
-0.0056893774 -0.009131498 0.0005650303 0.043824438 0.010404276 -0.012128903 -0.007919694 0.011433548
-0.03285053 0.044640083 0.02016033 -0.024250874 -0.007782962 0.0006228341 0.007859277 0.02031989
0.011688967 -0.008100268 0.014682465 0.0076730647 0.035948753 -0.017664766 0.000978076 0.019547524
-0.00422399 0.0040375786 -0.009316913 -0.0023920187 -0.00015072158 0.0029057157 -0.0045457706 -0.011069678
0.01700523 -0.0032594358 -0.014156997 -0.008270464 0.023141023 0.010051944 -0.0070749638 -0.024711628
-0.03199079 0.019646801 -0.019453784 -0.010219599 -0.035285335 0.001896098 -0.0074221003 0.00922702
0.036816858 -0.01423526 -0.0050756885 -0.006331395 -0.0045351684 0.0019339935 0.023142017 0.0076149087
-0.058407407 -0.04465827 -0.006966789 -0.022364616 0.028309293 0.01855266 0.0068537933 0.048947
-0.01612106 -0.0124268485 -0.004721663 -0.019153388 -0.019179767 0.009908837 -0.015041396 -0.007849697
0.032453373 0.020493025 -0.029661618 0.021892764 -0.010497821 0.0015226522 0.0059110806 -0.0061026863
0.016604228 0.0038691796 -0.0021194755 -0.02054357 -0.0047241775 -0.0020620555 0.03201359 -0.0158177
-0.0133966915 -0.01145166 0.008502709 0.015466209 -0.008666693 -0.015083713 0.00630827 -0.016822439

transformer.wpe.weight f4 [64, 64]
00000000: 0b6d 303d 2232 ff3b 721a 7c3a dd72 033b
00000010: 7624 24bc 7bed a83a 3424 8d3a 32cb 4ebc
00000020: f459 c5bc 39ed 973c 0541 d23c b9d4 06bc
00000030: a134 acbc 8b43 f039 d36d 1bb9 7973 9ebc
00000040: ead8 9f3b 4428 0d3c a446 44bc a17f 633b
00000050: d18b 05bc 80fd c63b 2445 df3c b107 1abb
00000060: 2b89 ed3b b75a b0bc e0a7 88bc a48b 983c
00000070: 0b08 b9bb b422 3a3c 63e6 05bc 794d c0bc
00000080: e2df 1bbc 4e04 f33c 2e59 28bd d97c 433c
00000090: 1846 a73c 6f90 edbb d308 c5b9 3736 373c
000000a0: 02f4 fe3c 9bf3 3fbb 20f4 a13c 41d1 43bb
000000b0: 8c23 e63c db4d 98ba 0e6a debc 9139 0ebd
000000c0: a988 ceba 69dc 89bb dc0b 94bc 0b07 203b
000000d0: 47eb 2c3d f7a1 4c3c 021a 23bc 9f9f 8f3c
000000e0: 0d08 1dbc e61f a7bb 7c46 233c a330 fd3c
000000f0: c50f 4f3c 5a2c 16bc 2244 47bb 614e abbb
00000100: 8ab8 bebb 898b 033d cfde 863c 5673 80bc
00000110: 19fb 1a3d 8fde 033c 7ef7 f5bc 868f ab3c
00000120: 1d73 a03b 4299 edbc 62d8 d9bc cb63 2a3c
00000130: 629d 743a 9b91 87bc 0943 cd3b 4811 973b
00000140: 9c22 31bc 8c00 4d3b 4969 c9bc 27cf 0e3b
00000150: b554 d2bc a625 c1bc 6087 6bbc 5583 3bbb
00000160: 2b82 4dbd 3df1 e93c 4f75 913c af08 c43b
00000170: 89ef b0b9 e75e 50bc 657f 563c fb19 c9bc
00000180: 1844 72bc 60b2 84bc e79e 33bd 97a3 b93c
00000190: bc73 c33c ef8b 2dba 4d61 14bd 7f78 853c
000001a0: 1065 fabb b3cc f3bb e11f a5bc 90ed 38bb
000001b0: 29a3 36bb d489 a4bc 215c 43bc 0cbd 01bc
000001c0: bec4 29bc f350 51bc 7ed7 c23b 2ad5 f83c
000001d0: 9e95 823c b32a 52bb edc9 983b c204 b23b
000001e0: 9224 cebc dd73 353c f5ac 10b9 c948 4ebc
000001f0: 3b8f 773c 3ca2 29bc 9b70 2fbd b9d8 a13c
00000200: c4ca 52bc 769e 833c eb4a 983c d768 d9bb
00000210: 73c9 61bb 9407 a63c 1bdc 11bc 4243 64bb
00000220: 9ca7 7bbc 37fb 733c 3c72 d5bb 791e 3fbc
00000230: 2fa6 fcbc 4688 a2bc 4b21 d33c 0181 b6bc
00000240: 0f1d 673c 1316 553c 5ed1 4ebb 03bb 6fbc
00000250: c5e7 58bd 6283 25bc 04f1 c13b a796 f53b
00000260: 2ec2 583c 45bf ee3b 3b70 62bc 1c3c b9bc
00000270: 38a7 bab9 fe6f b73b 0d0f 9bbc 6ec8 7b3c
00000280: 9bdd c3bb bb0b 8c3c ae73 293d 7428 19bd
00000290: e9d8 a3bc a50c f73c c957 843c e0c0 a93c
000002a0: 555f 8fbc 822d 7b3b 1dec c3bc 5e2d b43c
000002b0: 6174 963b 4c6d 913b 3235 c9bb f7e3 3f3b
000002c0: 6e27 db3b 9ebd ea3c 9c30 67bc 1b7d 96bc
000002d0: 8438 c03b 7dd9 9abc 1028 2abd 37f8 373d
000002e0: a291 ddbc e76a 053c 78ba 2e3c 44c1 c2bc
000002f0: 64b2 e33c 1be9 883b a07d ab3c c85f 063d
00000300: 0fd7 c13c 0a51 1abd 90cc 0d3d b391 ad3b
00000310: c81b 01bd fe20 bc3c db8a d23b a47b c53a
00000320: 2059 79bc f415 dcbc 967f 00bd 4a6f 393d
00000330: 18d1 a43c 0f32 413c ce4f b0bb e93e 873b
00000340: 9777 15bc 1826 9a3c 1722 583c 4ee4 be3c
00000350: a2c9 a4bc f56c 5cbc 0928 0fbd 398e ca3c
00000360: 948e 853c 92cb a6bb a0ad 3f3a 2cae dc3b
00000370: f380 ddbb 6ffa 1e3d 0576 ba3c 780d b7bc
00000380: c78d 883c fea4 6ebc af84 853c f86f 5e3c
00000390: b983 40bc b923 803c 8f8a 6b3c ea7a 57bc
000003a0: 17d8 8cbc 9d8c ebbb b989 04bd 0091 f8bc
000003b0: 1018 0a3d 4690 b7bc c25f 11bc 0f71 59ba
000003c0: 89fd 543b bcd9 fd3c 6ee3 eebb 70d2 8fbc
000003d0: 39d9 b4bc a7d7 a53a acb1 4dbc 16c6 a1bc
000003e0: 382a c4bc cec9 efba 7cf6 e9bc e1ec 5bbc
000003f0: d057 233d b760 a7bc e638 df3c ae27 8e3b
0.04307274 0.0077879587 0.0009616978 0.0020057478 -0.010018459 0.0012888158 0.0010768236 -0.012621688
-0.024090745 0.018545734 0.02566577 -0.008229428 -0.02102119 0.0004582669 -0.00014822865 -0.019342171
0.004878153 0.008615557 -0.011979733 0.0034713524 -0.008151011 0.0060727 0.027254649 -0.002350312
0.0072490177 -0.021527631 -0.016681612 0.018621273 -0.0056467107 0.011360813 -0.008172604 -0.023474442
-0.009513827 0.029665139 -0.041100673 0.0119316215 0.020419165 -0.007249884 -0.00037581343 0.011182359
0.031122211 -0.0029289487 0.019769728 -0.0029879364 0.028093122 -0.0011619882 -0.02715018 -0.03472287
-0.0015757281 -0.004207183 -0.018072061 0.002441826 0.042216565 0.012489787 -0.009954931 0.017532168
-0.009584439 -0.005100238 0.009965535 0.03090698 0.012638037 -0.009165848 -0.00304056 -0.0052278494
-0.0058203386 0.032115493 0.016463665 -0.015679996 0.03783712 0.008048668 -0.03002524 0.02094246
0.004896535 -0.029003743 -0.026592437 0.010399769 0.0009331313 -0.016548922 0.0062640947 0.0046102144
-0.010811474 0.0031280844 -0.024586337 0.0021790953 -0.025675157 -0.023577522 -0.014375538 -0.0028612216
-0.050172966 0.028557414 0.017756132 0.0059824805 -0.00033747804 -0.012717939 0.013091897 -0.024548521
-0.014786743 -0.016198337 -0.043852713 0.022661014 0.023858897 -0.0006620278 -0.036225606 0.016292809
-0.007641442 -0.0074401735 -0.020156803 -0.002821777 -0.0027868247 -0.020085253 -0.011923821 -0.007918607
-0.010361848 -0.012775647 0.005946099 0.030375082 0.015940484 -0.0032068908 0.0046627433 0.005432696
-0.025163922 0.011074987 -0.00013797342 -0.0125905955 0.015109832 -0.010353621 -0.042832 0.019756662
-0.012865726 0.016066771 0.018590411 -0.0066348123 -0.0034452348 0.020267285 -0.008902575 -0.0034830128
-0.015359785 0.014891437 -0.006513862 -0.01166498 -0.030840961 -0.01984037 0.025772711 -0.02227831
0.014106049 0.013005751 -0.0031557898 -0.014631989 -0.052955408 -0.010102125 0.005918624 0.007494766
0.01322989 0.0072859847 -0.013820703 -0.02261167 -0.00035601272 0.0055980673 -0.018928075 0.01536761
-0.005977345 0.017095437 0.041370086 -0.037392095 -0.020000892 0.030157397 0.01615514 0.020721853
-0.017501513 0.0038326685 -0.023916299 0.021994289 0.00459151 0.004438078 -0.0061403746 0.0029280165
0.00668805 0.02865487 -0.0141107105 -0.018370202 0.005866112 -0.018902535 -0.041542113 0.04491445
-0.027046982 0.008143163 0.010664575 -0.023773797 0.027795024 0.004178179 0.020933926 0.032806188
0.023662118 -0.03767494 0.034618914 0.0052969097 -0.031520635 0.02296495 0.0064252443 0.0015066755
-0.015219003 -0.026865937 -0.031371675 0.04527215 0.020119235 0.01179172 -0.005380607 0.0041273725
-0.009122751 0.018816993 0.013191721 0.023302224 -0.020115677 -0.013453712 -0.03495029 0.02472602
0.016303338 -0.0050901854 0.0007311944 0.00673463 -0.0067597567 0.03881305 0.022761354 -0.02234529
0.016669167 -0.014565704 0.01629862 0.0135765 -0.011750155 0.015642034 0.014376297 -0.013151864
-0.017192883 -0.0071883933 -0.032357905 -0.030342579 0.033714354 -0.022407662 -0.008872928 -0.000829474
0.0032499752 0.030987613 -0.0072902953 -0.0175564 -0.022076236 0.001265277 -0.012554567 -0.019747775
-0.023945913 -0.0018294395 -0.028559916 -0.013423176 0.039878666 -0.02043186 0.027248811 0.0043382263

transformer.h.0.ln_1.weight f4 [64]
00000000: 0000 803f 0000 803f 0000 803f 0000 803f
00000010: 0000 803f 0000 803f 0000 803f 0000 803f
00000020: 0000 803f 0000 803f 0000 803f 0000 803f
00000030: 0000 803f 0000 803f 0000 803f 0000 803f
00000040: 0000 803f 0000 803f 0000 803f 0000 803f
00000050: 0000 803f 0000 803f 0000 803f 0000 803f
00000060: 0000 803f 0000 803f 0000 803f 0000 803f
00000070: 0000 803f 0000 803f 0000 803f 0000 803f
00000080: 0000 803f 0000 803f 0000 803f 0000 803f
00000090: 0000 803f 0000 803f 0000 803f 0000 803f
000000a0: 0000 803f 0000 803f 0000 803f 0000 803f
000000b0: 0000 803f 0000 803f 0000 803f 0000 803f
000000c0: 0000 803f 0000 803f 0000 803f 0000 803f
000000d0: 0000 803f 0000 803f 0000 803f 0000 803f
000000e0: 0000 803f 0000 803f 0000 803f 0000 803f
000000f0: 0000 803f 0000 803f 0000 803f 0000 803f
1.0 1.0 1.0 1.0 1.0 1.0 1.0 1.0
1.0 1.0 1.0 1.0 1.0 1.0 1.0 1.0
1.0 1.0 1.0 1.0 1.0 1.0 1.0 1.0
1.0 1.0 1.0 1.0 1.0 1.0 1.0 1.0
1.0 1.0 1.0 1.0 1.0 1.0 1.0 1.0
1.0 1.0 1.0 1.0 1.0 1.0 1.0 1.0
1.0 1.0 1.0 1.0 1.0 1.0 1.0 1.0
1.0 1.0 1.0 1.0 1.0 1.0 1.0 1.0

transformer.h.0.attn.bias f4 [1, 1, 64, 64]
00000000: 0000 803f 0000 0000 0000 0000 0000 0000
00000010: 0000 0000 0000 0000 0000 0000 0000 0000
00000020: 0000 0000 0000 0000 0000 0000 0000 0000
00000030: 0000 0000 0000 0000 0000 0000 0000 0000
00000040: 0000 0000 0000 0000 0000 0000 0000 0000
00000050: 0000 0000 0000 0000 0000 0000 0000 0000
00000060: 0000 0000 0000 0000 0000 0000 0000 0000
00000070: 0000 0000 0000 0000 0000 0000 0000 0000
00000080: 0000 0000 0000 0000 0000 0000 0000 0000
00000090: 0000 0000 0000 0000 0000 0000 0000 0000
000000a0: 0000 0000 0000 0000 0000 0000 0000 0000
000000b0: 0000 0000 0000 0000 0000 0000 0000 0000
000000c0: 0000 0000 0000 0000 0000 0000 0000 0000
000000d0: 0000 0000 0000 0000 0000 0000 0000 0000
000000e0: 0000 0000 0000 0000 0000 0000 0000 0000
000000f0: 0000 0000 0000 0000 0000 0000 0000 0000
00000100: 0000 803f 0000 803f 0000 0000 0000 0000
00000110: 0000 0000 0000 0000 0000 0000 0000 0000
00000120: 0000 0000 0000 0000 0000 0000 0000 0000
00000130: 0000 0000 0000 0000 0000 0000 0000 0000
00000140: 0000 0000 0000 0000 0000 0000 0000 0000
00000150: 0000 0000 0000 0000 0000 0000 0000 0000
00000160: 0000 0000 0000 0000 0000 0000 0000 0000
00000170: 0000 0000 0000 0000 0000 0000 0000 0000
00000180: 0000 0000 0000 0000 0000 0000 0000 0000
00000190: 0000 0000 0000 0000 0000 0000 0000 0000
000001a0: 0000 0000 0000 0000 0000 0000 0000 0000
000001b0: 0000 0000 0000 0000 0000 0000 0000 0000
000001c0: 0000 0000 0000 0000 0000 0000 0000 0000
000001d0: 0000 0000 0000 0000 0000 0000 0000 0000
000001e0: 0000 0000 0000 0000 0000 0000 0000 0000
000001f0: 0000 0000 0000 0000 0000 0000 0000 0000
00000200: 0000 803f 0000 803f 0000 803f 0000 0000
00000210: 0000 0000 0000 0000 0000 0000 0000 0000
00000220: 0000 0000 0000 0000 0000 0000 0000 0000
00000230: 0000 0000 0000 0000 0000 0000 0000 0000
00000240: 0000 0000 0000 0000 0000 0000 0000 0000
00000250: 0000 0000 0000 0000 0000 0000 0000 0000
00000260: 0000 0000 0000 0000 0000 0000 0000 0000
00000270: 0000 0000 0000 0000 0000 0000 0000 0000
00000280: 0000 0000 0000 0000 0000 0000 0000 0000
00000290: 0000 0000 0000 0000 0000 0000 0000 0000
000002a0: 0000 0000 0000 0000 0000 0000 0000 0000
000002b0: 0000 0000 0000 0000 0000 0000 0000 0000
000002c0: 0000 0000 0000 0000 0000 0000 0000 0000
000002d0: 0000 0000 0000 0000 0000 0000 0000 0000
000002e0: 0000 0000 0000 0000 0000 0000 0000 0000
000002f0: 0000 0000 0000 0000 0000 0000 0000 0000
00000300: 0000 803f 0000 803f 0000 803f 0000 803f
00000310: 0000 0000 0000 0000 0000 0000 0000 0000
00000320: 0000 0000 0000 0000 0000 0000 0000 0000
00000330: 0000 0000 0000 0000 0000 0000 0000 0000
00000340: 0000 0000 0000 0000 0000 0000 0000 0000
00000350: 0000 0000 0000 0000 0000 0000 0000 0000
00000360: 0000 0000 0000 0000 0000 0000 0000 0000
00000370: 0000 0000 0000 0000 0000 0000 0000 0000
00000380: 0000 0000 0000 0000 0000 0000 0000 0000
00000390: 0000 0000 0000 0000 0000 0000 0000 0000
000003a0: 0000 0000 0000 0000 0000 0000 0000 0000
000003b0: 0000 0000 0000 0000 0000 0000 0000 0000
000003c0: 0000 0000 0000 0000 0000 0000 0000 0000
000003d0: 0000 0000 0000 0000 0000 0000 0000 0000
000003e0: 0000 0000 0000 0000 0000 0000 0000 0000
000003f0: 0000 0000 0000 0000 0000 0000 0000 0000
1.0 0.0 0.0 0.0 0.0 0.0 0.0 0.0
0.0 0.0 0.0 0.0 0.0 0.0 0.0 0.0
0.0 0.0 0.0 0.0 0.0 0.0 0.0 0.0
0.0 0.0 0.0 0.0 0.0 0.0 0.0 0.0
0.0 0.0 0.0 0.0 0.0 0.0 0.0 0.0
0.0 0.0 0.0 0.0 0.0 0.0 0.0 0.0
0.0 0.0 0.0 0.0 0.0 0.0 0.0 0.0
0.0 0.0 0.0 0.0 0.0 0.0 0.0 0.0
1.0 1.0 0.0 0.0 0.0 0.0 0.0 0.0
0.0 0.0 0.0 0.0 0.0 0.0 0.0 0.0
0.0 0.0 0.0 0.0 0.0 0.0 0.0 0.0
0.0 0.0 0.0 0.0 0.0 0.0 0.0 0.0
0.0 0.0 0.0 0.0 0.0 0.0 0.0 0.0
0.0 0.0 0.0 0.0 0.0 0.0 0.0 0.0
0.0 0.0 0.0 0.0 0.0 0.0 0.0 0.0
0.0 0.0 0.0 0.0 0.0 0.0 0.0 0.0
1.0 1.0 1.0 0.0 0.0 0.0 0.0 0.0
0.0 0.0 0.0 0.0 0.0 0.0 0.0 0.0
0.0 0.0 0.0 0.0 0.0 0.0 0.0 0.0
0.0 0.0 0.0 0.0 0.0 0.0 0.0 0.0
0.0 0.0 0.0 0.0 0.0 0.0 0.0 0.0
0.0 0.0 0.0 0.0 0.0 0.0 0.0 0.0
0.0 0.0 0.0 0.0 0.0 0.0 0.0 0.0
0.0 0.0 0.0 0.0 0.0 0.0 0.0 0.0
1.0 1.0 1.0 1.0 0.0 0.0 0.0 0.0
0.0 0.0 0.0 0.0 0.0 0.0 0.0 0.0
0.0 0.0 0.0 0.0 0.0 0.0 0.0 0.0
0.0 0.0 0.0 0.0 0.0 0.0 0.0 0.0
0.0 0.0 0.0 0.0 0.0 0.0 0.0 0.0
0.0 0.0 0.0 0.0 0.0 0.0 0.0 0.0
0.0 0.0 0.0 0.0 0.0 0.0 0.0 0.0
0.0 0.0 0.0 0.0 0.0 0.0 0.0 0.0
