test_parts/part5_model.onnx (onnx, 154235 bytes, 3 tensors)

onnx::MatMul_528 f4 [64, 64]
00000000: 1cd5 21bc fc9d 5cbc 34f2 feba a442 a43a
00000010: 7ee8 abbb 5d32 763c ea8c 2abc 7d12 463a
00000020: 698a d1bb befe 8a3c 5c62 a6ba f64d 3bbb
00000030: 0f88 1d3c 22f9 03bc b865 673a 3baa 13bc
00000040: f910 14bb eaaa 69bc e258 1ebc 5bc2 8cbb
00000050: 21d7 11bc d963 263c a313 6d3c ef7b 873b
00000060: 0130 0a3c b561 52bb eef7 9d3a d77d 6f39
00000070: 5e3e bebb 7942 223a db67 c7bb 1618 3cbb
00000080: 6c00 10bc 2ecb eb3b 4a5a cc3b 84a4 f33b
00000090: 0ecc 363c 5650 4d3b 0797 4b3b b47f 473c
000000a0: 1af5 b1bb 2417 083c 818b 6b3a 92e5 27b9
000000b0: 1e73 2bba b692 c83b 0790 d43b 4a5c 273b
000000c0: 4874 70b9 9f83 73bb 8fa5 e3bb 4f9c 25bb
000000d0: 8f2e b73b 2e42 daba 0414 aabb e745 ba3b
000000e0: bf83 1f3b 11dc cf3b 406e 46bc eb2a 75bb
000000f0: 3ad4 acbb 92c3 c63a ad6d 88ba ad96 783b
00000100: a4be a4b7 0d1e 0fba f981 df3b a0c4 9fbb
00000110: c1af 083b b897 213c 70a1 83bc 864b 2ebc
00000120: 6856 7f3b e831 e83b f696 003c 8632 0b3b
00000130: 87b0 2ebc f406 15bc 13d1 bbbb 697f 55bb
00000140: c1b3 dcbb dac5 e9bb 1d6f 8bba a361 433c
00000150: 9441 903c 8f65 7dbc b3a7 ee3a 6f8e b33b
00000160: 88aa 663b 57b2 2abb 8882 9eba aeeb 2b3c
00000170: d8ff 15bc 3d1b 10bc 8ecd 103a 6f57 99bb
00000180: effe 513c f2b7 a93b 7e89 c239 faec da3b
00000190: 3441 933b 8c79 aa3b 0f3a 9c3b e0dd 47bb
000001a0: f7a5 94bb 708d 76b9 626f 92b9 390f bc3a
000001b0: 3078 a639 cca1 33bc f4bb ca3a 6214 223a
000001c0: 4b1d 0eba b510 053c 6c2d 173c 5806 4fbb
000001d0: 2204 a93b 8316 0c3b 4b1e 2cbb 6238 99bb
000001e0: 427e fd3b 267d 05bc dea4 83bb 0df8 7fba
000001f0: 4ecc 1a3b a9cd 803b f6d7 18bc b538 073b
00000200: c6d1 77bc 4036 a3ba 4fb3 283b 9d74 18bc
00000210: 2a35 e9bb d421 293b 2dc0 863c af01 b83b
00000220: 796f bd3a 6e98 713a b644 553b 1e49 e23b
00000230: 86f7 c03b 9678 123b 08e2 88bb 1cca 353c
00000240: 9799 b33a 288e 7abc a4ac c4bb 48d0 993b
00000250: e20b 323c cbf0 9c3b feb5 4f3c c26a a53a
00000260: bc84 dcbb b10c 44bc 3768 87ba 18b0 23bc
00000270: 7eaf cf3b b4fd 133b 67e2 843c 7d15 743c
00000280: d316 fb3b eb62 ca3b 2606 303b 1ddc 5d3a
00000290: e14a 933a 57a4 8a3b 8b4c 483c 7b40 43bb
000002a0: 741d 7e3b e4ed 973b 003b 4cbb ebff ec3a
000002b0: b994 adb9 9e75 803b 64c2 d33b 1477 063b
000002c0: 759f 153c 9e3f 463b a75e c9ba fecf 2fbc
000002d0: ed75 1dbb b8d0 c1bb 4b21 59bb 03d1 913a
000002e0: 251c 053c dbff 963b 6c19 9fbb 6463 4abc
000002f0: 16ae 05bc 0688 8c3b e228 4fbb f59e f23b
00000300: 7951 32bc 6632 513b 96dc 8a3b f2d5 fdbb
00000310: 5161 b4bb 9db7 4939 4402 80bb 3429 4f3b
00000320: 1ace ebbb fed5 c8bb bf99 adbc 4ed0 45bc
00000330: 78bc 83bc 7819 3f3c 21ab da3b 3838 dcba
00000340: 5cb8 3bbc bb30 0f3c e223 a4bb 4ff5 29bc
00000350: 1371 2abb f06a 05bc b3cb 2cbc 9616 4b3b
00000360: 162d 31bc ab7a 8f3b 870c 4b3c b136 b3bb
00000370: 0f80 943c 994e d6ba e9aa 10bc 3da3 f8bb
00000380: df51 d2ba d9e2 1abc 8b9d 343c 5b14 793a
00000390: 0da6 073c a6ff b4bb 244b 763b d5d5 feba
000003a0: 1b08 4bbb e204 adbb b06c c73b a25f 10bc
000003b0: 2c4b b73b b811 313c 6641 47ba a071 8fbb
000003c0: ca22 0fbc 9ea6 633a 2e20 c6ba fca0 f8bb
000003d0: 32a4 1ebc fd1a 0c3c f1d9 71bc b3d9 43bc
000003e0: 4c6f c23b f018 553c e8bc d2bb 75ef 613c
000003f0: 3ad5 1abc ef3a dc3b 6b07 ecbb 5df3 0fbc
-0.009877469 -0.013465401 -0.0019450844 0.0012532067 -0.005246221 0.015026656 -0.010409573 0.00075558556
-0.0063946736 0.016967174 -0.0012694108 -0.0028580404 0.009614958 -0.008055003 0.0008827108 -0.009012754
-0.0022593124 -0.0142619405 -0.009664746 -0.00429563 -0.008901388 0.0101556415 0.014470014 0.004134647
0.008434297 -0.0032101695 0.0012052038 0.00022839695 -0.0058057746 0.0006189715 -0.0060853786 -0.002870088
-0.008789163 0.0071958518 0.006236349 0.0074353833 0.011157049 0.0031328402 0.003106536 0.012176443
-0.0054308297 0.008306298 0.0008985326 -0.00016011883 -0.0006540286 0.006121005 0.006486896 0.0025537186
-0.00022931502 -0.003715731 -0.0069472264 -0.002527017 0.005590267 -0.0016651803 -0.0051903743 0.0056846025
0.0024340001 0.0063433726 -0.012111247 -0.0037409614 -0.005274323 0.0015164486 -0.0010408662 0.0037931607
-1.9639097e-05 -0.0005459495 0.006820914 -0.0048757344 0.002085671 0.009862833 -0.01606819 -0.010638123
0.0038961414 0.0070860274 0.007848492 0.002123983 -0.010662205 -0.009095896 -0.0057317107 -0.0032577163
-0.0067352955 -0.0071341814 -0.0010637973 0.011925134 0.017609395 -0.015466108 0.0018207937 0.005479626
0.003519686 -0.002604624 -0.0012093345 0.010493202 -0.009155236 -0.008795557 0.0005523794 -0.0046796123
0.012817129 0.0051793987 0.00037105003 0.006681082 0.004493857 0.005202478 0.0047676633 -0.0030497238
-0.004536386 -0.00023513078 -0.00027930277 0.0014347798 0.00031751534 -0.010963868 0.0015467391 0.0006182847
-0.0005421235 0.008121659 0.009227138 -0.0031589475 0.0051579634 0.0021375723 -0.0026263173 -0.004675911
0.0077359984 -0.0081475135 -0.0040174564 -0.00097644405 0.002362031 0.0039307666 -0.009328833 0.0020633165
-0.0151256975 -0.0012452081 0.0025741642 -0.0093051465 -0.0071169334 0.0025807517 0.016449058 0.005615435
0.0014452777 0.0009216134 0.0032542176 0.006905689 0.005888882 0.0022349707 -0.0041773356 0.01109555
0.001370239 -0.015292682 -0.0060020257 0.0046940185 0.010867091 0.004789447 0.012677668 0.0012620317
-0.0067296904 -0.0119659165 -0.0010330741 -0.0099907145 0.006338059 0.0022581639 0.016221238 0.014897701
0.007662633 0.0061763427 0.0026859134 0.00084632804 0.0011237526 0.0042310166 0.0122252805 -0.0029793072
0.003877488 0.004636513 -0.0031163096 0.0018081641 -0.00033107938 0.003920271 0.006462382 0.0020517753
0.009132256 0.003025032 -0.0015363292 -0.010730742 -0.0024026588 -0.005914774 -0.0033131416 0.0011124912
0.008124386 0.004608137 -0.0048553254 -0.012352798 -0.008159181 0.004288676 -0.0031610061 0.007404203
-0.010883682 0.003192091 0.0042377217 -0.0077464515 -0.005504765 0.00019237255 -0.00390652 0.0031610252
-0.0071962 -0.0061290255 -0.021191476 -0.0120735895 -0.01608108 0.011663787 0.006673232 -0.0016801422
-0.011457529 0.008739646 -0.0050091604 -0.0103734275 -0.002600734 -0.008143172 -0.010546613 0.0030988804
-0.010813972 0.004378637 0.0123931235 -0.005469166 0.01812747 -0.0016350328 -0.008829811 -0.007587819
-0.0016046128 -0.009453499 0.011023889 0.00095016294 0.008279336 -0.0055236397 0.0037581408 -0.0019442389
-0.0030980173 -0.005280123 0.0060859546 -0.008811863 0.005593678 0.010807447 -0.00076009927 -0.004377559
-0.008736322 0.00086841907 -0.0015115791 -0.00758755 -0.009682702 0.008551356 -0.014761434 -0.011953759
0.005933678 0.013006434 -0.006431211 0.013790001 -0.009450251 0.0067208926 -0.0072030327 -0.00878605

onnx::MatMul_529 f4 [64, 256]
00000000: 2ce9 ee3c fe93 2eba 0146 373c d3e1 f2bc
00000010: aeed 3c3d 16f6 ad3b d266 9f3c 9cac ba3c
00000020: 22e3 3c3c 4477 1cbc 3282 03bd 79d3 98bc
00000030: bd7a 9f3c 0fb2 e53b 2c0f 8e3b 14e9 17bd
00000040: a463 2dbd bc3c 983c 3573 bfbc c59f a5bc
00000050: d59f ddbb ea19 5b3b 2649 8db9 07a4 98bc
00000060: 9980 073c 226e cc3b b249 b0bc f250 f1bc
00000070: 3633 22bc 0692 b4bc ae1c 2cbc 5b83 ef3c
00000080: b324 333c 59af 823c eb91 97bb a75f 853a
00000090: b89e e3ba 7c2c f8bb 96f6 0dbd 2eb5 1e3c
000000a0: dd56 63bd 32d1 c73a 2ba8 613c 060c 32bc
000000b0: 7b74 f63b a4f6 05bb 6963 153d 400b 00bc
000000c0: 4969 4abc a8fd 07bc 4123 7a3c d472 033b
000000d0: 6be2 033d c287 23bb 99c6 7d39 f8d2 31bc
000000e0: bea4 203a af8f 81bc d9e9 f43b 65ad 2b3c
000000f0: f5c1 0cbd 05a3 02bc 8bc8 983c 5cbb b93c
00000100: b840 763c 84e1 18bd d5c2 4cbd 616a c53c
00000110: a301 8a3c 792a 9d3c e4cc 86bc 16e5 1f3d
00000120: 0128 daba f902 f4bc 2030 6e3c 091c 8ebc
00000130: 9030 92bb 3712 193b 552d 3a3c ec27 053d
00000140: eacd f738 77cd e8bb 1218 cfbc e7cb e2bc
00000150: ed55 8e3a e98b 6b3c 3830 d83b 8b46 b93b
00000160: 0219 b1bb c1fc 263c af41 173b 4057 48bc
00000170: 9d73 103d 43cb 22bd 45ba 583c 99f8 03bd
00000180: b6dd 163d 8ab7 cabc d087 173c 7390 0bbd
00000190: 0e7c 5b3b 14cf 60ba a084 62bb c2f5 91bb
000001a0: 4a1c 4abb 0c11 cfbc a98e 223c 6d12 08bd
000001b0: e6fa 8a3c 0c9e dfbc c75e e43b 55c6 89bc
000001c0: 2713 223c 3536 98bc 8b35 403c 6eb6 fe3b
000001d0: cd9e 80bb 943c 623c 50a0 9cbc 3796 773c
000001e0: c432 ccbc ce69 50bb 9d91 8fbb 92d6 08bc
000001f0: 4bff 06bd d67e 16bd e18e 413c c17d 153c
00000200: 79c8 0bbd 028d 3c3c 398e 083d 4536 45bd
00000210: a206 643c bc29 afba 5a15 8fbb e9f1 c6bc
00000220: 3426 5d3c 4dc3 933c 0b52 e5bb 2879 83bc
00000230: e09f ec3c a930 c63c 585b b93c 117b 0fbc
00000240: 14e4 70bc 9993 acbc fbd2 173c 0275 0138
00000250: b8ff 4dbc b43d 90bc 2e9a 023c fe4c 5f3d
00000260: a26d 57bc 2d32 20bc e4cd 2cbc fad1 193d
00000270: 4e7e 1b3c 1760 28bb f84c 89bc e29b d83c
00000280: 4a49 ee3c 011d 1dbd 1532 5ebc 0296 4fbd
00000290: c281 bd3c c464 d23c ad72 373d 0abf 1b3d
000002a0: 0ebc 03bd 811e 40bb e66b 873c 4f23 88bd
000002b0: ddbc 683b 4429 ca3a d28e 92bc 4c48 dc3c
000002c0: 5798 6fbc 0924 36ba 5e85 d43b 410c e03b
000002d0: 6f2a e83c de24 54bc 592a f13a 8a45 d03b
000002e0: bdfa 10bd 82c7 b1bc d51a b5ba 69e5 91bc
000002f0: 339b d2bb c942 f7bc 9ba3 213b 5c7a 073d
00000300: ae33 cdbc dea3 f6bc 70ef abbc 14d1 b239
00000310: 27cb 7dbc 505b 1a3d f448 873b 2ed4 013d
00000320: 4141 c0ba 02d5 dc3a 9ad8 8c3a a651 efba
00000330: 8034 8e3b ce7a 613c 52f2 193b a15a 843c
00000340: a406 44ba 47e7 223d 26fc 20bd 5bc1 d03c
00000350: 2f32 27bd c459 4c3b 4dad 09bd 604c b43c
00000360: 124e a8bc cbed 02bc c647 12bc 0265 32bc
00000370: 94d5 313d 07f9 fdbb 39ab 553c c796 ac3b
00000380: 0b51 8e3c 4740 62bc 5d6f b6bc 5df9 ba3c
00000390: 0f33 e9bb 9925 083d 4dd7 43bc 60eb 32bc
000003a0: 7440 fabc 52ed 4c3c 3bc1 bf3c f48d cabb
000003b0: 240d b2bc 55ca 88bc afcc dbbb 82b2 7fbb
000003c0: a130 1bbc fb3a 15bc 47c1 0a3d bdec 223c
000003d0: 2267 ce3c 89ed aebc 2625 f73c fe0d e73b
000003e0: 15e3 dd3c 4f12 ba3a d97a 63bb ddfc c2bc
000003f0: d970 c83c fbc9 eb3c afa3 dcbc 5276 ddbc
0.02916392 -0.0006659626 0.011186124 -0.029648697 0.046125107 0.0053088767 0.019458208 0.022787385
0.011528762 -0.0095499195 -0.032106586 -0.018655526 0.019467706 0.0070097516 0.0043353047 -0.037087515
-0.042331353 0.018583648 -0.023370365 -0.020217786 -0.006763438 0.0033432194 -0.00026948116 -0.018632902
0.008270406 0.006238715 -0.021519516 -0.029457543 -0.009899905 -0.022042286 -0.010504885 0.02923744
0.010934043 0.015952753 -0.004625549 0.0010175601 -0.0017366027 -0.0075736623 -0.03465899 0.009686751
-0.05550276 0.001524484 0.0137730045 -0.010867124 0.00752121 -0.0020441199 0.036471758 -0.007815182
-0.0123542035 -0.008300222 0.015267194 0.0020057457 0.03219835 -0.0024952744 0.00024201944 -0.0108535215
0.0006128064 -0.015815584 0.007474166 0.010478352 -0.03436466 -0.007973437 0.018650314 0.022672348
0.015030079 -0.037324443 -0.049990494 0.024098577 0.016846484 0.019185292 -0.016455121 0.039036833
-0.0016644002 -0.029786574 0.014537841 -0.017347353 -0.0044613555 0.0023356804 0.011363347 0.032508776
0.00011816232 -0.0071045714 -0.025280032 -0.027685119 0.0010859348 0.014376619 0.006597545 0.0056541613
-0.0054045925 0.010192097 0.0023079922 -0.012227833 0.035266507 -0.039744627 0.013228004 -0.032219503
0.036832534 -0.024745721 0.009248689 -0.034073304 0.003349069 -0.0008575779 -0.0034563914 -0.0044543454
-0.0030839616 -0.025276683 0.009921708 -0.033220697 0.01696534 -0.027297042 0.006969306 -0.016818205
0.009892262 -0.018580535 0.011731516 0.007773212 -0.0039251805 0.013808388 -0.019119412 0.015111498
-0.02492655 -0.0031801346 -0.004381372 -0.008351939 -0.03295831 -0.036742054 0.01181385 0.00912422
-0.034126732 0.011508228 0.03333876 -0.04814746 0.013917597 -0.0013363878 -0.004366559 -0.024285274
0.013497878 0.018037463 -0.0069983057 -0.016048983 0.028884828 0.024193125 0.022626564 -0.008757369
-0.014702816 -0.021066474 0.00926661 3.086497e-05 -0.012573175 -0.017607547 0.00797133 0.054516785
-0.013148697 -0.009777588 -0.010547135 0.037553765 0.009490563 -0.002569204 -0.016760334 0.026441518
0.029087681 -0.03835774 -0.013561745 -0.050680168 0.023133162 0.025682814 0.044787098 0.038023986
-0.032161765 -0.0029315057 0.016530942 -0.066473596 0.0035512962 0.0015423675 -0.017890368 0.026889943
-0.014623723 -0.00069481187 0.006485625 0.0068373983 0.028340546 -0.012948243 0.0018399461 0.006355946
-0.035395373 -0.021701578 -0.0013817201 -0.017809587 -0.0064271926 -0.030183213 0.0024664167 0.033075675
-0.025049057 -0.030107435 -0.020988196 0.0003410658 -0.01549033 0.03768474 0.0041285697 0.03169649
-0.0014667885 0.0016848149 0.0010745705 -0.0018258586 0.0043397546 0.013762189 0.0023490381 0.016156496
-0.0007477796 0.039771345 -0.039302967 0.025482824 -0.040819343 0.0031181434 -0.033612538 0.022009075
-0.02054504 -0.007991265 -0.008928245 -0.01088834 0.043416575 -0.0077506336 0.013041311 0.0052669975
0.017372629 -0.01380927 -0.022269899 0.022823984 -0.0071166824 0.03323898 -0.011953187 -0.010920376
-0.030548312 0.012507753 0.02340757 -0.006181473 -0.021734782 -0.016698042 -0.00670775 -0.003901631
-0.009472043 -0.0091083 0.03387573 0.009944138 0.025195662 -0.0213535 0.030169081 0.0070512285
0.02708582 0.001419613 -0.0034710674 -0.023802215 0.024467872 0.028782835 -0.02693352 -0.027033959

onnx::MatMul_530 f4 [256, 64]
00000000: 7270 063c d7a5 9dbb 4bda 063b e32f 273c
00000010: e7ce 9b3b f40b 093c e13d 9a3b 8890 0d3c
00000020: 193a 26bc f8ae 21bc e25b 57bc d663 8dbb
00000030: 4c2a c73a 649d 9a3b f588 993b 3830 563b
00000040: d70b ff3b 6f73 5bbc f5b9 ce3b 03d5 d23b
00000050: 1f6e 2a3c e262 fabb bae8 b5bb 3c6a 3a3b
00000060: 5afc e03b b235 0a3b 2b3f c2bb ce4c d5bb
00000070: f7d3 333a f9ff a9bb 976c a43b c25f 98bb
00000080: 788c e2bb 1c31 c7bb c82e 043c 1b0d 8ebb
00000090: a0a2 413b aba3 073a c4af 2bbb 90cb 443b
000000a0: e74d 5bbc e969 0abb 4118 42bc ccbd 05bc
000000b0: de81 42bc 7d71 0abb 8d6c 253c 9339 4bbb
000000c0: 671d 29bb e29b febb b723 43ba cd2d 8ebc
000000d0: 52ac 8039 a3f4 0ebc 13fa c03a 43ae 363a
000000e0: 6e36 063b 9702 77bc 6154 06bc 3dfb b8bb
000000f0: fa49 8dbb 0211 52bc a438 183a 0105 33bc
00000100: 783c 583a 1d8e b0bb 7e7a 82bc 4293 29bc
00000110: 5605 2a3a 6937 163b 3866 ddbb e2ac 7ebc
00000120: 7812 b5ba 29de 233b 0714 203c d733 65b9
00000130: 3df4 b73b 6586 bcbb 07fe 4b3b f350 333c
00000140: c333 843c 182e 0cbc de06 74ba b3a8 c83b
00000150: 947b 893b 2da9 7a3b d38a e839 e949 61ba
00000160: cd71 d43b 6dec 023b 8688 0d3b c177 133b
00000170: a104 e7bb 8780 9bbb 3378 61bc 7565 013c
00000180: 76b9 133c 237a 81bc 322a 173a c86f 37bb
00000190: 1b20 833b 7fd8 e63b 22e3 a8bb 1cff e03b
000001a0: aa51 0dbb ba7a eebb 3939 153a 9089 f63b
000001b0: b385 0fbb 29d4 57bb aac1 f43b 679d 44bc
000001c0: 9b27 6d3c e993 1b3c d2e6 873c f214 843b
000001d0: e90b 4a3b a4bf 5638 fadc 703c 81cb 13bc
000001e0: e323 233c 802c fbbb 72c1 35ba 9131 693b
000001f0: beb4 5f3b d9c0 aa3b 7626 dab9 dd1f 163c
00000200: 0e86 d0bb 519a f0bb 7e1b 923c ff5c 513c
00000210: feaf 3a3a d701 913a 156c 91bb d231 223a
00000220: 00e7 c53a fc5b 39bb d746 abbb 87f5 a1ba
00000230: 943f 8abc 00a6 b4bb fc07 c83b e569 683b
00000240: c215 ecba adc7 0c3b 84d9 d3bb e540 76bb
00000250: 1e3e baba 4de1 2abb ebf2 d53a 91b2 98ba
00000260: a699 eebb e36a baba 5063 2d3c cd2e 0d3c
00000270: c7bf b6bb f6da e439 562b 7139 a256 85bb
00000280: 452f e33a 02bf 5dbc 160a ae38 fadd 23ba
00000290: 6d60 b2bb 4aa0 18bb d54f d6bb 0b18 9a3b
000002a0: 5459 53bc d100 d538 4b50 03bc 1f9e 87ba
000002b0: b177 43bb c684 a9bb 186a c0bb 75f5 1fb9
000002c0: 2a58 8b3c 5a25 5e3b 54fd edbb 8177 283c
000002d0: ab2e 85bb e24b f73b 86b4 bb3b 77a7 42bb
000002e0: 95f6 3bba 2af7 18bb 0f68 ab3b d922 b6bb
000002f0: 0457 8fbb 0fa9 0f3c dbfb f0bb c484 913b
00000300: b2ed 8c3b ef1e 4ebb 4548 763c dc43 893b
00000310: 136a 5c3a f827 913a 1fef 003c d96e a7bb
00000320: 7d19 e93b ee5a 04bc a564 153c ffc9 09bb
00000330: 013a 4aba 2c77 8a3b 97e0 01bc ad96 d83a
00000340: 57b0 733c bae8 c8bb 8d3b 7fbc 04f9 d03b
00000350: dec6 ebbb 91e2 ae3b 28e3 733c 1b14 b2ba
00000360: 19b4 78bc 13ac 34ba 13f3 a93b f9a2 d03a
00000370: 836e 123c eeca 623c 1154 b8bb 8bdb 813c
00000380: 09fc f4bb 74a3 72bc c488 e6bb 9d28 e53b
00000390: 51f5 de3b 5032 ae3b 8df7 5a3b c341 e43a
000003a0: c993 f9bb 0041 efbb 8f39 2d3c 02c2 cbbb
000003b0: 9610 b0bb 5569 bfbb 84c0 353c 51f2 003c
000003c0: 785d 9ebc d8e4 e1ba a5fc 7fbb 67f9 c73b
000003d0: e63c b33b aa7c 31bb 117c 463c 2952 28bc
000003e0: 6d81 14bb 0b20 e53a c822 a03b 5510 a3bb
000003f0: 25b7 ce3b 33ca a4bb 37be cc3b 4bda 9bba
0.00820552 -0.0048110294 0.002057689 0.010204288 0.0047548893 0.008364666 0.0047070836 0.008640416
-0.0101456875 -0.009868376 -0.013144465 -0.00431488 0.00151951 0.0047184695 0.004685516 0.003268255
0.007783394 -0.013394221 0.006308789 0.0064340844 0.0104022315 -0.0076411823 -0.005551425 0.0028444668
0.00686602 0.0021089134 -0.0059279404 -0.0065094 0.00068598933 -0.005187985 0.0050178277 -0.004650087
-0.006913718 -0.0060788523 0.008067794 -0.0043350584 0.0029546395 0.000517423 -0.0026197294 0.003002856
-0.013385273 -0.0021120256 -0.011846603 -0.008162927 -0.011871783 -0.0021124773 0.010096681 -0.0031009659
-0.0025804879 -0.0077700475 -0.00074439816 -0.017355824 0.0002454245 -0.008725318 0.0014722965 0.0006968716
0.002047922 -0.015076301 -0.008198828 -0.0056451843 -0.004311797 -0.012821438 0.000580678 -0.010926486
0.00082487566 -0.005388035 -0.01592755 -0.01035005 0.00064857805 0.002292121 -0.00675657 -0.015544148
-0.0013814708 0.0025004244 0.0097704 -0.00021858454 0.0056138323 -0.0057533258 0.0031126754 0.010944593
0.016137963 -0.0085559115 -0.00093088846 0.006123626 0.00419564 0.003824781 0.0004435392 -0.00085940823
0.0064832927 0.0019977347 0.0021596267 0.0022501799 -0.0070501124 -0.0047455463 -0.013761568 0.007897724
0.009016385 -0.01580531 0.00057664805 -0.002799021 0.00400163 0.0070448513 -0.0051540295 0.006866349
-0.0021563568 -0.0072778137 0.0005692426 0.007523723 -0.002189976 -0.0032932854 0.0074693756 -0.012000418
0.014474775 0.009495714 0.016589556 0.004030817 0.0030829853 5.1200055e-05 0.014701122 -0.009020687
0.0099572865 -0.007665217 -0.00069334276 0.0035582522 0.003413483 0.0052109775 -0.00041608856 0.00916287
-0.006363637 -0.0073426147 0.017835375 0.01277852 0.0007121562 0.001106317 -0.004437933 0.00061872334
0.0015098751 -0.0028283587 -0.0052269506 -0.0012356498 -0.01687602 -0.005512953 0.0061044674 0.0035463509
-0.0018011855 0.002148132 -0.006465139 -0.0037575301 -0.0014209186 -0.002607423 0.0016323006 -0.0011649897
-0.0072815 -0.0014222529 0.01058276 0.008617115 -0.005577061 0.00043650687 0.00022999695 -0.0040691653
0.0017332813 -0.013534309 8.298845e-05 -0.00062510336 -0.0054436238 -0.00232889 -0.0065402784 0.004702573
-0.012899715 0.000101567835 -0.008014749 -0.0010346806 -0.002982598 -0.0051732985 -0.0058720224 -0.00015254862
0.017009813 0.0033896775 -0.007262865 0.010282398 -0.004064401 0.0075468877 0.005728307 -0.0029701868
-0.00071702275 -0.002334068 0.0052309106 -0.0055583534 -0.0043743867 0.008768334 -0.0073542423 0.0044408757
0.0043007964 -0.0031451543 0.015031879 0.0041889977 0.000840814 0.0011074534 0.007869511 -0.0051096496
0.007113634 -0.00807832 0.009118234 -0.002102494 -0.0007714332 0.004225632 -0.007927082 0.0016524397
0.014873586 -0.006131259 -0.015578163 0.006377341 -0.0071953377 0.0053370674 0.014885701 -0.0013586314
-0.015179657 -0.0006892096 0.0051864474 0.001591771 0.008937481 0.0138423275 -0.005625256 0.015851757
-0.007476334 -0.014809478 -0.0070353467 0.006993367 0.0068041463 0.0053160563 0.0033411712 0.0017414618
-0.0076164943 -0.00730145 0.010572805 -0.006218196 -0.005373071 -0.005841414 0.011093263 0.007870273
-0.019331679 -0.0017234338 -0.00390605 0.006102729 0.005469906 -0.0027082362 0.012114541 -0.010273495
-0.0022660152 0.0017480863 0.0048869587 -0.004976312 0.0063084536 -0.005028987 0.0062482613 -0.0011890618
