test_parts/part6_model.onnx (onnx, 176157 bytes, 4 tensors)

onnx::MatMul_541 f4 [64, 64]
-0.008981247 -0.00067811954 0.00031317602 0.0045301397 0.00077912223 0.0003270846 -0.008616951 0.00073007686
0.01328863 -0.0021505086 -0.0037254614 -0.00018247362 -0.0059503536 -0.0036547766 0.0001098912 -0.011078206
-0.0017261892 0.0013752427 -0.007186102 -0.0024635221 -0.0055056126 -0.001726751 -0.012995458 0.0034133175
0.0031693522 0.002769422 0.007369829 0.0049775266 -0.003303208 0.011263039 -0.012538025 -0.007807007
-0.0016528027 0.0007426412 -0.0052879862 0.002133996 0.01189543 -0.007424309 0.010910752 -0.0044685216
-0.0076005603 -0.00020320626 -0.009995447 -0.007097744 -0.011344702 -0.004629681 0.0013775099 -0.00852751
0.0040757265 -0.0009848773 -0.0032671557 -7.540822e-05 0.0080765365 0.0016720027 -0.0017454621 0.0033742099
0.0057167816 0.007459159 -0.0075527714 -0.0014433493 0.007370364 0.0020121974 0.0006025018 0.007312093
0.009362652 0.006900538 -0.0021230811 -0.0015433129 -0.0023685582 0.0022092138 0.00024486068 0.004783258
-0.0011377056 -0.009755466 -0.014244866 0.009750658 -0.0045770314 0.00041318423 0.0030223953 0.012264278
0.0037528968 -0.0055948114 -0.00048722146 -0.01301256 0.0073430613 0.0046412856 0.0074815652 -0.005311536
0.0019891292 0.0046133515 0.0006653517 0.005104013 0.006328051 -0.0001729024 0.0053422498 -0.005998925
-0.010072603 0.0041495436 0.009651025 0.0024700782 0.009313933 0.0035047827 -0.003302848 -0.004384258
-0.01453187 0.010710201 0.010547996 0.0006128895 -0.009850381 -0.0011535819 -0.0043916297 -0.00262453
-0.001826045 -0.0017820945 -0.001393862 -0.003136626 0.006574397 -0.004421338 0.003505054 -0.012954411
-0.0055018864 0.00810196 0.0053719217 -0.010415552 -0.0028365478 -0.0053714616 -6.711253e-05 0.009429401
0.005570398 -0.0033004556 -0.005644941 0.0006392704 0.0061796014 0.006550428 0.008143348 0.010583676
5.3985856e-05 0.0064314636 0.0010151487 -0.0106222825 0.008183474 0.010555916 0.00072768144 0.0019748048
-0.0029307522 0.004907267 0.0063803154 0.0064540664 0.0012419998 0.009513274 -0.010317049 0.0067331493
-0.008712163 -0.006676995 0.006710841 -0.011550988 0.0011932119 0.0071080616 0.0006709047 -0.00046199982
0.005266243 0.0009710368 -0.0044014095 -0.0043983986 -0.010383297 -0.018132355 -0.00065537845 0.003894443
-0.0023025796 0.002649131 -2.231344e-06 0.011049521 0.009394337 0.00610305 -0.000264944 -0.0070971902
-0.007663563 0.003744071 -0.00097602385 0.011406862 -8.803371e-05 -0.0019252752 -0.008361123 0.008916052
0.0078032073 0.006430489 0.0068722116 0.0020261842 -0.0023221225 0.0037286202 -0.007711864 -0.0047317757
-0.0032914935 0.0012642551 0.0051208525 -0.010287091 -0.0034931253 0.0054346663 0.011267525 0.009958778
0.001961416 0.0023438558 0.007590497 -0.002880168 0.001854763 -0.014744569 -0.0042641717 0.0073945
-0.0029954817 -0.0036739989 -0.002838931 0.0044308044 0.0037787058 -0.014128637 0.011917968 -0.0034525888
0.0034846738 -0.0025116196 0.0039875084 0.003159214 0.011157894 -0.005614621 0.0103137335 0.019592477
-0.009307578 0.0070748036 0.008274149 0.0011952709 -0.0032326546 -0.014685979 0.00515499 -0.0017852295
-0.0034666227 -0.0053789057 -0.003298105 -0.0024946122 -0.0038914082 0.0014096826 -0.006297826 -0.0010432372
0.009637378 -0.0042027473 0.0014324518 0.0028010032 -0.00034134465 -0.005713675 0.009347551 0.0015415251
0.015460657 -0.0118915895 -0.008576296 -0.0014471909 0.0041359914 0.015488481 0.0032780545 0.0062044864
00000000: 1526 13bc d5c3 31ba c631 a439 9171 943b
00000010: 023e 4c3a 8d7c ab39 1d2e 0dbc a162 3f3a
00000020: 8eb8 593c 8cef 0cbb df26 74bb 6456 3fb9
00000030: 2ffb c2bb fa84 6fbb 6475 e638 5d81 35bc
00000040: 4c41 e2ba 7d41 b43a 6579 ebbb 0b73 21bb
00000050: 6d68 b4bb 2654 e2ba e7ea 54bc f7b1 5f3b
00000060: e8b4 4f3b 317f 353b 9b7e f13b 851a a33b
00000070: a27a 58bb 9c88 383c 4a6c 4dbc ecd1 ffbb
00000080: dba2 d8ba cfad 423a d846 adbb 83da 0b3b
00000090: 0de5 423c 9e47 f3bb 03c3 323c ad6c 92bb
000000a0: 1f0e f9bb c413 55b9 f1c3 23bc 3194 e8bb
000000b0: 21df 39bc 94b4 97bb 908d b43a f8b6 0bbc
000000c0: ac8d 853b 0017 81ba c71d 56bb 7b24 9eb8
000000d0: 7353 043c 1a27 db3a fdc7 e4ba d921 5d3b
000000e0: d753 bb3b f66b f43b 3d7d f7bb c42e bdba
000000f0: 1883 f13b 12df 033b 36f1 1d3a 489a ef3b
00000100: cf65 193c e91d e23b 6423 0bbb fd48 caba
00000110: d039 1bbb 75c8 103b a560 8039 e0bc 9c3b
00000120: 111f 95ba 64d5 1fbc 4c63 69bc 39c1 1f3c
00000130: ecfa 95bb a6a0 d839 6113 463b 1cf0 483c
00000140: 29f3 753b ae54 b7bb c271 ffb9 a232 55bc
00000150: 109e f03b ed15 983b eb27 f53b 650c aebb
00000160: 0d5c 023b 992b 973b ff6a 2e3a 903f a73b
00000170: 8a5b cf3b 224d 35b9 0a0e af3b a192 c4bb
00000180: 8f07 25bc e5f8 873b 551f 1e3c 09e1 213b
00000190: 7799 183c 7fb0 653b 9874 58bb d2a9 8fbb
000001a0: 1517 6ebc d779 2f3c 80d1 2c3c 51aa 203a
000001b0: 7e63 21bc c933 97ba a9e7 8fbb 4f00 2cbb
000001c0: e757 efba 2b95 e9ba 3fb2 b6ba da8f 4dbb
000001d0: 0a6e d73b dfe0 90bb 0cb5 653b bd3e 54bc
000001e0: 2b49 b4bb 15be 043c f206 b03b fea5 2abc
000001f0: 60e5 39bb 1603 b0bb c4be 8cb8 c67d 1a3c
00000200: e387 b63b 754c 58bb 32f9 b8bb b694 273a
00000210: 417e ca3b f9a4 d63b ad6b 053c 2867 2d3c
00000220: df6e 6238 07bf d23b bd0e 853a 1509 2ebc
00000230: fa13 063c b8f2 2c3c e0c1 3e3a ba6b 013b
00000240: dd11 40bb 24cd a03b f711 d13b a27c d33b
00000250: 99ca a23a 90dd 1b3c d708 29bc c0a1 dc3b
00000260: 76bd 0ebc b2ca dabb 9de6 db3b 5b40 3dbc
00000270: 8c65 9c3a beea e83b a7df 2f3a 9138 f2b9
00000280: 7390 ac3b 2d8d 7e3a b339 90bb 7120 90bb
00000290: b41e 2abc 4e8a 94bc b4cd 2bba e939 7f3b
000002a0: e0e6 16bb 0b9d 2d3b 33be 15b6 0d09 353c
000002b0: b5ea 193c 18fc c73b 2fe8 8ab9 8c8f e8bb
000002c0: a01e fbbb 165f 753b dadb 7fba d9e3 3a3c
000002d0: bd9e b8b8 8459 fcba 17fd 08bc a214 123c
000002e0: 0cb2 ff3b dab6 d23b 4a30 e13b bbc9 043b
000002f0: c02e 18bb de5b 743b ceb3 fcbb 030d 9bbb
00000300: 19b6 57bb 5db5 a53a d3cc a73b 308b 28bc
00000310: ebec 64bb 4915 b23b 6d9b 383c 242a 233c
00000320: 1a8b 003b 609b 193b b4b9 f83b 33c1 3cbb
00000330: 851b f33a 3493 71bc 77ba 8bbb 904d f23b
00000340: d84f 44bb 79c7 70bb 5c0d 3abb 4830 913b
00000350: 2aa4 773b cc7b 67bc 9543 433c d444 62bb
00000360: 205f 643b fc99 24bb a5a9 823b d10a 4f3b
00000370: 99cf 363c dbfa b7bb effa 283c 6780 a03c
00000380: d07e 18bc c1d3 e73b 4c90 073c a3aa 9c3a
00000390: f2da 53bb 769d 70bc 31eb a83b 5dfe e9ba
000003a0: 4730 63bb 8841 b0bb 0525 58bb a67c 23bb
000003b0: ff06 7fbb 19c5 b83a fe5d cebb 3bbd 88ba
000003c0: 18e6 1d3c 33b7 89bb 1bc1 bb3a 0991 373b
000003d0: 81f6 b2b9 c839 bbbb 7826 193c 000d ca3a
000003e0: b24e 7d3c f1d4 42bc 9883 0cbc abaf bdba
000003f0: 3687 873b 66c3 7d3c a1d4 563b 014f cb3b

onnx::MatMul_542 f4 [64, 256]
-0.022187397 0.007130896 -0.040216487 -0.011235827 -0.00026407372 0.0032357313 -0.026924646 0.014569446
0.009029911 -0.006206014 -0.010823723 0.04315366 0.007528281 -0.016063323 0.008477016 0.016354028
0.009487127 -0.021200223 0.016170634 -0.0029885168 2.991094e-05 -0.0067935865 0.017066967 0.016627539
0.024845244 0.0192268 0.00031743213 0.022129478 -0.008650267 0.00021124133 -0.0024235738 -0.010594334
-0.021882134 -0.020134263 0.01929713 -0.009587748 -0.0025816502 -0.018592617 0.0034556256 0.031407457
0.0029908293 0.015272951 -0.018304411 0.0071324264 0.0019695305 0.013324203 0.024940666 -0.0058740657
0.0032112163 -0.03842003 0.007033961 0.018175965 0.00865682 -0.023105634 -0.010316983 -0.023799906
0.0013129857 0.02503904 0.038432658 0.009463582 -0.019081261 -0.0025746487 -0.031208966 0.0017935773
0.0012366936 -0.0084751565 -0.021760859 0.019187862 0.006100632 0.019621922 -0.039195433 -0.010526576
-0.020916188 0.008705443 -0.02715289 0.0126255965 0.002164288 0.0063651674 0.011355993 0.0023164332
-0.0028332004 -0.015038871 -0.0016357547 -0.023800315 -0.0039234236 -0.0045796917 0.016512921 0.0131068
0.0075656795 0.03776437 -0.014462757 -0.0015736578 -0.0031818168 -0.00014465298 -0.005795756 -0.008620552
0.033712573 0.0029873317 0.018372264 -0.0018682041 0.019426191 -0.0017365207 -0.016780926 0.0136364065
0.008640508 -0.035240207 -0.015351751 -0.028238079 0.009895823 -0.015089824 -0.0020345186 -0.009266503
-0.028328976 -0.017465418 -0.008937385 -0.023761025 0.01389082 -0.0038723974 0.019607188 0.006272806
0.0071557364 0.018534502 0.026107755 0.03327483 0.00071588665 0.0032945673 0.0063675987 0.015468168
0.018380716 -0.009681535 0.0043233335 0.06575784 -0.027352849 0.011387881 -0.006344564 -0.017280411
-0.00055996893 -0.018268222 0.015537935 -5.9075657e-05 0.0102326395 -0.022262666 -0.02110156 -0.028118597
-0.00083494984 0.013759417 -0.018986272 0.009463403 0.01658133 -0.021163613 0.0055350005 -0.018941654
-0.0061627496 0.017010914 0.007821806 0.004502819 -0.007912955 0.008624403 -0.030243864 -0.012936061
0.026751095 -0.0083728265 0.025485387 -0.0011373862 4.315192e-05 -0.026530882 -0.002135446 0.004839471
0.012743548 -0.03211234 0.03148751 0.006160479 -0.013236885 0.016149402 -0.019360181 -0.001968952
-0.02256257 0.029545264 0.009440051 -0.0077604637 0.011961873 -0.0075617167 0.026792772 0.036656376
0.006431154 -0.0064021773 0.012762089 -0.0010790023 -0.0019857048 0.028946051 -1.0250482e-05 0.013855694
-0.026428029 0.014303229 0.01569597 0.0010054007 -0.0041620093 -0.008936254 -0.0087977275 0.020876259
0.019485658 0.005807851 0.01501901 -0.05113233 -0.012576931 0.030697018 -0.008003905 0.018788874
-0.027098274 0.005079834 0.0026661523 -0.0325933 -0.007555709 0.010362252 -0.011949722 -0.0008736203
-0.002972111 0.014216488 0.02908794 0.028276287 0.019789116 0.0070816134 -0.014724704 -0.030049283
-0.030352144 0.0021192015 -0.017358882 -0.030256132 0.006081324 0.0069909506 0.01662123 0.012130322
0.005564439 0.03023618 0.0053562648 -0.02927622 -0.006475461 -0.05141847 -0.004425469 0.028832193
0.026297437 -0.013798053 0.0036387395 0.01043622 -0.010280852 -0.030020487 0.012778509 -0.0017291042
-0.0011516565 0.022781217 -0.007872083 -0.016519468 0.0085160695 0.007098669 -0.01656017 0.0067724693
00000000: 58c2 b5bc 4baa e93b 0bba 24bd 7916 38bc
00000010: 6073 8ab9 900e 543b 1391 dcbc b0b4 6e3c
00000020: 31f2 133c d25b cbbb fc55 31bc e4c1 303d
00000030: ccaf f63b 3b97 83bc 2fe3 0a3c e2f8 853c
00000040: e56f 1b3c 17ac adbc 4778 843c feda 43bb
00000050: 41e9 fa37 bc9c debb 06d0 8b3c 7a36 883c
00000060: 4188 cb3c 8681 9d3c 056d a639 e148 b53c
00000070: d9b9 0dbc aa80 5d39 d2d4 1ebb dc93 2dbc
00000080: 2942 b3bc 9cf0 a4bc 0415 9e3c ee15 1dbc
00000090: e730 29bb 8b4f 98bc c777 623b 1ba5 003d
000000a0: ca01 443b 663b 7a3c 22f3 95bc 21b7 e93b
000000b0: 3d13 013b c24d 5a3c 5e50 cc3c 3c7b c0bb
000000c0: 4573 523b 525e 1dbd 247d e63b c3e5 943c
000000d0: 56d5 0d3c 0748 bdbc 9008 29bc 05f8 c2bc
000000e0: 7d18 ac3a ac1e cd3c 906b 1d3d 240d 1b3c
000000f0: 4e50 9cbc 70bb 28bb f2a9 ffbc 7816 eb3a
00000100: 8d18 a23a 62db 0abc d443 b2bc dd2f 9d3c
00000110: cfe7 c73b 27be a03c 648b 20bd a977 2cbc
00000120: 6d58 abbc 46a1 0e3c bd6f debc 97db 4e3c
00000130: bad6 0d3b e592 d03b 7d0e 3a3c 4dcf 173b
00000140: 37ad 39bb 9965 76bc d266 d6ba e1f8 c2bc
00000150: 1090 80bb 3d11 96bb 1b46 873c e7bd 563c
00000160: 85e9 f73b d0ae 1a3d 33f5 6cbc 3243 ceba
00000170: 0786 50bb fdad 17b9 53ea bdbb 373d 0dbc
00000180: 3216 0a3d 1cc7 433b 6e81 963c 87de f4ba
00000190: ad23 9f3c f79b e3ba 2778 89bc 3c6b 5f3c
000001a0: eb90 0d3c 0958 10bd e985 7bbc 8b53 e7bc
000001b0: 1722 223c 4f3b 77bc 8f55 05bb 88d2 17bc
000001c0: 2b12 e8bc a313 8fbc 1c6e 12bc 7ba6 c2bc
000001d0: 5296 633c 0cc8 7dbb 419f a03c 1c8c cd3b
000001e0: ab7a ea3b abd5 973c eedf d53c 304b 083d
000001f0: 57aa 3b3a abe9 573b 4aa7 d03b 336e 7d3c
00000200: 2893 963c 4d9f 1ebc c0aa 8d3b 0cac 863d
00000210: 1513 e0bc 3c94 3a3c 0fe6 cfbb a68f 8dbc
00000220: e1ca 12ba 3da7 95bc d392 7e3c 01c8 77b8
00000230: cda6 273c 3260 b6bc 2edd acbc f958 e6bc
00000240: 89e0 5aba 2e6f 613c 1989 9bbc 640c 1b3c
00000250: 92d5 873c 505f adbc f35e b53b 872b 9bbc
00000260: e4f0 c9bb 795a 8b3c 0827 003c 628c 933b
00000270: 57a5 01bc 5e4d 0d3c fbc1 f7bc c6f1 53bc
00000280: 1d25 db3c 2e2e 09bc bbc6 d03c 5914 95ba
00000290: 05fe 3438 4b57 d9bc d7f2 0bbb 6d94 9e3b
000002a0: 50ca 503c 3b88 03bd 0cf9 003d d8dd c93b
000002b0: 85df 58bc c04b 843c 3e99 9ebc 8809 01bb
000002c0: 24d5 b8bc e908 f23c 72aa 1a3c 7d4b febb
000002d0: bbfb 433c 47c8 f7bb 847c db3c ff24 163d
000002e0: 6ebc d23b 5bc9 d1bb 1518 513c 4f6d 8dba
000002f0: 9922 02bb 4520 ed3c 7cf9 2bb7 fe02 633c
00000300: 987f d8bc 1758 6a3c d694 803c a6c7 833a
00000310: 7761 88bb 5e69 12bc 5824 10bc b004 ab3c
00000320: 63a0 9f3c c94f be3b 4b12 763c 2270 51bd
00000330: 790f 4ebc 5078 fb3c d022 03bc 20eb 993c
00000340: 33fd ddbc bc74 a63b 9dba 2e3b 8d80 05bd
00000350: e295 f7bb 6fc6 293c c4c8 43bc aa03 65ba
00000360: c0c7 42bb 46ec 683c d549 ee3c aca3 e73c
00000370: c91c a23c e10c e83b e33f 71bc ea29 f6bc
00000380: 0fa5 f8bc 4de2 0a3b 3734 8ebc b5db f7bc
00000390: d845 c73b 5814 e53b 3f29 883c 42be 463c
000003a0: e655 b63b deb1 f73c 9b83 af3b afd4 efbc
000003b0: 1b30 d4bb 2c9c 52bd 8603 91bb 7e31 ec3c
000003c0: b96d d73c 3b11 62bc eb77 6e3b aefc 2a3c
000003d0: 0571 28bc 86ed f5bc f45c 513c 1ca3 e2ba
000003e0: 2ef3 96ba ad9f ba3c e9f9 00bc d653 87bc
000003f0: fc86 0b3c f49b e83b 32a9 87bc 97eb dd3b

onnx::MatMul_543 f4 [256, 64]
0.00037026088 0.00086879963 0.012971827 0.0045785215 0.0018113832 0.015541624 -0.0061438004 -0.016355146
-0.013587259 0.015258298 -0.0011077585 0.016085433 0.00022001118 0.0053331684 -0.009592122 -0.0040850113
-0.004792692 0.0069713998 -0.00043476565 0.0014891074 -0.009214863 0.0015268313 -0.006504691 -0.00537946
0.0017192604 -0.0029415914 0.0047221035 0.0026734278 0.007337869 0.001475309 -0.0027831856 0.010027618
-6.0119737e-06 -0.0061378977 -0.0016034181 -0.008545236 0.0023957915 -0.0021923503 0.0051837503 0.00047532257
0.008732118 0.0030622468 -0.012526938 0.0041244384 -0.012325242 -0.0037737356 -0.009894495 -0.0021129646
-0.0031362239 -0.016279751 6.1073115e-05 0.016392479 0.0051710606 -0.00026523258 0.0031712574 0.008654766
0.0071529495 -0.0033687358 -0.013855851 -0.007562751 -0.00012525257 0.0013099185 0.006410569 0.0047023073
0.016066086 -0.0043619615 -0.009415441 -0.009741171 0.00040693578 0.008851545 -0.011288647 0.0009251165
0.001261951 0.005300558 0.00082034495 -0.0043836553 -0.002864067 0.0001304194 -0.0043822136 0.0023927013
-0.014155883 -0.004571436 -0.006271474 0.004034442 0.0061183316 -0.00774036 -0.0014031183 -0.010615729
0.0013753333 0.0045214198 0.010477109 0.0035283228 0.0006307427 -0.0021896977 0.0055888975 0.002138974
0.009089083 -0.011733327 0.003912198 -0.0026242863 0.005332587 0.016562434 -0.0084799845 -0.003516187
-0.0034152048 -0.007173507 -0.0039757453 -0.0075321607 -0.00845443 0.0011997177 1.3250901e-05 -4.212454e-06
0.012788124 -0.008650571 0.0010906477 0.010157845 -0.007471117 0.009692694 -5.313229e-05 -0.004779869
-0.0043748054 -0.0023289844 0.018152818 -0.00039042 -0.0105418395 0.014042808 -0.010859992 -0.004224251
0.0031066511 -0.025628526 0.009112615 0.013988238 -0.006222597 0.0033353083 -0.009213664 0.000887431
-0.00027012432 -0.005005614 0.00623225 -0.011875173 -0.0023115585 -0.0009971231 0.011435843 -0.01837627
0.007977615 0.011938157 -0.009658242 0.001839214 -0.008196606 -0.009966705 -0.022888996 0.002409844
-0.006708264 -0.0010932042 0.008233362 0.008003011 0.008221388 -0.009068465 -0.003396384 -0.0004220058
-0.0018081844 -0.0019360163 -0.002764268 0.004425654 0.012294362 -0.003994724 -0.0030696813 -0.0089898845
0.0001472517 0.003805264 -0.0058257976 -0.009757311 -0.0039930916 -0.00011768157 0.007915746 -0.000733349
-0.0016822981 -0.001979984 -0.0041289665 -0.0021570798 -0.003595702 -0.0039134556 0.010608233 -0.011621905
-0.009965042 -0.010984499 0.0030029595 0.00237904 0.002440985 0.001411152 -0.001965858 -0.014149659
0.0051918356 -0.006362424 -0.002068628 -0.0036151058 -0.0023840743 -0.0043850923 0.0002929212 0.0023134085
0.011868092 0.008137691 0.00059223385 -0.014413866 0.0089323735 0.0058240644 -0.011497813 -0.00688876
0.0069884737 0.006688902 6.954774e-05 -0.0063631996 -0.015187123 -0.0073471125 -0.00030983944 0.00882428
0.003013219 0.019583507 0.0031855623 0.007425584 0.0066279075 2.3235052e-05 -0.007329798 0.0061728475
-0.008216738 -0.0041736607 0.00042176514 -0.0034026357 0.0024812075 -3.8926228e-06 0.005137046 0.005042553
-0.0032181863 0.00018855192 0.001690754 0.009376707 -0.012591057 0.010946224 0.0038753774 -0.013286609
-0.0016989761 -0.0024051475 0.0007431904 -0.0016271393 0.003984009 0.014727828 -0.0057508578 -0.0151931895
-0.0024239612 -0.0043005985 -0.0015132524 0.008690235 -0.0021896118 -0.00353962 -0.0010339841 0.004596243
00000000: 931f c239 28c0 633a c987 543c 6c07 963b
00000010: ef6b ed3a 4ca2 7e3c ef51 c9bb 3afb 85bc
00000020: 189d 5ebc f1fd 793c 3532 91ba 99c5 833c
00000030: cdb2 6639 dcc1 ae3b 4728 1dbc 8fdb 85bb
00000040: 040c 9dbb 5770 e43b 42f1 e3b9 272e c33a
00000050: f0f9 16bc f51f c83a 4e25 d5bb 2e46 b0bb
00000060: ce58 e13a b7c7 40bb e0bb 9a3b ad34 2f3b
00000070: 8272 f03b 285f c13a 1b66 36bb e14a 243c
00000080: 76ba c9b6 6b20 c9bb c929 d2ba 5101 0cbc
00000090: b602 1d3b 89ad 0fbb 73dc a93b b734 f939
000000a0: 2811 0f3c faaf 483b c93d 4dbc 4c26 873b
000000b0: d0ef 49bc c750 77bb 851c 22bc aa79 0abb
000000c0: 1b89 4dbb 1d5d 85bc 6114 8038 8549 863c
000000d0: 0072 a93b ea0e 8bb9 dfd4 4f3b b8cc 0d3c
000000e0: 4a63 ea3b 02c6 5cbb a703 63bc f4d0 f7bb
000000f0: 3b56 03b9 92b1 ab3a c00f d23b d015 9a3b
00000100: 069d 833c c9ee 8ebb 3943 1abc 6f99 1fbc
00000110: ff59 d539 1206 113c 04f4 38bc 8483 723a
00000120: 0d68 a53a 4eb0 ad3b 6b0c 573a c4a4 8fbb
00000130: 12b3 3bbb 31c1 0839 ac98 8fbb dece 1c3b
00000140: 14ee 67bc fccb 95bb f080 cdbb 5a33 843b
00000150: 497c c83b d9a2 fdbb d6e8 b7ba 98ed 2dbc
00000160: 8744 b43a 6b28 943b 2ea8 2b3c 6f3b 673b
00000170: 6d58 253a 0881 0fbb 1223 b73b 072e 0c3b
00000180: 61ea 143c 243d 40bc e531 803b 38fc 2bbb
00000190: fbbc ae3b f1ad 873c a2ef 0abc d46f 66bb
000001a0: a1d1 5fbb bd0f ebbb f846 82bb 58d0 f6bb
000001b0: 7384 0abc d93f 9d3a 3050 5e37 b458 8db6
000001c0: 4885 513c 20bb 0dbc 10f4 8e3a 176d 263c
000001d0: 46d0 f4bb 1bce 1e3c 5dda 5eb8 73a0 9cbb
000001e0: 875a 8fbb e0a1 18bb 38b5 943c 49b1 ccb9
000001f0: aeb7 2cbc ce13 663c 1cee 31bc 966b 8abb
00000200: f598 4b3b eaf2 d1bc 144d 153c ec2e 653c
00000210: ede6 cbbb 3095 5a3b e8f4 16bc 7ca2 683a
00000220: 799f 8db9 2206 a4bb e737 cc3b 1690 42bc
00000230: 847d 17bb e6b1 82ba 675d 3b3c d589 96bc
00000240: 8bb4 023c 4298 433c 9a3d 1ebc c811 f13a
00000250: 0f4b 06bc 644b 23bc b481 bbbc 79ee 1d3b
00000260: ffd0 dbbb d949 8fba 39e5 063c 101f 033c
00000270: 00b3 063c e693 14bc de95 5ebb a940 ddb9
00000280: 9a00 edba edc1 fdba b928 35bb 1405 913b
00000290: 4b6e 493c 2ce6 82bb b52c 49bb 4f4a 13bc
000002a0: 9467 1a39 bc61 793b 55e6 bebb 21dd 1fbc
000002b0: 7bd8 82bb d0cb f6b8 0cb1 013c 383e 40ba
000002c0: 8f80 dcba 9fc2 01bb 484c 87bb cb5d 0dbb
000002d0: dea5 6bbb 723c 80bb 27ce 2d3c cd69 3ebc
000002e0: 6a44 23bc 54f8 33bc 4dcd 443b abe9 1b3b
000002f0: eff8 1f3b 67f6 b83a a0d5 00bb f9d3 67bc
00000300: 4620 aa3b e27b d0bb d291 07bb 69eb 6cbb
00000310: 213e 1cbb d2b0 8fbb 3893 9939 8e9c 173b
00000320: 6372 423c f353 053c 2440 1b3a 2328 6cbc
00000330: 1759 123c cbd7 be3b 5361 3cbc 1bbb e1bb
00000340: 91ff e43b 942e db3b 29da 9138 6382 d0bb
00000350: 69d3 78bc 0cc0 f0bb f271 a2b9 b793 103c
00000360: 6d79 453b 976d a03c dec4 503b 5052 f33b
00000370: eb2e d93b e5e8 c237 cd2e f0bb 9945 ca3b
00000380: 7f9f 06bc 34c3 88bb 5c20 dd39 c1fe 5ebb
00000390: c19b 223b 609d 82b6 aa54 a83b 003c a53b
000003a0: 35e8 52bb 05b6 4539 4a9c dd3a c2a0 193c
000003b0: b94a 4ebc cb57 333c 0bfa 7d3b 14b0 59bc
000003c0: 2eb0 deba ae9f 1dbb aad2 423a bc45 d5ba
000003d0: 4a8c 823b fd4c 713c b171 bcbb dbec 78bc
000003e0: 52db 1ebb 09ec 8cbb 5358 c6ba 7d61 0e3c
000003f0: 977f 0fbb f8f8 67bb c086 87ba 159c 963b

onnx::MatMul_544 f4 [64, 65]
0.011893929 0.0043403427 -0.00934997 0.01700523 -0.017433226 -0.007272398 -0.02493898 0.0017790642
0.012498596 -0.0013924496 0.031491466 -0.01948959 0.0301892 -0.000804249 -0.013832012 0.0011270049
0.005084924 -0.0096795345 0.012561919 -0.040776387 -0.01075497 0.055266183 -0.016572619 0.019210303
-0.024816602 0.021863947 0.015764963 0.001134923 0.045131758 -0.004181866 0.0026644291 0.041246235
0.0020017214 -0.009638494 0.0012161438 -0.0072098756 -0.0037331725 -0.02461057 0.014290026 0.003924067
-0.04226632 0.0038559667 0.0052796295 0.017624876 -0.0012712226 -0.011142523 -0.017987473 -0.02857548
-0.0010527776 -0.0003907038 -0.0032559785 -0.019163491 -0.020742632 -0.010870615 -0.014951193 -0.01072445
0.005614797 0.019619213 0.00045999285 0.03350508 0.027843628 -0.007312413 -0.027564615 0.027255071
-0.0022337069 -0.009423126 0.031893753 0.009675013 -0.0032594358 -0.02258055 -0.009095197 0.009739237
0.022474205 0.00609898 0.019639753 -0.025730183 0.010270358 -0.019595537 -0.0017831295 -0.00988017
0.020898435 -0.019892389 0.0059713433 0.004867795 -0.034894742 -0.0058347774 0.010175408 0.011838815
-0.008775963 -0.03368682 -0.021994289 -0.00354058 0.024932759 0.041403513 -0.030379623 0.020445457
-0.007539716 0.022426989 -0.0067964816 -0.01041684 3.473745e-05 -0.0018967455 0.02153967 0.015088538
0.011900163 0.010339106 0.015457236 -0.008759714 0.00034675133 0.003460767 0.0043606884 0.002596401
-0.012738789 0.02885718 0.02268915 0.024659472 -0.0037802653 -0.00504804 0.0047059082 0.0046169627
-0.0023355507 0.011884422 -0.0031058448 0.027895197 0.0068848673 0.015140232 -0.007979857 -0.0027079475
0.020088572 0.009330612 0.016331425 0.017837005 0.015275007 -0.014156997 0.010334184 -0.017201602
0.013324991 -0.011599057 0.0111116385 -0.03437239 -0.01923791 -0.011996961 0.031959422 0.0032603624
0.028462108 0.021836197 0.018145468 0.0013012394 0.013611339 0.024063291 -0.0045017125 0.0010961567
0.015991267 -0.016512467 -0.046442654 -0.005849833 0.020783475 0.027466455 0.014998513 -0.014580769
-0.0280042 -0.0018058368 0.0007368521 0.009392815 0.0202762 0.05041598 -0.0075897863 0.02321438
-0.027464531 0.01139032 -0.019560039 -0.010758604 0.02613342 0.0012345958 -0.011360859 -0.012564603
-0.003612125 0.009762133 0.01900417 0.0018777412 -0.008331891 0.015366568 0.012547646 0.026304018
0.014213049 0.016653 -0.015505456 -0.009361016 -0.017493354 0.027644264 0.0021856767 -0.020463265
0.009571778 0.019842444 -0.0063584945 0.036683448 0.005259418 -0.026193399 -0.008270464 0.014303945
0.0011500657 0.026166433 0.010456917 -0.01661407 -0.0044973204 0.0024542913 -0.008206037 0.02356373
-0.0107999025 -0.0046617636 -0.001294931 0.01912932 -0.013543692 -0.025755925 -0.0089869425 -0.028674282
-0.013643036 -0.008258334 -0.042125944 -0.018938627 -0.044533458 -0.010255543 -0.009699599 -0.009580297
-0.021487076 0.048666503 -0.002326996 0.006050182 0.026731681 0.02124433 -0.0012670193 0.002242555
-0.016964503 -0.0016609028 0.019032333 4.9519906e-05 0.00415293 0.0021684521 -0.016048193 -0.0659711
0.022196224 -0.0023079177 0.01675295 -0.008043909 0.014513661 -0.0029290596 -0.00083917635 -0.0015726004
-0.016766002 -0.00348626 -0.061450336 -0.0119805075 -0.04039555 -0.015167046 -0.006695563 0.018609086
00000000: c1de 423c 6f39 8e3b 9e30 19bc 8d4e 8b3c
00000010: 20d0 8ebc 4c4d eebb d54c ccbc 7d2f e93a
00000020: e9c6 4c3c db82 b6ba 32fd 003d a2a8 9fbc
00000030: 574f f73c 3dd4 52ba aa9f 62bc 02b8 933a
00000040: 6f9f a63b e996 1ebc 82d0 4d3c 2405 27bd
00000050: 9d35 30bc cb5e 623d 4dc3 87bc ed5e 9d3c
00000060: 304c cbbc 051c b33c 8625 813c b2c1 943a
00000070: 14dc 383d 0908 89bb b49d 2e3b d0f1 283d
00000080: 502f 033b c6ea 1dbc 0467 9f3a d240 ecbb
00000090: 3ea8 74bb 1b9c c9bc b720 6a3c 7695 803b
000000a0: 731f 2dbd 63b4 7c3b be00 ad3b 0b62 903c
000000b0: 279f a6ba 218f 36bc 775a 93bc 2017 eabc
000000c0: 5bfd 89ba 60d7 ccb9 4162 55bb c1fc 9cbc
000000d0: 74ec a9bc aa1a 32bc d9f5 74bc 9bb5 2fbc
000000e0: 55fc b73b 79b8 a03c 322b f139 9f3c 093d
000000f0: 5218 e43c f79c efbb 30cf e1bc 0746 df3c
00000100: 6263 12bb 7463 1abc 06a3 023d f283 1e3c
00000110: 429c 55bb d8fa b8bc 0504 15bc 5291 1f3c
00000120: d31b b83c f4d9 c73b 8ce3 a03c 1bc8 d2bc
00000130: 0145 283c d286 a0bc e6b7 e9ba 70e0 21bc
00000140: 3233 ab3c 5df5 a2bc 42ab c33b 0682 9f3b
00000150: caed 0ebd a931 bfbb c1b6 263c 97f7 413c
00000160: 0fc9 0fbc 31fb 09bd 5e2d b4bc 1309 68bb
00000170: c93f cc3c bb96 293d b0de f8bc 3b7d a73c
00000180: b90f f7bb ceb8 b73c 05b5 debb 65ab 2abc
00000190: 0eb3 1138 389c f8ba f673 b03c ea35 773c
000001a0: e7f8 423c 5b65 293c 5940 7d3c e784 0fbc
000001b0: 2dcc b539 09ce 623b 1be4 8e3b 6128 2a3b
000001c0: 5bb6 50bc e565 ec3c 99de b93c a902 ca3c
000001d0: 54be 77bb 076a a5bb 0534 9a3b e449 973b
000001e0: 0a10 19bb e1b6 423c 6e8b 4bbb 7884 e43c
000001f0: 749a e13b bc0e 783c f2bd 02bc d277 31bb
00000200: ca90 a43c 6cdf 183c 7bc9 853c e91e 923c
00000210: 0644 7a3c c0f2 67bc b650 293c 60ea 8cbc
00000220: 1051 5a3c f909 3ebc 970d 363c 10ca 0cbd
00000230: d298 9dbc e78e 44bc e2e7 023d ceab 553b
00000240: 5e29 e93c d3e1 b23c cea5 943c 598e aa3a
00000250: 1802 5f3c 6120 c53c 1a83 93bb eaac 8f3a
00000260: 1e00 833c 2745 87bc a73a 3ebd f5af bfbb
00000270: 1b42 aa3c 5501 e13c 53bc 753c 2ee4 6ebc
00000280: 1069 e5bc d4b1 ecba 4f29 413a 52e4 193c
00000290: 461a a63c fd80 4e3d beb3 f8bb 152c be3c
000002a0: 4cfd e0bc 779e 3a3c 603c a0bc db44 30bc
000002b0: c115 d63c 29d2 a13a e522 3abc c4db 4dbc
000002c0: 67b9 6cbb 5af1 1f3c a2ae 9b3c 8a1e f63a
000002d0: 7c82 08bc 0fc4 7b3c a494 4d3c 867b d73c
000002e0: d9dd 683c df6b 883c 990a 7ebc f25e 19bc
000002f0: 394e 8fbc 3976 e23c 923d 0f3b 94a2 a7bc
00000300: f2d2 1c3c 9f8c a23c eb5a d0bb 6241 163d
00000310: 3257 ac3b 8a93 d6bc d780 07bc 185b 6a3c
00000320: cdbd 963a fd5a d63c 7d53 2b3c 3b1a 88bc
00000330: 425e 93bb 2dd8 203b 9d72 06bc b908 c13c
00000340: 13f2 30bc b5c1 98bb adba a9ba 17b5 9c3c
00000350: 5de6 5dbc 17fe d2bc f83d 13bc 54e6 eabc
00000360: 0a87 5fbc f74d 07bc 418c 2cbd 2e25 9bbc
00000370: b768 36bd dd06 28bc 11eb 1ebc aef6 1cbc
00000380: aa05 b0bc 8756 473d 8480 18bb 9b40 c63b
00000390: 66fc da3c 9708 ae3c 1d12 a6ba d4f7 123b
000003a0: 24f9 8abc a6b2 d9ba b2e9 9b3c 98b3 4f38
000003b0: 4d15 883b 971c 0e3b 8077 83bc db1b 87bd
000003c0: dbd4 b53c 6f40 17bb 7c3d 893c 9aca 03bc
000003d0: b5ca 6d3c 77f5 3fbb 2cfc 5bba b71f ceba
000003e0: db58 89bc bd79 64bb 59b3 7bbd e449 44bc
000003f0: ce75 25bd 347f 78bc 7466 dbbb 1572 983c
