proof_spliting/residual_block/network_split_2/model.onnx (onnx, 4552 bytes, 2 tensors)

onnx::Conv_559 f4 [96, 1, 3, 3]
000000 df 8e 84 3d b4 0f 1c bf c9 21 8b 3e e5 54 aa bc
       0.06472563 -0.6096146 0.27174214 -0.020792434
000010 6e be 72 3e 3f 5c 0c be 97 1d 59 bd c9 83 d6 3e
       0.23705456 -0.13707064 -0.053006735 0.4189742
000020 e3 1c 1a be 5c 0a 61 3e 1e e6 16 3e 8d 25 32 be
       -0.15050082 0.21976608 0.1473622 -0.17397137
000030 e2 47 20 be 63 26 82 3f 8a 20 6c bf 7d 18 40 3e
       -0.15652421 1.0167965 -0.9223715 0.18759342
000040 c8 87 e2 3e b4 4b b6 be ca a9 e4 3d f0 8c a8 3d
       0.44244218 -0.35604632 0.11165197 0.08230007
000050 7c 66 de bd c4 a9 90 3d 2c e8 a5 3f 93 96 b0 bf
       -0.10859391 0.0706363 1.2961478 -1.3795952
000060 10 46 b2 3c 08 20 29 bf e3 65 17 3f ac 1d 57 3d
       0.021761924 -0.660645 0.5913984 0.05251853
000070 c3 05 33 3e 19 ac 4a bc ae 3b 8a 3e 5c 9a d0 bf
       0.17482667 -0.012370133 0.26998657 -1.6297107
000080 a1 73 73 3e fd 7d 11 3e d6 9a e5 3e 3d 93 29 3e
       0.23774578 0.14208217 0.44844693 0.16560073
000090 ae 39 27 bc 67 2d 94 be 18 46 fe 3d 1d 6b 45 bc
       -0.010206623 -0.2894089 0.12415713 -0.012049464
0000a0 47 73 fe be 09 70 04 3f 69 10 2d 3d 08 f4 3f 3f
       -0.49697325 0.5173345 0.042251978 0.7498174
0000b0 ce 75 23 bf b1 a0 be 3c 7b ed c3 3e 2a f0 af be
       -0.6385163 0.023269983 0.3826712 -0.34362918
0000c0 b2 ee 11 be 94 a5 ef 3e 34 02 87 be 58 b2 f6 3d
       -0.14251211 0.46806014 -0.26368868 0.12045735
0000d0 38 2a 50 bf 3c ea 12 3f 38 e2 39 be 7e ae 07 be
       -0.8131442 0.57388663 -0.18152702 -0.13250157
0000e0 d9 7e 4e be d7 2f b2 be 64 72 13 3f 52 b8 f6 bc
       -0.20165576 -0.34802124 0.5759642 -0.030117188
0000f0 ae b5 e1 bd 0c f5 13 be ff 9b df bd c9 af dd be
       -0.11020981 -0.14448947 -0.10918426 -0.43298176
000100 8a 30 a7 be 2a 1d d4 bc d3 a8 28 be c9 4d 54 bf
       -0.3265422 -0.025892813 -0.16470651 -0.8293119
000110 b3 81 c0 3f db 9f 09 be 4b a0 e4 be f2 f4 21 3f
       1.5039581 -0.13439886 -0.44653544 0.6326438
000120 5d d6 22 3f ea f9 f7 3d c3 c3 64 3f 6b ea a2 bf
       0.6360834 0.12108214 0.8936121 -1.2727789
000130 25 85 e7 bf 4e 74 2b bf b3 37 29 3f a5 4c aa be
       -1.8087507 -0.6697434 0.66100615 -0.332616
000140 fc 4f ae 3e a5 85 2b bd e7 34 a5 3d c2 cf 09 3f
       0.34045398 -0.0418755 0.08066731 0.5383264
000150 68 51 12 be 71 e1 3e bf 84 50 41 bd 3f a1 de 3e
       -0.14288867 -0.74562746 -0.047195926 0.43482396
000160 43 06 21 be 97 88 0f bd 50 53 72 bd 37 a5 7c 3e
       -0.15725045 -0.03504237 -0.059161484 0.246724
000170 ee bc 8e 3b 71 24 50 3e d5 82 db bf f6 f5 59 3f
       0.0043560183 0.20326401 -1.7149302 0.8514093
000180 65 15 ea 3c b0 70 c9 be 97 df ac 3e 58 48 eb bd
       0.028574655 -0.39343786 0.33764336 -0.11488408
000190 77 55 67 3d 23 bd 6c 3d b5 c5 1f bf a4 a7 89 bd
       0.05647799 0.057797562 -0.6241105 -0.06721428
0001a0 77 db 25 3f 71 24 56 3f a5 43 ae bc f1 6d 49 bf
       0.64788 0.83649355 -0.02127249 -0.7868338
0001b0 c8 f3 ce 3e 3a 72 d1 3f 90 b3 35 3f 39 ee ea 3e
       0.40420365 1.6362984 0.70977116 0.45884874
0001c0 0a 40 5a c0 b5 0a 36 3e 3e fd 04 3e 8c 81 9d bc
       -3.4101586 0.17777522 0.12987229 -0.019226812
0001d0 de c0 28 3e e0 eb 6b bf bb 8f e1 be 69 98 8a 3e
       0.16479823 -0.9215679 -0.4405497 0.27069405
0001e0 20 ad 50 bd a4 92 95 3f 0b ca 87 3e 44 aa 82 bd
       -0.050946355 1.1685376 0.26521334 -0.06380132
0001f0 c2 69 46 3f c2 d5 7c bf 81 89 40 3e 70 3b 1e 3f
       0.77505124 -0.9876367 0.18802454 0.61809444
000200 55 7b ac bd 00 64 19 3d e5 b1 42 bf 2b 99 b3 3e
       -0.08421961 0.037448883 -0.76052696 0.35077795
000210 72 6f 72 be 98 4d fa be 73 a0 b6 3e d2 5b cb ba
       -0.23675326 -0.48887324 0.35669288 -0.0015515035
000220 d6 d4 5e 3d 35 61 28 3b 5e 7e f6 3c 0a 9b 4c be
       0.054402195 0.0025692706 0.030089553 -0.19981018
000230 ba 65 96 bc 4d a3 d4 bc bc 0e f2 be 28 f4 da bc
       -0.018359054 -0.025956774 -0.47276866 -0.02672775
000240 d5 41 6b be 35 c8 02 bf ec 7d 4f be a7 3e 65 3e
       -0.22974332 -0.5108674 -0.20262879 0.22387181
000250 96 8f 20 3e 4f d8 68 3e 78 58 1d be 8f 85 28 bf
       0.15679774 0.22738765 -0.1536578 -0.65828794
000260 e3 62 32 be 4a f5 35 3e e2 a7 41 3e 38 4c 04 be
       -0.17420535 0.17769352 0.18911698 -0.129197
000270 4c 2d 92 3f ee 68 b4 3d e6 23 59 bf e0 c6 b6 3e
       1.1420074 0.08809076 -0.848204 0.35698605
000280 c2 b0 82 be 7c 37 40 bf 62 0d 09 3e 04 8e f2 be
       -0.2552548 -0.7508466 0.13384011 -0.47373974
000290 c4 b4 13 3f a8 1c 84 3f f6 8e 5b 3e 6f d9 85 bf
       0.576977 1.0321245 0.21441254 -1.045698
0002a0 ec af 23 3f 1e 30 10 3f c3 b0 34 bf 46 55 66 bd
       0.6394031 0.5632342 -0.70582217 -0.056233667
0002b0 d5 26 e2 3d 91 f2 3c bd 6d b1 b4 3e d5 7d 19 3f
       0.11042563 -0.046129767 0.35291615 0.5995763
0002c0 d6 ad 59 bf fe 09 b7 3d d2 81 7b 3d b1 4c 0a be
       -0.8503088 0.08937453 0.061403103 -0.13505818
0002d0 f9 a0 fb bd 45 81 aa be d8 2c 4c be fa 00 84 3e
       -0.122865625 -0.3330175 -0.19938982 0.25781995
0002e0 66 9b a5 3e ea ff e1 3e b3 9d 50 bd ed db 81 be
       0.32345122 0.4414056 -0.050931644 -0.25363103
0002f0 3b c7 b6 bd 76 b9 b2 be d3 ea b0 3d 4d c9 c0 be
       -0.08924719 -0.3490712 0.08638539 -0.3765358
000300 ab e9 3e be 6b 44 95 3e 08 26 80 be ab 8f 9e be
       -0.18643825 0.2915376 -0.25029016 -0.30968985
000310 44 79 c2 bc ef 5e 99 be 80 52 09 bc f6 bb 0a bc
       -0.023739465 -0.2995524 -0.008381486 -0.008467665
000320 6e c3 15 bc d6 6d b6 bd 27 89 23 40 e2 7c a0 3f
       -0.009140832 -0.08907668 2.555246 1.2538111
000330 f9 0c 7a 3d fd bb fe 3e a6 f3 e3 3e 0c 04 ad 3d
       0.061047528 0.497528 0.44521827 0.084480375
000340 0b a6 98 3c 45 5b 8f 3d 55 31 06 3e 94 2d c4 bf
       0.018633863 0.0699983 0.13104756 -1.5326409
000350 ea 29 20 be 3b fc 12 3d 56 79 5d be a3 2b f5 3d
       -0.15640989 0.035885077 -0.21628317 0.11971214
000360 e6 da ee bd aa 64 9b 3e dd 6d fd bd f8 f6 83 3e
       -0.11662845 0.30350238 -0.123744704 0.2577436
000370 f5 06 00 3f 8a 86 31 3e 03 79 0b bd c9 0c 3e 3e
       0.50010616 0.17336479 -0.034050953 0.18559565
000380 1d c5 6a 3e 91 fa 61 be 9a b9 86 be 4c 05 18 be
       0.22926755 -0.2206824 -0.26313478 -0.1484577
000390 a1 7d 02 bd d4 c4 f5 3f 66 fb 97 3d 7a b2 8a be
       -0.03185809 1.9200692 0.07420997 -0.27089292
0003a0 87 b2 09 3e 25 22 5c be 6c e5 12 be 4d db 84 be
       0.13447009 -0.214974 -0.1434533 -0.25948563
0003b0 74 ef ff bd ed ea 5d be 78 56 be bd 04 6e 89 be
       -0.12496844 -0.21671648 -0.09293836 -0.26841748
0003c0 60 0c 35 be 7c 4c 05 be 64 f1 24 be 00 de d5 bd
       -0.17680502 -0.13017458 -0.16107708 -0.10442734
0003d0 d5 e1 59 bf 4d db 54 be fe 7d e7 3d cd 30 d6 bc
       -0.8511022 -0.20786782 0.11303328 -0.026146317
0003e0 8c 82 3c 3e f7 dd 52 3d c4 84 4c 3f 07 a7 62 3c
       0.18409175 0.051481213 0.79890084 0.013833768
0003f0 e5 88 e8 3d 7d 71 c2 bd ea f2 3e 3d 93 50 a5 3d
       0.113542356 -0.094943024 0.04661838 0.08072009

onnx::Conv_560 f4 [96]
000000 5f e8 a2 bd 9c fc 1f bf 4a 54 4f bc e3 c7 c8 be
       -0.079544775 -0.62494826 -0.012654373 -0.39215
000010 0a c8 59 3c 74 98 5a bc ba c1 7f 40 90 91 c0 3d
       0.013292322 -0.013342012 3.9961991 0.09402764
000020 2d 0d 81 3f b8 18 88 3c 63 91 16 3f 94 2a 05 3c
       1.0082146 0.01661335 0.5881559 0.008127827
000030 48 35 81 be f4 62 6f bc a0 29 6e 3b 0e 7e 20 40
       -0.25235963 -0.014610995 0.0036340728 2.5076938
000040 cc d3 da 3f 63 a6 e7 bd b4 50 5b c0 37 13 6d be
       1.7095885 -0.113110326 -3.4268007 -0.23151861
000050 58 33 2b be 90 23 1d 40 84 0b 81 c1 29 12 a9 40
       -0.16718805 2.4552956 -16.130623 5.283467
000060 c0 f9 05 3c 36 e0 e8 3f 66 02 0b 3f 36 a9 71 3f
       0.008177221 1.8193424 0.54300535 0.9439882
000070 80 ee 33 ba f0 ad 14 3d 1c 42 9a 3b 8c c8 e8 3f
       -0.00068638474 0.036298692 0.004707588 1.8186202
000080 b4 1e f5 3f c0 1d db be a0 62 49 bd 20 62 d6 3f
       1.9149995 -0.42796135 -0.04916632 1.6748695
000090 06 b2 2e 3e aa 8c 8b bd d0 af 57 3b 02 18 6e c1
       0.17060098 -0.06813939 0.003291119 -14.880861
0000a0 00 18 6f 3a 50 d7 c6 3b ba 43 4a bf d4 5a 2b 3e
       0.0009120703 0.0060681477 -0.7900959 0.16733867
0000b0 84 41 33 bf 02 e3 db 3d 4a 6c 04 3f 9e 72 db 3f
       -0.70021844 0.10736658 0.51727736 1.7144353
0000c0 06 8b 08 40 5f 85 e7 3f b1 bb 1e 40 d8 fb c6 3c
       2.1334853 1.8087577 2.4802058 0.02429001
0000d0 7a 80 72 3e 70 41 1e 3e 7c b9 6d 3d 60 28 d3 3f
       0.23681822 0.1545465 0.05803822 1.6496696
0000e0 f8 bd 8e bf f6 da b5 3e 70 29 d5 bc 22 ca 52 bd
       -1.1151724 0.35518616 -0.026020736 -0.0514623
0000f0 93 68 67 3f e4 0d c3 be 17 95 c7 3e 80 0c 83 be
       0.9039394 -0.38096535 0.38980934 -0.25595474
000100 06 e7 f6 be 0e a6 8c be 2d d4 33 40 58 9f ad 3c
       -0.48223132 -0.2747044 2.8098252 0.021194145
000110 c6 cf 12 be 96 83 50 3d a3 06 1f 40 db 37 08 c2
       -0.14337072 0.05090674 2.48478 -34.054546
000120 00 60 f7 37 d8 fc b4 bf 97 e9 38 be 11 93 1c 40
       2.9489398e-05 -1.4139662 -0.18057857 2.4464762
000130 1b 64 12 40 1d d5 87 be 92 6d f6 bf 9a af 20 be
       2.28736 -0.2652978 -1.9252188 -0.15691987
000140 f2 92 b3 3c 26 7a 31 40 10 95 ac 3c 10 19 f7 bf
       0.021920655 2.7730803 0.021067172 -1.9304523
000150 f5 ff 9d 3d 3a 11 bd 3e 94 63 72 bd 52 1a 80 3e
       0.077148356 0.36927205 -0.059176996 0.2502008
000160 80 31 c8 3b e0 f4 40 bd fb 24 3b 3f 4c 5f f9 bf
       0.0061094165 -0.04710853 0.731033 -1.9482207
000170 f2 43 55 40 b0 c9 a2 3f 38 68 ad 3f 41 7b 62 40
       3.332272 1.27178 1.354743 3.5387728
