examples/onnx/residual_block/model.onnx (onnx, 19050 bytes, 6 tensors)

onnx::Conv_556 f4 [96, 16, 1, 1]
0	0xbec4f7e2	-0.3847037
1	0xbeab2ca9	-0.3343251
2	0xbea46d27	-0.32114527
3	0x3ed50336	0.41604012
4	0x3ea597a4	0.32342255
5	0xbf3fd078	-0.74927473
6	0xbe7eab91	-0.24870135
7	0xbeea84dc	-0.4580449
8	0x3e405c21	0.18785144
9	0xbf3c462e	-0.73544586
10	0xbe77962f	-0.24178384
11	0x3f0b4dd6	0.54415643
12	0x3ea97db6	0.33103722
13	0x3e962dee	0.29331917
14	0x3ea5ac2a	0.32357913
15	0x3dc5b6a8	0.096539795
16	0x3edb0001	0.4277344
17	0x3f06dc91	0.5268031
18	0x3edbe691	0.42949346
19	0xbf585813	-0.8450939
20	0xbebffb2e	-0.37496322
21	0x3e9330e8	0.2874825
22	0x3e77e86f	0.2420976
23	0x3f085240	0.53250504
24	0xbe9819f1	-0.29707292
25	0x3f6e2d4e	0.9303788
26	0x3ed90d96	0.42393178
27	0xbf6c5831	-0.9232207
28	0xbf130197	-0.574243
29	0xbf04443a	-0.51666605
30	0xbede2489	-0.4338725
31	0xbe7c477e	-0.24636647
32	0x3e023ab7	0.1271771
33	0x3cfcefcf	0.030876068
34	0x3db8410a	0.0899678
35	0xbec30671	-0.38090852
36	0x3d70e3ef	0.058811124
37	0x3dc43819	0.09581012
38	0x3ced6748	0.028979912
39	0x3d90970f	0.07060062
40	0xbdd695a4	-0.104777604
41	0xba8ec666	-0.0010892868
42	0xbe4cb84c	-0.19992179
43	0x3e4e308e	0.2013571
44	0x3d0923af	0.033481296
45	0xbe87cc74	-0.26523173
46	0xbe8d9da7	-0.27659342
47	0xbdb411c9	-0.08792455
48	0x3d7fee2b	0.062482994
49	0xbe323f6e	-0.17407009
50	0x3f35d783	0.7103197
51	0xbe19b4e2	-0.15010408
52	0x3dfe428c	0.124150366
53	0x3e662fbc	0.22479147
54	0xbc5f92a3	-0.013645801
55	0xbf155b3a	-0.58342326
56	0x3eacf1b3	0.33778152
57	0xbd0058e1	-0.03133476
58	0xbe482d8e	-0.19548628
59	0xbdb88d39	-0.09011311
60	0xbea5fbfe	-0.32418817
61	0x3e349288	0.17634022
62	0xbf35ab55	-0.70964557
63	0x3f08aef9	0.5339199
64	0x3d8238b6	0.06358473
65	0xbebe516d	-0.37171498
66	0x3e0a8960	0.13528967
67	0x3d57455a	0.052556373
68	0x3d8d038b	0.068854414
69	0x3f91bd31	1.1385862
70	0xbef234c1	-0.47305873
71	0x3e9a685a	0.3015774
72	0xbe2eb504	-0.1706124
73	0xbd6d8e51	-0.05799705
74	0x3e27e5fc	0.16396326
75	0xbe2ad776	-0.16683754
76	0x3d3e106f	0.04640239
77	0x3d063668	0.03276673
78	0xbe529e50	-0.20568204
79	0x3e301b65	0.1719795
80	0x3e59d5ba	0.21272936
81	0xbeebb83a	-0.4603899
82	0xbe8cc101	-0.27491
83	0x3e40e778	0.18838298
84	0xbded984f	-0.11601316
85	0x3ec3e4d7	0.38260528
86	0x3d0e813b	0.034791213
87	0xbd730264	-0.05932845
88	0x3df12849	0.11775262
89	0xbe1aaee8	-0.15105784
90	0xbc9346dd	-0.017978126
91	0x3f02f447	0.5115399
92	0xbde92a88	-0.11385065
93	0x3eac958c	0.33707845
94	0x3ddd362d	0.10801349
95	0x3dd76c6e	0.10518728
96	0x3eaea9ff	0.34114072
97	0xbd367219	-0.044542406
98	0x3e754d4e	0.2395527
99	0x3d00592a	0.031335033
100	0xbd45ae7a	-0.048262097
101	0xbe87f80e	-0.26556438
102	0x3e860979	0.26179102
103	0x3dead417	0.11466234
104	0xbc6dccb2	-0.014514135
105	0x3e0c975f	0.13729618
106	0xbedefe8c	-0.4355358
107	0xbd80dc98	-0.06292075
108	0x3e54c509	0.20778288
109	0x3df2a7de	0.118484244
110	0x3e6919ca	0.22763744
111	0xbd6b753d	-0.057484854
112	0x3d80d933	0.062914275
113	0x3cf180e6	0.029480409
114	0x3c8247d5	0.015903393
115	0x3d047fd4	0.03234847
116	0xbc8f0848	-0.017460003
117	0x3d308873	0.043098878
118	0xbd811e3f	-0.06304597
119	0xbd0591c4	-0.032609716
120	0xbd0d0540	-0.034428835
121	0x3e2e2c5f	0.17009114
122	0xbd99e569	-0.0751446
123	0x3e4486f4	0.19192106
124	0x3d06d3ef	0.03291696
125	0x3d2f3c6e	0.04278224
126	0x3d02b87b	0.031914216
127	0xbb3e01de	-0.0028992812
128	0xbd44b9c3	-0.04802872
129	0x3d9191f1	0.07107914
130	0x3d8378b4	0.06419507
131	0xbce9756b	-0.028498372
132	0xbe571046	-0.21002302
133	0x3d76a297	0.06021365
134	0xbda1df3d	-0.079039074
135	0xbccc4678	-0.024935946
136	0x3e258f55	0.16167958
137	0xbd8e4090	-0.06945908
138	0xbdf35dc2	-0.11883117
139	0x3a9bf8cf	0.0011899712
140	0x3d341e08	0.043973953
141	0xbdae6341	-0.08515025
142	0x3d0c973e	0.034323923
143	0xbd026956	-0.031838737
144	0xbf8c02dc	-1.0938373
145	0x3d41ea89	0.04734281
146	0x3de88a89	0.113545485
147	0x3c8be1b3	0.017075395
148	0x3ec5b0cd	0.3861145
149	0xbf9a44cb	-1.2052244
150	0xbe5e0014	-0.21679717
151	0xbe85c1cd	-0.2612442
152	0xbdad610d	-0.084657766
153	0xbf014b31	-0.5050536
154	0xbc80d441	-0.01572621
155	0x3dc48f89	0.0959769
156	0x3d45c1a4	0.048280373
157	0xbea8e328	-0.32985806
158	0xbd8a3333	-0.06748047
159	0xbe9b9d72	-0.3039356
160	0x3df52ddd	0.11971638
161	0x3e3409a3	0.17581801
162	0x3d961e8d	0.07330046
163	0x3e074ca4	0.1321283
164	0x3defa30e	0.11701022
165	0x3e6b6823	0.22988944
166	0x3d4e94e6	0.05043497
167	0xbc47aa12	-0.012186544
168	0x3e309a48	0.17246354
169	0xbd325f17	-0.043547716
170	0xbe594f57	-0.21221672
171	0x3e063210	0.13105035
172	0x3d065baa	0.03280226
173	0xbd8dd1e5	-0.069248
174	0x3e906ecb	0.28209528
175	0xb7d60558	-2.5513276e-05
176	0xbde25a40	-0.1105237
177	0x3d890fb1	0.06692446
178	0x3e0c8362	0.13721994
179	0xbe833d18	-0.25632548
180	0x3df97eee	0.12182413
181	0xbe54e101	-0.20788957
182	0xbd7d46f4	-0.061835244
183	0xbdf23a98	-0.11827582
184	0xbda93256	-0.08261554
185	0xbd4173b5	-0.047229487
186	0xbdc1f385	-0.09470276
187	0x3c687870	0.014188871
188	0xbd692eb7	-0.056929316
189	0xbeb74a38	-0.35798812
190	0xbd552f89	-0.052047286
191	0xbe0e4922	-0.13895085
192	0x3ce39618	0.027781531
193	0x3d424d7d	0.04743718
194	0x3d005381	0.031329636
195	0xbd164f8f	-0.036696967
196	0xbe9c551e	-0.3053369
197	0xbd93718f	-0.07199394
198	0x3e0eaa65	0.13932188
199	0x3d8863fd	0.06659696
200	0x3d30d9a0	0.043176293
201	0xbc26e198	-0.010185622
202	0xbe8e0db3	-0.27744827
203	0xbe0631e7	-0.13104974
204	0xbda88828	-0.08229095
205	0xbf26b147	-0.65114254
206	0xbeb0558b	-0.34440264
207	0xbb1003de	-0.0021974961
208	0x3e027793	0.12740926
209	0x3d49832f	0.049197372
210	0x3e2c680d	0.16836567
211	0xbbdf2fed	-0.006811133
212	0x3e4acbd5	0.19804318
213	0xbbda9553	-0.006670633
214	0x3bc39db5	0.005969728
215	0x3dce0703	0.10059931
216	0x3e26425d	0.16236253
217	0xbe05e6f5	-0.13076384
218	0xbda0249a	-0.07819481
219	0x3c2c651b	0.010522152
220	0x3d7053cf	0.058673676
221	0xbc5a9dd9	-0.013343298
222	0x3e9ae8c5	0.30255714
223	0x3cbe4221	0.023224892
224	0xbde6cc83	-0.11269476
225	0x3e188876	0.14895806
226	0xbf5151eb	-0.8176562
227	0xbe254df6	-0.16143021
228	0xbe3d81dc	-0.18506569
229	0x3db790dc	0.089631766
230	0xbdedb6c6	-0.11607127
231	0x3e7fa43e	0.24964997
232	0xbf165f52	-0.587392
233	0xbcf0dde2	-0.029402677
234	0xbe61116f	-0.21979307
235	0xbdccf5a0	-0.10007787
236	0x3ca42d6d	0.020041192
237	0xbe5d59fc	-0.21616358
238	0x3ecf905f	0.40539834
239	0xbe2a9a10	-0.16660333
240	0xbe669003	-0.22515874
241	0xbee32033	-0.44360504
242	0xbe7e1a22	-0.24814656
243	0x3fa0ba19	1.2556792
244	0xbe805533	-0.25065002
245	0xbe001185	-0.12506683
246	0xbe9e1a21	-0.3087931
247	0x3d79da3b	0.060999136
248	0x3e09b864	0.13449246
249	0xbeaa9c07	-0.33322164
250	0x3e3bfb83	0.18357663
251	0xbed8733b	-0.42275414
252	0x3e2a0b8b	0.16605966
253	0x3f73bf09	0.9521337
254	0x3f14a3df	0.5806255
255	0x3f1767c1	0.5914269

onnx::Conv_557 f4 [96]
0	0xc01ac19c	-2.418067
1	0x40f3655e	7.606124
2	0x3fcfc4aa	1.6231892
3	0x4040507a	3.004912
4	0x40a8525e	5.2600546
5	0xbdb28f60	-0.08718753
6	0x3d8600e0	0.06543136
7	0x3e32cb48	0.17460358
8	0x3f95c941	1.1702043
9	0xbf818d2b	-1.0121206
10	0x3f2d515a	0.6770226
11	0x3fb768f2	1.4328902
12	0xbd808ca8	-0.06276828
13	0x3f0570c6	0.52125204
14	0x40588ff1	3.3837855
15	0xc011e22c	-2.2794294
16	0x401c8cac	2.446086
17	0x3dcdff58	0.100584686
18	0x406ce8d1	3.70171
19	0x3f339aec	0.7015827
20	0x4033f8c2	2.812058
21	0x3fd9cd5a	1.7015793
22	0x40869095	4.205149
23	0x406b656c	3.6780653
24	0xbf816ad9	-1.0110732
25	0xbf927769	-1.1442691
26	0x403aa929	2.9165747
27	0x3f981bbb	1.1883463
28	0x40af43ab	5.4770103
29	0x3f635f4e	0.888173
30	0x3fa294b3	1.2701629
31	0x3e79d614	0.2439807
32	0x409a81f1	4.828362
33	0x3ff1cea2	1.8891184
34	0xbf876ce9	-1.0580112
35	0x409cb06a	4.896535
36	0x3fa8729a	1.3159974
37	0x3fdc4f5d	1.721172
38	0x4031a866	2.7759032
39	0x408558f4	4.1671085
40	0x3ffabc17	1.958865
41	0x3fecb4a6	1.849263
42	0x4028a31d	2.6349556
43	0x40215e0d	2.5213654
44	0xbfd6542e	-1.674444
45	0xc0b15846	-5.5420256
46	0x40315a19	2.7711241
47	0xbfc8310a	-1.5639966
48	0x4093059f	4.594436
49	0x40027f62	2.0390248
50	0x3fb9c888	1.4514322
51	0x403a4b7b	2.910857
52	0x3f2e30e0	0.6804333
53	0x3f0782d0	0.5293398
54	0x4060543a	3.5051408
55	0x40924f12	4.572152
56	0x3f48845f	0.7832698
57	0xbfc1b9b3	-1.5134796
58	0xbf846f0a	-1.0346386
59	0x3f95004d	1.1640717
60	0x3f3166dc	0.69297576
61	0x4052a6c5	3.2914288
62	0xbe4d876a	-0.20071188
63	0x3fd07042	1.6284258
64	0x4058928a	3.383944
65	0x3fd622c6	1.6729362
66	0x3f98d188	1.1938944
67	0x400cf9a3	2.2027366
68	0x3e9309cc	0.28718412
69	0xbe93d168	-0.28870702
70	0x3f2b2423	0.66852015
71	0x404478a7	3.069864
72	0x40d5d2ad	6.6819673
73	0x401b637c	2.427947
74	0xc0197c32	-2.3982053
75	0xbf79f094	-0.9763272
76	0xbee057f0	-0.4381709
77	0x3ec6d343	0.38833055
78	0x402a074e	2.6566958
79	0x3f7ceb78	0.98796797
80	0x3fe27b2a	1.7693837
81	0x3f2fc3a8	0.6865792
82	0x3f2e732c	0.6814449
83	0x3ef251a0	0.473279
84	0xbec7b154	-0.39002478
85	0x3f94cbad	1.1624657
86	0x4034fd84	2.8279734
87	0x3f89124e	1.0708711
88	0x409ab24e	4.8342657
89	0x407f6b48	3.990923
90	0x3f6b08fb	0.9181058
91	0x3eb4b258	0.35292315
92	0x3f93a473	1.1534561
93	0x40187432	2.382092
94	0xbf9975ca	-1.1989071
95	0x3f3e078a	0.74230254

onnx::Conv_559 f4 [96, 1, 3, 3]
0	0x3d848edf	0.06472563
1	0xbf1c0fb4	-0.6096146
2	0x3e8b21c9	0.27174214
3	0xbcaa54e5	-0.020792434
4	0x3e72be6e	0.23705456
5	0xbe0c5c3f	-0.13707064
6	0xbd591d97	-0.053006735
7	0x3ed683c9	0.4189742
8	0xbe1a1ce3	-0.15050082
9	0x3e610a5c	0.21976608
10	0x3e16e61e	0.1473622
11	0xbe32258d	-0.17397137
12	0xbe2047e2	-0.15652421
13	0x3f822663	1.0167965
14	0xbf6c208a	-0.9223715
15	0x3e40187d	0.18759342
16	0x3ee287c8	0.44244218
17	0xbeb64bb4	-0.35604632
18	0x3de4a9ca	0.11165197
19	0x3da88cf0	0.08230007
20	0xbdde667c	-0.10859391
21	0x3d90a9c4	0.0706363
22	0x3fa5e82c	1.2961478
23	0xbfb09693	-1.3795952
24	0x3cb24610	0.021761924
25	0xbf292008	-0.660645
26	0x3f1765e3	0.5913984
27	0x3d571dac	0.05251853
28	0x3e3305c3	0.17482667
29	0xbc4aac19	-0.012370133
30	0x3e8a3bae	0.26998657
31	0xbfd09a5c	-1.6297107
32	0x3e7373a1	0.23774578
33	0x3e117dfd	0.14208217
34	0x3ee59ad6	0.44844693
35	0x3e29933d	0.16560073
36	0xbc2739ae	-0.010206623
37	0xbe942d67	-0.2894089
38	0x3dfe4618	0.12415713
39	0xbc456b1d	-0.012049464
40	0xbefe7347	-0.49697325
41	0x3f047009	0.5173345
42	0x3d2d1069	0.042251978
43	0x3f3ff408	0.7498174
44	0xbf2375ce	-0.6385163
45	0x3cbea0b1	0.023269983
46	0x3ec3ed7b	0.3826712
47	0xbeaff02a	-0.34362918
48	0xbe11eeb2	-0.14251211
49	0x3eefa594	0.46806014
50	0xbe870234	-0.26368868
51	0x3df6b258	0.12045735
52	0xbf502a38	-0.8131442
53	0x3f12ea3c	0.57388663
54	0xbe39e238	-0.18152702
55	0xbe07ae7e	-0.13250157
56	0xbe4e7ed9	-0.20165576
57	0xbeb22fd7	-0.34802124
58	0x3f137264	0.5759642
59	0xbcf6b852	-0.030117188
60	0xbde1b5ae	-0.11020981
61	0xbe13f50c	-0.14448947
62	0xbddf9bff	-0.10918426
63	0xbeddafc9	-0.43298176
64	0xbea7308a	-0.3265422
65	0xbcd41d2a	-0.025892813
66	0xbe28a8d3	-0.16470651
67	0xbf544dc9	-0.8293119
68	0x3fc081b3	1.5039581
69	0xbe099fdb	-0.13439886
70	0xbee4a04b	-0.44653544
71	0x3f21f4f2	0.6326438
72	0x3f22d65d	0.6360834
73	0x3df7f9ea	0.12108214
74	0x3f64c3c3	0.8936121
75	0xbfa2ea6b	-1.2727789
76	0xbfe78525	-1.8087507
77	0xbf2b744e	-0.6697434
78	0x3f2937b3	0.66100615
79	0xbeaa4ca5	-0.332616
80	0x3eae4ffc	0.34045398
81	0xbd2b85a5	-0.0418755
82	0x3da534e7	0.08066731
83	0x3f09cfc2	0.5383264
84	0xbe125168	-0.14288867
85	0xbf3ee171	-0.74562746
86	0xbd415084	-0.047195926
87	0x3edea13f	0.43482396
88	0xbe210643	-0.15725045
89	0xbd0f8897	-0.03504237
90	0xbd725350	-0.059161484
91	0x3e7ca537	0.246724
92	0x3b8ebcee	0.0043560183
93	0x3e502471	0.20326401
94	0xbfdb82d5	-1.7149302
95	0x3f59f5f6	0.8514093
96	0x3cea1565	0.028574655
97	0xbec970b0	-0.39343786
98	0x3eacdf97	0.33764336
99	0xbdeb4858	-0.11488408
100	0x3d675577	0.05647799
101	0x3d6cbd23	0.057797562
102	0xbf1fc5b5	-0.6241105
103	0xbd89a7a4	-0.06721428
104	0x3f25db77	0.64788
105	0x3f562471	0.83649355
106	0xbcae43a5	-0.02127249
107	0xbf496df1	-0.7868338
108	0x3ecef3c8	0.40420365
109	0x3fd1723a	1.6362984
110	0x3f35b390	0.70977116
111	0x3eeaee39	0.45884874
112	0xc05a400a	-3.4101586
113	0x3e360ab5	0.17777522
114	0x3e04fd3e	0.12987229
115	0xbc9d818c	-0.019226812
116	0x3e28c0de	0.16479823
117	0xbf6bebe0	-0.9215679
118	0xbee18fbb	-0.4405497
119	0x3e8a9869	0.27069405
120	0xbd50ad20	-0.050946355
121	0x3f9592a4	1.1685376
122	0x3e87ca0b	0.26521334
123	0xbd82aa44	-0.06380132
124	0x3f4669c2	0.77505124
125	0xbf7cd5c2	-0.9876367
126	0x3e408981	0.18802454
127	0x3f1e3b70	0.61809444
128	0xbdac7b55	-0.08421961
129	0x3d196400	0.037448883
130	0xbf42b1e5	-0.76052696
131	0x3eb3992b	0.35077795
132	0xbe726f72	-0.23675326
133	0xbefa4d98	-0.48887324
134	0x3eb6a073	0.35669288
135	0xbacb5bd2	-0.0015515035
136	0x3d5ed4d6	0.054402195
137	0x3b286135	0.0025692706
138	0x3cf67e5e	0.030089553
139	0xbe4c9b0a	-0.19981018
140	0xbc9665ba	-0.018359054
141	0xbcd4a34d	-0.025956774
142	0xbef20ebc	-0.47276866
143	0xbcdaf428	-0.02672775
144	0xbe6b41d5	-0.22974332
145	0xbf02c835	-0.5108674
146	0xbe4f7dec	-0.20262879
147	0x3e653ea7	0.22387181
148	0x3e208f96	0.15679774
149	0x3e68d84f	0.22738765
150	0xbe1d5878	-0.1536578
151	0xbf28858f	-0.65828794
152	0xbe3262e3	-0.17420535
153	0x3e35f54a	0.17769352
154	0x3e41a7e2	0.18911698
155	0xbe044c38	-0.129197
156	0x3f922d4c	1.1420074
157	0x3db468ee	0.08809076
158	0xbf5923e6	-0.848204
159	0x3eb6c6e0	0.35698605
160	0xbe82b0c2	-0.2552548
161	0xbf40377c	-0.7508466
162	0x3e090d62	0.13384011
163	0xbef28e04	-0.47373974
164	0x3f13b4c4	0.576977
165	0x3f841ca8	1.0321245
166	0x3e5b8ef6	0.21441254
167	0xbf85d96f	-1.045698
168	0x3f23afec	0.6394031
169	0x3f10301e	0.5632342
170	0xbf34b0c3	-0.70582217
171	0xbd665546	-0.056233667
172	0x3de226d5	0.11042563
173	0xbd3cf291	-0.046129767
174	0x3eb4b16d	0.35291615
175	0x3f197dd5	0.5995763
176	0xbf59add6	-0.8503088
177	0x3db709fe	0.08937453
178	0x3d7b81d2	0.061403103
179	0xbe0a4cb1	-0.13505818
180	0xbdfba0f9	-0.122865625
181	0xbeaa8145	-0.3330175
182	0xbe4c2cd8	-0.19938982
183	0x3e8400fa	0.25781995
184	0x3ea59b66	0.32345122
185	0x3ee1ffea	0.4414056
186	0xbd509db3	-0.050931644
187	0xbe81dbed	-0.25363103
188	0xbdb6c73b	-0.08924719
189	0xbeb2b976	-0.3490712
190	0x3db0ead3	0.08638539
191	0xbec0c94d	-0.3765358
192	0xbe3ee9ab	-0.18643825
193	0x3e95446b	0.2915376
194	0xbe802608	-0.25029016
195	0xbe9e8fab	-0.30968985
196	0xbcc27944	-0.023739465
197	0xbe995eef	-0.2995524
198	0xbc095280	-0.008381486
199	0xbc0abbf6	-0.008467665
200	0xbc15c36e	-0.009140832
201	0xbdb66dd6	-0.08907668
202	0x40238927	2.555246
203	0x3fa07ce2	1.2538111
204	0x3d7a0cf9	0.061047528
205	0x3efebbfd	0.497528
206	0x3ee3f3a6	0.44521827
207	0x3dad040c	0.084480375
208	0x3c98a60b	0.018633863
209	0x3d8f5b45	0.0699983
210	0x3e063155	0.13104756
211	0xbfc42d94	-1.5326409
212	0xbe2029ea	-0.15640989
213	0x3d12fc3b	0.035885077
214	0xbe5d7956	-0.21628317
215	0x3df52ba3	0.11971214
216	0xbdeedae6	-0.11662845
217	0x3e9b64aa	0.30350238
218	0xbdfd6ddd	-0.123744704
219	0x3e83f6f8	0.2577436
220	0x3f0006f5	0.50010616
221	0x3e31868a	0.17336479
222	0xbd0b7903	-0.034050953
223	0x3e3e0cc9	0.18559565
224	0x3e6ac51d	0.22926755
225	0xbe61fa91	-0.2206824
226	0xbe86b99a	-0.26313478
227	0xbe18054c	-0.1484577
228	0xbd027da1	-0.03185809
229	0x3ff5c4d4	1.9200692
230	0x3d97fb66	0.07420997
231	0xbe8ab27a	-0.27089292
232	0x3e09b287	0.13447009
233	0xbe5c2225	-0.214974
234	0xbe12e56c	-0.1434533
235	0xbe84db4d	-0.25948563
236	0xbdffef74	-0.12496844
237	0xbe5deaed	-0.21671648
238	0xbdbe5678	-0.09293836
239	0xbe896e04	-0.26841748
240	0xbe350c60	-0.17680502
241	0xbe054c7c	-0.13017458
242	0xbe24f164	-0.16107708
243	0xbdd5de00	-0.10442734
244	0xbf59e1d5	-0.8511022
245	0xbe54db4d	-0.20786782
246	0x3de77dfe	0.11303328
247	0xbcd630cd	-0.026146317
248	0x3e3c828c	0.18409175
249	0x3d52ddf7	0.051481213
250	0x3f4c84c4	0.79890084
251	0x3c62a707	0.013833768
252	0x3de888e5	0.113542356
253	0xbdc2717d	-0.094943024
254	0x3d3ef2ea	0.04661838
255	0x3da55093	0.08072009

onnx::Conv_560 f4 [96]
0	0xbda2e85f	-0.079544775
1	0xbf1ffc9c	-0.62494826
2	0xbc4f544a	-0.012654373
3	0xbec8c7e3	-0.39215
4	0x3c59c80a	0.013292322
5	0xbc5a9874	-0.013342012
6	0x407fc1ba	3.9961991
7	0x3dc09190	0.09402764
8	0x3f810d2d	1.0082146
9	0x3c8818b8	0.01661335
10	0x3f169163	0.5881559
11	0x3c052a94	0.008127827
12	0xbe813548	-0.25235963
13	0xbc6f62f4	-0.014610995
14	0x3b6e29a0	0.0036340728
15	0x40207e0e	2.5076938
16	0x3fdad3cc	1.7095885
17	0xbde7a663	-0.113110326
18	0xc05b50b4	-3.4268007
19	0xbe6d1337	-0.23151861
20	0xbe2b3358	-0.16718805
21	0x401d2390	2.4552956
22	0xc1810b84	-16.130623
23	0x40a91229	5.283467
24	0x3c05f9c0	0.008177221
25	0x3fe8e036	1.8193424
26	0x3f0b0266	0.54300535
27	0x3f71a936	0.9439882
28	0xba33ee80	-0.00068638474
29	0x3d14adf0	0.036298692
30	0x3b9a421c	0.004707588
31	0x3fe8c88c	1.8186202
32	0x3ff51eb4	1.9149995
33	0xbedb1dc0	-0.42796135
34	0xbd4962a0	-0.04916632
35	0x3fd66220	1.6748695
36	0x3e2eb206	0.17060098
37	0xbd8b8caa	-0.06813939
38	0x3b57afd0	0.003291119
39	0xc16e1802	-14.880861
40	0x3a6f1800	0.0009120703
41	0x3bc6d750	0.0060681477
42	0xbf4a43ba	-0.7900959
43	0x3e2b5ad4	0.16733867
44	0xbf334184	-0.70021844
45	0x3ddbe302	0.10736658
46	0x3f046c4a	0.51727736
47	0x3fdb729e	1.7144353
48	0x40088b06	2.1334853
49	0x3fe7855f	1.8087577
50	0x401ebbb1	2.4802058
51	0x3cc6fbd8	0.02429001
52	0x3e72807a	0.23681822
53	0x3e1e4170	0.1545465
54	0x3d6db97c	0.05803822
55	0x3fd32860	1.6496696
56	0xbf8ebdf8	-1.1151724
57	0x3eb5daf6	0.35518616
58	0xbcd52970	-0.026020736
59	0xbd52ca22	-0.0514623
60	0x3f676893	0.9039394
61	0xbec30de4	-0.38096535
62	0x3ec79517	0.38980934
63	0xbe830c80	-0.25595474
64	0xbef6e706	-0.48223132
65	0xbe8ca60e	-0.2747044
66	0x4033d42d	2.8098252
67	0x3cad9f58	0.021194145
68	0xbe12cfc6	-0.14337072
69	0x3d508396	0.05090674
70	0x401f06a3	2.48478
71	0xc20837db	-34.054546
72	0x37f76000	2.9489398e-05
73	0xbfb4fcd8	-1.4139662
74	0xbe38e997	-0.18057857
75	0x401c9311	2.4464762
76	0x4012641b	2.28736
77	0xbe87d51d	-0.2652978
78	0xbff66d92	-1.9252188
79	0xbe20af9a	-0.15691987
80	0x3cb392f2	0.021920655
81	0x40317a26	2.7730803
82	0x3cac9510	0.021067172
83	0xbff71910	-1.9304523
84	0x3d9dfff5	0.077148356
85	0x3ebd113a	0.36927205
86	0xbd726394	-0.059176996
87	0x3e801a52	0.2502008
88	0x3bc83180	0.0061094165
89	0xbd40f4e0	-0.04710853
90	0x3f3b24fb	0.731033
91	0xbff95f4c	-1.9482207
92	0x405543f2	3.332272
93	0x3fa2c9b0	1.27178
94	0x3fad6838	1.354743
95	0x40627b41	3.5387728

onnx::Conv_562 f4 [16, 96, 1, 1]
0	0xbd7906a3	-0.060797345
1	0xbe052d76	-0.13005623
2	0x3e56ff7c	0.20995897
3	0x3d235061	0.039871577
4	0x3bc20914	0.0059214924
5	0xbce91466	-0.02845211
6	0x3e7521a7	0.23938619
7	0xbe805288	-0.25062966
8	0xbdc75959	-0.097338386
9	0x3e8bd3b6	0.2730996
10	0xbed20fbf	-0.41027638
11	0x3e29a3cd	0.16566391
12	0x3eba8991	0.3643308
13	0xbeb186a2	-0.3467303
14	0x3dd4189b	0.103562556
15	0xbf10440d	-0.5635384
16	0xbd0f48fa	-0.034981705
17	0xbf075472	-0.5286323
18	0x3dcff9e0	0.10155082
19	0xbe50eb19	-0.20402183
20	0xbcf6fff1	-0.03015134
21	0xbe211c3c	-0.15733427
22	0x3e96e768	0.29473424
23	0x3dd58c7b	0.10427185
24	0xbe78ef7d	-0.24310108
25	0xbeb4130f	-0.3517079
26	0xbdb0b1a9	-0.08627636
27	0x3e3c8d6c	0.18413323
28	0xbdd00514	-0.101572186
29	0x3f3ba384	0.7329638
30	0x3e248b29	0.1606871
31	0x3e971047	0.29504606
32	0x3ea415c9	0.3204787
33	0xbe13ae40	-0.1442194
34	0x3dc9b614	0.09849182
35	0xbedc68fa	-0.4304884
36	0x3cf7667d	0.030200237
37	0xbe881033	-0.2657486
38	0x3ec971d2	0.3934465
39	0xbd98d6bb	-0.074628316
40	0x3e6866b7	0.22695433
41	0x3e1ab5ad	0.15108366
42	0xbea6f5f4	-0.32609522
43	0xbd78c904	-0.06073858
44	0xbe88be04	-0.2670747
45	0xbdfa4809	-0.12220771
46	0x3dc407a5	0.095717706
47	0xbec3b50b	-0.38224062
48	0x3e3166d2	0.17324379
49	0xbdd359d3	-0.10319867
50	0xbe6fdd8f	-0.23424362
51	0xbe81b1a6	-0.25330848
52	0x3e998eab	0.2999166
53	0x3b1affd8	0.002365103
54	0x3ea02d1e	0.31284422
55	0x3e5cb3e1	0.21552993
56	0xbd804934	-0.062639624
57	0xbd906104	-0.07049754
58	0xbcc2325a	-0.02370565
59	0xbdb7f525	-0.089823045
60	0x3e7a8037	0.24462973
61	0x3e896096	0.26831502
62	0xbe2e3039	-0.17010583
63	0xbd6cafad	-0.057784725
64	0x3d69ad40	0.05704999
65	0x3e8ea21d	0.27858058
66	0x3d6f2e61	0.05839384
67	0x3db941e6	0.09045772
68	0xbdb60f34	-0.088896185
69	0x3e628fa4	0.22125107
70	0xbf003b98	-0.5009093
71	0xbeb0c5db	-0.34525952
72	0xbe884114	-0.2661215
73	0xbecc9c06	-0.39962786
74	0x3eb6c566	0.35697478
75	0x3dfa2b15	0.122152485
76	0xbe693459	-0.22773875
77	0x3ed3e82d	0.41388074
78	0xbcec7244	-0.02886308
79	0x3e448192	0.19190052
80	0xbda46e40	-0.08028841
81	0x3e9f541b	0.31118855
82	0x3f088797	0.53331894
83	0xbe1c1617	-0.15242802
84	0xbe353bb7	-0.1769856
85	0x3e822b24	0.2542354
86	0x3ea0453a	0.31302816
87	0x3eebe986	0.46076602
88	0xbcb32ac4	-0.021870978
89	0xbe55fc25	-0.20896967
90	0xbe8cc7d8	-0.2749622
91	0xbe5aa557	-0.21352135
92	0xbe9464fb	-0.28983292
93	0x3edf70ef	0.4364085
94	0x3eda1f19	0.4260185
95	0x3d1ace56	0.037794434
96	0x3e960f8b	0.29308733
97	0x3ea472ec	0.32118928
98	0x3de052f4	0.10953322
99	0x3e4bba30	0.19895244
100	0x3eaf99a5	0.3429691
101	0x3ec2847d	0.37991706
102	0xbe78ead7	-0.24308334
103	0xbde790d9	-0.113069244
104	0xbd846431	-0.064644225
105	0xbc876f78	-0.016532645
106	0x3e70cb46	0.23515043
107	0x3c9129c5	0.017720113
108	0x3d822ec3	0.06356575
109	0x3ded4813	0.11586013
110	0xbe24f438	-0.16108787
111	0x3e4672fc	0.193798
112	0x3d7c0440	0.06152749
113	0x3dbb4520	0.09144044
114	0xbec4f4fd	-0.3846816
115	0x3ede5731	0.43425897
116	0x3e831562	0.2560225
117	0x3cdbeca8	0.026846245
118	0xbe2d1a30	-0.16904521
119	0x3cd19413	0.025583303
120	0xbe800cfc	-0.25009906
121	0xbdc2c065	-0.095093526
122	0x3e77d3f7	0.24201952
123	0x3ed84826	0.42242545
124	0x3d544f3e	0.051833384
125	0x3ea285b2	0.31742626
126	0xbe803e21	-0.250474
127	0x3e4f56e4	0.2024799
128	0xbce902d9	-0.02844374
129	0xbd827e8a	-0.06371792
130	0x3e6526da	0.22378102
131	0xbefd6dac	-0.49497736
132	0x3eef446a	0.46731883
133	0x3e92853d	0.28617278
134	0x3ccd3b2b	0.025052628
135	0x3e91529e	0.28383344
136	0xbd0051e0	-0.031328082
137	0x3e6f214a	0.23352543
138	0x3eaf88cb	0.34284052
139	0x3e8789eb	0.2647241
140	0x3e93ffa6	0.28905982
141	0x3e7d389a	0.24728623
142	0x3e9c26ca	0.30498344
143	0x3ec22e21	0.3792582
144	0xbed1db14	-0.40987456
145	0xbe9a5878	-0.3014562
146	0x3d083446	0.033252977
147	0x3d05bb59	0.03264937
148	0xbe6e6388	-0.23280156
149	0x3ae8628c	0.0017729565
150	0x3cc83e0f	0.024443654
151	0xbe5a75b2	-0.2133396
152	0x3da68db1	0.08132494
153	0xbc81f456	-0.015863579
154	0xbbb9659a	-0.005657864
155	0xbdda7658	-0.106671035
156	0x3ed08967	0.4072983
157	0x3dddd1b0	0.1083101
158	0x3d945da8	0.07244426
159	0x3ea9acb1	0.33139566
160	0xbd5f4649	-0.05451039
161	0xbeb709af	-0.35749575
162	0x3e216420	0.15760851
163	0x3ca10542	0.019655827
164	0xbe9ad2ab	-0.30238852
165	0x3eadca19	0.3394325
166	0xbd3c99e1	-0.046045188
167	0xbde3d62a	-0.11124833
168	0xbd92c0e6	-0.07165699
169	0x3ebf2385	0.37331787
170	0x3ed571f1	0.41688493
171	0xbd48a49f	-0.04898512
172	0xbc19d825	-0.009389912
173	0x3dbe5532	0.092935935
174	0x3d64bfc9	0.055846963
175	0xbe51fc82	-0.2050648
176	0x3ad2063b	0.0016023585
177	0x3e9cab5a	0.3059948
178	0xbc85ac36	-0.016317468
179	0xbe44e9b1	-0.19229771
180	0x3e360372	0.17774752
181	0x3d899e34	0.06719628
182	0x3e72367d	0.23653598
183	0x3e456a8e	0.19278929
184	0x3e58466c	0.21120614
185	0xbedabd39	-0.4272249
186	0x3e4ad2ec	0.19807023
187	0xbe9616ee	-0.2931437
188	0xbe9fe502	-0.31229407
189	0x3e25cbb7	0.16190992
190	0x3e9608f7	0.29303715
191	0xbe88d5fa	-0.2672575
192	0xbd526ffb	-0.051376324
193	0x3bed8a18	0.007249128
194	0xbe3d66cf	-0.1849625
195	0x3dd7742b	0.10520204
196	0xbda4d34e	-0.08048116
197	0xbe040424	-0.12892205
198	0x3d635252	0.05549843
199	0xbd539589	-0.05165628
200	0xbd89598a	-0.06706531
201	0xbde5aa1f	-0.11214089
202	0xbdd75cbe	-0.10515736
203	0xbe84272d	-0.2581114
204	0x3da08d0f	0.07839405
205	0x3e37ae7e	0.17937657
206	0x3eafe63b	0.3435534
207	0xbd9dba37	-0.07701533
208	0x3d7b3e34	0.06133862
209	0x3e7a7971	0.24460389
210	0xbe62632a	-0.2210814
211	0x3e8c5b86	0.27413577
212	0xbdaddb40	-0.08489084
213	0xbddef6e1	-0.10886932
214	0x3e247a9f	0.16062401
215	0xbd05ac72	-0.03263516
216	0xbe60baf1	-0.21946312
217	0xbe704f0c	-0.23467654
218	0xbc8ce9e9	-0.01720138
219	0x3e5d85e9	0.21633114
220	0xbdc9cd2e	-0.09853588
221	0x3e1ea69f	0.15493248
222	0x3e185029	0.14874329
223	0xbae33fcc	-0.0017337739
224	0x3ca61315	0.02027277
225	0x3d7af806	0.06127169
226	0xbd153a9c	-0.036432847
227	0xbe7271f5	-0.23676284
228	0xbe7b920d	-0.24567433
229	0x3e6f32c5	0.23359211
230	0xbdd2f85e	-0.103012785
231	0x3ea740e9	0.3266671
232	0xbbd7cdcd	-0.0065858127
233	0xbda4c1f5	-0.08044807
234	0xbb2bdd13	-0.00262243
235	0x3e22513a	0.15851298
236	0xbe314148	-0.17310059
237	0x3e42d9bf	0.19028376
238	0x3e13f8ac	0.1445033
239	0xbdc12998	-0.094317615
240	0x3ea9679b	0.33086857
241	0xbd64f9d9	-0.055902336
242	0x3d9ab706	0.0755444
243	0x3e4b1756	0.1983312
244	0x3ecbdfea	0.3981927
245	0xbd685c53	-0.056728672
246	0x3d62551e	0.055256955
247	0xbe0d61fd	-0.13806911
248	0x3d77d6b5	0.060507495
249	0x3dc00ed8	0.09377831
250	0xbd39cd95	-0.045362074
251	0xbd4038ee	-0.046929292
252	0xbd016177	-0.03158709
253	0xbd79ee94	-0.06101854
254	0xbee3c749	-0.4448798
255	0x3e150349	0.14552034

onnx::Conv_563 f4 [16]
0	0x3f1532fd	0.58280927
1	0xbfadb77b	-1.3571619
2	0x40291c7e	2.642364
3	0xc0c24e66	-6.07207
4	0xc00e44fb	-2.2229602
5	0x4120fa24	10.0610695
6	0x3f78079d	0.96886617
7	0xbdac68a4	-0.08418396
8	0xbf6b339e	-0.91875637
9	0x3f2a13f5	0.664367
10	0xc03fca0d	-2.9967072
11	0xc0406b59	-3.006552
12	0xbfa0f7e6	-1.2575653
13	0x407cfbe0	3.9528732
14	0xc0ffd73b	-7.9950233
15	0xbde541a8	-0.111941636
