examples/onnx/residual_block_split/network_split_0/model.onnx (onnx, 7165 bytes, 2 tensors)

onnx::Conv_556 f4 [96, 16, 1, 1]
0	0xbec4f7e2	-0.3847037
1	0xbeab2ca9	-0.3343251
2	0xbea46d27	-0.32114527
3	0x3ed50336	0.41604012
4	0x3ea597a4	0.32342255
5	0xbf3fd078	-0.74927473
6	0xbe7eab91	-0.24870135
7	0xbeea84dc	-0.4580449
8	0x3e405c21	0.18785144
9	0xbf3c462e	-0.73544586
10	0xbe77962f	-0.24178384
11	0x3f0b4dd6	0.54415643
12	0x3ea97db6	0.33103722
13	0x3e962dee	0.29331917
14	0x3ea5ac2a	0.32357913
15	0x3dc5b6a8	0.096539795
16	0x3edb0001	0.4277344
17	0x3f06dc91	0.5268031
18	0x3edbe691	0.42949346
19	0xbf585813	-0.8450939
20	0xbebffb2e	-0.37496322
21	0x3e9330e8	0.2874825
22	0x3e77e86f	0.2420976
23	0x3f085240	0.53250504
24	0xbe9819f1	-0.29707292
25	0x3f6e2d4e	0.9303788
26	0x3ed90d96	0.42393178
27	0xbf6c5831	-0.9232207
28	0xbf130197	-0.574243
29	0xbf04443a	-0.51666605
30	0xbede2489	-0.4338725
31	0xbe7c477e	-0.24636647
32	0x3e023ab7	0.1271771
33	0x3cfcefcf	0.030876068
34	0x3db8410a	0.0899678
35	0xbec30671	-0.38090852
36	0x3d70e3ef	0.058811124
37	0x3dc43819	0.09581012
38	0x3ced6748	0.028979912
39	0x3d90970f	0.07060062
40	0xbdd695a4	-0.104777604
41	0xba8ec666	-0.0010892868
42	0xbe4cb84c	-0.19992179
43	0x3e4e308e	0.2013571
44	0x3d0923af	0.033481296
45	0xbe87cc74	-0.26523173
46	0xbe8d9da7	-0.27659342
47	0xbdb411c9	-0.08792455
48	0x3d7fee2b	0.062482994
49	0xbe323f6e	-0.17407009
50	0x3f35d783	0.7103197
51	0xbe19b4e2	-0.15010408
52	0x3dfe428c	0.124150366
53	0x3e662fbc	0.22479147
54	0xbc5f92a3	-0.013645801
55	0xbf155b3a	-0.58342326
56	0x3eacf1b3	0.33778152
57	0xbd0058e1	-0.03133476
58	0xbe482d8e	-0.19548628
59	0xbdb88d39	-0.09011311
60	0xbea5fbfe	-0.32418817
61	0x3e349288	0.17634022
62	0xbf35ab55	-0.70964557
63	0x3f08aef9	0.5339199
64	0x3d8238b6	0.06358473
65	0xbebe516d	-0.37171498
66	0x3e0a8960	0.13528967
67	0x3d57455a	0.052556373
68	0x3d8d038b	0.068854414
69	0x3f91bd31	1.1385862
70	0xbef234c1	-0.47305873
71	0x3e9a685a	0.3015774
72	0xbe2eb504	-0.1706124
73	0xbd6d8e51	-0.05799705
74	0x3e27e5fc	0.16396326
75	0xbe2ad776	-0.16683754
76	0x3d3e106f	0.04640239
77	0x3d063668	0.03276673
78	0xbe529e50	-0.20568204
79	0x3e301b65	0.1719795
80	0x3e59d5ba	0.21272936
81	0xbeebb83a	-0.4603899
82	0xbe8cc101	-0.27491
83	0x3e40e778	0.18838298
84	0xbded984f	-0.11601316
85	0x3ec3e4d7	0.38260528
86	0x3d0e813b	0.034791213
87	0xbd730264	-0.05932845
88	0x3df12849	0.11775262
89	0xbe1aaee8	-0.15105784
90	0xbc9346dd	-0.017978126
91	0x3f02f447	0.5115399
92	0xbde92a88	-0.11385065
93	0x3eac958c	0.33707845
94	0x3ddd362d	0.10801349
95	0x3dd76c6e	0.10518728
96	0x3eaea9ff	0.34114072
97	0xbd367219	-0.044542406
98	0x3e754d4e	0.2395527
99	0x3d00592a	0.031335033
100	0xbd45ae7a	-0.048262097
101	0xbe87f80e	-0.26556438
102	0x3e860979	0.26179102
103	0x3dead417	0.11466234
104	0xbc6dccb2	-0.014514135
105	0x3e0c975f	0.13729618
106	0xbedefe8c	-0.4355358
107	0xbd80dc98	-0.06292075
108	0x3e54c509	0.20778288
109	0x3df2a7de	0.118484244
110	0x3e6919ca	0.22763744
111	0xbd6b753d	-0.057484854
112	0x3d80d933	0.062914275
113	0x3cf180e6	0.029480409
114	0x3c8247d5	0.015903393
115	0x3d047fd4	0.03234847
116	0xbc8f0848	-0.017460003
117	0x3d308873	0.043098878
118	0xbd811e3f	-0.06304597
119	0xbd0591c4	-0.032609716
120	0xbd0d0540	-0.034428835
121	0x3e2e2c5f	0.17009114
122	0xbd99e569	-0.0751446
123	0x3e4486f4	0.19192106
124	0x3d06d3ef	0.03291696
125	0x3d2f3c6e	0.04278224
126	0x3d02b87b	0.031914216
127	0xbb3e01de	-0.0028992812
128	0xbd44b9c3	-0.04802872
129	0x3d9191f1	0.07107914
130	0x3d8378b4	0.06419507
131	0xbce9756b	-0.028498372
132	0xbe571046	-0.21002302
133	0x3d76a297	0.06021365
134	0xbda1df3d	-0.079039074
135	0xbccc4678	-0.024935946
136	0x3e258f55	0.16167958
137	0xbd8e4090	-0.06945908
138	0xbdf35dc2	-0.11883117
139	0x3a9bf8cf	0.0011899712
140	0x3d341e08	0.043973953
141	0xbdae6341	-0.08515025
142	0x3d0c973e	0.034323923
143	0xbd026956	-0.031838737
144	0xbf8c02dc	-1.0938373
145	0x3d41ea89	0.04734281
146	0x3de88a89	0.113545485
147	0x3c8be1b3	0.017075395
148	0x3ec5b0cd	0.3861145
149	0xbf9a44cb	-1.2052244
150	0xbe5e0014	-0.21679717
151	0xbe85c1cd	-0.2612442
152	0xbdad610d	-0.084657766
153	0xbf014b31	-0.5050536
154	0xbc80d441	-0.01572621
155	0x3dc48f89	0.0959769
156	0x3d45c1a4	0.048280373
157	0xbea8e328	-0.32985806
158	0xbd8a3333	-0.06748047
159	0xbe9b9d72	-0.3039356
160	0x3df52ddd	0.11971638
161	0x3e3409a3	0.17581801
162	0x3d961e8d	0.07330046
163	0x3e074ca4	0.1321283
164	0x3defa30e	0.11701022
165	0x3e6b6823	0.22988944
166	0x3d4e94e6	0.05043497
167	0xbc47aa12	-0.012186544
168	0x3e309a48	0.17246354
169	0xbd325f17	-0.043547716
170	0xbe594f57	-0.21221672
171	0x3e063210	0.13105035
172	0x3d065baa	0.03280226
173	0xbd8dd1e5	-0.069248
174	0x3e906ecb	0.28209528
175	0xb7d60558	-2.5513276e-05
176	0xbde25a40	-0.1105237
177	0x3d890fb1	0.06692446
178	0x3e0c8362	0.13721994
179	0xbe833d18	-0.25632548
180	0x3df97eee	0.12182413
181	0xbe54e101	-0.20788957
182	0xbd7d46f4	-0.061835244
183	0xbdf23a98	-0.11827582
184	0xbda93256	-0.08261554
185	0xbd4173b5	-0.047229487
186	0xbdc1f385	-0.09470276
187	0x3c687870	0.014188871
188	0xbd692eb7	-0.056929316
189	0xbeb74a38	-0.35798812
190	0xbd552f89	-0.052047286
191	0xbe0e4922	-0.13895085
192	0x3ce39618	0.027781531
193	0x3d424d7d	0.04743718
194	0x3d005381	0.031329636
195	0xbd164f8f	-0.036696967
196	0xbe9c551e	-0.3053369
197	0xbd93718f	-0.07199394
198	0x3e0eaa65	0.13932188
199	0x3d8863fd	0.06659696
200	0x3d30d9a0	0.043176293
201	0xbc26e198	-0.010185622
202	0xbe8e0db3	-0.27744827
203	0xbe0631e7	-0.13104974
204	0xbda88828	-0.08229095
205	0xbf26b147	-0.65114254
206	0xbeb0558b	-0.34440264
207	0xbb1003de	-0.0021974961
208	0x3e027793	0.12740926
209	0x3d49832f	0.049197372
210	0x3e2c680d	0.16836567
211	0xbbdf2fed	-0.006811133
212	0x3e4acbd5	0.19804318
213	0xbbda9553	-0.006670633
214	0x3bc39db5	0.005969728
215	0x3dce0703	0.10059931
216	0x3e26425d	0.16236253
217	0xbe05e6f5	-0.13076384
218	0xbda0249a	-0.07819481
219	0x3c2c651b	0.010522152
220	0x3d7053cf	0.058673676
221	0xbc5a9dd9	-0.013343298
222	0x3e9ae8c5	0.30255714
223	0x3cbe4221	0.023224892
224	0xbde6cc83	-0.11269476
225	0x3e188876	0.14895806
226	0xbf5151eb	-0.8176562
227	0xbe254df6	-0.16143021
228	0xbe3d81dc	-0.18506569
229	0x3db790dc	0.089631766
230	0xbdedb6c6	-0.11607127
231	0x3e7fa43e	0.24964997
232	0xbf165f52	-0.587392
233	0xbcf0dde2	-0.029402677
234	0xbe61116f	-0.21979307
235	0xbdccf5a0	-0.10007787
236	0x3ca42d6d	0.020041192
237	0xbe5d59fc	-0.21616358
238	0x3ecf905f	0.40539834
239	0xbe2a9a10	-0.16660333
240	0xbe669003	-0.22515874
241	0xbee32033	-0.44360504
242	0xbe7e1a22	-0.24814656
243	0x3fa0ba19	1.2556792
244	0xbe805533	-0.25065002
245	0xbe001185	-0.12506683
246	0xbe9e1a21	-0.3087931
247	0x3d79da3b	0.060999136
248	0x3e09b864	0.13449246
249	0xbeaa9c07	-0.33322164
250	0x3e3bfb83	0.18357663
251	0xbed8733b	-0.42275414
252	0x3e2a0b8b	0.16605966
253	0x3f73bf09	0.9521337
254	0x3f14a3df	0.5806255
255	0x3f1767c1	0.5914269

onnx::Conv_557 f4 [96]
0	0xc01ac19c	-2.418067
1	0x40f3655e	7.606124
2	0x3fcfc4aa	1.6231892
3	0x4040507a	3.004912
4	0x40a8525e	5.2600546
5	0xbdb28f60	-0.08718753
6	0x3d8600e0	0.06543136
7	0x3e32cb48	0.17460358
8	0x3f95c941	1.1702043
9	0xbf818d2b	-1.0121206
10	0x3f2d515a	0.6770226
11	0x3fb768f2	1.4328902
12	0xbd808ca8	-0.06276828
13	0x3f0570c6	0.52125204
14	0x40588ff1	3.3837855
15	0xc011e22c	-2.2794294
16	0x401c8cac	2.446086
17	0x3dcdff58	0.100584686
18	0x406ce8d1	3.70171
19	0x3f339aec	0.7015827
20	0x4033f8c2	2.812058
21	0x3fd9cd5a	1.7015793
22	0x40869095	4.205149
23	0x406b656c	3.6780653
24	0xbf816ad9	-1.0110732
25	0xbf927769	-1.1442691
26	0x403aa929	2.9165747
27	0x3f981bbb	1.1883463
28	0x40af43ab	5.4770103
29	0x3f635f4e	0.888173
30	0x3fa294b3	1.2701629
31	0x3e79d614	0.2439807
32	0x409a81f1	4.828362
33	0x3ff1cea2	1.8891184
34	0xbf876ce9	-1.0580112
35	0x409cb06a	4.896535
36	0x3fa8729a	1.3159974
37	0x3fdc4f5d	1.721172
38	0x4031a866	2.7759032
39	0x408558f4	4.1671085
40	0x3ffabc17	1.958865
41	0x3fecb4a6	1.849263
42	0x4028a31d	2.6349556
43	0x40215e0d	2.5213654
44	0xbfd6542e	-1.674444
45	0xc0b15846	-5.5420256
46	0x40315a19	2.7711241
47	0xbfc8310a	-1.5639966
48	0x4093059f	4.594436
49	0x40027f62	2.0390248
50	0x3fb9c888	1.4514322
51	0x403a4b7b	2.910857
52	0x3f2e30e0	0.6804333
53	0x3f0782d0	0.5293398
54	0x4060543a	3.5051408
55	0x40924f12	4.572152
56	0x3f48845f	0.7832698
57	0xbfc1b9b3	-1.5134796
58	0xbf846f0a	-1.0346386
59	0x3f95004d	1.1640717
60	0x3f3166dc	0.69297576
61	0x4052a6c5	3.2914288
62	0xbe4d876a	-0.20071188
63	0x3fd07042	1.6284258
64	0x4058928a	3.383944
65	0x3fd622c6	1.6729362
66	0x3f98d188	1.1938944
67	0x400cf9a3	2.2027366
68	0x3e9309cc	0.28718412
69	0xbe93d168	-0.28870702
70	0x3f2b2423	0.66852015
71	0x404478a7	3.069864
72	0x40d5d2ad	6.6819673
73	0x401b637c	2.427947
74	0xc0197c32	-2.3982053
75	0xbf79f094	-0.9763272
76	0xbee057f0	-0.4381709
77	0x3ec6d343	0.38833055
78	0x402a074e	2.6566958
79	0x3f7ceb78	0.98796797
80	0x3fe27b2a	1.7693837
81	0x3f2fc3a8	0.6865792
82	0x3f2e732c	0.6814449
83	0x3ef251a0	0.473279
84	0xbec7b154	-0.39002478
85	0x3f94cbad	1.1624657
86	0x4034fd84	2.8279734
87	0x3f89124e	1.0708711
88	0x409ab24e	4.8342657
89	0x407f6b48	3.990923
90	0x3f6b08fb	0.9181058
91	0x3eb4b258	0.35292315
92	0x3f93a473	1.1534561
93	0x40187432	2.382092
94	0xbf9975ca	-1.1989071
95	0x3f3e078a	0.74230254
