multi-job/mobilenet_test/network_0.onnx (onnx, 3929 bytes, 1 tensors)

mobilenetv20_features_conv0_weight f4 [32, 3, 3, 3]
00000000: a217 e4bd 50be 62be 677e db3d 5731 de39
00000010: fe00 de3e cd21 a83e 91df 5e3e 57d5 cbbe
00000020: 9a4c c6be d7ce 90be f16b 8abe 8981 783e
00000030: 8938 0e3e 1f7f 1d3f 78eb 173f f1ca a73e
00000040: 6752 57bf 419f 41bf 11ae a9bc 2ebe d1bd
00000050: b9ed 973d bfe9 26bd f995 473e 8e81 ed3c
00000060: f17f 3a3e 385a 1bbe c01e 47be dfbd b4be
00000070: 3c5e 40bf 37e3 fdbe d390 043e 16a9 b83e
00000080: 5925 973e 1ad7 5a3e 38a7 df3e c9ed 453e
00000090: e5da 14bf c1e6 9fbf 777c 51bf 8881 623e
000000a0: 570f 033f 0898 e63e 61db b63e 795b 253f
000000b0: 49da be3e e9c6 21be 9182 d2be 614c 38be
000000c0: 9791 8b3d 2939 633e 3162 453e d253 d53d
000000d0: d935 213e c16e 273d a113 b13e 7fb3 343f
000000e0: c06b 003f dd07 1dbe a7b2 9dbe 998c adbe
000000f0: c75f 7abe a15f a0be debb 52be d132 313f
00000100: a745 b43f d353 823f af97 abbe 6f39 32bf
00000110: d7d9 21bf 44e0 bdbe 1693 3cbf 4f6e ebbe
00000120: 5056 133e b272 c43e 528f 553e c2e3 6ebd
00000130: 07ad 13be bde3 09be c988 1dbe 0ff5 33be
00000140: 9789 8fbd 51bf 463b aebd e83c 411f 063d
00000150: 5dd1 213d 3465 0b3e ed4f a2bd 41af 253d
00000160: a730 503c 58e6 bcbe df6c 08bd 4fd0 3bbd
00000170: 8bb6 863c e1e0 23bd 8290 4e3d 3e1b febd
00000180: 59a2 04bd 9a79 4dbb 4957 ccbe b922 5d3d
00000190: c631 2dbd 918f 503d 4123 d7bc 84b0 803c
000001a0: 61df 9b3d 4fb3 2c3b 8155 353c 4034 52be
000001b0: ff0f 863d 8154 223c a01d 323c defb 4e3c
000001c0: 2c2a 18bd 7202 e83d bae7 693d d40c 983c
000001d0: c9aa cb3c e7bb 833d 7936 83bc a33f 15bd
000001e0: c745 e73c 0c1e 003c 7f64 593e 7702 eb3d
000001f0: 5904 373d 3953 5a3d 2729 bdbd 4767 27bd
00000200: e7a9 003d 4fa5 d8bd a728 863d bf9c ab3e
00000210: 89d4 1ebe 38eb bbbd 25ab 0a3d b0da d63d
00000220: 6fcc 993c 501c e23d 3117 263d 2feb 96bd
00000230: 7f18 213e 36e7 aebd f189 a2be 717a ddbc
00000240: 51b4 9dbd f9af 16be 7296 6cbe e294 bbbd
00000250: 391b 3dbe 0607 2ebe 738f a9bc d193 63be
00000260: f738 dabd 9945 a33d 89f8 ca3d 7085 c93d
00000270: ff2f a13d bc38 073d 6458 0a3e dfae ce3c
00000280: 89fa 20be b1bc 5c3d f9d0 39bd db6d 263d
00000290: fd97 9e3d 2ef8 65be 880b dabe 8e8e f8bd
000002a0: 850c 8a3e 1b92 953e 65c1 a53d a514 9ebd
000002b0: 8fb5 2d3c ff3e 0f3e b953 a7be 41ca 16bf
000002c0: 9353 8ebe b725 af3e 9189 ac3e dc9a 813c
000002d0: 71d9 6dbd b044 eebc e7e8 063c b664 7abd
000002e0: 6710 cabd 6722 50bc 4f35 133e 6467 103e
000002f0: 91d8 5bbb 093b d33d 375b 87be f7aa 293e
00000300: 915c 4c3e 29bb 12bf fe68 c03e 5794 933d
00000310: 27d8 a8be c71b 8b3e cf6f 8c3e 98f5 07bf
00000320: bc82 b03e 89ad c03e f962 9dbf e6f3 403f
00000330: 3816 3a3e 50b0 39bf fecd f93e 9917 6f3d
00000340: 572d b3bd 441e 863d f28a ec3d 21af 71be
00000350: b929 3a3e 14fd 16bc dc0b 05be ded0 f43c
00000360: ff52 2c3d 874c 5fbe 5375 9bbd a99b 8f3d
00000370: 3f0e a4bd 11a1 fd3b cea1 ba3d b4f2 263d
00000380: a18e b83d 11e6 a13c 8242 bbbe 21fb d6bd
00000390: 0246 ad3d e6cf c1bd 96c5 593c 094c 363d
000003a0: 090a 96bc 5fc2 4a3d df70 13bd f963 b2bd
000003b0: e15b b33c 7f61 02be 12b4 6dbd 5859 56bd
000003c0: ffa7 27be fca7 2ebe 9199 1dbe d5db 243e
000003d0: 8f67 e53d b380 1b3e 47c1 803d 1df4 9abd
000003e0: 99e9 733d 7f72 d73d 0f27 8ebd 4e76 603d
000003f0: 66f1 55be 9f95 b6bd 8948 01be ed51 98bd
-0.1113732 -0.22142911 0.10717469 0.000423799 0.43360132 0.32838288 0.21764971 -0.39811203
-0.38730317 -0.28282806 -0.27035478 0.24268164 0.13888754 0.61522096 0.5934367 0.3277202
-0.8411011 -0.7563363 -0.020712884 -0.10241352 0.07418389 -0.04075026 0.19490804 0.02899244
0.18212868 -0.15171134 -0.19445324 -0.3530111 -0.7514379 -0.49587414 0.12945871 0.36066502
0.29520682 0.21371117 0.43682265 0.19328989 -0.58146507 -1.2492296 -0.81830543 0.22119725
0.5119528 0.45037866 0.35714248 0.645927 0.37275913 -0.15798534 -0.4111524 -0.17997886
0.068148784 0.22189774 0.19275738 0.10416378 0.15743198 0.040877108 0.34585288 0.7058639
0.50164413 -0.15335031 -0.30800363 -0.3389633 -0.24450599 -0.3132296 -0.20579478 0.69218165
1.4083756 1.0181831 -0.33514163 -0.69618887 -0.6322302 -0.37085164 -0.73661935 -0.45982596
0.14388394 0.38368756 0.20855454 -0.058322676 -0.14421473 -0.13465782 -0.1538421 -0.17573951
-0.07008665 0.0030326436 0.028410759 0.03274465 0.039506305 0.13612825 -0.07925401 0.04045034
0.012706912 -0.36894488 -0.033306953 -0.045852955 0.016444465 -0.040009383 0.050430782 -0.1240754
-0.03238139 -0.0031352998 -0.39910343 0.053988192 -0.042283796 0.050918166 -0.026261928 0.01570917
0.076109655 0.0026351993 0.011067749 -0.20527744 0.0654602 0.009907843 0.010871321 0.012633292
-0.037149593 0.113285914 0.057105757 0.018560804 0.02486171 0.06432324 -0.016017186 -0.03643764
0.028231515 0.007819664 0.21229742 0.114750795 0.04468188 0.053302024 -0.09236365 -0.040869977
0.03141203 -0.10578405 0.065507226 0.33518025 -0.15510763 -0.09175724 0.033854622 0.1049093
0.01877424 0.110405564 0.04054946 -0.073690765 0.15732001 -0.08540194 -0.31745866 -0.027035924
-0.07700408 -0.14715566 -0.23104265 -0.091592565 -0.18467416 -0.16994867 -0.020698285 -0.22224356
-0.106553964 0.07972259 0.099106856 0.09839904 0.07870483 0.03301309 0.13510281 0.02522987
-0.15720572 0.053890888 -0.045365307 0.04063211 0.07743833 -0.22457954 -0.42586923 -0.12136565
0.26962677 0.29213032 0.08093528 -0.077187814 0.010602369 0.13988875 -0.32681063 -0.58902365
-0.27798137 0.34208462 0.33698705 0.015820913 -0.058068696 -0.029085487 0.008234239 -0.0611312
-0.0986641 -0.012703515 0.14375804 0.1410194 -0.0033545832 0.103139944 -0.2643678 0.16569124
0.19957186 -0.57316834 0.37580103 0.07206028 -0.3297741 0.2716963 0.27429053 -0.5310912
0.34474742 0.37632397 -1.2295829 0.7537216 0.18172538 -0.72534657 0.48789972 0.058372114
-0.08748882 0.065487415 0.11549939 -0.23601963 0.18179978 -0.009215612 -0.12992805 0.029884752
0.04207134 -0.21806537 -0.07590737 0.07012112 -0.0801053 0.007740148 0.09112893 0.040758803
0.09011579 0.019763025 -0.3657418 -0.10497118 0.084606186 -0.094634816 0.013291737 0.044506107
-0.018315332 0.049501773 -0.035996314 -0.087104745 0.021894397 -0.12732504 -0.058033057 -0.0523313
-0.16372679 -0.17056268 -0.15390612 0.16099484 0.11201393 0.15185814 0.06286865 -0.07566092
0.059548948 0.10519885 -0.069410436 0.054800324 -0.20892867 -0.08915257 -0.12625326 -0.07437501
