examples/onnx/little_transformer/network.onnx (onnx, 640350 bytes, 30 tensors)

model.0.token_emb.weight f4 [10, 128]
000000 5a 3e 20 3f 02 99 ba bf f0 05 e1 be 45 a8 e5 3d
       0.6259514 -1.4577944 -0.43949842 0.112137355
000010 61 9c 5c be 01 09 34 bf 58 f1 ce be 67 6b 81 3f
       -0.21544029 -0.7032624 -0.40418506 1.0110902
000020 02 6d dc bf b9 fc f1 3e cc 2e a5 bf a7 29 61 bf
       -1.7220767 0.47263125 -1.2904906 -0.8795418
000030 d1 bd fa bf 54 e1 35 3e d3 0c 41 3f 7d f6 3e bf
       -1.9589177 0.17761737 0.75410193 -0.7459486
000040 8f 8d 38 be e2 d5 77 be 69 8b c2 bd d2 12 80 bf
       -0.1802275 -0.24202684 -0.094992466 -1.0005744
000050 bf d1 da be 4b 1a e4 bf cd f0 0d bf b2 7b c8 bf
       -0.4273815 -1.7820524 -0.5544556 -1.5662749
000060 6a b1 2c be 49 dc 80 be 6e ff 11 3d 72 8c 38 3e
       -0.16864553 -0.25168064 0.035643987 0.18022326
000070 10 49 e3 3f b1 c5 9c bf a1 1e de 3f 5f aa 31 3b
       1.7756672 -1.2247831 1.7353097 0.0027109606
000080 f1 21 97 bf 76 f3 34 3f 8e 7d a5 be 21 0d 8e 3f
       -1.1807233 0.7068399 -0.32322353 1.1097757
000090 65 f0 3d 3f 32 b7 1a bf e7 62 0b 3f fc 47 0d 40
       0.7419494 -0.60435784 0.5444779 2.2075186
0000a0 5b 52 04 bb f5 4c ea bf 15 e5 c9 3f 8b e3 10 3f
       -0.002019069 -1.8304735 1.5773035 0.56597203
0000b0 7b 36 58 40 3a 3c 5c 3f 0c 6c b8 3e ea 4a 9e bf
       3.3783252 0.860294 0.36019933 -1.2366612
0000c0 8e 6f 02 bf 49 26 7a 3e 3b 2a 82 3e 39 8e 84 3f
       -0.5095147 0.24428667 0.25422844 1.0355903
0000d0 5c c1 49 bf d7 d0 ca be 0f 89 11 3f 22 1e b7 be
       -0.7881067 -0.39612457 0.5684976 -0.35765177
0000e0 29 57 80 bf ad a1 8b bf 77 6d 4b bf 9f 62 98 3e
       -1.0026599 -1.0908715 -0.79463905 0.29762742
0000f0 a2 04 7c 3e 3a 94 a6 bd 05 3a 04 c0 33 aa 29 40
       0.24611142 -0.08133741 -2.0660412 2.6510131
000100 6f 5a 8b bd ab 16 af 3e 9b ce ea be 6e 32 1f 3f
       -0.06804358 0.34196982 -0.45860752 0.62186325
000110 a0 bb 0d bf 82 1c 7c 3e 23 e5 01 40 76 9b ab bf
       -0.5536442 0.2462025 2.0296104 -1.3406818
000120 6b 1b 84 3e 0f de 48 bf 55 a4 57 3f dc 0c 88 bf
       0.25802168 -0.78463835 0.84235126 -1.0628924
000130 21 3e 11 bf f4 f1 fe 3e 17 71 b0 3f c1 10 cd be
       -0.56735426 0.4979397 1.3784512 -0.40051845
000140 f6 27 a8 3f 89 a8 e6 bf 7f b0 ba bf d1 58 11 bf
       1.3137195 -1.8020183 -1.4585112 -0.5677615
000150 a5 10 b9 3c 43 ca d3 bd 70 37 05 3f 9b 62 0e bf
       0.022590945 -0.10341313 0.52037716 -0.5561921
000160 49 20 52 3e d8 e9 83 bf d0 79 3d 3e 2d 65 f4 bf
       0.20520128 -1.0305738 0.18503499 -1.9093376
000170 03 5f 16 3c 8a dd 58 3f 08 8c 2c be be d8 e9 be
       0.009177926 0.8471304 -0.16850293 -0.45673174
000180 93 9b 59 be 06 7d 0a 3f ea 83 5b 3f 01 1e 72 3f
       -0.21250753 0.5409702 0.8574816 0.9457703
000190 b5 63 b6 bf 76 4b 3f 3f 9e 9f 8d be b3 91 26 bd
       -1.4249178 0.7472452 -0.2766084 -0.040666293
0001a0 39 8f 87 3e 7f fb b1 be fa 33 c7 bf 98 bc de 3e
       0.26476458 -0.3476219 -1.5562737 0.4350326
0001b0 89 20 fb bf d7 84 3f be df 61 e7 bf 88 47 73 bf
       -1.9619304 -0.18703018 -1.8076743 -0.95031023
0001c0 9d 52 de bf 71 95 b8 3f 9e 19 84 bf 49 6b ec 3e
       -1.7368962 1.4420606 -1.0320318 0.46175602
0001d0 b6 61 aa 3e b0 09 eb 3f a4 a4 8a be e4 73 bb be
       0.33277673 1.8362331 -0.27078736 -0.36611855
0001e0 0a 37 14 bf 2e c4 08 bf 8f b3 08 3f cc 4a 45 c0
       -0.5789648 -0.53424346 0.53398985 -3.0826902
0001f0 07 fd 0d bf 92 62 e5 3f 19 a5 c5 be 9f 42 33 3f
       -0.55464214 1.7920706 -0.38602522 0.7002353
000200 a3 f8 84 3f ba c3 9b 3e 87 6c d4 bf 75 1e a6 3e
       1.0388378 0.30422765 -1.659562 0.32445112
000210 60 41 8e be 0f 54 2a 3f 4a ca 1a bf 13 1d bb 3d
       -0.27784252 0.66534513 -0.6046492 0.09136405
000220 cf 1b 83 3f 74 fb b1 3f 40 fe 1b bf 0f 0e a2 3f
       1.0242862 1.3904862 -0.6093483 1.266054
000230 dd 83 92 3f ab a4 e1 bf 9b f2 59 3e 71 cd 9e bf
       1.1446491 -1.7628378 0.21283953 -1.2406446
000240 67 5f cf 3f ed f9 fc be ad 18 fe 3f e4 d3 04 c0
       1.620099 -0.49409428 1.985128 -2.0754328
000250 ab 4a 6b 3d 57 33 96 bf 79 a2 e4 be 96 b9 5d bf
       0.057444256 -1.1734418 -0.44655207 -0.86611307
000260 da 73 4b be 3a 8f 47 3e 12 33 92 be 3f 88 a7 bf
       -0.19868413 0.1948823 -0.2855459 -1.3088454
000270 bd fa fa bf b1 28 b8 bf 77 bf 81 bf 3b 2f 48 3e
       -1.9607769 -1.4387418 -1.0136555 0.19549267
000280 54 16 48 bf 36 4d 8c 3f b5 db 61 bf 7a b5 b6 bf
       -0.7815907 1.0961063 -0.8822587 -1.4274132
000290 dd 05 44 be 40 55 03 be 79 1f 1d 3f 1c 61 a8 bf
       -0.19142862 -0.12825489 0.6137615 -1.3154635
0002a0 6b 33 4d 3f 87 bf 40 3e c3 30 4a bf ea e0 93 3f
       0.8015658 0.18823062 -0.78980654 1.1553013
0002b0 48 ea dd 3d fe fb 9a 3f 5f c2 15 3f d5 2c 93 bd
       0.10835701 1.2108152 0.5849971 -0.071862854
0002c0 d1 b9 f4 bf 9c ff 04 3f e0 fc 4c 3e 9d 55 85 3f
       -1.9119207 0.5195253 0.20018339 1.0416752
0002d0 d8 7b 72 bf 67 ad c4 3f 57 a7 87 3d a0 4a f0 be
       -0.9472022 1.5365418 0.066237144 -0.46931934
0002e0 6e db 04 c0 ce 94 8a 3f 0d 7b 9f be 1c 1e 4f be
       -2.075893 1.0826662 -0.31148568 -0.2022633
0002f0 fc 41 cd 3f cd 2e d6 3f e7 b2 02 40 17 4a d7 bf
       1.6035762 1.6733032 2.0421693 -1.6819485
000300 ca b8 eb bd ea bb cf be cb d2 20 bf 9e 0e 01 bf
       -0.11509855 -0.40573055 -0.62821645 -0.5041293
000310 c2 5d 96 3f 7d b7 62 bf 97 10 8d be 69 84 50 3f
       1.1747363 -0.8856123 -0.2755172 0.8145204
000320 b8 5f cd 3c 72 f7 44 bf cd 8f 62 bf af dd 71 bf
       0.025070056 -0.7694007 -0.8850067 -0.9447889
000330 dd 09 c9 bf fa 72 ec be ec 94 be 3e a0 83 4e bc
       -1.5706135 -0.4618147 0.37222993 -0.012604624
000340 f4 dd 63 3f da 98 c5 3e ec ef 83 3d 43 6c cc 3e
       0.8901055 0.3859318 0.06442246 0.39926347
000350 8a 68 0f 3f 1b 6f a0 bf 75 93 fd be 97 d7 69 3f
       0.5601889 -1.2533907 -0.49526563 0.9134459
000360 d0 6c 46 3f 1b c5 1b bd ff f3 d5 3d a8 e9 43 be
       0.77509785 -0.03802977 0.10446929 -0.19132102
000370 0d ba da be 9f 7a 10 c0 d9 2b 1c bf 85 91 68 3f
       -0.4272007 -2.2574842 -0.61004406 0.90847045
000380 9d 63 a9 3e 12 0c 6d bf d4 fb a3 bf ab d1 6d bd
       0.3308381 -0.9259654 -1.2811227 -0.058061283
000390 8a 0a 89 3e 45 15 f3 3e 2e 19 1c 3f 05 8c 93 3e
       0.26765853 0.47477165 0.6097592 0.28817764
0003a0 83 72 c8 bf f7 69 d6 be 59 1c da bf d5 c0 36 bf
       -1.5659946 -0.4187772 -1.7039901 -0.7138799
0003b0 15 ce 62 3e 53 d5 e3 be 1c 7c 86 bf c8 a8 41 bf
       0.22148927 -0.4449869 -1.0506625 -0.75648165
0003c0 77 b0 fa bd e5 d3 30 3f cb 01 b6 be 0f 94 49 bf
       -0.12240689 0.69073325 -0.35548243 -0.78741544
0003d0 a5 36 32 bf 74 76 72 3e f4 e1 a4 3f 21 26 f4 3f
       -0.6961463 0.23677999 1.2881455 1.9074136
0003e0 d5 d0 98 be fc 53 e2 bf 11 30 09 bf 82 8f 98 3f
       -0.29846826 -1.768188 -0.5358897 1.1918795
0003f0 2a 9c b1 be 48 e6 83 bf 7b f8 db be 9a 78 c6 be
       -0.34689456 -1.0304651 -0.42963013 -0.38763887

model.0.pos_emb.weight f4 [6, 128]
000000 6c 6a ab bf ef 93 ac 3d ee 6c f1 be 92 0e 22 bf
       -1.3391852 0.084266536 -0.4715342 -0.6330348
000010 14 0b 2f 3f 1f c3 b7 3f 89 f0 97 bf a9 28 95 be
       0.6837628 1.4356421 -1.187028 -0.29132584
000020 d8 24 41 bd ec e9 94 bf 96 34 ae 3f e7 aa 08 bf
       -0.047154278 -1.1633887 1.3609798 -0.53385776
000030 75 19 40 bf 07 9f a6 3f 42 2a 7a bf 60 a9 e8 3c
       -0.75038844 1.3017281 -0.9772073 0.028401077
000040 1e 0b 90 3f 49 62 92 3f d7 05 31 3f 3f 04 4f bf
       1.1253393 1.1436244 0.69149536 -0.80865854
000050 49 7f d7 3f c7 c3 3a 3f 81 02 65 3f 05 cd be bf
       1.6835719 0.7295498 0.89456946 -1.4906317
000060 0b 2b 85 3f 6e 40 be bf ff 9d bc 3f 1d 02 d7 3e
       1.0403761 -1.4863412 1.4735717 0.419938
000070 b5 78 6d 3f a3 fe f2 be f5 81 58 3f 14 2f 56 bf
       0.9276231 -0.47459897 0.845733 -0.83665586
000080 e4 cb a4 3f 87 8c 85 3f 69 18 de be c9 4f bd be
       1.2874722 1.043351 -0.43377998 -0.36974934
000090 77 b1 37 3f df bd d3 be 40 d2 4c bf 72 86 d7 3f
       0.71755165 -0.41355798 -0.80008316 1.6837904
0000a0 cf ca b6 bf 0d 93 da 3e b1 82 cc 3e 85 ba 2c c0
       -1.4280642 0.42690316 0.3994346 -2.6988842
0000b0 9c 75 c2 bf 98 b3 d1 3f c4 27 b6 be 32 ab 0d bf
       -1.5192142 1.6382933 -0.35577214 -0.5533935
0000c0 70 4a 14 be 29 e6 14 3f 66 2c dc be 53 98 ef 3f
       -0.1448152 0.58163697 -0.43002623 1.8718361
0000d0 51 64 df 3f 8f 50 42 bf b0 21 c8 be f6 93 13 bf
       1.7452489 -0.7590417 -0.39088202 -0.57647645
0000e0 1c 94 df bf 8c 72 89 3f 64 16 92 bf 44 d1 a5 bf
       -1.7467074 1.0738082 -1.1413083 -1.2954488
0000f0 2f d1 e8 be 6d c5 b5 3e 0c 7d 37 3e dd 4b 3b 3f
       -0.45472094 0.35502186 0.17918795 0.73162633
000100 a1 42 dc bd 6d 70 70 3f ee 52 a6 3e 5e 69 bf bf
       -0.10754896 0.9392155 0.32485145 -1.495403
000110 d0 33 ab 3f 56 67 29 bf 34 f7 fb 3f a7 04 a3 bf
       1.3375187 -0.66173303 1.9684815 -1.2735795
000120 28 85 6e bf 07 65 40 bf 7d 92 8e 3f 4a d2 71 bf
       -0.9317193 -0.75154155 1.1138455 -0.944615
000130 98 c5 0f 3f b8 e7 48 bf 08 79 da 3f 22 6c b5 3f
       0.5616088 -0.78478575 1.7068186 1.4173625
000140 aa 85 ff 3e 8d 3f f2 bf 44 17 50 3e 0e 23 2c 40
       0.49906665 -1.8925644 0.20321375 2.6896396
000150 0c 9f 65 be cf b7 a0 3e 71 a2 57 be 3a f4 2b 3e
       -0.22423953 0.31390235 -0.2105806 0.16792384
000160 70 59 0f bf 67 08 c1 bb 45 d0 58 bf 35 bc fc 3d
       -0.55995846 -0.005890894 -0.84692794 0.12340585
000170 37 19 fa bd 27 30 74 bf 9d 30 c7 3f 95 3a e9 be
       -0.122118406 -0.95385975 1.5561711 -0.45552507
000180 aa 60 21 3f 4e 11 bf be 27 e2 e3 bd 28 69 fd be
       0.6303812 -0.3731789 -0.111271195 -0.4949429
000190 c1 72 90 3d 93 06 9a 3f ea 46 39 bf de 18 ad 3e
       0.070531376 1.2033256 -0.7237383 0.33808035
0001a0 7e 6a a3 3e fb 5f 1f 3e d1 1c 87 40 7a 65 95 be
       0.31917185 0.15563957 4.2222676 -0.29178983
0001b0 16 04 82 3f d1 d1 14 be b9 5b 78 bf 24 fd 3b bf
       1.0157497 -0.14533164 -0.9701496 -0.73433137
0001c0 05 1f 8e bd 2c 8c 98 3f 3d 0c 11 be ef fd 6b 3f
       -0.0693951 1.1917777 -0.14164825 0.92184347
0001d0 89 c8 8a 3d d9 3f 79 bd 5b cc 1c bf 55 66 65 3f
       0.0677653 -0.060851905 -0.6124932 0.8960927
0001e0 87 1d 1b bf 01 b1 b0 bf d0 4e 84 bf f6 e0 9c 3f
       -0.6059193 -1.3804017 -1.0336552 1.2256153
0001f0 db 49 eb be 73 5c 8f 3c 5a e0 d3 bf 2f 57 ee bf
       -0.45954785 0.017500138 -1.6552842 -1.8620356
000200 38 60 4f be 1f 19 ab 3e f5 b3 ab bf 7c 09 15 bd
       -0.20251548 0.33417603 -1.3414294 -0.036385998
000210 a3 bf c1 3e 15 09 4d 3f 9a 8c 88 3f 53 de db bf
       0.3784152 0.80091983 1.0667908 -1.7177223
000220 a9 56 ec be 01 e8 20 3f ce c0 f7 be 42 ee 40 be
       -0.46159866 0.6285401 -0.48389286 -0.18840888
000230 8f 10 97 3e 88 66 cf bf 89 f5 c6 bf bb 7f a4 bf
       0.2950482 -1.6203165 -1.5543681 -1.285148
000240 d7 6c a7 3e f0 3a aa bf eb a6 1d 3f 88 bd d5 3f
       0.32700226 -1.3299236 0.6158282 1.6698465
000250 84 62 0b 3e a3 7e cb bf 2e 8a 07 be ab c3 c2 bf
       0.136118 -1.5898021 -0.13236305 -1.5215963
000260 91 5d af bc 13 6f 2b be 00 25 2c 40 5b ab 0e 3f
       -0.02140692 -0.1674159 2.6897583 0.5573022
000270 bd f2 56 3f 6a 1e a0 be a2 04 b0 3f 54 c5 ac 3e
       0.8396414 -0.31273204 1.3751414 0.337443
000280 fe 5f 4f 3f 64 e9 9b bf 32 53 c0 3f 4a 1f 57 3e
       0.8100585 -1.21806 1.5025389 0.2100803
000290 e5 0e 08 40 8d ee 75 3e dc 85 de 3f 49 19 1d 3f
       2.125909 0.24016781 1.7384601 0.6136671
0002a0 55 a7 f0 bf 0a bd 9f bf b6 e2 b5 3c fa a5 21 bf
       -1.8801066 -1.2479565 0.02220283 -0.63143885
0002b0 da 37 bd 3e 99 84 c4 bf f7 33 7c bf fe fc 9c 3f
       0.36956674 -1.5352966 -0.9851679 1.2264707
0002c0 85 85 8b bf 74 a1 1f 3f 11 17 7e bf 80 0b 2d bf
       -1.0900122 0.6235573 -0.99253947 -0.6759567
0002d0 46 c1 b4 be af 4d 18 3f 32 70 88 be d5 53 bc bf
       -0.35303706 0.59493536 -0.26648098 -1.4713084
0002e0 d1 82 06 bf dd 75 ef bf 57 fa d3 be 87 ce 4f bf
       -0.5254336 -1.8707844 -0.41401932 -0.8117451
0002f0 d5 40 0e 3f 15 b0 94 bd 26 6c e9 bf 94 25 6f be
       0.55567676 -0.072601475 -1.8236129 -0.23354179
000300 c1 ea 7b be d5 37 3f 3f de aa 5a be cd a0 b0 bc
       -0.2460127 0.7469457 -0.21354243 -0.02156105
000310 cb 52 82 be f1 dd aa bf dd a6 86 bf a5 8b 70 bf
       -0.2545379 -1.3348981 -1.0519673 -0.9396308
000320 19 89 fb 3e 43 e1 4d bd 04 dc 53 bf 31 5b 4c bf
       0.49128035 -0.050263654 -0.8275759 -0.7982665
000330 b1 67 20 c0 97 ea 56 3f 9c ae f1 3e 70 44 06 be
       -2.5063288 0.83951706 0.4720353 -0.13112044
000340 22 ef 9b 3e d4 95 d4 3e 3b 85 dd bf 0b 1c 3e bf
       0.3045588 0.4152056 -1.7306284 -0.7426154
000350 36 61 ac be 31 e6 3a bf 9d 6f d9 bc c1 2b 98 3f
       -0.33667916 -0.73007494 -0.02654248 1.1888353
000360 d7 cc c4 be b2 45 56 3f a7 d0 a3 3f f3 a2 de bf
       -0.3843753 0.83700097 1.2798051 -1.7393478
000370 e5 51 61 be 67 b6 11 3e d9 5e 98 be 97 de b9 3f
       -0.22003897 0.14229737 -0.29759863 1.4521054
000380 3e 8f 84 bf 6b fe 9a 3f 7c b4 8b bf 32 79 6a bf
       -1.0356214 1.2108892 -1.0914454 -0.9159118
000390 52 b0 e1 3e 94 0c 9b 3f 43 59 5a bd c8 33 64 bf
       0.44079834 1.2113214 -0.053307783 -0.8914151
0003a0 64 16 12 3e 0d 1d 4e 3c b6 ea 2c be 3f ca 2c be
       0.14266354 0.012580168 -0.1688641 -0.16874026
0003b0 a1 d9 26 3f 18 a0 f9 be 56 62 c6 3f 33 75 1c bf
       0.65175825 -0.48754954 1.549876 -0.6111633
0003c0 2e e5 9d 3f 33 7d 1b 3f 9f cd 1a c0 9f 04 e2 bf
       1.2335565 0.60737914 -2.4188 -1.765766
0003d0 9e ee d8 3e e6 d8 1f 3d 84 f3 45 3e 7a 2a 76 3e
       0.4236955 0.03902521 0.19331175 0.24039641
0003e0 91 0e 0a 40 ea 11 2b 3f 6f 7b 38 3e 59 01 f0 3e
       2.157139 0.6682421 0.18015836 0.46876028
0003f0 ff 01 55 bf 38 ef 20 c0 d9 d8 f2 be 2e 00 b3 be
       -0.8320617 -2.5146008 -0.47431067 -0.34961075

model.1.att.W_q.bias f4 [128]
000000 b6 92 48 bd 20 cc 08 bd 7b 83 28 3d 9e 1a f6 3c
       -0.04896804 -0.033397794 0.041141015 0.030041989
000010 15 76 21 bd af bb 84 bd 6f f2 9f 3c 6f e7 89 3c
       -0.039419252 -0.0648111 0.019524781 0.016833989
000020 ba 55 95 3c f6 aa ac bd 21 7b 06 3d a1 e0 22 bd
       0.018229354 -0.08431046 0.03283227 -0.039765004
000030 72 ae 8c 3d e0 61 ab bc 0b 9b 9e 3b e9 f8 5b 3d
       0.0686921 -0.020920694 0.00484026 0.053704176
000040 12 85 37 bd d6 9e 00 3d 0c 72 47 bd e5 e6 ce bb
       -0.04480464 0.031401478 -0.048692748 -0.006314146
000050 33 18 56 3c de d8 4b 3d 69 d9 9a 3d 3b c9 8c bd
       0.013067293 0.049767368 0.07560999 -0.06874319
000060 97 1c 8f 3d 7e 20 2d bd a8 ec ba 3c 84 1a 48 bd
       0.06987875 -0.042267315 0.022817925 -0.048853412
000070 ea 23 a8 bd e1 c6 38 bd 34 66 5a bd fe 5a 7f 3d
       -0.08209975 -0.04511154 -0.053320125 0.062342636
000080 16 d0 97 bd 09 31 97 bd 9e d7 8a bd 71 e4 4e 3d
       -0.07412736 -0.073823996 -0.06779407 0.050510827
000090 6b 1b 68 bb 64 a3 0e 3d d3 0a 75 bd ea 85 aa 3d
       -0.0035416733 0.03482379 -0.059824776 0.08326323
0000a0 9d 15 f8 3c 46 35 c6 bc 7e 17 86 3d c0 70 57 bd
       0.030283744 -0.024195325 0.065474495 -0.05259776
0000b0 76 cb 61 bd 50 f4 cd bc 97 ac 50 3c a9 72 6a bd
       -0.055125676 -0.025140911 0.012736461 -0.057238255
0000c0 39 4c ea 3c 53 07 07 3d f6 32 86 bd 39 5b 0e bc
       0.028600799 0.03296597 -0.06552689 -0.008688741
0000d0 27 d8 24 3d 00 07 21 3d f4 69 20 bd fa 44 00 bd
       0.0402452 0.039313316 -0.039163545 -0.03131578
0000e0 9e 7f 91 3d 8a b8 38 3d 71 f3 94 bb fa cb a0 bc
       0.07104419 0.045097865 -0.004545622 -0.019628514
0000f0 ce fb ff 3c 1e 56 ef bc a0 7d b1 bd e0 4f 36 bc
       0.031248 -0.029215869 -0.08666539 -0.011127442
000100 b7 e5 84 bc 39 7b 4a 3d 23 45 4b bc 4f 86 99 3d
       -0.016222818 0.04943392 -0.01240662 0.074963205
000110 0a b2 7a bd 2d c8 0f 3d 9e ab e5 3c 31 59 38 bd
       -0.061204948 0.035103012 0.028035935 -0.045006935
000120 dc 0b 1f bd 54 d7 a7 3d 03 f6 6f bd a7 93 89 bd
       -0.03882967 0.081953675 -0.058584224 -0.067176156
000130 18 f9 a5 3d 88 3f 86 bc d5 23 2a 3c c5 ab e6 bc
       0.081041515 -0.016387716 0.01038452 -0.028158078
000140 b6 3c 70 3d 82 cd 45 3c e5 e2 74 3d af 49 8e 3d
       0.05865165 0.012072923 0.059786696 0.06947648
000150 61 20 de bb 16 ef 8b 3d 2a 8b 27 3d 1b 57 86 bd
       -0.006778762 0.068327114 0.0409042 -0.06559583
000160 df 8f 57 3d 3c b5 91 bd fd a5 5e bd 3c d9 87 bd
       0.05262744 -0.07114646 -0.054357518 -0.06633231
000170 dc 24 2e 3d d6 67 b9 3b 9a 10 49 bb c3 99 0b 3d
       0.04251562 0.00565813 -0.0030680061 0.034082185
000180 72 4f c0 3c e6 87 aa 3d 16 80 e5 3c f1 bb 66 bd
       0.023475382 0.08326702 0.028015178 -0.05633158
000190 df 4e 3e 3d e0 1b 76 bc 95 d7 6f 3d eb 53 30 bd
       0.046461936 -0.015021294 0.058555204 -0.04304878
0001a0 84 2a 8b bc d7 59 af bd 5f be 49 3d 27 71 d4 3c
       -0.016988046 -0.085620575 0.049253818 0.025932861
0001b0 62 60 95 bd db 0e d5 bb 49 ac 94 3d 2f a9 b4 3d
       -0.07293774 -0.006502015 0.07259423 0.08821332
0001c0 2c 57 4a 3d 16 44 5c bd 75 38 26 3d 9f 8d 3f 3d
       0.04939954 -0.05377587 0.040581185 0.04676592
0001d0 03 b8 a1 bd 34 ce 10 3c 51 a2 52 bd bc 21 58 3c
       -0.078964256 0.008838225 -0.05142433 0.013191637
0001e0 3f ab 34 bd cf f1 37 bd f7 19 22 bd ab 81 50 3d
       -0.044108626 -0.04490834 -0.039575543 0.05090491
0001f0 36 8f a8 bd d5 aa b3 3d 5d e8 aa 3d 69 be 2f 3d
       -0.0823044 0.08772818 0.08345101 0.0429062

model.1.att.W_k.bias f4 [128]
000000 31 84 99 bd 62 75 98 bd cb 54 c9 3c d0 63 37 bd
       -0.07495917 -0.07444264 0.024576565 -0.044772923
000010 5f b6 85 bd 9d 01 5f 3d ab 43 6a bd 84 2e a4 bd
       -0.06528925 0.054444898 -0.05719344 -0.08016685
000020 66 f3 a2 3d 72 34 6c bd 7f 30 a4 bd 0c ad f3 3b
       0.07956581 -0.057667203 -0.080170624 0.0074364003
000030 f6 1b 93 3d d4 d9 90 3c a0 c0 a0 3d f2 ad 66 3d
       0.071830675 0.017681994 0.0784924 0.05631823
000040 a2 fd 3f 3d 09 b0 1e 3c 8b 7f 88 bd 02 1d a1 3c
       0.046872742 0.009685525 -0.06664952 0.019667152
000050 26 60 5e bd d8 29 a8 3d 95 45 af 3d e3 e6 1d bd
       -0.054290913 0.08211106 0.085581936 -0.03855027
000060 c7 51 8d 3d d4 9d 72 bc 7a f5 b2 bd 18 25 04 3c
       0.069003634 -0.014808137 -0.08738227 0.008065484
000070 70 cd ce bb 59 8c 07 3d 09 a0 b3 3d db 00 58 bd
       -0.006311111 0.03309283 0.08770759 -0.05273519
000080 f7 bc 37 3c 23 24 d1 3c a1 0a 92 3d 7e a3 4d 3d
       0.011214486 0.025529927 0.071309336 0.050204746
000090 81 3e 30 3d 96 04 4c bc 5b 8d 8b 3c 91 3a 6a 3c
       0.04302836 -0.012452265 0.017035177 0.01429619
0000a0 5c a9 9a bd 53 93 ac 3b 91 df 91 3d 53 4c 4a bd
       -0.07551834 0.005266586 0.0712272 -0.049389195
0000b0 de 99 79 3d 06 ae 9e 3c 9c b6 39 3d 08 31 55 bd
       0.060937755 0.01937009 0.045340165 -0.052048713
0000c0 47 0a ac 3d 99 f5 09 bc 32 03 ac bd 17 17 b1 3b
       0.08400398 -0.008420371 -0.08399047 0.005404364
0000d0 b6 00 ac bc d3 e6 ae 3d 98 ff 14 bc 58 f0 56 bd
       -0.020996433 0.0854012 -0.009094141 -0.052475303
0000e0 f1 fb b7 3c 9c 6c 65 3d 7f 17 81 3c 54 7d 62 bd
       0.022459002 0.05601178 0.015758274 -0.055295303
0000f0 d9 02 e8 bc 1f ef 03 3d ef 4d fd 3a 1c ab 97 bd
       -0.02832167 0.032210466 0.0019325594 -0.074056834
000100 29 3a ac bc a7 56 d9 bc 89 60 b2 3d 40 e0 2f 3d
       -0.021023827 -0.026530577 0.08709819 0.04293847
000110 ac 23 77 bb 01 99 ab bd e9 68 af bd 40 b3 6e bd
       -0.003771047 -0.083787926 -0.08564932 -0.058276415
000120 2b d1 66 bd ce 0b 27 bd 26 0b 26 3c c3 62 dd bc
       -0.056351822 -0.040782742 0.010134494 -0.027024632
000130 df 89 57 bd 86 f1 65 bd a0 b8 ac bb a3 76 9e 3d
       -0.05262172 -0.056138538 -0.0052710325 0.07737472
000140 d1 84 3b 3d 49 07 19 bd db 7a 90 bd 25 91 91 3c
       0.04578096 -0.037360463 -0.07054683 0.017769406
000150 57 1f cd 3c e9 11 20 bd 74 c9 6f 3d c5 15 49 3d
       0.025039358 -0.03907958 0.05854173 0.049093027
000160 ee 11 07 3d 18 c1 9a bd 82 8c 99 3d 84 da be 3c
       0.032976083 -0.07556361 0.07497503 0.023297556
000170 23 4e 72 bd aa 5a b0 3d 46 15 8f 3d 89 01 ff bc
       -0.05915655 0.08611043 0.069864795 -0.031128662
000180 21 d9 56 3d e6 49 a7 3c 15 55 70 bd 60 35 87 bd
       0.052453164 0.02042098 -0.05867489 -0.06601977
000190 5b 8f cc 3b a8 22 1a bd c3 22 da bc eb 5a 9d bd
       0.0062426752 -0.037630707 -0.026627904 -0.07683357
0001a0 76 b3 a5 bd 57 22 39 3d c9 e0 92 bd d8 3a 4c 3d
       -0.0809087 0.045198765 -0.071717806 0.049860805
0001b0 02 ed a3 3d 18 25 1f bd 7d e8 ef 3c d3 ff 34 bb
       0.0800419 -0.038853735 0.029285664 -0.0027618303
0001c0 55 a0 96 bd a1 da 67 3c 42 cd e8 bb 6c e6 9d 3d
       -0.073548 0.014151246 -0.0071045468 0.07709965
0001d0 e8 7c 00 bd c7 ec 90 3d 34 d0 43 3d db b1 7d bd
       -0.03136912 0.07076412 0.04780598 -0.061937194
0001e0 bb 19 07 3d 5c b3 b2 3d 1f cb 41 bd 2c 79 58 3d
       0.032983523 0.08725616 -0.047312852 0.052849934
0001f0 84 42 15 3d 4d 34 a5 bd 68 86 d0 3c 4f ab bb 3b
       0.036440387 -0.08066616 0.025454715 0.0057272087

model.1.att.W_v.bias f4 [128]
000000 9b 5d 86 3d 3f 64 67 bd 97 6a 75 bd 5b 00 13 bc
       0.065608226 -0.056492086 -0.059916105 -0.008972253
000010 53 95 58 bd 6d 8a 90 3d f7 41 92 3d 0a f3 85 bd
       -0.05287678 0.070576526 0.07141488 -0.06540497
000020 b7 58 36 bb eb 72 76 bd 92 3d 89 3c 84 9d 03 bd
       -0.0027823874 -0.060168188 0.016752992 -0.03213264
000030 ee 02 bb bb 02 7f 49 bd 1d 7b 11 bd 0e f2 3f 3d
       -0.0057071364 -0.04919339 -0.0355178 0.0468617
000040 bd 6a 9a bd 00 ee 6d 3b 63 95 bb 3b 8e aa d5 3c
       -0.0753989 0.003630519 0.0057245954 0.026082303
000050 00 bb 5e 3d a2 d9 89 3d 61 7e 96 3d 8e a3 9a 3d
       0.054377556 0.06730963 0.073483236 0.07550727
000060 f9 0a 96 bd 3a ef 15 bd 6f 70 ac bc aa 49 84 3c
       -0.073263116 -0.036605097 -0.021049706 0.016148407
000070 9f 16 b3 bd 03 d6 06 3d fe 4a 77 bd e6 fc 31 3d
       -0.08744549 0.03291894 -0.060374252 0.043454073
000080 ae 80 51 3c 68 87 7d 3d b0 19 72 3d 9a 0e a5 3c
       0.012787027 0.06189671 0.05910653 0.020148564
000090 c5 42 b3 bd b0 b8 9d bd d2 bf 94 ba 50 73 57 bd
       -0.0875297 -0.07701242 -0.0011348671 -0.052600205
0000a0 56 f2 f0 38 07 73 72 bd 5b 12 1b bd e0 e9 61 bd
       0.000114892304 -0.05919173 -0.037859302 -0.05515468
0000b0 ee 85 ae bd 57 c9 50 bd 11 fd e5 bb a6 d6 70 bd
       -0.08521639 -0.050973263 -0.0070186933 -0.058798455
0000c0 3c b1 5e 3d 14 f8 6f 3d 90 37 46 3d 95 e6 0b 3d
       0.054368243 0.058586195 0.048392832 0.034155447
0000d0 95 09 a8 3d b3 f3 65 3c e0 05 ba 3c 62 96 94 bd
       0.082049526 0.014035153 0.02270788 -0.07255246
0000e0 e3 e3 b1 bb d9 3a 3d 3d 04 e1 e3 bb f1 5e 67 3d
       -0.0054287775 0.0461987 -0.006954314 0.056487028
0000f0 ca 00 ae 3d c1 8a 0c bd a9 fd ee bc cb ae a3 bb
       0.08496244 -0.034312014 -0.029173689 -0.004995202
000100 cd 80 83 3c 41 47 37 3d b6 a7 30 3d 5a 29 44 3d
       0.016052628 0.044745687 0.04312869 0.047891
000110 70 b2 c5 3c d3 51 98 3c e0 f8 75 bd 64 8f ac 3c
       0.024132937 0.018593704 -0.0600518 0.021064468
000120 81 e5 e7 3a 76 f8 11 3d 83 4c a9 bd 73 09 84 3c
       0.0017692299 0.03563734 -0.082665466 0.016117787
000130 26 12 a7 3b ee 34 53 bd d5 2d 3f bd 4c 26 17 3b
       0.005098599 -0.05156415 -0.04667457 0.0023063598
000140 ad 7d ea bc dc ee 8f bd 5b bd 0a bd 6b 9e b1 bd
       -0.02862438 -0.07027981 -0.03387199 -0.08672794
000150 83 7b 65 3d fb 52 b4 bc 99 47 08 bd 5f 06 62 3b
       0.056025993 -0.022012224 -0.033271406 0.003448866
000160 66 3e 83 bc a4 52 8b bb df 33 a2 3c 10 5e 60 3c
       -0.016020965 -0.004251795 0.019800125 0.013694301
000170 69 42 83 bd 97 15 f8 bc 33 99 9f bd cd a2 92 3d
       -0.06409151 -0.030283732 -0.07792892 0.07159958
000180 8a 6f c3 3c 64 38 a4 bc c9 80 3d 3c 58 17 81 b8
       0.023856897 -0.02004642 0.011566349 -6.1555475e-05
000190 4f 24 95 3d 93 f4 8e bc fd 91 2e 3c 14 b8 7f bc
       0.07282316 -0.017450606 0.0106549235 -0.0156078525
0001a0 a2 5a 7e ba c9 2d d2 3b ec 31 6b bd 04 d1 a7 3d
       -0.00097028364 0.0064141494 -0.057420656 0.081941634
0001b0 0a 98 72 3c ca 9d b2 bd fb f9 8f bd 0b fb 6e bd
       0.014806757 -0.08721502 -0.07030102 -0.058344882
0001c0 c3 ad 3f 3c 0b b4 a1 3d 63 74 aa 3d 40 0d 00 3c
       0.011699143 0.078956686 0.0832298 0.007815659
0001d0 18 c9 9b bd 47 46 7f bb fe ad ec 3c d5 87 2c 3b
       -0.07606715 -0.00389518 0.02889156 0.002632608
0001e0 f0 b8 68 3d be e0 a1 3c 79 ef 51 3b 1e 19 a1 3d
       0.056816995 0.019760486 0.0032033606 0.07866119
0001f0 4e d4 2d 3c 91 fd 02 3c 88 96 21 bd 9a da 3c 3d
       0.010609699 0.007995025 -0.0394502 0.046106912

model.1.att.W_o.bias f4 [128]
000000 df 38 08 bc 68 1a a0 3c f6 df 27 bc 63 0d 83 bc
       -0.00831434 0.019543841 -0.010246268 -0.015997594
000010 4d fd 83 3d a6 17 47 3d 9e 24 ac bd 6b c9 d6 3c
       0.06444798 0.048606537 -0.08405422 0.02621909
000020 a1 0f c9 bb af 6d 8a bd f5 d8 51 bd b9 3a f2 3c
       -0.0061358963 -0.06759202 -0.051232297 0.029569017
000030 62 17 6f bd a8 45 9f 3c 2d 19 ff bc ce bf 26 3d
       -0.05837191 0.019442394 -0.031139934 0.040710263
000040 c8 fb ff 3c 8f 97 8e bd f6 65 25 3d 42 64 30 bd
       0.031247988 -0.06962501 0.04038044 -0.043064363
000050 ca a7 38 3d a4 f0 bd 3c 74 15 79 bd aa b6 a2 bd
       0.04508189 0.023186035 -0.060811475 -0.07944997
000060 d8 dc a3 3b bc 27 41 bd c7 e3 37 bd 9a 2e 8c bd
       0.005000692 -0.047157034 -0.04489496 -0.06844826
000070 9c 01 3c 3d dd 61 e0 3c 81 eb 49 bd 9c f5 a0 bc
       0.045899972 0.027390415 -0.04929686 -0.019648366
000080 04 47 8c 3c 3f 3d 96 bd 47 05 14 3c c7 d1 af bc
       0.017123707 -0.073359005 0.009034461 -0.021462334
000090 73 46 f3 bc 7c 6c a5 bd 73 2b 81 bd 09 72 6b 3d
       -0.029696679 -0.080773324 -0.063071154 0.0574818
0000a0 c9 23 f6 bb f6 2f 35 bd 90 ea a4 bd 24 db 17 bc
       -0.00751159 -0.044235192 -0.08052552 -0.009268556
0000b0 ba fe e5 bc 74 b9 a1 ba 99 33 26 bd 16 9e 30 3c
       -0.028075565 -0.0012338595 -0.04057655 0.010779878
0000c0 fe 6b c1 3c ec 71 aa 3d 10 c9 a1 bd 52 62 a6 bc
       0.023611065 0.0832251 -0.07899678 -0.020310555
0000d0 24 43 a2 bc d1 a2 5c 3d 66 c3 a6 3d 3c 4a f6 ba
       -0.019807406 0.05386621 0.08142738 -0.0018790434
0000e0 61 32 8c 3d 3d 4e b2 bd c1 fb c1 3a da 42 1a 3d
       0.068455465 -0.08706329 0.001479976 0.03766141
0000f0 56 28 7b bc 17 49 8c bc 29 67 a5 bd 81 11 86 3d
       -0.015329441 -0.017124696 -0.08076317 0.06546307
000100 7b 17 f6 3c 78 fa 8a bd 25 ef 4c bd bb 9f e5 3b
       0.030040493 -0.067860544 -0.050032753 0.0070075667
000110 07 8e a2 bc 92 21 6f bd 28 37 28 3c b1 04 01 3d
       -0.019843115 -0.058381625 0.0102670565 0.031498615
000120 56 30 5f bd 18 ff 6f ba 62 43 ab bd c4 a3 75 3d
       -0.054489456 -0.00091551384 -0.083624616 0.059970632
000130 4b f5 e0 bc 16 8c 99 3c a5 6a 99 3d d4 ae 03 bd
       -0.027460715 0.018743556 0.07491044 -0.03214915
000140 14 e6 7e 3d 8f 74 79 3d 3d c1 63 3d 56 c3 ec 3b
       0.06223114 0.060902175 0.05560421 0.0072254343
000150 a3 e1 82 bb d2 51 36 3d 23 83 3b 3d 76 29 ff bb
       -0.003994183 0.044511624 0.04577936 -0.007786925
000160 25 04 54 bc 43 77 95 3d 41 eb 95 3d 85 b5 43 3c
       -0.012940441 0.07298138 0.07320262 0.011945133
000170 c8 21 16 3d f7 7d 74 3d b8 fc 88 bc e4 52 b0 bd
       0.03665331 0.059690442 -0.016722068 -0.0860956
000180 9d d3 a3 bd 31 b5 f9 3b 02 c5 d4 bc 44 7a 7e 3d
       -0.079993464 0.0076204767 -0.025972847 0.06212832
000190 1a 09 85 3d ae cd 76 bd 75 89 24 3d 15 e6 d5 3c
       0.064958766 -0.060254745 0.04017015 0.026110688
0001a0 e5 f5 6a bd 94 db a1 3d 5f 1a 9e bc f9 b9 9e 3d
       -0.05736341 0.07903209 -0.019299684 0.07750315
0001b0 ed 8a a3 3d b9 9f 3a bd 14 75 98 bd dd 64 e1 bc
       0.07985482 -0.04556248 -0.07444206 -0.027513916
0001c0 fe fb 53 bd c0 de bf bc e4 eb 0c 3d a6 0e 9f 3d
       -0.05175399 -0.023421645 0.03440465 0.07766466
0001d0 42 51 8d bd c7 5c 96 bd 7e cb d2 bc 93 bc d3 3c
       -0.06900264 -0.073419146 -0.025731798 0.025846755
0001e0 80 97 4e 3d de 3c a6 3c 7b 99 90 3d b9 d5 61 bd
       0.05043745 0.020292696 0.07060524 -0.055135462
0001f0 27 61 43 bc b5 a9 06 3c f7 34 33 bd 47 ca a3 bd
       -0.011925018 0.008219172 -0.043751683 -0.07997566

model.1.ffn.0.bias f4 [32]
000000 95 74 b1 bd 2d cb 0c 3b fd 8e a9 3d 44 2a 49 bd
       -0.086648144 0.0021483407 0.08279226 -0.049112573
000010 01 c3 68 bb d4 3f 98 3d 83 2a e4 3c 6c ba 46 bd
       -0.0035516622 0.07434049 0.027852302 -0.04851763
000020 fb 3b 40 bc f2 7c ee bc 93 f6 30 3d 6f a2 ab bd
       -0.01173305 -0.029112313 0.0432039 -0.08380591
000030 5d a8 75 bd 83 03 b0 bd e2 61 0a bd 9f 53 88 bd
       -0.059975017 -0.0859442 -0.033784755 -0.066565745
000040 39 29 c8 bc ee a7 9d 3c df 4d 8f 3c 97 96 89 bd
       -0.024433719 0.019245114 0.017493187 -0.06718176
000050 40 f5 ed ba ff cb 96 bd 56 2a 8b 3c b4 01 6b bd
       -0.0018154755 -0.07363128 0.01698796 -0.05737467
000060 cb 7a 50 3d 27 5d 41 bd f2 40 90 bd f1 28 aa bd
       0.050898355 -0.047207978 -0.07043637 -0.0830859
000070 70 91 a3 bd 70 34 4a bd fd 94 83 3d c0 5f 9b 3d
       -0.079867244 -0.049366415 0.06424902 0.07586622

model.1.ffn.2.bias f4 [128]
000000 28 d8 d2 bc a2 a4 09 be 22 68 22 bd 25 56 04 3e
       -0.025737837 -0.13441709 -0.03965009 0.12923487
000010 7d 2b 22 3e b2 49 56 3b dd aa 33 be 96 3f 03 3e
       0.15836902 0.0032697734 -0.17545648 0.12817225
000020 85 1b fb bd 1d ce aa 3c af c4 c8 3d ba 9a 5a bc
       -0.12261108 0.020850236 0.098031394 -0.013342554
000030 f1 f5 11 3e 48 41 28 3e bb e3 08 be 9e f4 d8 3d
       0.14253975 0.16431153 -0.13368122 0.10593532
000040 ac a8 cf 3d f0 02 a4 bc bb 1b f4 3d f7 df 5d bd
       0.101395935 -0.020020932 0.11919352 -0.054168668
000050 67 53 f7 bc 95 c9 91 bc 2a 4d 8d 3d 19 ea 15 be
       -0.030191137 -0.017796317 0.068994835 -0.14640082
000060 0b 81 4f 3b 65 44 10 be 6d 9d b4 bd c9 af f8 3d
       0.003166261 -0.1408859 -0.08819089 0.12142903
000070 ae 4f 14 bd 60 92 c7 3d f7 a1 f3 bd 7a d3 12 bd
       -0.0362088 0.09744716 -0.11896127 -0.03584621
000080 24 cc 4d bc 33 6a 2a 3e 7c 7d 36 3b 46 51 db bd
       -0.012560878 0.16642074 0.002784579 -0.10708861
000090 2f 48 5c bd 2c a8 2b 3e 1f 07 cd bb 22 f5 20 3e
       -0.053779777 0.16763371 -0.0062569524 0.15718511
0000a0 97 40 39 3d 26 7b c1 3c 09 25 df 3d d0 d7 bb 3c
       0.045227613 0.023618292 0.10895736 0.022930056
0000b0 9f 37 04 3e f1 61 2a be 0d cb 28 3d 2e 13 31 be
       0.12911843 -0.16638924 0.04120927 -0.17292473
0000c0 df d4 af bc ad 74 97 3d d9 97 fb bd 04 f0 be 3d
       -0.02146381 0.07395301 -0.12284822 0.09323123
0000d0 5e 84 fb 3d 49 f2 54 3d d2 8c 20 3e 0b 19 d1 bc
       0.122811064 0.051988874 0.15678719 -0.025524637
0000e0 a1 cf 30 be 63 33 8d 3d ae ed ef bd b6 07 22 3e
       -0.17266704 0.06894567 -0.11715256 0.15823254
0000f0 07 8a 0d be 6c 61 de 3d 83 6e 0f be 6c a2 02 3e
       -0.13822185 0.108584255 -0.14007 0.12757272
000100 e8 19 dd bc 62 bf f6 3d d8 ab 2a 3e 72 10 92 3d
       -0.026989892 0.12048222 0.16667116 0.07132043
000110 a5 a6 1c 3e de ac 22 3e 34 92 5d bd 1e f0 32 be
       0.15297945 0.15886256 -0.05409451 -0.1747441
000120 dd ae 04 3e 88 25 dd bc 4a 1b 39 bc c7 b3 e0 bd
       0.1295733 -0.026995435 -0.01129801 -0.1097179
000130 28 ef f2 bd 41 46 d3 bd 04 19 b0 bc c7 fa 34 be
       -0.11862022 -0.10316134 -0.021496303 -0.17673789
000140 cc ac 0c be b3 f5 23 be 23 b0 7c bd 41 c5 2e 3e
       -0.13737792 -0.16011696 -0.061691415 0.17067434
000150 74 4a 32 be ac d0 d5 3d 54 42 02 be cb a0 08 3e
       -0.17411214 0.104401916 -0.12720615 0.13342588
000160 3b 53 b9 bd 8c af 77 bd e2 b9 5a 3d a1 d0 bb 3d
       -0.09049078 -0.06047015 0.053399928 0.09170652
000170 9d 83 13 bd 30 3b 82 3d 2c da 40 3d dd 85 6c 3d
       -0.036014188 0.06358945 0.047083065 0.05774485
000180 b8 ac 11 be 21 17 b2 3d 66 ba dd 3d 1c bc af 3d
       -0.14226043 0.08695818 0.10826568 0.08580801
000190 a2 15 11 3e e1 d9 99 bd 16 19 8a bd ae ac eb 3d
       0.14168409 -0.0751226 -0.06743066 0.115075454
0001a0 f2 b1 17 3e 6b 8a d2 3c 14 16 33 3e 64 c7 3c bc
       0.14813974 0.025700768 0.17488891 -0.011522148
0001b0 99 4f c3 bd b7 d3 2b 3e 7e 64 32 bd 6e df d3 3d
       -0.095366664 0.16779982 -0.043552868 0.1034535
0001c0 28 cd ff bd ec ab ab 3c 7d 6c 11 3d a8 1e 92 3b
       -0.12490302 0.020956002 0.035503853 0.004459221
0001d0 7e 72 51 3a e9 b2 d2 3d ba 10 9a bd d0 f9 86 bd
       0.0007989778 0.10288031 -0.075227216 -0.06590617
0001e0 7b 42 99 bd 64 8a 2a 3e 97 6a 9d bd 8f d1 0e 3e
       -0.07483383 0.16654354 -0.07686346 0.13947128
0001f0 ff cc b7 3d fa e4 23 bc 72 9a 9c bd e7 cd fc 3c
       0.08974647 -0.010003323 -0.076466456 0.0308599

model.1.layernorm1.weight f4 [128]
000000 00 00 80 3f 00 00 80 3f 00 00 80 3f 00 00 80 3f
       1.0 1.0 1.0 1.0
000010 00 00 80 3f 00 00 80 3f 00 00 80 3f 00 00 80 3f
       1.0 1.0 1.0 1.0
000020 00 00 80 3f 00 00 80 3f 00 00 80 3f 00 00 80 3f
       1.0 1.0 1.0 1.0
000030 00 00 80 3f 00 00 80 3f 00 00 80 3f 00 00 80 3f
       1.0 1.0 1.0 1.0
000040 00 00 80 3f 00 00 80 3f 00 00 80 3f 00 00 80 3f
       1.0 1.0 1.0 1.0
000050 00 00 80 3f 00 00 80 3f 00 00 80 3f 00 00 80 3f
       1.0 1.0 1.0 1.0
000060 00 00 80 3f 00 00 80 3f 00 00 80 3f 00 00 80 3f
       1.0 1.0 1.0 1.0
000070 00 00 80 3f 00 00 80 3f 00 00 80 3f 00 00 80 3f
       1.0 1.0 1.0 1.0
000080 00 00 80 3f 00 00 80 3f 00 00 80 3f 00 00 80 3f
       1.0 1.0 1.0 1.0
000090 00 00 80 3f 00 00 80 3f 00 00 80 3f 00 00 80 3f
       1.0 1.0 1.0 1.0
0000a0 00 00 80 3f 00 00 80 3f 00 00 80 3f 00 00 80 3f
       1.0 1.0 1.0 1.0
0000b0 00 00 80 3f 00 00 80 3f 00 00 80 3f 00 00 80 3f
       1.0 1.0 1.0 1.0
0000c0 00 00 80 3f 00 00 80 3f 00 00 80 3f 00 00 80 3f
       1.0 1.0 1.0 1.0
0000d0 00 00 80 3f 00 00 80 3f 00 00 80 3f 00 00 80 3f
       1.0 1.0 1.0 1.0
0000e0 00 00 80 3f 00 00 80 3f 00 00 80 3f 00 00 80 3f
       1.0 1.0 1.0 1.0
0000f0 00 00 80 3f 00 00 80 3f 00 00 80 3f 00 00 80 3f
       1.0 1.0 1.0 1.0
000100 00 00 80 3f 00 00 80 3f 00 00 80 3f 00 00 80 3f
       1.0 1.0 1.0 1.0
000110 00 00 80 3f 00 00 80 3f 00 00 80 3f 00 00 80 3f
       1.0 1.0 1.0 1.0
000120 00 00 80 3f 00 00 80 3f 00 00 80 3f 00 00 80 3f
       1.0 1.0 1.0 1.0
000130 00 00 80 3f 00 00 80 3f 00 00 80 3f 00 00 80 3f
       1.0 1.0 1.0 1.0
000140 00 00 80 3f 00 00 80 3f 00 00 80 3f 00 00 80 3f
       1.0 1.0 1.0 1.0
000150 00 00 80 3f 00 00 80 3f 00 00 80 3f 00 00 80 3f
       1.0 1.0 1.0 1.0
000160 00 00 80 3f 00 00 80 3f 00 00 80 3f 00 00 80 3f
       1.0 1.0 1.0 1.0
000170 00 00 80 3f 00 00 80 3f 00 00 80 3f 00 00 80 3f
       1.0 1.0 1.0 1.0
000180 00 00 80 3f 00 00 80 3f 00 00 80 3f 00 00 80 3f
       1.0 1.0 1.0 1.0
000190 00 00 80 3f 00 00 80 3f 00 00 80 3f 00 00 80 3f
       1.0 1.0 1.0 1.0
0001a0 00 00 80 3f 00 00 80 3f 00 00 80 3f 00 00 80 3f
       1.0 1.0 1.0 1.0
0001b0 00 00 80 3f 00 00 80 3f 00 00 80 3f 00 00 80 3f
       1.0 1.0 1.0 1.0
0001c0 00 00 80 3f 00 00 80 3f 00 00 80 3f 00 00 80 3f
       1.0 1.0 1.0 1.0
0001d0 00 00 80 3f 00 00 80 3f 00 00 80 3f 00 00 80 3f
       1.0 1.0 1.0 1.0
0001e0 00 00 80 3f 00 00 80 3f 00 00 80 3f 00 00 80 3f
       1.0 1.0 1.0 1.0
0001f0 00 00 80 3f 00 00 80 3f 00 00 80 3f 00 00 80 3f
       1.0 1.0 1.0 1.0

model.1.layernorm1.bias f4 [128]
000000 00 00 00 00 00 00 00 00 00 00 00 00 00 00 00 00
       0.0 0.0 0.0 0.0
000010 00 00 00 00 00 00 00 00 00 00 00 00 00 00 00 00
       0.0 0.0 0.0 0.0
000020 00 00 00 00 00 00 00 00 00 00 00 00 00 00 00 00
       0.0 0.0 0.0 0.0
000030 00 00 00 00 00 00 00 00 00 00 00 00 00 00 00 00
       0.0 0.0 0.0 0.0
000040 00 00 00 00 00 00 00 00 00 00 00 00 00 00 00 00
       0.0 0.0 0.0 0.0
000050 00 00 00 00 00 00 00 00 00 00 00 00 00 00 00 00
       0.0 0.0 0.0 0.0
000060 00 00 00 00 00 00 00 00 00 00 00 00 00 00 00 00
       0.0 0.0 0.0 0.0
000070 00 00 00 00 00 00 00 00 00 00 00 00 00 00 00 00
       0.0 0.0 0.0 0.0
000080 00 00 00 00 00 00 00 00 00 00 00 00 00 00 00 00
       0.0 0.0 0.0 0.0
000090 00 00 00 00 00 00 00 00 00 00 00 00 00 00 00 00
       0.0 0.0 0.0 0.0
0000a0 00 00 00 00 00 00 00 00 00 00 00 00 00 00 00 00
       0.0 0.0 0.0 0.0
0000b0 00 00 00 00 00 00 00 00 00 00 00 00 00 00 00 00
       0.0 0.0 0.0 0.0
0000c0 00 00 00 00 00 00 00 00 00 00 00 00 00 00 00 00
       0.0 0.0 0.0 0.0
0000d0 00 00 00 00 00 00 00 00 00 00 00 00 00 00 00 00
       0.0 0.0 0.0 0.0
0000e0 00 00 00 00 00 00 00 00 00 00 00 00 00 00 00 00
       0.0 0.0 0.0 0.0
0000f0 00 00 00 00 00 00 00 00 00 00 00 00 00 00 00 00
       0.0 0.0 0.0 0.0
000100 00 00 00 00 00 00 00 00 00 00 00 00 00 00 00 00
       0.0 0.0 0.0 0.0
000110 00 00 00 00 00 00 00 00 00 00 00 00 00 00 00 00
       0.0 0.0 0.0 0.0
000120 00 00 00 00 00 00 00 00 00 00 00 00 00 00 00 00
       0.0 0.0 0.0 0.0
000130 00 00 00 00 00 00 00 00 00 00 00 00 00 00 00 00
       0.0 0.0 0.0 0.0
000140 00 00 00 00 00 00 00 00 00 00 00 00 00 00 00 00
       0.0 0.0 0.0 0.0
000150 00 00 00 00 00 00 00 00 00 00 00 00 00 00 00 00
       0.0 0.0 0.0 0.0
000160 00 00 00 00 00 00 00 00 00 00 00 00 00 00 00 00
       0.0 0.0 0.0 0.0
000170 00 00 00 00 00 00 00 00 00 00 00 00 00 00 00 00
       0.0 0.0 0.0 0.0
000180 00 00 00 00 00 00 00 00 00 00 00 00 00 00 00 00
       0.0 0.0 0.0 0.0
000190 00 00 00 00 00 00 00 00 00 00 00 00 00 00 00 00
       0.0 0.0 0.0 0.0
0001a0 00 00 00 00 00 00 00 00 00 00 00 00 00 00 00 00
       0.0 0.0 0.0 0.0
0001b0 00 00 00 00 00 00 00 00 00 00 00 00 00 00 00 00
       0.0 0.0 0.0 0.0
0001c0 00 00 00 00 00 00 00 00 00 00 00 00 00 00 00 00
       0.0 0.0 0.0 0.0
0001d0 00 00 00 00 00 00 00 00 00 00 00 00 00 00 00 00
       0.0 0.0 0.0 0.0
0001e0 00 00 00 00 00 00 00 00 00 00 00 00 00 00 00 00
       0.0 0.0 0.0 0.0
0001f0 00 00 00 00 00 00 00 00 00 00 00 00 00 00 00 00
       0.0 0.0 0.0 0.0

model.2.att.W_q.bias f4 [128]
000000 70 62 81 3d dc 58 ff bc 17 36 57 bc 80 82 91 3d
       0.063176036 -0.031170301 -0.013135455 0.07104969
000010 89 ca b1 bd ca a1 e4 bb d2 8d 82 bd c7 5b 51 bc
       -0.08681209 -0.0069772946 -0.06374706 -0.012778229
000020 07 87 2c bd d1 ae a3 bc f0 f4 89 bd 74 ab 4e 3d
       -0.04212096 -0.01998082 -0.06736171 0.05045648
000030 5f 74 03 bd 1c 4f b0 bd 31 5f 91 3d 72 54 a7 bd
       -0.032093402 -0.08608839 0.070982344 -0.081704035
000040 6a b2 91 bd 1c 09 38 39 86 a2 b9 3c e8 78 90 3d
       -0.07114108 0.00017551001 0.022660505 0.07054311
000050 cd cf 80 3d dd 5f 16 3d 62 e6 9d bd e9 cb b4 bd
       0.06289635 0.036712516 -0.07709958 -0.08827955
000060 06 ef c2 3c 26 cb 59 bc 19 b3 a8 bd e1 01 d2 3c
       0.023795616 -0.013293063 -0.08237285 0.025635662
000070 d3 ad a0 3d 67 6e f3 bc ba ac a1 3b 1d ba 35 bd
       0.07845654 -0.02971573 0.0049339207 -0.044366945
000080 34 eb d2 bb 50 f0 c9 bb f9 93 0f 3d e2 2c 8d 3d
       -0.00643673 -0.0061626807 0.035053227 0.06893326
000090 df 46 0c 3d b7 22 3b bd 18 34 a4 bd 32 ab a0 bd
       0.034247275 -0.045687404 -0.080177486 -0.07845153
0000a0 ae e8 a0 bc c0 f9 86 3d bf 7e 03 bd c2 78 87 3d
       -0.0196422 0.06590605 -0.032103296 0.066148296
0000b0 3c 9c 27 bd 4a c3 91 3d 56 4c aa bc 83 f8 16 bc
       -0.04092048 0.071173266 -0.020788353 -0.009214523
0000c0 8c 5b 39 3d 13 8f ad 3d e1 76 97 3d 41 9b bd 3c
       0.04525332 0.08474555 0.07395721 0.02314532
0000d0 28 b1 2e 3d 53 30 29 bc 40 94 48 bd 30 5b 9e 3d
       0.042649418 -0.010326463 -0.048969507 0.077322364
0000e0 e2 ca b7 3a 44 ea 47 bb 18 f5 b1 3d b3 c0 26 3d
       0.0014022256 -0.0030504623 0.08689326 0.040711116
0000f0 f4 1c a2 bd 23 10 5a bb b1 40 7e bd 1e 55 4e bd
       -0.079156786 -0.0033273778 -0.062073413 -0.050374143
000100 8f 30 9f bd 78 00 2e 3d 18 0e 68 bd b2 1c a7 bd
       -0.07772934 0.042480916 -0.056654066 -0.0815977
000110 67 28 48 3c 81 4b 5b bb cd 37 49 bd 6a b7 ff bc
       0.012216664 -0.0033461752 -0.04912548 -0.031215388
000120 61 b9 3c bd 30 a0 de bb 97 c5 95 bd ca c6 45 3c
       -0.04607523 -0.006793998 -0.07313078 0.012071321
000130 2d fd 37 bc 5d c4 81 3d 88 e2 fa bc 32 58 25 3d
       -0.011229795 0.063362814 -0.030625597 0.040367313
000140 b7 92 20 3d 23 31 43 3d 9b 8a 8d 3c 5a ca 27 3d
       0.03920242 0.047654282 0.017278006 0.040964462
000150 29 0e 3e bc 09 db 6c bd e7 2a 00 3d 4d 4a 93 bd
       -0.011600056 -0.057826076 0.031290915 -0.07191906
000160 36 3c 7f bd 05 b3 24 bd ed b1 52 3b ea b1 6e 3d
       -0.06231328 -0.04020979 0.003214951 0.05827514
000170 49 9b 89 bd 47 0b a7 3c 05 7a 8f bd af 58 c4 3c
       -0.067190714 0.02039112 -0.07005695 0.023968069
000180 7b e9 0a 3d 0d 7b 50 3d 3e 72 4a bd 08 da a7 bd
       0.03391407 0.0508986 -0.049425356 -0.08195883
000190 82 94 85 3d 8a eb 75 3d 37 81 f6 3c 2b 53 71 bc
       0.06522466 0.06003908 0.030090911 -0.014729301
0001a0 71 ca 05 bc 66 25 4e 3d 06 1d 09 3d ad 81 76 3d
       -0.008165942 0.050328635 0.033474945 0.060182262
0001b0 e6 cb 2b bd 8b 40 c6 3c 92 a9 b0 bd d2 b8 81 3d
       -0.0419425 0.024200698 -0.08626093 0.0633408
0001c0 6e c2 db 3c 12 0a 08 bd 80 a4 68 3d ca 08 08 bd
       0.02682611 -0.03321273 0.056797504 -0.033211507
0001d0 9f 33 88 3d 5f b7 96 bc 07 19 11 3c 79 f3 38 3c
       0.06650471 -0.018397985 0.008856065 0.011288517
0001e0 a7 3a 97 bd 0c 7c 43 bd fc 44 3e 3d 16 3d c8 3b
       -0.07384234 -0.047725722 0.046452507 0.0061107976
0001f0 6b 7b 08 bd 46 b4 92 bc 01 d4 7e bd 55 89 ad bc
       -0.033320826 -0.017908227 -0.0622139 -0.02118365

model.2.att.W_k.bias f4 [128]
000000 18 2f 73 bc 36 cb 47 3d 21 c1 5d bd 54 cf 7e bd
       -0.014842771 0.04877778 -0.05413926 -0.062209442
000010 e3 e8 60 3d 0f e7 39 bd af 54 93 bd b6 8c ab 3d
       0.054909598 -0.04538637 -0.071938865 0.08376448
000020 c5 d2 40 3b 5e b7 9f bd 32 22 cc 3c 6b 60 80 bd
       0.0029422503 -0.077986464 0.02491865 -0.0626839
000030 12 f7 2c bc de e2 66 bd ac 68 9f 3d 49 4d 0f bd
       -0.010556953 -0.0563687 0.077836365 -0.034985814
000040 d3 36 7e 3d 6f b6 8f bd 5a bb 91 3c c0 cc db bc
       0.062064003 -0.07017218 0.017789531 -0.02683103
000050 ce df 51 bd f2 ff 36 ba 88 98 a8 bd a8 29 9b bd
       -0.051238827 -0.0006980888 -0.08232218 -0.07576305
000060 ad 5a bf bc 68 4d 46 3c 8b 9c f7 3c b1 55 0f bd
       -0.023358667 0.012103416 0.030226013 -0.03499383
000070 99 37 9a 3d 4e 9d be bc 72 47 b0 3d 21 0a 51 bd
       0.07530136 -0.023268368 0.08607377 -0.05103505
000080 45 e7 50 3d ab 64 3a 3c a9 3e 47 bc 0e 93 18 3d
       0.051001806 0.01137654 -0.012160935 0.037249617
000090 c8 03 9b 3d 94 74 0c bd a8 3e 59 ba 1b 6f e3 bc
       0.075690806 -0.034290865 -0.00082872296 -0.02776294
0000a0 a7 ac 59 3c 20 f9 e3 bc 54 f6 22 bc 1b 4b 70 3c
       0.013285792 -0.027828753 -0.0099464245 0.014666344
0000b0 d2 73 0d bb ea 37 0b bd 65 5d a9 3d 3e 4f 02 3d
       -0.0021583927 -0.03398887 0.08269767 0.031813852
0000c0 ff ea c3 bb f5 d8 6c 3d 12 74 5a bd ec 83 da 3a
       -0.0059789415 0.057824094 -0.05333335 0.0016671396
0000d0 a3 29 8e bc ea 24 3b 3c c7 16 14 3c e8 a3 24 bd
       -0.017353838 0.011422375 0.009038634 -0.040195376
0000e0 d8 91 93 bc de 47 91 bd 0c 9b 2e 3a ca db a6 3c
       -0.01801388 -0.07093786 0.0006660677 0.020368475
0000f0 e1 14 12 bd e8 b7 8c bc 5f e1 af 3d 49 04 be bc
       -0.035664443 -0.017177537 0.08587908 -0.023195403
000100 71 38 93 3d a8 ad 0c bc 76 e9 4d bd 2b 4e b3 3d
       0.071885 -0.008586325 -0.050271474 0.08755144
000110 37 8b 8c 3d 80 f2 3c bd 48 3e ab bd 93 63 36 3d
       0.068624906 -0.046129704 -0.083614886 0.044528555
000120 be 15 20 bc 2c a8 99 bc f3 4d 7e bc 6e 19 b6 bc
       -0.009770809 -0.018756948 -0.015521514 -0.022228923
000130 d5 9a 7d 3b 06 6a fc bc 8f 75 5a 3d 4c 58 62 3d
       0.0038697023 -0.030812275 0.05333477 0.055259988
000140 c1 3b fc bb 21 ad 2d bd 7b c4 6b bd 5b 52 e3 3b
       -0.007697553 -0.042401437 -0.057560425 0.006937308
000150 43 87 1f bd 0c 4b 9c bd c8 6d 2a 3d d2 0f a4 3d
       -0.038947355 -0.076315016 0.0416086 0.0801083
000160 ca 8c bc bb a0 20 9f bd dd 70 8a bd d6 b3 9d bd
       -0.005754088 -0.077698946 -0.06759808 -0.077003166
000170 cd 20 9a 3d b8 11 42 bd e6 a3 84 3d 7e af 18 bc
       0.075257875 -0.04738018 0.06476574 -0.009319184
000180 b4 9e 86 3d fe 1b 4b 3d 57 78 74 bd d2 74 a3 3d
       0.06573239 0.049587242 -0.059685078 0.07981266
000190 58 db 92 bd 88 1a ae bd 3b 9e 38 bd 45 8f 3f 3b
       -0.07170743 -0.08501154 -0.045072775 0.0029229682
0001a0 80 04 96 3d 1d ed fa bb 93 16 a4 bd 08 55 fc ba
       0.07325077 -0.0076576606 -0.08012118 -0.0019251416
0001b0 81 db 88 bd 21 39 e2 3c f7 34 96 bd 81 d4 2f 3d
       -0.06682492 0.027615132 -0.07334321 0.04292727
0001c0 c8 48 90 bb 6f bb 8a 3d e9 e3 3d 3c b7 7d 60 3d
       -0.0044032075 0.06774031 0.011589983 0.05480739
0001d0 3e 5d 5c bd d1 7b 60 3d 35 7a 9e 3c f1 a0 27 bd
       -0.05379986 0.05480558 0.019345382 -0.04092497
0001e0 8b 76 c3 3c ac fc 6d bc a7 7f 81 bd c1 3d 08 bd
       0.023860237 -0.014525574 -0.06323176 -0.033262018
0001f0 4a 99 85 bd 8c 31 4d b9 5f 76 29 bc 73 48 36 3d
       -0.06523378 -0.00019568781 -0.010343163 0.044502687

model.2.att.W_v.bias f4 [128]
000000 b5 e3 75 bb fe 3d 7d bd 70 38 06 3d dd 20 60 3d
       -0.0037519757 -0.0618267 0.032768667 0.05471884
000010 07 fb 77 bd 9b 57 99 3c 0a 88 9f 3d 16 b0 dc 3c
       -0.060542133 0.018718531 0.07789619 0.026939433
000020 71 e1 7f 3c f0 26 78 3d 73 10 c8 3a 41 1e 13 3d
       0.015617714 0.06058401 0.0015263691 0.035917524
000030 59 c3 33 3d 4b 0d 17 bd 8f b6 a9 3d 06 98 79 3c
       0.04388747 -0.03687791 0.082867734 0.015233999
000040 ed a3 af bd 71 db 01 bd 5e 47 b1 bd 5b 0f 82 3d
       -0.08576188 -0.031703416 -0.0865619 0.06350585
000050 46 7a c8 bc 06 5f a0 bd 2b 16 a1 bd c3 b3 4c 3d
       -0.024472367 -0.07830624 -0.07865556 0.04997612
000060 db 50 41 bd 93 9d 11 bd dd e3 e8 3c 67 e7 2a 3d
       -0.04719625 -0.035550665 0.028428966 0.04172459
000070 a9 85 cb 3c 37 1f 58 3d 43 49 83 bd de e9 3d bd
       0.024844008 0.052764144 -0.06410458 -0.04636561
000080 0b a3 74 bd d2 12 dc bc e5 ae 4d 3d 45 26 cf bc
       -0.059725802 -0.026864443 0.05021562 -0.025286803
000090 e8 62 1c 3d 02 47 9a 3c bd 89 23 bd ba 75 ae 3c
       0.03818026 0.018832687 -0.03992628 0.02129637
0000a0 bf a4 bf 3b ad 49 6f bd e8 1f 6c bd d4 4c a9 bd
       0.0058484967 -0.058419872 -0.057647616 -0.08266607
0000b0 ae cb 9e 3c 35 e4 31 3d ae 17 5c bb f3 62 2f 3d
       0.019384231 0.043430526 -0.003358345 0.042818975
0000c0 05 61 d0 bc 6b b5 35 bd dc f7 07 bd 87 6e 6c bd
       -0.025436888 -0.044362467 -0.03319536 -0.057722595
0000d0 bb e0 67 3d f6 f0 ed 3c 5e f2 98 bd 3f f1 a2 bc
       0.056610804 0.029045563 -0.07468103 -0.019890426
0000e0 89 59 c6 bc ac f2 ac bc 35 4e 73 ba 16 eb ba bc
       -0.024212616 -0.021111809 -0.0009281368 -0.022817176
0000f0 89 80 27 bd 36 1b a1 bd 24 d8 7d bd 33 83 ab 3c
       -0.040894065 -0.07866518 -0.061973706 0.020936584
000100 4c 63 6b bd f5 bb 88 bd 0f f0 aa bd ac 0e 0f 3d
       -0.057467744 -0.06676475 -0.08346569 0.0349261
000110 19 30 80 3c f8 9d 86 bd f9 a3 e5 3c e8 38 14 3d
       0.015647935 -0.06573099 0.02803229 0.036187083
000120 19 dd 0a bd b5 0d 42 bd bf 35 a7 3c 1a 6f 40 3d
       -0.03390226 -0.047376353 0.02041137 0.046980955
000130 04 47 cf bc 81 c4 3a 3d f5 8b 60 bd f0 29 09 bd
       -0.025302418 0.045597557 -0.054820973 -0.03348726
000140 ee 02 82 3d 9f 3e ab bd 07 41 4f 3d 72 94 8a bd
       0.06348215 -0.083615534 0.050599124 -0.06766595
000150 aa ee a2 bd 62 cb a4 3d cc da 1d bc 14 ea 34 3a
       -0.07955678 0.08046605 -0.009634685 0.00069013354
000160 2b 4a 33 3d 3c 16 9e 3d 21 4c cd bc 66 94 0e bd
       0.043771904 0.077190846 -0.025060715 -0.034809493
000170 a6 91 ab 3d 1e c9 28 bd 48 ad 21 3d 2d eb 66 bd
       0.083773896 -0.041207425 0.039471895 -0.056376625
000180 e9 36 7f 3d 02 58 49 3d 1e 8b f5 3c 6b 54 97 bd
       0.062308226 0.049156196 0.029973563 -0.07389148
000190 70 59 e5 3c 48 00 10 bd 80 a4 42 3d eb 0b 85 bd
       0.027996749 -0.03515652 0.04752016 -0.06496414
0001a0 a2 40 d7 bc e1 13 63 3d 4b 9d 81 3c 1b be c1 3c
       -0.026275937 0.05543888 0.015822073 0.02365022
0001b0 89 cc 1b 3c 49 6e fd bc e7 52 10 bc 6f 53 9f 3d
       0.009509214 -0.030936377 -0.008808828 0.077795856
0001c0 7f 84 78 3d b7 22 7a bd 80 4f b4 bd 9f 00 6f bd
       0.060673233 -0.061068263 -0.08804226 -0.0583502
0001d0 63 68 72 bd 24 89 9e bd ec c1 98 3b a9 fb 14 3c
       -0.059181582 -0.07741001 0.004661789 0.009093204
0001e0 68 58 5e bd fe 79 06 3d 07 ac d6 bc 6e ee 69 bd
       -0.05428353 0.032831185 -0.026205076 -0.05711215
0001f0 28 04 7a 3d 00 ee 8a bd ed 69 ed 3c 5a 05 06 bd
       0.06103912 -0.06783676 0.028981173 -0.032719947
