multi-job/nano_gpt_test/network_p2.onnx (onnx, 110514 bytes, 11 tensors)

transformer.h.0.ln_1.weight f4 [24]
00000000: 0000 803f 0000 803f 0000 803f 0000 803f
00000010: 0000 803f 0000 803f 0000 803f 0000 803f
00000020: 0000 803f 0000 803f 0000 803f 0000 803f
00000030: 0000 803f 0000 803f 0000 803f 0000 803f
00000040: 0000 803f 0000 803f 0000 803f 0000 803f
00000050: 0000 803f 0000 803f 0000 803f 0000 803f
1.0 1.0 1.0 1.0 1.0 1.0 1.0 1.0
1.0 1.0 1.0 1.0 1.0 1.0 1.0 1.0
1.0 1.0 1.0 1.0 1.0 1.0 1.0 1.0

transformer.h.0.attn.bias f4 [1, 1, 64, 64]
00000000: 0000 803f 0000 0000 0000 0000 0000 0000
00000010: 0000 0000 0000 0000 0000 0000 0000 0000
00000020: 0000 0000 0000 0000 0000 0000 0000 0000
00000030: 0000 0000 0000 0000 0000 0000 0000 0000
00000040: 0000 0000 0000 0000 0000 0000 0000 0000
00000050: 0000 0000 0000 0000 0000 0000 0000 0000
00000060: 0000 0000 0000 0000 0000 0000 0000 0000
00000070: 0000 0000 0000 0000 0000 0000 0000 0000
00000080: 0000 0000 0000 0000 0000 0000 0000 0000
00000090: 0000 0000 0000 0000 0000 0000 0000 0000
000000a0: 0000 0000 0000 0000 0000 0000 0000 0000
000000b0: 0000 0000 0000 0000 0000 0000 0000 0000
000000c0: 0000 0000 0000 0000 0000 0000 0000 0000
000000d0: 0000 0000 0000 0000 0000 0000 0000 0000
000000e0: 0000 0000 0000 0000 0000 0000 0000 0000
000000f0: 0000 0000 0000 0000 0000 0000 0000 0000
00000100: 0000 803f 0000 803f 0000 0000 0000 0000
00000110: 0000 0000 0000 0000 0000 0000 0000 0000
00000120: 0000 0000 0000 0000 0000 0000 0000 0000
00000130: 0000 0000 0000 0000 0000 0000 0000 0000
00000140: 0000 0000 0000 0000 0000 0000 0000 0000
00000150: 0000 0000 0000 0000 0000 0000 0000 0000
00000160: 0000 0000 0000 0000 0000 0000 0000 0000
00000170: 0000 0000 0000 0000 0000 0000 0000 0000
00000180: 0000 0000 0000 0000 0000 0000 0000 0000
00000190: 0000 0000 0000 0000 0000 0000 0000 0000
000001a0: 0000 0000 0000 0000 0000 0000 0000 0000
000001b0: 0000 0000 0000 0000 0000 0000 0000 0000
000001c0: 0000 0000 0000 0000 0000 0000 0000 0000
000001d0: 0000 0000 0000 0000 0000 0000 0000 0000
000001e0: 0000 0000 0000 0000 0000 0000 0000 0000
000001f0: 0000 0000 0000 0000 0000 0000 0000 0000
00000200: 0000 803f 0000 803f 0000 803f 0000 0000
00000210: 0000 0000 0000 0000 0000 0000 0000 0000
00000220: 0000 0000 0000 0000 0000 0000 0000 0000
00000230: 0000 0000 0000 0000 0000 0000 0000 0000
00000240: 0000 0000 0000 0000 0000 0000 0000 0000
00000250: 0000 0000 0000 0000 0000 0000 0000 0000
00000260: 0000 0000 0000 0000 0000 0000 0000 0000
00000270: 0000 0000 0000 0000 0000 0000 0000 0000
00000280: 0000 0000 0000 0000 0000 0000 0000 0000
00000290: 0000 0000 0000 0000 0000 0000 0000 0000
000002a0: 0000 0000 0000 0000 0000 0000 0000 0000
000002b0: 0000 0000 0000 0000 0000 0000 0000 0000
000002c0: 0000 0000 0000 0000 0000 0000 0000 0000
000002d0: 0000 0000 0000 0000 0000 0000 0000 0000
000002e0: 0000 0000 0000 0000 0000 0000 0000 0000
000002f0: 0000 0000 0000 0000 0000 0000 0000 0000
00000300: 0000 803f 0000 803f 0000 803f 0000 803f
00000310: 0000 0000 0000 0000 0000 0000 0000 0000
00000320: 0000 0000 0000 0000 0000 0000 0000 0000
00000330: 0000 0000 0000 0000 0000 0000 0000 0000
00000340: 0000 0000 0000 0000 0000 0000 0000 0000
00000350: 0000 0000 0000 0000 0000 0000 0000 0000
00000360: 0000 0000 0000 0000 0000 0000 0000 0000
00000370: 0000 0000 0000 0000 0000 0000 0000 0000
00000380: 0000 0000 0000 0000 0000 0000 0000 0000
00000390: 0000 0000 0000 0000 0000 0000 0000 0000
000003a0: 0000 0000 0000 0000 0000 0000 0000 0000
000003b0: 0000 0000 0000 0000 0000 0000 0000 0000
000003c0: 0000 0000 0000 0000 0000 0000 0000 0000
000003d0: 0000 0000 0000 0000 0000 0000 0000 0000
000003e0: 0000 0000 0000 0000 0000 0000 0000 0000
000003f0: 0000 0000 0000 0000 0000 0000 0000 0000
1.0 0.0 0.0 0.0 0.0 0.0 0.0 0.0
0.0 0.0 0.0 0.0 0.0 0.0 0.0 0.0
0.0 0.0 0.0 0.0 0.0 0.0 0.0 0.0
0.0 0.0 0.0 0.0 0.0 0.0 0.0 0.0
0.0 0.0 0.0 0.0 0.0 0.0 0.0 0.0
0.0 0.0 0.0 0.0 0.0 0.0 0.0 0.0
0.0 0.0 0.0 0.0 0.0 0.0 0.0 0.0
0.0 0.0 0.0 0.0 0.0 0.0 0.0 0.0
1.0 1.0 0.0 0.0 0.0 0.0 0.0 0.0
0.0 0.0 0.0 0.0 0.0 0.0 0.0 0.0
0.0 0.0 0.0 0.0 0.0 0.0 0.0 0.0
0.0 0.0 0.0 0.0 0.0 0.0 0.0 0.0
0.0 0.0 0.0 0.0 0.0 0.0 0.0 0.0
0.0 0.0 0.0 0.0 0.0 0.0 0.0 0.0
0.0 0.0 0.0 0.0 0.0 0.0 0.0 0.0
0.0 0.0 0.0 0.0 0.0 0.0 0.0 0.0
1.0 1.0 1.0 0.0 0.0 0.0 0.0 0.0
0.0 0.0 0.0 0.0 0.0 0.0 0.0 0.0
0.0 0.0 0.0 0.0 0.0 0.0 0.0 0.0
0.0 0.0 0.0 0.0 0.0 0.0 0.0 0.0
0.0 0.0 0.0 0.0 0.0 0.0 0.0 0.0
0.0 0.0 0.0 0.0 0.0 0.0 0.0 0.0
0.0 0.0 0.0 0.0 0.0 0.0 0.0 0.0
0.0 0.0 0.0 0.0 0.0 0.0 0.0 0.0
1.0 1.0 1.0 1.0 0.0 0.0 0.0 0.0
0.0 0.0 0.0 0.0 0.0 0.0 0.0 0.0
0.0 0.0 0.0 0.0 0.0 0.0 0.0 0.0
0.0 0.0 0.0 0.0 0.0 0.0 0.0 0.0
0.0 0.0 0.0 0.0 0.0 0.0 0.0 0.0
0.0 0.0 0.0 0.0 0.0 0.0 0.0 0.0
0.0 0.0 0.0 0.0 0.0 0.0 0.0 0.0
0.0 0.0 0.0 0.0 0.0 0.0 0.0 0.0

onnx::MatMul_273 f4 [24, 72]
00000000: 9be8 eb3c 60b3 263c d30c 973c ca0b 4e3c
00000010: 7367 b1bb 669c df3c bc75 ba3b 81a1 eab9
00000020: d780 093c 25c9 d2b9 5dbc 963c 6c4b 7cbc
00000030: ee81 0b3d abd4 f73a c6cc 4f3c aeaa b93b
00000040: dc8f c0bc fc38 163a 67c5 b7bc a502 323c
00000050: 644b b4ba c08e 7fbc 7256 21bc a580 843c
00000060: 4754 09bc 3985 fabc 3865 a2bc 9309 d93b
00000070: 6a12 533d dfa4 233c c958 913c 5936 8f3c
00000080: b4de 8c3c 6d98 a43b 284e 91bc 0f1a 31bc
00000090: 5e3e c8bc 2f53 ecbb 04c8 9e3c bb56 643c
000000a0: ab41 0abd b669 2fbd 201a 94bc d05d 1bba
000000b0: b8e4 b93c 1c63 4e39 c207 45bc 0766 643b
000000c0: 49df 043d 3433 e23c dbff b4bc 145d 93bc
000000d0: ad67 1c3d ad27 c33c 7940 d93b bc13 b03c
000000e0: 8b62 e13c b758 2ebb 72be 2cbc f7b7 133c
000000f0: 4781 353c 7c50 d1bc 0727 b9bc 78e5 db3b
00000100: e2f6 623b 6f6b 28bd f40a 1cbc ce7f d9bc
00000110: 7092 03bd fd1e 97bc 04e6 2f3c fed5 20bc
00000120: cd00 94bb 0159 ddbc dea3 933c e240 c13b
00000130: 1871 a0bb 72fe bbba 026a b13b 8699 633c
00000140: b273 a13c e4cc d4bb 3e43 ca3c 9858 25ba
00000150: 7176 963c 867c 443a aa9f 76ba 6704 163c
00000160: 1b69 1c3d 6fa7 bbbc 96a8 9cbc 30c7 63bc
00000170: 9724 9d3c 621b 0abd fccc b33c 692d a8bc
00000180: c75f 383c a876 00bd d4df 89b6 4721 443c
00000190: dfa6 0a3c 89fa 193c 65ce 68bc 0bd6 7a3a
000001a0: e0f0 55bc 0a24 bd3a 9629 ad3b f958 a83c
000001b0: 848f a0bc 1d63 5f3c 44a5 95bb fa44 a2bc
000001c0: 82c1 1abc e5f9 bd37 c686 b6bc ef16 523b
000001d0: 82cc 48bd 0ffb 2bba 7c9e 22bb 01a9 123d
000001e0: f935 4abc f219 51bc e2f7 873c e2ed a2bb
000001f0: 224a 623c bdff b5bb 8148 38bc 284a 083b
00000200: d994 393c 654f e9bc 1b9f d83c 3285 9aba
00000210: 1fd6 8ebc db79 363d 67da 693c b842 30ba
00000220: c237 f13b 4d05 0a3c 7905 003c 9964 99bb
00000230: b2f4 9cbc 5900 5bba 6d34 81bc bb97 b5bc
00000240: de8a 053d 5a7c 893c f485 5b3c 17f7 763c
00000250: 3c2d 67bc eff8 073d 3842 673c 8a35 b0bc
00000260: a025 9c3c 3f28 093d c288 babc 146c d5bc
00000270: 46d7 183b 8755 013c a792 92bc 6776 69bc
00000280: df32 003c d942 f53b a93e 75bc 9131 02ba
00000290: 3e6d f2bc 3546 e13c 95de 54bb 4028 86bc
000002a0: 4d51 473c e762 8b3c ab27 59bc db58 693c
000002b0: fe4f 843b a040 f9bb 0fc9 cdbb 0ad4 9d3b
000002c0: 7020 3ebd bd1c e23a 099f ad3c 2615 df3c
000002d0: f7be 833c b0d7 8dbc 9c5d 6e3c 504d b43c
000002e0: d0e4 1b3c 0b83 dfbc bda9 d9bb 3e51 e83c
000002f0: 0066 fd3c 73f1 4abc 6e21 19bb a47d 00bd
00000300: 18da d1bb 198d ed3b cb51 89ba f040 46bc
00000310: 7bda 0fbb 2959 6f3c 713c 013d 934b 00ba
00000320: 14af 0cbd c041 8e3c ccc3 6b3c 2c72 963c
00000330: 2404 2e3c 30ae cd3c 4f5a c7bb edc5 8dbc
00000340: 0d33 93bc 6018 e2bb 598c 903c cc7f 093c
00000350: f32c c7ba b3d7 013c db9e b0bb 3760 01bc
00000360: 667a 5e3c 5dd7 77bc 2a20 77bc 2da3 303c
00000370: 2a6a 2bbc 8f15 b03c 416c bebb 91c5 973c
00000380: 27b6 e0bc eec7 323c f264 2bbc 99b3 13bd
00000390: a6b8 7fbc 9704 a5bc 70e8 893c c178 8fbb
000003a0: 592b d5bb 03a7 7dbc f0d9 f13c ae1b 543a
000003b0: cd5b abbc 573a d3bb abaf 23bc fbba c43c
000003c0: 7265 373d 0ba3 32bd 984f 9c3c c03c 68bc
000003d0: 6d1c 94bc 98dd ea3c abfd 19bd 9e1b 7b3b
000003e0: 8b0c 19bd c548 c0ba 7900 8bbc 03cb 0d3d
000003f0: 15c6 d53c e7c7 453c 90f4 babc 2724 edbc
0.028797438 0.010174602 0.018438732 0.012576053 -0.0054139434 0.027296256 0.0056903046 -0.00044752288
0.008392534 -0.00040204186 0.018400365 -0.015398841 0.034059457 0.0018907984 0.012683099 0.0056660986
-0.023506097 0.0005730537 -0.022432996 0.010864888 -0.0013755378 -0.015597999 -0.00984727 0.016174624
-0.00838191 -0.030581104 -0.019823655 0.006623456 0.051531233 0.009988039 0.017742531 0.01748197
0.017196037 0.0050230534 -0.017737463 -0.0108094355 -0.024443801 -0.0072120647 0.019382484 0.013936694
-0.033754032 -0.042825423 -0.018078864 -0.000592676 0.02269207 0.00019682612 -0.012025775 0.0034850852
0.032439504 0.027612306 -0.022094658 -0.017988719 0.03818481 0.02382263 0.00663 0.021493785
0.02751281 -0.002660317 -0.010543453 0.009016029 0.011078185 -0.025551073 -0.022601618 0.0067107044
0.0034632017 -0.04111808 -0.009524096 -0.0265502 -0.032122076 -0.018447394 0.010735992 -0.009816645
-0.004516697 -0.02701998 0.018022474 0.005897627 -0.0048962943 -0.0014342798 0.0054142484 0.013891583
0.019708488 -0.0064941514 0.024690267 -0.0006307452 0.018367024 0.0007495362 -0.0009407947 0.009156323
0.038186174 -0.022906987 -0.019123357 -0.0139024705 0.019182486 -0.03371752 0.02194833 -0.020529466
0.011253304 -0.03136316 -4.108975e-06 0.011970825 0.008462637 0.009398111 -0.014209365 0.0009568638
-0.013057917 0.0014430296 0.0052844984 0.020550238 -0.019599684 0.01363447 -0.0045668203 -0.019808281
-0.00944555 2.2646922e-05 -0.022281062 0.0032057127 -0.04902316 -0.0006560543 -0.0024813702 0.035805706
-0.01234197 -0.0127625335 0.016597692 -0.0049722055 0.01381162 -0.005554168 -0.011247755 0.0020796154
0.011326992 -0.028480241 0.026443055 -0.0011788963 -0.017436085 0.044549804 0.014273263 -0.0006723809
0.007361383 0.008424115 0.007813805 -0.0046811816 -0.019159649 -0.0008354239 -0.015772069 -0.022167077
0.032603137 0.016782928 0.013398636 0.015073559 -0.014109906 0.033196386 0.014114909 -0.021509904
0.01906091 0.033485647 -0.02277029 -0.026052512 0.0023321672 0.007893926 -0.017892195 -0.014249421
0.007824629 0.0074847755 -0.014968553 -0.00049664924 -0.029593106 0.027499298 -0.0032481302 -0.016376615
0.01216538 0.017014934 -0.0132540865 0.014242376 0.004037856 -0.007606581 -0.0062800716 0.004816537
-0.046417654 0.0017250996 0.021193998 0.027231764 0.01608227 -0.017314762 0.014548685 0.022009522
0.009515002 -0.027284166 -0.006642549 0.028359052 0.030932426 -0.012386668 -0.0023365873 -0.03136982
-0.0064041726 0.007249486 -0.0010476647 -0.012100443 -0.0021950293 0.01460866 0.031551782 -0.0004894074
-0.034346655 0.017365336 0.014389943 0.018364988 0.010621104 0.025107473 -0.0060837637 -0.017306292
-0.017968679 -0.0068998784 0.017645048 0.008392286 -0.0015195891 0.007924962 -0.005390031 -0.007896475
0.013578987 -0.01512703 -0.015083352 0.010781092 -0.010462323 0.021494655 -0.0058112447 0.018526824
-0.027430607 0.010911925 -0.010461079 -0.03605995 -0.015607988 -0.02014379 0.016834468 -0.0043784087
-0.0065054116 -0.015481713 0.029522866 0.0008091283 -0.020917797 -0.0064461636 -0.009990613 0.02401494
0.04477448 -0.04361252 0.019080922 -0.01417464 -0.01807996 0.028670117 -0.037595432 0.0038316022
-0.037365478 -0.0014670125 -0.016967999 0.034617435 0.02609543 0.012071586 -0.022821695 -0.028947903

onnx::MatMul_283 f4 [24, 24]
00000000: 2fa5 00bb 8315 88bc 3d7d e239 84be 64bc
00000010: 9461 b7bb 5076 c53b 02ad 51bc 424b 21bb
00000020: 65be 4dbc 046f 84bc bb07 08bc 4911 cfba
00000030: a1bd 5c3c e1b7 243a 9b35 0b3c 2bbc 9cbb
00000040: a2ce c53a 3da3 913b ede8 8fbb 378e 06bc
00000050: 786b d0bc ce7d cebb 64c6 04bc 0ed1 5bbb
00000060: 3ef2 2abc 68b1 18bc 49e7 5fbc f3c7 e6ba
00000070: 70b4 a53b be1e 3e3a 27f9 5abb f611 80bb
00000080: 62e3 7b3a 0d2f 383c bc6f 10bc a1f8 413c
00000090: a0e0 993b d8c4 033b 6d96 1a3a ce82 4abb
000000a0: 9b06 d7bb d70b d0bb 6bfe a1bc 213a 42bc
000000b0: f4dc 06bc 8174 5ebc 3576 a23b 8bff 1ebb
000000c0: c586 99bc f898 06bc 2226 2bbc de97 5a3b
000000d0: d247 9bbc 6f70 443b 1997 2d3c cc08 0abc
000000e0: 74d0 24bc f6fd 92bb c5de cf3b a677 73bb
000000f0: 39b3 55bb cf3b b5ba 0064 ebbb 35f0 df3c
00000100: 4c91 6e3c 8708 e1bb e2c0 993b 17cd 96ba
00000110: 8b58 3c3c e55d f43b 007e 17bb 756e 3f3c
00000120: a73d be3b 0f2f b6bb 4625 fe3b e916 25bc
00000130: d4cf 113b be9e ef3b e4e1 133c 11ab 10bc
00000140: 8022 133c c473 46bb ef6e dd3b c24a 86bb
00000150: 6797 86bc 1769 00bc 9c21 ed3b 1f9a 01bc
00000160: 9d50 2c3b 5223 2fba 4cef ed3a 6d6a 983b
00000170: 5ba4 ecba 24f7 4d3c 0375 f73b 4b6e c33a
00000180: 19fe b8bb cc93 723a 6b78 c2b9 d80e 46bb
00000190: 8aa8 e3bb 502d c73b f4f8 c53b 7904 ea3b
000001a0: a9bb eebc 220d 5738 efe2 4cbc 301f 6b3c
000001b0: f29b 25bc 6663 4cbc 2aa3 36bb 4f37 633c
000001c0: e107 cb3b 104e c13b 5334 cd3a e54b 91ba
000001d0: 959c 91bc 3693 8e3c 18b7 fcbb 54ad 443b
000001e0: 1c44 69bc 7e52 1cba 7eef d2bb 2fad eb3b
000001f0: 5d4e da3b ee71 c3bc 8778 163c 14f7 493c
00000200: 0e31 73bc 6fc6 2c3a 77e5 0e3c cd8b c8bb
00000210: d562 ba3b 855c 56bb 112d 9d3c fb52 5dbc
00000220: 6793 013c 16e7 8bbb 8530 db3b b018 61bb
00000230: 7e15 59bc 8236 e2bb b4d7 84bc 84fe 3dbc
00000240: 50fc 05bb c52c b73b 4a2c 05bc 249a 2eba
00000250: a957 93bb 45ba a2bc 8687 11bc 114b 86bc
00000260: cb3f 98bb a0d5 93bc dd5d 0abc c409 36bc
00000270: 0b9f 64bc 9ecd a1bb c0bf 59bc dea6 29bc
00000280: f5f8 90bc 5bcf 893b 6815 9f3b 4fd1 f93b
00000290: 0a9e c7bb 2926 febb c01a d53b b5a2 20bc
000002a0: b063 90bc 96c1 9ebc 8e03 59bc 326f cfbb
000002b0: b7fd af3b 1ec2 623c 74a1 92bc f907 8ebb
000002c0: fbc5 5e3b 799e 1dbb c219 fe3b 8016 39bb
000002d0: 27ec 8ebb 1dbb 6ebc b325 4cbc 5677 983c
000002e0: a558 513c a482 61b9 bbb4 2bbc e3eb 07bc
000002f0: d85b ba3b 8517 7bbb 30ab 563c dcee fcba
00000300: 2952 073c d0d1 81bc 41f0 cebb abd4 09bb
00000310: 32e5 623b fa5e 05bc 7907 c33c 9427 21bc
00000320: bf17 8abc 5eb2 9e3c 89da 103b b77e 283c
00000330: 9d95 a73b c5a5 c839 9ebb bdba 044f 46bb
00000340: b2d5 213b 8417 62bb f13f 803c 0d81 ad3b
00000350: 8c85 8d3c 6b0f 053c 975e 293c 0263 113c
00000360: 8fdc 64bc 8b11 bf39 0718 fdba de89 0f3b
00000370: c74c b83a 62ce 323c 1b69 c53b 408d 5c3b
00000380: 1cde 8dbc 2648 6cbb 32ed 113c 7e34 4e3c
00000390: fcce 303b c874 0b3b c9c3 61bc 3fa2 963b
000003a0: 79c5 c53b 9f0d 153d 7217 f73b 2146 c3bb
000003b0: fd0f 9e3b e251 51bb f72a 3bbc acec 973b
000003c0: 4b3c 4a3c a62a 2c3c fe9b 52bb 3257 ed3b
000003d0: 4b9d 273b b61b 1cbc 42a4 003c a79d ebbb
000003e0: b42c 99bc 70c5 443a af86 13bb 4fa3 723c
000003f0: 5683 953c b7dd 18bb b9ae 46bb 1947 29bc
-0.0019629707 -0.01661182 0.0004319939 -0.013961438 -0.005596349 0.006026067 -0.012797596 -0.0024611508
-0.012557601 -0.016166218 -0.008302624 -0.0015797998 0.013472945 0.00062835036 0.008496667 -0.0047831736
0.0015091489 0.0044445083 -0.0043917806 -0.008212618 -0.02544187 -0.006301618 -0.008103941 -0.0033541354
-0.010433732 -0.009319641 -0.0136659825 -0.0017607197 0.00505691 0.0007252506 -0.0033412667 -0.003908391
0.0009608773 0.0112416865 -0.008815702 0.011839063 0.004695967 0.0020106342 0.0005897049 -0.003090072
-0.0065620667 -0.0063490677 -0.019774636 -0.011854679 -0.00823139 -0.013577581 0.004957939 -0.0024261202
-0.018741021 -0.0082151815 -0.010446103 0.003335468 -0.018955145 0.0029974242 0.0105951065 -0.008424949
-0.010059465 -0.004485841 0.006343695 -0.0037150173 -0.0032608046 -0.0013827028 -0.007183552 0.02733622
0.014561009 -0.0068674716 0.004692183 -0.0011505213 0.01149572 0.007457482 -0.0023115873 0.01168405
0.0058056894 -0.005559809 0.007755908 -0.010076263 0.002224912 0.0073126247 0.0090260245 -0.008829848
0.008980393 -0.0030281404 0.006757609 -0.0040982673 -0.016429616 -0.007837555 0.0072366726 -0.0079102805
0.0026293166 -0.00066809834 0.0018152981 0.004651359 -0.0018054353 0.01257113 0.0075517907 0.0014910189
-0.005645525 0.0009253591 -0.00037092282 -0.003022125 -0.0069475817 0.0060783997 0.0060416404 0.0071416465
-0.029142218 5.1272225e-05 -0.012505277 0.014350697 -0.010107981 -0.01247487 -0.002786825 0.013868167
0.0061960076 0.0058991984 0.0015655853 -0.001108524 -0.01777486 0.01740418 -0.007712256 0.0030010538
-0.01423743 -0.000596322 -0.006437241 0.007192276 0.0066621737 -0.023858037 0.009184009 0.012326974
-0.0148432385 0.0006590848 0.008721701 -0.006120181 0.005688051 -0.0032708955 0.019186528 -0.013508554
0.007908679 -0.004269491 0.0066891336 -0.003434699 -0.013249753 -0.0069034705 -0.016216137 -0.011596326
-0.002044458 0.0055900537 -0.008128235 -0.0006660542 -0.004496534 -0.01986421 -0.008882409 -0.016393216
-0.0046462766 -0.0180462 -0.00844523 -0.011110727 -0.013953934 -0.0049378416 -0.013290346 -0.010354726
-0.017696837 0.004205627 0.0048548467 0.0076238285 -0.006091838 -0.007756014 0.006503433 -0.009804417
-0.01762566 -0.019379418 -0.013245476 -0.006330394 0.0053708213 0.013840226 -0.017899252 -0.0043344465
0.0033992517 -0.0024050756 0.0077545354 -0.002824217 -0.0043616476 -0.0145709785 -0.01246016 0.018611591
0.012777482 -0.0002150634 -0.010480101 -0.008295986 0.005687218 -0.003831358 0.013102338 -0.001929726
0.008259335 -0.015847117 -0.0063152616 -0.00210313 0.0034621474 -0.00814032 0.023807274 -0.009836096
-0.016857026 0.019372161 0.0022102913 0.010284117 0.005114271 0.0003827048 -0.001447547 -0.00302595
0.0024694023 -0.003449888 0.01565549 0.005294925 0.017275594 0.008121352 0.010337493 0.008873703
-0.013968601 0.0003644343 -0.0019309529 0.0021902244 0.0014060967 0.010913463 0.0060244924 0.0033653527
-0.017317824 -0.0036053746 0.008906649 0.012585757 0.002697884 0.0021279324 -0.013779589 0.004596978
0.0060355035 0.036389943 0.0075406367 -0.0059592878 0.0048236833 -0.0031939675 -0.011423818 0.004636368
0.0123434765 0.010508215 -0.0032136436 0.0072430605 0.0025575932 -0.009528091 0.007851662 -0.0071904245
-0.018698074 0.0007506227 -0.0022510698 0.014809444 0.018251102 -0.0023325512 -0.0030316545 -0.010331892

onnx::MatMul_284 f4 [24, 96]
00000000: af3d dfbc 936f 62bc 797e 503b 100d fcbc
00000010: bc8d fcbb ee9a 173d 9066 41bc 6614 46bc
00000020: 0de1 053c abfd db3c 0a32 6a3c 8a97 d1bc
00000030: db84 e2bc 067a 63bc edc5 3fbc c83d 853c
00000040: dea4 71bb 01ef bfbc e2a0 673c fa84 06bc
00000050: abd9 023d d70a cf3c 08d3 0bba 8b1d 85ba
00000060: 303b 193c ca60 543b 66e2 e23c 005f 06bc
00000070: 4431 cabc 7c2f 603c 58b0 f23c 0770 d2bc
00000080: cb3e bf3c 6bb5 013d 19b8 a33a deef 3dbc
00000090: ac02 5e3c 6e9d 98b9 09b9 9b3c 99df f63c
000000a0: f831 5aba 2222 cebc 32bb 09bd 549a 75bc
000000b0: 9631 9b3c 62a5 d7bb 5d4e 773c decf f8bb
000000c0: e2f3 d7bb 47ce b1bb 0119 303d 9405 a9bc
000000d0: 446d bbbc 2462 14bc efba acbb 00f6 2abd
000000e0: 10f7 6b3c d33d d6bc 72a7 1dbd 5818 993c
000000f0: 035d 77bc aa12 3d3c 3c33 a63c d447 d9bc
00000100: b37a 83bc f8d8 6fbc 421e 58bc f563 cfbc
00000110: 3e73 db3b 066b 063c 4a07 c3bb db97 b8bc
00000120: 4b08 0bbc 738d 763c 097f 393b 3bbe fa3c
00000130: e789 ddbc 93ef 32bc 0e9c 41bb 7eac d7bc
00000140: 3daa 8a3c a7b9 4d3d ec32 083c 5dd3 7d3c
00000150: 36b5 233a f1fc 003d c341 f13b ddc8 ddbb
00000160: c9f4 bcbc 34db 873c bcef ec3b 7697 9eba
00000170: 1e7a 7f3b ef0a 9d3c b2ee be3c 616c 4e3a
00000180: 0d0d c0bc 66fd dd3b 2510 703c acc0 86bc
00000190: 6b29 afbb 0af6 19bb 10aa 0d3b 7d32 113d
000001a0: 72f6 fb39 f41d 223d 9961 b73c 4973 f1bc
000001b0: a9bf 743a aaf8 023d 93d0 adbb eb4e 1cbd
000001c0: 98c5 633d a447 dbbc a769 1a3c f9fc 9b3a
000001d0: 4d42 c9bc 46f4 08bd 0cb6 e23c c717 a13c
000001e0: 393b f73c 7b4f 91bc 1efd a03c e1eb b5bb
000001f0: 0091 653c c741 3e3c 8454 98bc cf11 8e3c
00000200: 853f 203b 4a63 89b9 809d 483c f47e 6f3c
00000210: 20d6 87bb ef6e 7d3c ea1d dc3b 4fce 013c
00000220: e622 a7bc e227 1a3c e6fe 67bd 219b d33c
00000230: 956d db3c 907d 4fba 20e9 c03c ca1f 12bd
00000240: 0dfa 30bd 622f ad3c 1ab2 043d 3ef7 34bd
00000250: 610c 4e3d 07da 24bd c4c1 8d3c ad6b b93b
00000260: e683 1ebb 325f a73c 7d57 42bc d25b 97bc
00000270: 3ba5 f83c 5315 b1bc 97ef 383c e4ef e53b
00000280: 3b40 513c 062f 0ebd b91e d63b e0b9 193c
00000290: 3de2 89bc fb70 bb3b 70b0 31ba 1170 95bb
000002a0: 690a 73ba 8d9a 3d3d 8298 403c 9e30 66ba
000002b0: afeb 133d 5da9 06bc 2561 8bbc 07fa 943c
000002c0: 27e2 603c 8934 3cbc 07b6 f4bb 8e96 cb3c
000002d0: c50c 053c 6916 243d 328c 7cbc 4947 b43b
000002e0: f21f a33c 1300 7b3b adf6 c1bc 6269 c93c
000002f0: d7c6 113c 4084 333b 6e95 c93c ee37 d43a
00000300: 6b8b d4bc 9b79 efbc 4398 76bc 9240 163c
00000310: 0758 4cbd 82f4 3dbc ad74 2d3a 15fa 8b3a
00000320: 3923 2abc c10a 0a3d 665e 7d3c 1e35 78bb
00000330: 43ca 043d 963c a93b 4591 263c 8c06 7e3c
00000340: 067f 143b 9b88 07b9 e48c 0cbb 208e d73b
00000350: a2d7 073c 3bfa f33c 1e49 28bc c264 5c3c
00000360: b485 19bc 67dd 05bc f675 823a 7cb2 bb3c
00000370: 8b30 ea3b 7566 97bc 85e9 eabc c505 d1bc
00000380: 873c b03b f68c 89bc 2ac3 a33b 7070 a9bc
00000390: eb35 ab3b bb50 233a 0000 a7bb 5fc7 173d
000003a0: 81ce 29bb 375c d5bb 3515 02bd 5257 6dbb
000003b0: 9b99 d43b f06a bebc 01f1 afbc b41a 23bc
000003c0: 6ccb 94bc 3889 bfbc 19f4 613c 732b 7dbc
000003d0: ee6b fb3c e46d 423c 4771 3d3c e5af a93c
000003e0: 35a1 fdbb a171 cbba 06f0 8fbb 2b7b 1e3c
000003f0: 7896 4ebc 5743 cc3c 0288 00bd f819 7f3c
-0.027251093 -0.013820547 0.0031813665 -0.030767947 -0.0077073257 0.037012987 -0.011804238 -0.012089824
0.008171332 0.026854357 0.014294157 -0.025584955 -0.027651241 -0.013884073 -0.011704904 0.016264811
-0.003687195 -0.023429396 0.014137479 -0.008210415 0.031945866 0.025273724 -0.00053338753 -0.0010155899
0.00935249 0.0032406324 0.027695846 -0.008201361 -0.024681695 0.013683196 0.029625103 -0.025688184
0.023345372 0.031667154 0.0012490778 -0.011592833 0.013550442 -0.00029108993 0.01900913 0.030135917
-0.0008323486 -0.02516276 -0.03362579 -0.014990408 0.018944543 -0.0065809945 0.015094367 -0.007593139
-0.0065903524 -0.0054262015 0.042992596 -0.020632543 -0.02287925 -0.009056602 -0.0052713077 -0.04173851
0.014402166 -0.026152527 -0.038489766 0.018688366 -0.015097859 0.011540094 0.020288102 -0.026523508
-0.016049718 -0.014639132 -0.013190808 -0.025316218 0.0066970875 0.008204227 -0.0059517967 -0.022533348
-0.008485864 0.015048373 0.0028304479 0.030608287 -0.027043296 -0.010921377 -0.0029542479 -0.026327368
0.016926879 0.05022588 0.008312922 0.015492287 0.0006244959 0.031491224 0.0073625757 -0.0067683295
-0.023065941 0.016584016 0.007230727 -0.0012099582 0.00389827 0.019170253 0.023307178 0.0007874426
-0.023443723 0.006774592 0.014652287 -0.016449295 -0.0053455136 -0.0023492598 0.0021616258 0.03544854
0.00048058067 0.039579347 0.022385405 -0.029473918 0.0009336421 0.031975426 -0.005304405 -0.0381612
0.055608362 -0.02676756 0.009424604 0.0011900953 -0.024567747 -0.033436082 0.027674697 0.019664658
0.030179607 -0.017738095 0.019651946 -0.0055518006 0.0140116215 0.011612362 -0.018594988 0.017342476
0.0024451923 -0.00026204652 0.012244582 0.01461767 -0.0041453987 0.015468343 0.006717433 0.007922723
-0.020402383 0.009408923 -0.056639574 0.025830807 0.026785651 -0.00079151336 0.023548663 -0.035674848
-0.043207217 0.021140758 0.032396413 -0.0441811 0.050304774 -0.04024699 0.017304309 0.005658588
-0.0024187504 0.020431135 -0.011861679 -0.0184764 0.030352226 -0.021616613 0.011287591 0.0070171226
0.012771661 -0.034712814 0.006534424 0.009382695 -0.016831512 0.0057202554 -0.00067783054 -0.0045604785
-0.00092712656 0.04628997 0.011755111 -0.0008781048 0.036113437 -0.00821909 -0.017014096 0.018185629
0.013725794 -0.011487135 -0.0074679884 0.024852064 0.00812072 0.040060434 -0.015414285 0.005501662
0.019912694 0.0038299605 -0.023677194 0.024586383 0.008897505 0.002739206 0.024607386 0.0016190985
-0.025945386 -0.02923279 -0.01505095 0.009170668 -0.049888637 -0.01159394 0.00066168123 0.0010679389
-0.010384374 0.033701662 0.015464401 -0.0037873457 0.032419454 0.005164693 0.010166471 0.015504491
0.002265872 -0.00012925493 -0.0021446282 0.006578222 0.008291157 0.029782405 -0.010271339 0.013451757
-0.009370256 -0.008170462 0.0009953368 0.022912256 0.0071469 -0.018481473 -0.028675804 -0.025515446
0.005378309 -0.016790848 0.0049976306 -0.020683497 0.0052249334 0.00062299863 -0.0050964355 0.03705537
-0.002591044 -0.006511237 -0.031758506 -0.0036215377 0.0064880378 -0.023244351 -0.021477224 -0.009955097
-0.018163405 -0.02338086 0.013791108 -0.015452254 0.030691113 0.01186702 0.011562652 0.020713756
-0.0077401646 -0.0015521535 -0.0043926267 0.00967292 -0.012609117 0.024934454 -0.031379707 0.015570156

onnx::MatMul_285 f4 [96, 24]
00000000: 3e61 05bc 78c8 cbbb d226 2b3c 82f3 98bc
00000010: 5032 dcba 6b89 6f3c 9806 b6bb 29ae 28bb
00000020: fe95 d23b 4a96 31bc 0f0e a73b 8f60 383b
00000030: 9398 303c e1b5 cb3a c57d 773b b5f8 76bc
00000040: 1dbd 893c 371f 4fbb e8f4 19bb 62ea e2ba
00000050: 0434 a83a 7e01 a8bc 500c 3dbc e426 333c
00000060: f8ac 9dbb b8ca 223c 75c1 10bb 4903 2e3c
00000070: 3920 35bc d951 15bb a5b4 7d3a 6708 b8bb
00000080: 7282 16bc d645 843b 03ab 8dbc 81ab 463c
00000090: 462a 8e3c 94a5 11bc 5ea3 5ebb 6f2c e03a
000000a0: b743 653c d638 99bc 2690 a03b 4623 02bc
000000b0: 0506 b139 fd5b d039 797d 08bc 6212 0f3c
000000c0: 2693 edbb c6a1 f9bb 570c 443b bb8a cabb
000000d0: 9397 a3bb 491d a9bb 5c8e c5bb 490f 4ebb
000000e0: 93c8 f3ba 6c89 ebbb 8c8e 53bb 8d74 c7ba
000000f0: 1c63 43bb 4e34 cd3b 0da2 0d3c af33 e23a
00000100: e2bc 0dbc f4ef 0fbc c637 a93b 43ac ecba
00000110: 2127 70bb eed1 c8bb 9009 bebb c0cd 19bb
00000120: 3a4b 20bc 8fe6 cd3a f905 bc3b 2e8e a8b8
00000130: 2d75 3ebb d2db 1bbb a07e dfbb a21c 453c
00000140: 0c7d 17bc a752 813a fb5f cb3b 90ac 003c
00000150: 1799 40bb 9e85 97bb 72e5 143c fca7 5d3b
00000160: e4e9 0cbc d4b4 9bbb a9cb 383c a26d 6fbb
00000170: 2669 61bb ede6 99bc 9df2 0c3c 3bb0 46bc
00000180: eebc 013c 8538 4b3c b552 cd37 ca55 26bc
00000190: 30eb 88bb 1c77 7fbb 99c6 613c 401e 5ebb
000001a0: b980 5a3c a50c 8039 727d 52bc 6b58 603c
000001b0: de42 2939 a96a a3bc 4efa c3ba c085 1cbc
000001c0: b465 8a3c abeb 19bc 97a5 05ba 4a7f 55bc
000001d0: 82f6 a2bb 5e30 c4bb bc88 c93b 17b8 15bb
000001e0: 39ad d73b ee80 863b 8c4f 033c f919 a53c
000001f0: 4b38 b03b 8eb4 37bc 1bab 773b 6dc4 413b
00000200: 3558 3a3c 1c26 80bc 0209 853c e543 423b
00000210: 371b 6e3b 9e75 2cbb 3e36 fc3b 6933 1d3c
00000220: fd0b 0abc 27af ff39 a0f1 243b 97d4 2ebc
00000230: d545 e63b bd8f 0f3c 993c 5c3c 6eae c6bb
00000240: b029 f5bb d988 e43a bb86 ddbb 291c e7bb
00000250: d8a9 2a3c 959e 753b c3f6 f93a 83ef 17bc
00000260: 12af 0dbb 6dd8 31bc 21bd 253c ae8c 3238
00000270: 9f97 1abb b258 30bc e64e 0cbc 4c97 e43b
00000280: e2c0 833b 829b 80bc 00a7 54bb f088 bf3b
00000290: 45d3 74bc 9db3 003c 77ae 56bc 6d27 a9bb
000002a0: e687 a63b 7c1c f3bb 5e60 b7bb be53 c4b9
000002b0: 97da c63a 54ea 1cbc 86b5 eeba 903f 6a3c
000002c0: fbbb a5bb 7c1e 03bc 6fd5 cc3c 40df 60bc
000002d0: 7809 77bb 69e9 2c3c b315 41bc 12b4 cf3c
000002e0: 665d 11bc 984a 8abb 9765 8d3c d4dc 473a
000002f0: 0245 30bc 79ac 35bc 385d 4f3c f3ae 62bc
00000300: 01e6 47bb a52d 153c 4c98 4dbc 4a94 2dbb
00000310: ab8b 51bb 9548 59bc 56df acbb e746 1abc
00000320: f1a0 003c adcc a23b 3bf5 b9bb 8612 f7bb
00000330: bcba 33bc 00da e7bb 2a9e 39bc 6a1a 1a3b
00000340: b2cc 023a afe2 33bc 2c1a 75bb faf6 823c
00000350: d041 203b e2e8 233c af1a c43c 55c2 4abc
00000360: 6622 ba3b fa51 993b 7406 993b acca 9c3b
00000370: 399a 3abb c587 9f3b 004d aebc 0ed1 b83c
00000380: cbdc 81bb b937 10bc 8433 c1bb b069 093c
00000390: d540 533c efd4 293c 0624 2f3c d3b7 50bb
000003a0: fd2b 223c f03f 843c 061e 393a 1886 c73b
000003b0: 9718 8bbb de6a 403a 458b c4ba 87a0 8ab9
000003c0: d1b8 8cbb d0c8 7abc 4934 c93c 062b d03a
000003d0: a907 bd3b 7890 8abc 8648 0fbc 295a aebb
000003e0: 5571 cd39 45f2 a4bc 82db 9a3b 846d 573a
000003f0: f38b 32bc 9020 26bc 9c5d 1cbb 0cba 0f3c
-0.00814086 -0.006218966 0.010446267 -0.018670801 -0.0016799662 0.014620165 -0.0055549853 -0.0025738573
0.006426572 -0.010839054 0.0050981115 0.0028133725 0.010778564 0.0015541875 0.0037764173 -0.015073945
0.016813809 -0.00316043 -0.0023491923 -0.0017312283 0.0012832885 -0.020508524 -0.01153858 0.010934565
-0.0048118792 0.009936027 -0.0022087966 0.0106209 -0.011055046 -0.002278438 0.0009678102 -0.005616236
-0.009186374 0.0040366454 -0.017293459 0.012125851 0.017354142 -0.008889575 -0.0033971886 0.0017103086
0.013993195 -0.01870386 0.0048999963 -0.00794298 0.00033764556 0.00039741388 -0.008330696 0.00873241
-0.0072502075 -0.007618162 0.0029914582 -0.0061810887 -0.0049924343 -0.0051609618 -0.0060289335 -0.0031442216
-0.0018599204 -0.007188013 -0.003228101 -0.001521723 -0.0029813712 0.0062623387 0.008644593 0.0017257835
-0.00865099 -0.008785237 0.0051641194 -0.0018056709 -0.0036644416 -0.006128541 -0.00579948 -0.0023468584
-0.00978356 0.0015708971 0.0057380167 -8.037347e-05 -0.0029061541 -0.0023782146 -0.006820515 0.012030752
-0.009246122 0.0009866551 0.00620651 0.007853642 -0.0029388124 -0.0046240827 0.009087907 0.003382205
-0.008600686 -0.004751781 0.011279025 -0.0036533852 -0.0034394949 -0.018786872 0.008602765 -0.012126978
0.0079185795 0.012403612 2.4476418e-05 -0.01015229 -0.004178427 -0.0038980907 0.0137802595 -0.0033892542
0.013336354 0.00024423483 -0.012847291 0.0136929555 0.00016142006 -0.01994832 -0.0014951916 -0.009553373
0.016894199 -0.0093945665 -0.0005098222 -0.013030836 -0.0049732337 -0.005987211 0.006150333 -0.0022845322
0.006581929 0.004104725 0.008014571 0.020153986 0.0053778044 -0.011212481 0.0037791196 0.0029566542
0.011373569 -0.015643172 0.016239647 0.002964252 0.003633214 -0.0026315222 0.007696896 0.009594777
-0.00842571 0.0004876789 0.0025168434 -0.010670803 0.0070273676 0.008762297 0.013442182 -0.006063274
-0.007481776 0.0017435803 -0.006760446 -0.0070529175 0.0104164705 0.0037478555 0.0019070733 -0.009273413
-0.0021619243 -0.010854823 0.010115893 4.2569525e-05 -0.0023588908 -0.010763334 -0.008563733 0.006976044
0.004020796 -0.015699152 -0.0032448173 0.0058451816 -0.014942949 0.007855323 -0.013103119 -0.0051621706
0.0050821183 -0.007419167 -0.0055962047 -0.00037446426 0.0015171346 -0.009577353 -0.0018212057 0.014297381
-0.0050578094 -0.0080028735 0.025004117 -0.013725102 -0.0037694853 0.010553696 -0.011784959 0.025354419
-0.008872366 -0.004220318 0.017260356 0.00076241535 -0.01075864 -0.011088484 0.012656502 -0.013835656
-0.0030502083 0.009105121 -0.012548517 -0.0026486092 -0.0031974118 -0.013261934 -0.005275647 -0.0094163185
0.007850871 0.004968247 -0.0056749857 -0.00754005 -0.010969814 -0.007075548 -0.011329213 0.002351428
0.00049896084 -0.010979339 -0.0037399633 0.015986908 0.002445329 0.010004254 0.023938505 -0.012375434
0.00568037 0.004678962 0.0046699587 0.0047849026 -0.0028473272 0.00486848 -0.02127695 0.022560623
-0.003963088 -0.008802348 -0.0058960337 0.008387014 0.012893875 0.010365709 0.010689741 -0.003184785
0.009898183 0.016143769 0.0007061664 0.0060889833 -0.0042448747 0.0007340143 -0.0014995119 -0.00026441013
-0.004294493 -0.0153066665 0.024561064 0.0015881963 0.0057687354 -0.016914591 -0.008745318 -0.0053208065
0.00039185086 -0.020135054 0.0047258744 0.0008217918 -0.010897624 -0.010139599 -0.0023859506 0.008772384

onnx::MatMul_286 f4 [24, 72]
00000000: 6d4a b43c 8930 23bb c668 563c d44e 0d3c
00000010: 0f1e 763c f89e 8ebc d4af 193b 8b2c 8cbb
00000020: b250 60bc 7799 863b 5461 0abd f7c3 893b
00000030: 4fd9 373d 039b 0abc ca57 90bb e72f bf3a
00000040: 495f 623c 47c2 e53c 1b49 bc3b 78cb aabb
00000050: f3d1 383c 806f 17bc 1ee6 b5bb 1f67 1c3d
00000060: 7326 03bb b086 01bd 8943 4e3c a405 e43c
00000070: 6aba 4ebc f288 a53c a234 8cbc 3b9a 4c3b
00000080: f089 dc3b b8ec c3bc 2349 e83b 064d b0bc
00000090: a996 313c 0ab4 d0bc 8e8d 5fbc 8129 43bc
000000a0: 9068 bd3c 7510 543b afd9 8ebb 5255 0d3b
000000b0: b5e6 b83c 4694 983c 354e 383d 6068 f53c
000000c0: ab2b 03bc c1c1 c83b 70eb 6cbc 5895 c13c
000000d0: 817e 42bc 1216 12bb 2b34 93bc eadf e1bb
000000e0: cf12 4fbc a110 ce3c 6c99 f13a ebc2 b33c
000000f0: b91e cfb8 fe92 c23c 25fe dfbc c013 49bc
00000100: a795 acbc e069 02bc aaf3 a43c 6f2c 2f3b
00000110: 871c db3a dbe2 a93c 1317 4a3c 1113 98bc
00000120: 6a56 40bc 93b7 b3bb b5e6 60bc 2022 b2bb
00000130: 8b94 013d 184c bbbc a451 a8bc d54d e33c
00000140: 2f94 7b3b 7941 e43c c423 e43b 5bec 2a3c
00000150: 5906 96bb 3fd2 953c 5dbb 743b 3d67 b8bc
00000160: ed73 143b 0b00 c6bb 5df5 ad3b aa7d c3b9
00000170: a9e2 743c 415e 3d3c 8b83 31bc e58b 3abc
00000180: ee82 4b3d 4afd c73c c3a6 e8bc 2aa1 c2bb
00000190: eff5 0cbc ff50 833c 1957 8e3c 27ba 413b
000001a0: a635 01bd b4aa 9ebc 9238 8ebc 5ef2 123d
000001b0: 67dd edbc 7d6b 54bc 2edb 1f3b 3df0 2abc
000001c0: 869c 5a3c 29b8 b93c 2be0 233b 4baf 33bc
000001d0: 6ab9 8dbc 2119 ce3b 5baf a4bc a3e9 9d3c
000001e0: 5712 5b3c 74c3 893c 3d52 063c bf75 86bc
000001f0: 0b18 3ebc eb01 bc3c 1e47 b13b a5a3 b63c
00000200: 51ae a13c d5cf 63bc c54b 32bd 9da5 eb3c
00000210: 7653 96bc 3c4c 88bc 2f18 e23b 2b7a bc3c
00000220: 6c9a 05bd d265 343d edcf 42bb 6065 d9bc
00000230: 5542 593d c691 7fbc 8202 cdbc c829 043d
00000240: d45a 22bb ad4b 86bc 327d 08bc 8d25 0b3c
00000250: 401b abbb 9ce6 1ebc 9094 7f3c 500c 8cbc
00000260: 9e0c 47bc 45a3 0abc 5f61 893c 27c0 053b
00000270: 0452 04bd 36dd 213d d8ad cdbc 28b8 85bc
00000280: 6776 ea3a 926e a1bc 91e9 033c 5b46 823b
00000290: dc45 a43c 9557 383c c217 d6bc ea22 c53c
000002a0: 3e5f e0bb 5330 c7bb 2a8b 87bc aeb1 a23c
000002b0: 77c0 523c efd2 953c 2f35 c539 a671 733d
000002c0: d256 9ebc 1842 443c 1893 25bd e358 973c
000002d0: e4c4 8f3c 698e aabb 583a 443c 20cd 29ba
000002e0: 875f c03c f3a1 c8bb 8d39 10bc 95a5 bdbc
000002f0: 8f25 bdbc 5c0b 0f3c caac d43b 90dd ae3b
00000300: eb10 10bd 9b65 ccbc 2d13 c1bc 33f0 dfbb
00000310: 1886 153c 2c12 dbbc f36c ac3c f6bd 1fbc
00000320: fbb8 ef3c 74e2 f83a f157 8bba fd85 9b39
00000330: 9072 5b3d fdcb 503b e2e4 87bc 90d3 263d
00000340: ed46 0dbd 9874 59bc 53f8 dfbb e22b c7bc
00000350: c6eb cebc 664e 79bc 3789 5cbc c04b 583b
00000360: 22b4 bebc 5716 87bc 7fe0 03bd cb2e b53c
00000370: 5c64 f73b 1012 a6bc 6aae c53c 7ec0 d4bc
00000380: 69a7 9d3c 14dc 9bb9 2a55 1bbd 50a9 523c
00000390: e9f2 ddbb f7aa 81bc f430 583c c11b ca3c
000003a0: 0140 7abc 0223 a4bc 6759 8e3b 32c0 42bd
000003b0: f9f1 f53a ddc2 503c b7b3 9f3c 2768 073d
000003c0: 2fa7 c4bc dd13 b2bc 950e 3b3c 1dcc d9bc
000003d0: 19dc c3bc 4d85 35bc 19ab f2bc ef5a 5fbb
000003e0: f584 d23c f014 98bc a168 7fbc 9e70 6c3b
000003f0: f994 853b b65f 1a3d 58ff 983c a6d4 203c
0.022008145 -0.0024900755 0.013086503 0.008624751 0.015021815 -0.017409787 0.002345075 -0.004277771
-0.013691114 0.00410765 -0.033784226 0.004204269 0.044884976 -0.008459809 -0.0044049965 0.001458642
0.013816663 0.02804674 0.0057460195 -0.0052122436 0.011280525 -0.009242892 -0.0055511137 0.03818428
-0.0020011931 -0.03162259 0.012589344 0.02783472 -0.012617687 0.020206902 -0.017114941 0.0031219858
0.0067303106 -0.023916587 0.0070887967 -0.021521103 0.010839143 -0.025476474 -0.013644589 -0.011911751
0.023121148 0.0032358442 -0.004359446 0.0021565747 0.022570947 0.01862539 0.04499646 0.029956996
-0.008006017 0.006126613 -0.01446043 0.023630783 -0.011870981 -0.0022290987 -0.017969212 -0.0068931477
-0.012638762 0.025154414 0.0018432564 0.02194353 -9.876252e-05 0.023751732 -0.027342865 -0.012272775
-0.021067454 -0.007959813 0.02013572 0.0026729365 0.0016716876 0.020738056 0.012334603 -0.01856378
-0.011739353 -0.0054845302 -0.01372688 -0.005436197 0.031635802 -0.022863433 -0.020546742 0.027747074
0.0038387885 0.027863251 0.0069622714 0.010432328 -0.0045783934 0.01828873 0.0037343123 -0.022510165
0.0022652105 -0.0060424856 0.0053087906 -0.00037286925 0.014946618 0.011558116 -0.010834585 -0.0113858925
0.04968541 0.02441277 -0.02839983 -0.0059396224 -0.008603557 0.016029833 0.017375516 0.0029560418
-0.031545304 -0.019368507 -0.01736096 0.03587567 -0.029036237 -0.01296508 0.0024392116 -0.010433254
0.013342982 0.022670822 0.002500544 -0.010967086 -0.017300326 0.0062896167 -0.020103147 0.019276446
0.013371072 0.016816832 0.008198318 -0.016413568 -0.011602412 0.022950133 0.005410089 0.022294829
0.01973644 -0.0139045315 -0.04352929 0.028765494 -0.018350344 -0.016637914 0.0068998556 0.023007473
-0.03261797 0.044042416 -0.0029725984 -0.026537597 0.053041775 -0.01559872 -0.02502561 0.03226641
-0.0024773376 -0.016393507 -0.00833063 0.0084928395 -0.0052217543 -0.009698536 0.015599385 -0.017095715
-0.012149004 -0.008461778 0.016770063 0.0020408721 -0.03230478 0.039517604 -0.02510731 -0.016323164
0.001788807 -0.019706044 0.008051292 0.003975672 0.020052843 0.01125135 -0.026134375 0.0240645
-0.0068472913 -0.0060787587 -0.01654585 0.019860115 0.01286327 0.018289058 0.00037614393 0.059434555
-0.019328509 0.011978649 -0.040423483 0.018475002 0.01754994 -0.005204965 0.011976801 -0.00064774044
0.023483051 -0.0061228215 -0.008802784 -0.023150245 -0.023089198 0.008730736 0.0064903246 0.005336471
-0.035172384 -0.024950793 -0.023568714 -0.006834054 0.009126209 -0.026742063 0.021048045 -0.00974988
0.02926301 0.0018988387 -0.0010631067 0.00029663733 0.053576052 0.0031859868 -0.016588632 0.040729105
-0.03449147 -0.013272427 -0.0068350225 -0.024312917 -0.02525891 -0.015216446 -0.013460449 0.0033004135
-0.023279253 -0.016490145 -0.032196518 0.02211704 0.0075498056 -0.020272285 0.024131019 -0.025970694
0.019244866 -0.00029727875 -0.037923016 0.01285775 -0.006773342 -0.015828593 0.013195265 0.024671437
-0.015274049 -0.020036224 0.0043441537 -0.047546573 0.001876413 0.0127417715 0.019494874 0.03305831
-0.0240055 -0.021737987 0.011417051 -0.026586587 -0.023908662 -0.011079145 -0.029622601 -0.00340813
0.025698164 -0.018564671 -0.01558891 0.0036077867 0.004076597 0.037688933 0.018676445 0.009816324

onnx::MatMul_296 f4 [24, 24]
00000000: caff aebb dc5c 47bc 5e9e 393c 9223 013c
00000010: a12d 3f39 0dfe b1bc 399d 2a3c b7ca 36bb
00000020: ad1e bd3b e9b9 2ebb 92b6 7bbb 4934 8e3b
00000030: 52dd 64bc 45d9 2b3c 3002 ff3b c9b5 573c
00000040: 11ae 9c3b be94 12bb ec8e 9e3c cee9 3bbc
00000050: b453 abbb c56e d8bb bdd4 333c 2b7d 4d3c
00000060: d3b5 e63c d49b 8e3a 2d18 053d 306e 6e3c
00000070: 6ae1 c03a 9850 4cbc 523f cd3b 7558 f3bb
00000080: 388a 6fbb a541 38bc cf37 a7bb b861 403c
00000090: b943 863b 9b81 ab3a 4bb2 22bc 0198 ba3b
000000a0: 98bf bbba 81e2 123b bb60 a5ba 29a4 cfbb
000000b0: f492 fe3b a146 bd3b 0970 a1b9 c993 cc3b
000000c0: 354b 993c 9dc2 3dbc 6b35 2dbc b9ef b63b
000000d0: 94ef 2dbb 5291 283a effc 893c 8a6b 523c
000000e0: 97ae edbc 652b c4ba db4b 7e3c ddf2 c73b
000000f0: 2921 1cbc 3081 38bc e22b f43b ae4a ad39
00000100: 5416 94bb 1080 1d3b 8bf0 b1bb 2659 b03c
00000110: e29c cabb df14 063c f2a4 9ebc 0418 5a3b
00000120: cb8b c43c 407c 413b c284 5abb 4f1b bebc
00000130: e38c 0cbc 8548 e1bb a9ff 10bc 37a6 9b3c
00000140: f279 623a 9cc8 133b b83a 8ebb f7dc 38bb
00000150: 130c 173b 375b 74ba 415c 973c a042 403b
00000160: 1e5a 5c3c 9e21 98bb fba2 01bb e952 453c
00000170: 2771 ad3a d736 09bc eda6 0d3c 7bfc b13b
00000180: 7460 453b 8e87 ddbb b2f1 70bb 4003 843c
00000190: c0dc 3abc 2c84 fe3b 45d7 7a3c b38e 4bbb
000001a0: 6d7a bbbc 9535 a13b 0783 063c bdec dfba
000001b0: 9c22 5d3c 960d 1abb b7c6 df3b cbc8 603c
000001c0: f96a c1bb f6b7 1bbc e975 9739 b03c 483c
000001d0: 9794 1b3c 13d3 e039 20c3 b93b f81b a93c
000001e0: 062b 4bbc 3f5b 0abc 82c3 613c cc34 6e3b
000001f0: 8252 47bc 2074 04bc aa21 46bc 81f5 623c
00000200: 0a54 713c adae c13b 8ecf 6c3b f2e7 493c
00000210: 6738 9fbc a4dd 84bb 2b00 c2bb 3469 253c
00000220: 0228 8ebc 45f6 24bc 7314 4c3b b07e bc3b
00000230: eda8 08bc 34fc c3b8 4697 bd3b 047b 8ebb
00000240: d34a 5a3a c398 1d3b 68c2 903c af40 bcbc
00000250: 09c1 7fbc bd16 3ebc 84a6 58bc cb31 353c
00000260: 9fdd 9abb 6e4c 01bc f051 d13b eca7 6cbc
00000270: c65a c8b9 bd2e 1eba dff5 90ba 0118 26bc
00000280: e03f f7bb b700 8f3c 8430 a4ba 4741 d2bb
00000290: 0ac2 db3b a718 f8b9 378e 59bc 3373 0e3a
000002a0: 592a 6abb c2eb b03a 9658 033c a228 86bb
000002b0: d9b0 bd3c 27cb e33b b2d2 183a 72f4 1c3c
000002c0: 0c49 da3b 1b05 413c e60a 693b e4f3 e03a
000002d0: eaab 5b39 5d1f 62bc 5e13 48bc 790a 513c
000002e0: 49be 07bc e826 183b d814 e2bc f31b ee3b
000002f0: d5e1 623c 6a0f a4ba de0a efbb a473 a9bc
00000300: 649c 883b d046 c53a b7b2 61bc 229c 8d3b
00000310: fe18 723a 3b6b 843b 4fe1 573c 694e babb
00000320: 31ba 8fbc 5f19 073c 948b dbbb 9400 cebb
00000330: ec8f 9bbb 4375 10ba 80b0 463c 4bd7 eebb
00000340: 6b27 ecba c7b7 85bb 192f 0e3c a726 9637
00000350: c19b 673c afc4 2c3b ad6c 19bc cdb3 18bc
00000360: 6728 38bb 1a73 0bbc 59fe e5bc c22d 1abb
00000370: ff36 993b 3b05 b63b b2ea e5bb 4132 8abc
00000380: 7225 f4bb b297 44bc caa2 c6bb 8106 55bb
00000390: efae a23a e64d 2fb9 27e1 b9bb 6008 3ebb
000003a0: 27b6 153c edc1 c3bc 5525 c83b cbae 113c
000003b0: 0eda 9d3b ddcd 24bc 4441 09bc 8e51 ccba
000003c0: 8ef0 efbb 9294 05bb fead 6abb c49b 673c
000003d0: b325 d13a c63b 37bc bc8f 883b ab96 d23a
000003e0: 4521 86bc 0a93 c03b 999a 413c 8bce 643c
000003f0: 22f4 87bb 677a 73bb 47d3 2dbb 5c6c 263b
-0.005340551 -0.0121681355 0.011329262 0.007882016 0.00018232178 -0.021727586 0.010413461 -0.0027891824
0.005771479 -0.0026661104 -0.003840838 0.004339729 -0.0139687825 0.010488813 0.007782243 0.0131659
0.0047814925 -0.002236649 0.01935526 -0.011469318 -0.005228484 -0.0066050016 0.010976014 0.012542049
0.028162872 0.0010880181 0.03249376 0.014552638 0.0014715616 -0.012470387 0.006263652 -0.0074263164
-0.003655089 -0.01124612 -0.0051030884 0.011742048 0.0040974286 0.001308489 -0.009930204 0.00569439
-0.0014324067 0.002241284 -0.0012617329 -0.006336708 0.007768983 0.005776242 -0.00030791786 0.0062432033
0.01871262 -0.011582044 -0.010571818 0.0055827764 -0.0026540505 0.0006430346 0.016844241 0.012843022
-0.029013915 -0.0014966546 0.015521015 0.0061019496 -0.00952939 -0.011261269 0.0074515203 0.00033052772
-0.0045192633 0.002403263 -0.0054302863 0.021526884 -0.0061832527 0.008183687 -0.019365761 0.0033278475
0.02399244 0.0029523522 -0.003334329 -0.023206381 -0.008578512 -0.0068751 -0.008850017 0.019000156
0.0008639387 0.0022549992 -0.004340496 -0.0028207877 0.0023047968 -0.00093214534 0.018476607 0.0029336587
0.01344922 -0.0046426794 -0.0019780982 0.012043693 0.0013232575 -0.008374891 0.008645755 0.0054317093
0.0030117305 -0.006760544 -0.0036765155 0.016114831 -0.01140517 0.007767221 0.015310113 -0.0031060397
-0.022885526 0.0049197176 0.00820995 -0.0017084103 0.013497021 -0.0023506633 0.0068291086 0.013719748
-0.0059026447 -0.009504309 0.00028888814 0.0122215 0.009495876 0.00042881872 0.0056690127 0.02064322
-0.012400394 -0.008444606 0.013779523 0.0036347387 -0.0121656675 -0.008084327 -0.012092987 0.013852478
0.014729509 0.0059107156 0.0036134454 0.0123233665 -0.019436074 -0.004054742 -0.00592043 0.010095883
-0.017353062 -0.010068481 0.0031140118 0.005752407 -0.008341056 -9.345301e-05 0.0057858555 -0.0043481607
0.000832719 0.0024047352 0.017670825 -0.022980062 -0.015609988 -0.011602101 -0.013223294 0.011059235
-0.0047261263 -0.007891757 0.0063879415 -0.014444333 -0.00038214604 -0.0006034186 -0.0011059603 -0.010137559
-0.0075454563 0.017456396 -0.0012526666 -0.006416473 0.006706481 -0.00047320614 -0.013278536 0.0005434036
-0.0035730808 0.0013497996 0.008016726 -0.0040941993 0.023155617 0.006951708 0.0005829736 0.009579765
0.00666154 0.011781002 0.0035559474 0.0017162529 0.0002094951 -0.013801423 -0.012211649 0.0127588445
-0.008285114 0.002321655 -0.02759783 0.0072665154 0.013847788 -0.0012516801 -0.0072949966 -0.020685025
0.004169034 0.0015051011 -0.013775519 0.004321591 0.00092352915 0.004041103 0.013176276 -0.0056856168
-0.017544838 0.008245795 -0.0066999886 -0.00628669 -0.0047473814 -0.00055106374 0.012127042 -0.0072888485
-0.0018017119 -0.004080746 0.008678221 1.7899392e-05 0.014136256 0.002636235 -0.009364289 -0.009320212
-0.0028100254 -0.008511329 -0.028075384 -0.002352581 0.0046757455 0.0055548227 -0.0070165033 -0.016869666
-0.007450753 -0.011999058 -0.0060618864 -0.0032505097 0.0012411753 -0.0001671832 -0.005672592 -0.002899669
0.009137667 -0.023896182 0.006107966 0.008891772 0.004817254 -0.010058847 -0.008377377 -0.001558827
-0.0073223775 -0.0020382744 -0.0035809274 0.0141362585 0.001595667 -0.011183685 0.004167525 0.0016066631
-0.016373286 0.0058769034 0.011816644 0.013965259 -0.004148976 -0.0037151815 -0.0026523636 0.0025394177

onnx::MatMul_297 f4 [24, 96]
00000000: 52df 183c 35ac 483c db49 91bc 4421 3a3c
00000010: 6486 cb3c 2673 eebb 79ac 38bd 9349 e53c
00000020: 3e86 b3bb 789e 193d e1fd 6fbc e424 dc3c
00000030: 19eb 453b a05d 3e3c b741 c4ba b9d3 f7bb
00000040: bc5c 243c f385 213c 3702 9cbc 02b3 48bd
00000050: 6268 f8ba b519 ef3a cd99 933c dbd0 b23c
00000060: bcc0 c7bc 58a7 6dbc edd4 023c a4bd dcbc
00000070: bbe6 babc 198f 3d3c ff0e 8dbc b248 13bd
00000080: 4547 2a3c 9007 08ba 8183 58bc 6dbc 493c
00000090: cdf6 aabc 305a 473c 99cd 1abd 9438 873c
000000a0: 4a18 e4bc b71b 433c cf0b 9fbc 23e5 f53b
000000b0: 17f9 7fbc 0bb5 0ebc ad61 1e3c 2860 82b9
000000c0: 43e6 9f3c cab0 c63b 8920 18ba 3d62 9f3b
000000d0: 85cd d73c 2631 7b3c 883a 983c 54bd f13b
000000e0: 1237 e8bc 634e 6c3c 2b0e cdbb 12fc 633a
000000f0: 59bf c33b d96b f0bc 5eab f9bb e785 5b3c
00000100: d621 85bd 25a5 debc b487 393c 12b5 053c
00000110: 362c 143d d93d 55bb 3dc9 673c 7b20 7c3b
00000120: 7ebd 813c cc3f 4f3c e2a6 e8bc 4fbd 8dbb
00000130: aefa 68bc 57b9 b13b c663 d53b 724a e73c
00000140: 5863 8bbb 7750 d03c d4c1 9b3b 32bc c83c
00000150: d83c a4bc 809c 8cbb 3d5b dcbc acc8 00bd
00000160: dd2d ce3b 42f2 2d3c 7759 c2bc 4421 013c
00000170: 33bc 763c 86d2 bebc b86a 31bd 7df5 3cbc
00000180: 92de 04bd 7545 42bd 6dff 013d 0fb7 913a
00000190: cdb2 a1bc ae3c 9abb f018 713c feff b23b
000001a0: d9b1 163a f46d 213c 0776 92bc 35ff 4cbc
000001b0: 9384 a6bb 4aa2 b53c 4f74 8f3b b443 383b
000001c0: 192a ac3c 622a 383c 545e 793c 60d7 8e3c
000001d0: 8c03 0cbc c27e a23c f92d 1dbd f332 0ebb
000001e0: 245c 9a3a 25eb a63b 9989 74bc 74c2 f0bb
000001f0: a949 5dbc e215 3ebc 33b0 cb3b fb9e 883c
00000200: b35f 5b3a ee6c c73b e974 05bc d83a ab38
00000210: 1878 383c 1db8 983c 364f b1bb aad3 673c
00000220: 952f dabb 895e 2a3b db58 33bb 4b0e b33c
00000230: 437f 7ebd 20a7 883b cbb7 8c3b 4e64 53bc
00000240: 39c1 a1b9 548b 6b3b 69ca a9bc 5cb6 e83c
00000250: 04d1 82bc 5ec4 0e3d 57c1 2f3b c2b9 f3bc
00000260: cf7f 373c 9f34 843c 7d12 dbbb 7407 293b
00000270: 9026 23bc 5487 09bd bf17 893b 6322 8c3b
00000280: 5e7d be3b 2ff7 6d3c 0026 b4bc c1a0 b63c
00000290: b284 823b 7847 fb3b 8116 153d 9b78 813b
000002a0: 7278 11bd 2f09 5a3c 1509 f8bb 4e4e 92ba
000002b0: 4e88 4cba a742 8abc 392c 0c3d 4e95 d0bb
000002c0: 104f 2cbd 20ae 5fbc ef7e c43c 9eaf 74bc
000002d0: 7e96 0e3c c73b 30bc 39de d63c 666f fdbc
000002e0: 2d16 c93c c042 ff3c 56ce 193d 2274 b9bc
000002f0: db33 783c 14a7 4e3b 9445 7d3c b3e2 0a3a
00000300: 64b3 ca3c 13c6 c5bc 453d 66bc e649 333c
00000310: 2b46 f7bc cfe4 44bd 105b 153b f487 04bd
00000320: 191d 9bbc 060b 19bd 799d b83a 5392 6fbc
00000330: 94cf 3cbd b716 2d3b 3936 d03b c983 e63c
00000340: 590c d53c 43e2 983a dbb9 0a3c 384f 5f3c
00000350: e1a7 44bc 0c6c 843c d7e0 ae3c f940 21ba
00000360: e01d 233c 4c9d a039 7ce5 a7bc 46ff e7bb
00000370: d85b 3abc 1b19 56bc 1d8f e63c f872 5e3c
00000380: 3d8c a3bb af28 afbc 9201 22bd 64cc 1abd
00000390: b98f 2c3c f71f 71bc f754 813d 2048 8d3c
000003a0: 4818 0a3d a794 d739 0fde 073c 1483 1dbc
000003b0: a60c 49bd 3975 43bc c6e3 7a3b 8b23 efbc
000003c0: 6c40 683c 9d99 9dbc b71e 643c c0f6 1c3d
000003d0: c0d4 0f3c 2e34 fb3c 9206 b03c e672 39bc
000003e0: 5415 54bc 74d4 77bc e4ef a43b 7c71 ba3c
000003f0: 2b0b e63c 7d33 05bc 9f72 0fba 5320 9c3b
0.009330587 0.012248089 -0.017735412 0.01136047 0.024844356 -0.0072769104 -0.045086358 0.027989184
-0.0054786494 0.037504643 -0.014647932 0.02687306 0.0030199944 0.011619002 -0.0014973198 -0.007563081
0.010031875 0.009858596 -0.019044025 -0.04899884 -0.0018952007 0.0018241914 0.018017674 0.021828106
-0.024383895 -0.01450523 0.007985336 -0.026945896 -0.022815099 0.011569762 -0.017219065 -0.035958
0.010392969 -0.0005189115 -0.013214947 0.012312991 -0.020869637 0.0121674985 -0.03779373 0.01650647
-0.027843613 0.011908463 -0.01941481 0.007504122 -0.0156233525 -0.008710156 0.009666842 -0.00024867174
0.019518977 0.0060635554 -0.0005803188 0.004864006 0.026343117 0.015331542 0.018582597 0.007377306
-0.028346572 0.014422986 -0.0062577925 0.0008696924 0.005973738 -0.0293483 -0.0076193055 0.013398624
-0.06500594 -0.027178356 0.011323858 0.008160846 0.036174975 -0.0032538085 0.0141471 0.0038471508
0.015837427 0.012649488 -0.028399888 -0.004325546 -0.014219923 0.0054237056 0.006512138 0.02823374
-0.004253786 0.025428994 0.0047533307 0.024503801 -0.020048544 -0.004291117 -0.026898975 -0.031441376
0.0062920884 0.010616841 -0.0237243 0.007881466 0.015059519 -0.023293745 -0.043314666 -0.011533138
-0.032438822 -0.04742952 0.031737734 0.0011117178 -0.01973858 -0.0047069406 0.014715418 0.0054626456
0.0005748547 0.009852875 -0.017878545 -0.012512018 -0.005081722 0.022172112 0.0043778787 0.0028116526
0.021016167 0.011240574 0.0152202435 0.017436683 -0.0085457675 0.019835833 -0.03837392 -0.0021697849
0.0011776728 0.0050939494 -0.014925384 -0.0073473994 -0.0135063315 -0.011601897 0.006216073 0.01667737
0.00083684473 0.0060859835 -0.008145549 8.164876e-05 0.011259101 0.01864248 -0.005411054 0.014149586
-0.0066585043 0.0025996289 -0.0027366194 0.021857401 -0.062133085 0.0041703135 0.0042943708 -0.0129023325
-0.00030852275 0.00359412 -0.0207264 0.028407268 -0.015968807 0.03485524 0.002681812 -0.029751662
0.011199906 0.016138373 -0.0066855536 0.0025791796 -0.0099579245 -0.033576325 0.004183739 0.00427656
0.005813285 0.014524265 -0.021990776 0.02229345 0.0039831037 0.007668432 0.036398415 0.003951145
-0.035515256 0.013307854 -0.007569442 -0.0011162253 -0.00078022934 -0.016877485 0.03422186 -0.0063654548
-0.042067587 -0.0136523545 0.023986308 -0.0149344485 0.008702872 -0.0107564395 0.02622901 -0.030936908
0.024546707 0.031159759 0.037550293 -0.022638384 0.015149082 0.0031532692 0.015458483 0.0005298063
0.024743743 -0.0241423 -0.014052694 0.010942912 -0.030184826 -0.04806977 0.0022789873 -0.032356218
-0.018934773 -0.03736403 0.0014085016 -0.014622289 -0.0460964 0.0026411244 0.00635412 0.028139012
0.026006864 0.0011664111 0.008467163 0.013629727 -0.012002916 0.016164802 0.021347446 -0.0006151344
0.009955853 0.00030634773 -0.020495169 -0.0070799915 -0.011374436 -0.013067509 0.028144414 0.013577215
-0.004991083 -0.021381704 -0.03955228 -0.03779258 0.010532313 -0.014717094 0.06315034 0.017246306
0.033714563 0.0004111875 0.008292689 -0.009613771 -0.049084328 -0.0119298035 0.0038282736 -0.029191753
0.014175516 -0.019238288 0.013923339 0.038321257 0.008778751 0.03066453 0.021487508 -0.011318898
-0.012944538 -0.015126336 0.00503348 0.022759192 0.028081497 -0.008129952 -0.0005472097 0.0047645955
