multi-job/nano_gpt_test/network_p1.onnx (onnx, 74116 bytes, 8 tensors)

transformer.wte.weight f4 [65, 24]
00000000: 0949 9dbb 2e69 fc3c a5e7 a5bc db47 a73b
00000010: 4582 a3bc 20e1 6d3c d747 823c 55e6 7e3b
00000020: 2e70 5f3c b10a 1cbc 1c2a 373c b1be 8f3b
00000030: 137c a83c 722c 02bd a1ea ba3c 9bd4 523c
00000040: ca78 e63b c1e3 efba 2a4c 26bd 3778 95bc
00000050: e62d 2abb dd9d 293d b6a4 253c a7d6 a2bc
00000060: 62e1 153b 70bb 19bd c01d f33a bd46 133c
00000070: d156 953c 539d a83b f595 f7bb 3e52 c9bc
00000080: 230a f4bb 053d 51bd 7214 003d f898 b03c
00000090: d713 913c 5326 ed3b 9e7d 9abc 8b80 233c
000000a0: 7d06 a3bc 4288 56ba eaaf 983c c562 253c
000000b0: 382b 043d 1f4e 893c 2624 ad3a ba70 8b3c
000000c0: dca1 773c 853b 783c 6c93 d93c af85 e13c
000000d0: f52e 513c 9629 8b3c 20b5 9abc 029f c43b
000000e0: c674 9eba 621a 763d e4b2 2f3d a7f7 023d
000000f0: d8bf d0bc be54 c839 66aa ef3c 35b5 0fbc
00000100: 0b63 f6bc 011f fe3b 95b0 c4bc 7fc0 8a3b
00000110: 9d09 bbbc 09b6 f73c 57e5 363c fca8 9639
00000120: b7d8 a73c d996 af3c 6dd0 9a3b 2914 adbc
00000130: d703 b2bc e029 99bc dffb 083c db2a bb3c
00000140: a6c9 83bb 2a04 583b 2ab2 f2bc 0423 83bc
00000150: 1439 0cbd 34a0 0b3c 9089 62bb 2826 15bb
00000160: 6103 53bc 9bab 353c 5dcf b93a 0101 283b
00000170: dc43 273c 221c 05bd 7b36 143c be7d 193d
00000180: 9212 90bb a322 0dbb 0a3f 253b e913 ae3b
00000190: 4211 223c 1d03 9a3c 599a 6abc 79f5 57bc
000001a0: 07b9 f03c f2cc bf3c dfd3 85bb 6aba a93a
000001b0: 534b bb3c 7b2b d73a 578e ea3b 17e4 34bb
000001c0: 70f1 73bb fed5 1e3c fe8c cebb f0ac 193c
000001d0: b282 d73c 0540 8b3a a7a3 ca3c b2cf 5b3c
000001e0: 9470 033c 39db a1bb 7405 7bbb 65cf ddbc
000001f0: 21df 8fb9 2dc3 233c 90f4 b03b 38ee 9f3a
00000200: 2d98 be3c 2e95 db3c 8a13 c7bc 37c8 e9bc
00000210: 00cb f83c fc86 093d afc0 8cbc bccb d13c
00000220: 5b9a 90bc 25c6 05bd 022d 1ebd 97e7 b43a
00000230: 7e24 d3bb 4677 49bb 4d79 83bc 399e 91bc
00000240: cb1a 043d 1f6d 84bc 029e 943c 81d0 493c
00000250: d2f2 e0bb 18d6 8f3a fd3b aebb 3863 22bd
00000260: 95a4 71bc bb91 6dbb 9bfc 2abc 4a4e 03bc
00000270: bb9c 61bd d6d3 a23c 6216 68bc cfaf d13c
00000280: 50fa 1b3c b85d 383d aa68 b5bc 0248 023c
00000290: f2fc 0bbd 4dd1 aebc d39c cc3a d418 523b
000002a0: 4991 45bd f410 f1bc 4058 a8bc 0554 7a3c
000002b0: 2fd6 c038 aee0 28bc 3293 863c 0e83 78bc
000002c0: 86d9 853d 2ea6 c73c 7d1d bd3c 995e cabb
000002d0: 0f53 53bb 6f89 1d3c 50a8 0ebb 0e3d 403c
000002e0: e79c 80bc 6693 20bc 55b7 e53b 4fee 85bc
000002f0: 9408 cebc 26b6 953c 630c f0bc f7ec 95bc
00000300: 5770 74bc 87a3 153c 0719 46bb 0270 9bbb
00000310: fe33 e8ba 81e7 c83c f944 863b 59d0 8c3c
00000320: 212e e3bb b467 683c 2906 77bc dc89 12bc
00000330: 8ed2 51bc f939 bb3c 62fb f13b 125b 303a
00000340: d0b8 d7ba d9a9 483c 3999 20bc 7ec2 21b9
00000350: 1d5b 99ba dde3 27bd 3bad b63b a6fe 30bc
00000360: cffa 92bb fd62 49bc 9897 eb3b c46f 92bc
00000370: 7d3a dcbb 84e2 de3c 66b0 b6bc c7d4 d93c
00000380: 2650 4ebb d452 92bc 4b35 503c c2f7 d9bc
00000390: af72 f9bc ea52 343b 225a 6ebc 43b8 1ebb
000003a0: d0b2 96bc dd33 85bb a638 e6ba c235 a13c
000003b0: 730c e03c 6243 7f3c d7af f3bb 7e6a 4d3c
000003c0: 74ee bcbc 6220 22bc 19c3 dabc e6d8 843c
000003d0: 22c0 95bc 09f1 03bd 5611 8f3a 1460 b33c
000003e0: 8045 ba3c 04e4 163b f2d9 583c 3b40 933c
000003f0: dd73 853c f3d5 a8bc cfa2 a4bc 6f75 c8bb
-0.0047999662 0.030811872 -0.020252058 0.0051050014 -0.019959578 0.014519006 0.015903397 0.0038894613
0.013637586 -0.009524033 0.011179473 0.004386746 0.020566976 -0.031780668 0.022816958 0.012868072
0.007033442 -0.0018302129 -0.04059998 -0.0182458 -0.00259673 0.041410316 0.010110071 -0.019877745
0.0022869934 -0.03753227 0.0018548295 0.008989033 0.018229874 0.0051457076 -0.007555718 -0.024575349
-0.0074474975 -0.051083583 0.0312695 0.021557316 0.017709656 0.0072372346 -0.018858727 0.0099793775
-0.019900555 -0.0008183756 0.01863857 0.010094349 0.03226778 0.016760884 0.0013209626 0.017021526
0.015114274 0.015150909 0.026559554 0.027529566 0.012767543 0.016987603 -0.018885195 0.0060004005
-0.0012089245 0.060083754 0.042895213 0.03197446 -0.025482103 0.0003821011 0.029256057 -0.0087712305
-0.030076524 0.007755161 -0.024009982 0.004234373 -0.022831732 0.030238168 0.011163077 0.00028736133
0.02048908 0.021434234 0.0047245533 -0.021127777 -0.021730347 -0.018696725 0.008360832 0.022847584
-0.004021841 0.0032961466 -0.02962597 -0.016007908 -0.03423412 0.008522082 -0.0034566857 -0.0022758339
-0.012879224 0.011088277 0.0014176179 0.0025635364 0.01020905 -0.032497533 0.009046192 0.037473433
-0.004396745 -0.0021535538 0.0025214576 0.005312432 0.00989181 0.018800313 -0.014319026 -0.013181084
0.029385103 0.023413155 -0.004084095 0.0012949232 0.022863066 0.0016416156 0.0071580815 -0.0027601772
-0.0037222765 0.009694574 -0.0063034287 0.00937961 0.026307438 0.0010623938 0.024736239 0.013416218
0.008022446 -0.0049394635 -0.003830281 -0.027076432 -0.0002744133 0.009995264 0.005400248 0.0012201732
0.023265922 0.026804533 -0.02430131 -0.028537853 0.030370235 0.033575997 -0.017181722 0.025609843
-0.017651727 -0.03265967 -0.03861714 0.0013801929 -0.006443559 -0.0030741259 -0.016049052 -0.017775642
0.032252114 -0.016165314 0.01814175 0.012317778 -0.006864884 0.0010973839 -0.0053172098 -0.039645404
-0.014748712 -0.0036250192 -0.010436202 -0.008014271 -0.05508111 0.019876402 -0.014165493 0.025596527
0.009520128 0.045011252 -0.022144634 0.007951738 -0.034176774 -0.021340037 0.0015610702 0.0032058256
-0.048234258 -0.02942703 -0.020549893 0.015278821 9.195168e-05 -0.010307474 0.01642761 -0.015167965
0.0653563 0.024371233 0.02308535 -0.0061758277 -0.0032245552 0.009615286 -0.0021767803 0.011733307
-0.015699817 -0.0098007675 0.0070103803 -0.016348986 -0.025150575 0.018275332 -0.029302781 -0.01830147
-0.014919362 0.009133226 -0.003022732 -0.004743577 -0.001771569 0.024524452 0.0040975777 0.017189192
-0.006932989 0.014184881 -0.015077152 -0.008944001 -0.012806548 0.022854792 0.0073847035 0.0006727438
-0.0016458277 0.012247526 -0.009802156 -0.0001542661 -0.0011700128 -0.04098879 0.00557485 -0.0108029
-0.004485465 -0.012291667 0.0071897022 -0.01787556 -0.0067208395 0.02720762 -0.02230091 0.026590718
-0.0031480878 -0.017861761 0.0127080185 -0.026607398 -0.030450193 0.002751524 -0.0145478565 -0.0024218715
-0.018395811 -0.0040650205 -0.001756449 0.019678954 0.027349686 0.01558003 -0.007436733 0.012537597
-0.023062922 -0.009895416 -0.026704358 0.016216706 -0.018280093 -0.03221229 0.0010915201 0.0218964
0.022738218 0.0023024091 0.013235556 0.017974963 0.0162906 -0.020609831 -0.020097164 -0.006117515

transformer.wpe.weight f4 [64, 24]
00000000: 2787 423c 4473 113d 7b77 54bd 0576 d9bc
00000010: ee2c 45bc b301 6dbb 8d71 133b d277 643b
00000020: 4be8 bf3b 5b35 f53b ebf5 de3b eaa5 44bd
00000030: dd9e 3bbd 6be1 5fbc d6b1 8cbb 0f67 f6bc
00000040: b8cb 3ebd 1e84 4dba 6650 bd3c a7f5 d2bb
00000050: 8270 13bd 69c7 983c 30e9 ccbc 2737 123d
00000060: 3876 4abc 3b77 693c 3e93 063d d52f 03bd
00000070: d12e 9e3c 969f 8cbc 1cea d63c 8b99 c5bb
00000080: 9cb1 1237 cdb9 283c 90b4 e3bc 5093 9bbc
00000090: c39c 8cbc 4034 b43c 2245 b1bc 4bce a0bc
000000a0: d883 b6bc 02ea 02bd 7970 a7bc cab2 80ba
000000b0: 8ae8 6cbc 50fc 9abc c7ee c73c bec3 cabc
000000c0: aed4 473c b0e1 1b3c eb4f fd3b c7dc 0dbb
000000d0: 1490 77bc ce54 e9bc 331b e6bc a17c e5bb
000000e0: 293e 39bc dec5 e8ba 0c48 e5bc 9317 febc
000000f0: 5cb7 e9bc 6004 1a3d a247 0d3d 02c7 3abd
00000100: 0b4c b83c 9841 c73c ab53 ba3b 8232 e8bb
00000110: 7249 90bc 6788 1cbc dc47 c03c bd2a 6a3c
00000120: dbd8 dc3b cc66 1c3c 00a9 3f3c d77c b2bc
00000130: 2226 f13c 146f 9fbc 0d4d 46bd e04a 5f3c
00000140: 5e2b af3a e09a 7a3c 4241 333b 60ba d73b
00000150: 9ccf f43b ae2d 93b9 d027 873c 3958 c9bb
00000160: 1929 753b 6b07 183d 5e5d 70bc a1ab 153c
00000170: 3246 86bb 7cd4 ec3c 8683 953c d0a7 b83a
00000180: b51a b53c 539a 563c df8c 86bc 5199 11bb
00000190: 47a7 043d 9513 b4bc 807e 12bc cf0b d4bb
000001a0: 4cb0 0abd cb5c 49bd 96e8 8abb 47cc 95bc
000001b0: a59e 293c a7c9 9f3b eb30 f2bc 4c7d 79bc
000001c0: 602c 43bc 05e5 cfbc e6fc c8bc 5ce0 a33c
000001d0: 1978 863b e7b8 7a3c 57cb 463c 3e57 3239
000001e0: 2f3b 213c c240 fb3b 42dc dbbb ee71 01bd
000001f0: b802 d33b e1b1 e9bb 59a3 b7bc 0f58 043c
00000200: 5b9e 18bd b873 46bc e6d9 83bc 6f6c 273d
00000210: d9f4 2b3c 191c ce3c b007 e3bc 3582 1bbd
00000220: b6eb 253c 7b34 80bb ce8e 58ba 1d94 46bc
00000230: 5b48 cabc 351f ff3b 262d e2bb b068 1f3c
00000240: ca2d 533c f210 28bc ce29 c3bc 8f2b 073d
00000250: b31b 13bd f78d a13c 60a5 b8ba 5824 27bc
00000260: a4d5 88bb fb9c fdbc 9bdd f33a dbb9 003d
00000270: 4d73 15bd 4d32 113c d673 813c 8242 3dbc
00000280: 1593 b1bc 33e7 263b f7e7 563c 2712 a3bc
00000290: 0f8b 963b d6df 10bc bb0b 31bb 4553 bb3c
000002a0: f42c 463b d4ba 5b3b 2b71 febb 5b58 033c
000002b0: 72a9 2bbc a479 063c 2e10 94bb e4ea dcbc
000002c0: ebb3 9a3b d605 123c 5214 ddbc 9e38 223d
000002d0: 8f53 37bd 6b95 8dbc 0201 81bc 39b5 f1ba
000002e0: 4abc 19bc 7090 84bb 0536 f3bc f984 acbb
000002f0: 323d 4cbc 6297 1fbd 7524 ddbc eabe e1bc
00000300: 4f70 763b 2e7d 0bbc cb7c dcbb e0ec 363b
00000310: f146 14bd 2a0a 503b 64f8 323c cb84 8b3c
00000320: c598 c23b 86e4 9f3c 3d01 313c 9806 fb3b
00000330: fbe2 46bd d33c 67bc b861 01bc 9de4 f9bb
00000340: bee8 483b 2565 373c 554c 063c 89e0 e03b
00000350: 8e90 44bc 47cc a2bc 580c df3c 785f 4abb
00000360: b0d6 683c f8be 453c 2e71 293c d966 0dbb
00000370: ba51 1ebc 468a 0eba a4c5 653b f0e4 6abc
00000380: 45ed 2bbc 793b fabb c052 49bb aa50 103c
00000390: e92a 2b3b 5736 763c 29d2 0bbb a020 86bc
000003a0: e4ba 41bd bde5 de3c e0a0 b1bb c490 b73c
000003b0: f3e9 f8bb 94ff c53c 6182 dcbc 1079 0c3b
000003c0: 75fd 60bc 0262 b03c 126d 00ba 5164 9e3c
000003d0: 0032 15bc 3ef0 b83c 026b b9bb 335e 333d
000003e0: e53b 533b abdd a0bc 8231 083b b815 54bc
000003f0: 4666 ce3c e0b7 9c3c 47a1 263d a95c 59bc
0.011873043 0.035510316 -0.051871758 -0.026545534 -0.012034638 -0.0036164343 0.0022498101 0.0034861458
0.005856549 0.007483167 0.006804218 -0.04800979 -0.0458058 -0.013664584 -0.0042936606 -0.030078439
-0.046581 -0.00078398164 0.023109626 -0.0064379754 -0.035995968 0.018649774 -0.025013536 0.03569713
-0.012357287 0.014249618 0.032855265 -0.032028038 0.019309433 -0.01716594 0.026234679 -0.0060302666
8.743631e-06 0.010298205 -0.02779606 -0.018991143 -0.017164594 0.021997571 -0.02163941 -0.019629618
-0.022279665 -0.03196145 -0.020439373 -0.0009818908 -0.0144597385 -0.01891914 0.02440585 -0.02475154
0.012196703 0.009514257 0.007730474 -0.0021646486 -0.0151100345 -0.02848282 -0.028089141 -0.0070033823
-0.011306324 -0.0017759164 -0.027988456 -0.0310171 -0.028529815 0.03760183 0.034492142 -0.045599945
0.022497198 0.02432327 0.0056862435 -0.007086099 -0.017613146 -0.009554005 0.023471765 0.014292416
0.0067397184 0.009545993 0.011698008 -0.021788044 0.029437128 -0.019462146 -0.048413325 0.013628691
0.0013364365 0.015295714 0.002735213 0.006583497 0.007471038 -0.0002807206 0.016498476 -0.00614455
0.003740853 0.03711645 -0.014670698 0.009135158 -0.0040977234 0.028909914 0.018251192 0.0014088098
0.022107461 0.013098317 -0.016424594 -0.0022216628 0.03238609 -0.021981994 -0.008941293 -0.0064711343
-0.033859536 -0.04916076 -0.004239152 -0.018285884 0.010352765 0.0048763338 -0.029564342 -0.015227627
-0.011912435 -0.02537776 -0.024534654 0.020004444 0.004103672 0.015302873 0.012133441 0.00017007903
0.009840771 0.007667632 -0.0067096064 -0.031602792 0.006439533 -0.0071318005 -0.022416757 0.008077635
-0.037260395 -0.01211255 -0.016095113 0.040874895 0.010495388 0.025159882 -0.027713627 -0.037965972
0.010126999 -0.003912506 -0.00082610257 -0.012120274 -0.024692705 0.0077857026 -0.006902355 0.009729549
0.012889335 -0.010257946 -0.023823645 0.033000525 -0.035915088 0.019721014 -0.0014087372 -0.010201536
-0.0041758586 -0.030958643 0.0018605472 0.031427246 -0.036486913 0.00886209 0.015802305 -0.011551501
-0.02167658 0.0025467395 0.013116828 -0.019906117 0.004594214 -0.008842429 -0.0027015049 0.022866854
0.0030239196 0.0033528106 -0.0077649555 0.008016671 -0.010477411 0.008207712 -0.0045185303 -0.026967473
0.004721155 0.008912524 -0.026987229 0.039604776 -0.044757422 -0.017283162 -0.01574755 -0.0018440849
-0.0093832705 -0.0040455386 -0.029688844 -0.005264875 -0.012465762 -0.03896273 -0.026994923 -0.027556855
0.0037603562 -0.008513732 -0.0067287437 0.0027912185 -0.036200467 0.003174434 0.010923479 0.017031094
0.0059386217 0.019518148 0.010803518 0.007660698 -0.04855631 -0.014113623 -0.007896833 -0.00762613
0.0030656303 0.011193548 0.00819691 0.006862704 -0.011997355 -0.019872798 0.027227566 -0.0030879658
0.014211342 0.012069456 0.010341926 -0.0021576195 -0.00966304 -0.00054374745 0.003506043 -0.0143368095
-0.010493581 -0.007636484 -0.003071949 0.008808294 0.0026118106 0.015027604 -0.0021334982 -0.016372979
-0.047297373 0.027209157 -0.005420789 0.022407897 -0.0075962483 0.02416972 -0.026917638 0.0021434464
-0.013732304 0.021531109 -0.0004899065 0.019334944 -0.009106159 0.022575494 -0.0056585083 0.043791007
0.0032231745 -0.01963695 0.0020781462 -0.012944631 0.025195252 0.019130647 0.04068115 -0.013266721

transformer.h.0.ln_1.weight f4 [24]
00000000: 0000 803f 0000 803f 0000 803f 0000 803f
00000010: 0000 803f 0000 803f 0000 803f 0000 803f
00000020: 0000 803f 0000 803f 0000 803f 0000 803f
00000030: 0000 803f 0000 803f 0000 803f 0000 803f
00000040: 0000 803f 0000 803f 0000 803f 0000 803f
00000050: 0000 803f 0000 803f 0000 803f 0000 803f
1.0 1.0 1.0 1.0 1.0 1.0 1.0 1.0
1.0 1.0 1.0 1.0 1.0 1.0 1.0 1.0
1.0 1.0 1.0 1.0 1.0 1.0 1.0 1.0

transformer.h.0.attn.bias f4 [1, 1, 64, 64]
00000000: 0000 803f 0000 0000 0000 0000 0000 0000
00000010: 0000 0000 0000 0000 0000 0000 0000 0000
00000020: 0000 0000 0000 0000 0000 0000 0000 0000
00000030: 0000 0000 0000 0000 0000 0000 0000 0000
00000040: 0000 0000 0000 0000 0000 0000 0000 0000
00000050: 0000 0000 0000 0000 0000 0000 0000 0000
00000060: 0000 0000 0000 0000 0000 0000 0000 0000
00000070: 0000 0000 0000 0000 0000 0000 0000 0000
00000080: 0000 0000 0000 0000 0000 0000 0000 0000
00000090: 0000 0000 0000 0000 0000 0000 0000 0000
000000a0: 0000 0000 0000 0000 0000 0000 0000 0000
000000b0: 0000 0000 0000 0000 0000 0000 0000 0000
000000c0: 0000 0000 0000 0000 0000 0000 0000 0000
000000d0: 0000 0000 0000 0000 0000 0000 0000 0000
000000e0: 0000 0000 0000 0000 0000 0000 0000 0000
000000f0: 0000 0000 0000 0000 0000 0000 0000 0000
00000100: 0000 803f 0000 803f 0000 0000 0000 0000
00000110: 0000 0000 0000 0000 0000 0000 0000 0000
00000120: 0000 0000 0000 0000 0000 0000 0000 0000
00000130: 0000 0000 0000 0000 0000 0000 0000 0000
00000140: 0000 0000 0000 0000 0000 0000 0000 0000
00000150: 0000 0000 0000 0000 0000 0000 0000 0000
00000160: 0000 0000 0000 0000 0000 0000 0000 0000
00000170: 0000 0000 0000 0000 0000 0000 0000 0000
00000180: 0000 0000 0000 0000 0000 0000 0000 0000
00000190: 0000 0000 0000 0000 0000 0000 0000 0000
000001a0: 0000 0000 0000 0000 0000 0000 0000 0000
000001b0: 0000 0000 0000 0000 0000 0000 0000 0000
000001c0: 0000 0000 0000 0000 0000 0000 0000 0000
000001d0: 0000 0000 0000 0000 0000 0000 0000 0000
000001e0: 0000 0000 0000 0000 0000 0000 0000 0000
000001f0: 0000 0000 0000 0000 0000 0000 0000 0000
00000200: 0000 803f 0000 803f 0000 803f 0000 0000
00000210: 0000 0000 0000 0000 0000 0000 0000 0000
00000220: 0000 0000 0000 0000 0000 0000 0000 0000
00000230: 0000 0000 0000 0000 0000 0000 0000 0000
00000240: 0000 0000 0000 0000 0000 0000 0000 0000
00000250: 0000 0000 0000 0000 0000 0000 0000 0000
00000260: 0000 0000 0000 0000 0000 0000 0000 0000
00000270: 0000 0000 0000 0000 0000 0000 0000 0000
00000280: 0000 0000 0000 0000 0000 0000 0000 0000
00000290: 0000 0000 0000 0000 0000 0000 0000 0000
000002a0: 0000 0000 0000 0000 0000 0000 0000 0000
000002b0: 0000 0000 0000 0000 0000 0000 0000 0000
000002c0: 0000 0000 0000 0000 0000 0000 0000 0000
000002d0: 0000 0000 0000 0000 0000 0000 0000 0000
000002e0: 0000 0000 0000 0000 0000 0000 0000 0000
000002f0: 0000 0000 0000 0000 0000 0000 0000 0000
00000300: 0000 803f 0000 803f 0000 803f 0000 803f
00000310: 0000 0000 0000 0000 0000 0000 0000 0000
00000320: 0000 0000 0000 0000 0000 0000 0000 0000
00000330: 0000 0000 0000 0000 0000 0000 0000 0000
00000340: 0000 0000 0000 0000 0000 0000 0000 0000
00000350: 0000 0000 0000 0000 0000 0000 0000 0000
00000360: 0000 0000 0000 0000 0000 0000 0000 0000
00000370: 0000 0000 0000 0000 0000 0000 0000 0000
00000380: 0000 0000 0000 0000 0000 0000 0000 0000
00000390: 0000 0000 0000 0000 0000 0000 0000 0000
000003a0: 0000 0000 0000 0000 0000 0000 0000 0000
000003b0: 0000 0000 0000 0000 0000 0000 0000 0000
000003c0: 0000 0000 0000 0000 0000 0000 0000 0000
000003d0: 0000 0000 0000 0000 0000 0000 0000 0000
000003e0: 0000 0000 0000 0000 0000 0000 0000 0000
000003f0: 0000 0000 0000 0000 0000 0000 0000 0000
1.0 0.0 0.0 0.0 0.0 0.0 0.0 0.0
0.0 0.0 0.0 0.0 0.0 0.0 0.0 0.0
0.0 0.0 0.0 0.0 0.0 0.0 0.0 0.0
0.0 0.0 0.0 0.0 0.0 0.0 0.0 0.0
0.0 0.0 0.0 0.0 0.0 0.0 0.0 0.0
0.0 0.0 0.0 0.0 0.0 0.0 0.0 0.0
0.0 0.0 0.0 0.0 0.0 0.0 0.0 0.0
0.0 0.0 0.0 0.0 0.0 0.0 0.0 0.0
1.0 1.0 0.0 0.0 0.0 0.0 0.0 0.0
0.0 0.0 0.0 0.0 0.0 0.0 0.0 0.0
0.0 0.0 0.0 0.0 0.0 0.0 0.0 0.0
0.0 0.0 0.0 0.0 0.0 0.0 0.0 0.0
0.0 0.0 0.0 0.0 0.0 0.0 0.0 0.0
0.0 0.0 0.0 0.0 0.0 0.0 0.0 0.0
0.0 0.0 0.0 0.0 0.0 0.0 0.0 0.0
0.0 0.0 0.0 0.0 0.0 0.0 0.0 0.0
1.0 1.0 1.0 0.0 0.0 0.0 0.0 0.0
0.0 0.0 0.0 0.0 0.0 0.0 0.0 0.0
0.0 0.0 0.0 0.0 0.0 0.0 0.0 0.0
0.0 0.0 0.0 0.0 0.0 0.0 0.0 0.0
0.0 0.0 0.0 0.0 0.0 0.0 0.0 0.0
0.0 0.0 0.0 0.0 0.0 0.0 0.0 0.0
0.0 0.0 0.0 0.0 0.0 0.0 0.0 0.0
0.0 0.0 0.0 0.0 0.0 0.0 0.0 0.0
1.0 1.0 1.0 1.0 0.0 0.0 0.0 0.0
0.0 0.0 0.0 0.0 0.0 0.0 0.0 0.0
0.0 0.0 0.0 0.0 0.0 0.0 0.0 0.0
0.0 0.0 0.0 0.0 0.0 0.0 0.0 0.0
0.0 0.0 0.0 0.0 0.0 0.0 0.0 0.0
0.0 0.0 0.0 0.0 0.0 0.0 0.0 0.0
0.0 0.0 0.0 0.0 0.0 0.0 0.0 0.0
0.0 0.0 0.0 0.0 0.0 0.0 0.0 0.0

onnx::MatMul_273 f4 [24, 72]
00000000: 9be8 eb3c 60b3 263c d30c 973c ca0b 4e3c
00000010: 7367 b1bb 669c df3c bc75 ba3b 81a1 eab9
00000020: d780 093c 25c9 d2b9 5dbc 963c 6c4b 7cbc
00000030: ee81 0b3d abd4 f73a c6cc 4f3c aeaa b93b
00000040: dc8f c0bc fc38 163a 67c5 b7bc a502 323c
00000050: 644b b4ba c08e 7fbc 7256 21bc a580 843c
00000060: 4754 09bc 3985 fabc 3865 a2bc 9309 d93b
00000070: 6a12 533d dfa4 233c c958 913c 5936 8f3c
00000080: b4de 8c3c 6d98 a43b 284e 91bc 0f1a 31bc
00000090: 5e3e c8bc 2f53 ecbb 04c8 9e3c bb56 643c
000000a0: ab41 0abd b669 2fbd 201a 94bc d05d 1bba
000000b0: b8e4 b93c 1c63 4e39 c207 45bc 0766 643b
000000c0: 49df 043d 3433 e23c dbff b4bc 145d 93bc
000000d0: ad67 1c3d ad27 c33c 7940 d93b bc13 b03c
000000e0: 8b62 e13c b758 2ebb 72be 2cbc f7b7 133c
000000f0: 4781 353c 7c50 d1bc 0727 b9bc 78e5 db3b
00000100: e2f6 623b 6f6b 28bd f40a 1cbc ce7f d9bc
00000110: 7092 03bd fd1e 97bc 04e6 2f3c fed5 20bc
00000120: cd00 94bb 0159 ddbc dea3 933c e240 c13b
00000130: 1871 a0bb 72fe bbba 026a b13b 8699 633c
00000140: b273 a13c e4cc d4bb 3e43 ca3c 9858 25ba
00000150: 7176 963c 867c 443a aa9f 76ba 6704 163c
00000160: 1b69 1c3d 6fa7 bbbc 96a8 9cbc 30c7 63bc
00000170: 9724 9d3c 621b 0abd fccc b33c 692d a8bc
00000180: c75f 383c a876 00bd d4df 89b6 4721 443c
00000190: dfa6 0a3c 89fa 193c 65ce 68bc 0bd6 7a3a
000001a0: e0f0 55bc 0a24 bd3a 9629 ad3b f958 a83c
000001b0: 848f a0bc 1d63 5f3c 44a5 95bb fa44 a2bc
000001c0: 82c1 1abc e5f9 bd37 c686 b6bc ef16 523b
000001d0: 82cc 48bd 0ffb 2bba 7c9e 22bb 01a9 123d
000001e0: f935 4abc f219 51bc e2f7 873c e2ed a2bb
000001f0: 224a 623c bdff b5bb 8148 38bc 284a 083b
00000200: d994 393c 654f e9bc 1b9f d83c 3285 9aba
00000210: 1fd6 8ebc db79 363d 67da 693c b842 30ba
00000220: c237 f13b 4d05 0a3c 7905 003c 9964 99bb
00000230: b2f4 9cbc 5900 5bba 6d34 81bc bb97 b5bc
00000240: de8a 053d 5a7c 893c f485 5b3c 17f7 763c
00000250: 3c2d 67bc eff8 073d 3842 673c 8a35 b0bc
00000260: a025 9c3c 3f28 093d c288 babc 146c d5bc
00000270: 46d7 183b 8755 013c a792 92bc 6776 69bc
00000280: df32 003c d942 f53b a93e 75bc 9131 02ba
00000290: 3e6d f2bc 3546 e13c 95de 54bb 4028 86bc
000002a0: 4d51 473c e762 8b3c ab27 59bc db58 693c
000002b0: fe4f 843b a040 f9bb 0fc9 cdbb 0ad4 9d3b
000002c0: 7020 3ebd bd1c e23a 099f ad3c 2615 df3c
000002d0: f7be 833c b0d7 8dbc 9c5d 6e3c 504d b43c
000002e0: d0e4 1b3c 0b83 dfbc bda9 d9bb 3e51 e83c
000002f0: 0066 fd3c 73f1 4abc 6e21 19bb a47d 00bd
00000300: 18da d1bb 198d ed3b cb51 89ba f040 46bc
00000310: 7bda 0fbb 2959 6f3c 713c 013d 934b 00ba
00000320: 14af 0cbd c041 8e3c ccc3 6b3c 2c72 963c
00000330: 2404 2e3c 30ae cd3c 4f5a c7bb edc5 8dbc
00000340: 0d33 93bc 6018 e2bb 598c 903c cc7f 093c
00000350: f32c c7ba b3d7 013c db9e b0bb 3760 01bc
00000360: 667a 5e3c 5dd7 77bc 2a20 77bc 2da3 303c
00000370: 2a6a 2bbc 8f15 b03c 416c bebb 91c5 973c
00000380: 27b6 e0bc eec7 323c f264 2bbc 99b3 13bd
00000390: a6b8 7fbc 9704 a5bc 70e8 893c c178 8fbb
000003a0: 592b d5bb 03a7 7dbc f0d9 f13c ae1b 543a
000003b0: cd5b abbc 573a d3bb abaf 23bc fbba c43c
000003c0: 7265 373d 0ba3 32bd 984f 9c3c c03c 68bc
000003d0: 6d1c 94bc 98dd ea3c abfd 19bd 9e1b 7b3b
000003e0: 8b0c 19bd c548 c0ba 7900 8bbc 03cb 0d3d
000003f0: 15c6 d53c e7c7 453c 90f4 babc 2724 edbc
0.028797438 0.010174602 0.018438732 0.012576053 -0.0054139434 0.027296256 0.0056903046 -0.00044752288
0.008392534 -0.00040204186 0.018400365 -0.015398841 0.034059457 0.0018907984 0.012683099 0.0056660986
-0.023506097 0.0005730537 -0.022432996 0.010864888 -0.0013755378 -0.015597999 -0.00984727 0.016174624
-0.00838191 -0.030581104 -0.019823655 0.006623456 0.051531233 0.009988039 0.017742531 0.01748197
0.017196037 0.0050230534 -0.017737463 -0.0108094355 -0.024443801 -0.0072120647 0.019382484 0.013936694
-0.033754032 -0.042825423 -0.018078864 -0.000592676 0.02269207 0.00019682612 -0.012025775 0.0034850852
0.032439504 0.027612306 -0.022094658 -0.017988719 0.03818481 0.02382263 0.00663 0.021493785
0.02751281 -0.002660317 -0.010543453 0.009016029 0.011078185 -0.025551073 -0.022601618 0.0067107044
0.0034632017 -0.04111808 -0.009524096 -0.0265502 -0.032122076 -0.018447394 0.010735992 -0.009816645
-0.004516697 -0.02701998 0.018022474 0.005897627 -0.0048962943 -0.0014342798 0.0054142484 0.013891583
0.019708488 -0.0064941514 0.024690267 -0.0006307452 0.018367024 0.0007495362 -0.0009407947 0.009156323
0.038186174 -0.022906987 -0.019123357 -0.0139024705 0.019182486 -0.03371752 0.02194833 -0.020529466
0.011253304 -0.03136316 -4.108975e-06 0.011970825 0.008462637 0.009398111 -0.014209365 0.0009568638
-0.013057917 0.0014430296 0.0052844984 0.020550238 -0.019599684 0.01363447 -0.0045668203 -0.019808281
-0.00944555 2.2646922e-05 -0.022281062 0.0032057127 -0.04902316 -0.0006560543 -0.0024813702 0.035805706
-0.01234197 -0.0127625335 0.016597692 -0.0049722055 0.01381162 -0.005554168 -0.011247755 0.0020796154
0.011326992 -0.028480241 0.026443055 -0.0011788963 -0.017436085 0.044549804 0.014273263 -0.0006723809
0.007361383 0.008424115 0.007813805 -0.0046811816 -0.019159649 -0.0008354239 -0.015772069 -0.022167077
0.032603137 0.016782928 0.013398636 0.015073559 -0.014109906 0.033196386 0.014114909 -0.021509904
0.01906091 0.033485647 -0.02277029 -0.026052512 0.0023321672 0.007893926 -0.017892195 -0.014249421
0.007824629 0.0074847755 -0.014968553 -0.00049664924 -0.029593106 0.027499298 -0.0032481302 -0.016376615
0.01216538 0.017014934 -0.0132540865 0.014242376 0.004037856 -0.007606581 -0.0062800716 0.004816537
-0.046417654 0.0017250996 0.021193998 0.027231764 0.01608227 -0.017314762 0.014548685 0.022009522
0.009515002 -0.027284166 -0.006642549 0.028359052 0.030932426 -0.012386668 -0.0023365873 -0.03136982
-0.0064041726 0.007249486 -0.0010476647 -0.012100443 -0.0021950293 0.01460866 0.031551782 -0.0004894074
-0.034346655 0.017365336 0.014389943 0.018364988 0.010621104 0.025107473 -0.0060837637 -0.017306292
-0.017968679 -0.0068998784 0.017645048 0.008392286 -0.0015195891 0.007924962 -0.005390031 -0.007896475
0.013578987 -0.01512703 -0.015083352 0.010781092 -0.010462323 0.021494655 -0.0058112447 0.018526824
-0.027430607 0.010911925 -0.010461079 -0.03605995 -0.015607988 -0.02014379 0.016834468 -0.0043784087
-0.0065054116 -0.015481713 0.029522866 0.0008091283 -0.020917797 -0.0064461636 -0.009990613 0.02401494
0.04477448 -0.04361252 0.019080922 -0.01417464 -0.01807996 0.028670117 -0.037595432 0.0038316022
-0.037365478 -0.0014670125 -0.016967999 0.034617435 0.02609543 0.012071586 -0.022821695 -0.028947903

onnx::MatMul_283 f4 [24, 24]
00000000: 2fa5 00bb 8315 88bc 3d7d e239 84be 64bc
00000010: 9461 b7bb 5076 c53b 02ad 51bc 424b 21bb
00000020: 65be 4dbc 046f 84bc bb07 08bc 4911 cfba
00000030: a1bd 5c3c e1b7 243a 9b35 0b3c 2bbc 9cbb
00000040: a2ce c53a 3da3 913b ede8 8fbb 378e 06bc
00000050: 786b d0bc ce7d cebb 64c6 04bc 0ed1 5bbb
00000060: 3ef2 2abc 68b1 18bc 49e7 5fbc f3c7 e6ba
00000070: 70b4 a53b be1e 3e3a 27f9 5abb f611 80bb
00000080: 62e3 7b3a 0d2f 383c bc6f 10bc a1f8 413c
00000090: a0e0 993b d8c4 033b 6d96 1a3a ce82 4abb
000000a0: 9b06 d7bb d70b d0bb 6bfe a1bc 213a 42bc
000000b0: f4dc 06bc 8174 5ebc 3576 a23b 8bff 1ebb
000000c0: c586 99bc f898 06bc 2226 2bbc de97 5a3b
000000d0: d247 9bbc 6f70 443b 1997 2d3c cc08 0abc
000000e0: 74d0 24bc f6fd 92bb c5de cf3b a677 73bb
000000f0: 39b3 55bb cf3b b5ba 0064 ebbb 35f0 df3c
00000100: 4c91 6e3c 8708 e1bb e2c0 993b 17cd 96ba
00000110: 8b58 3c3c e55d f43b 007e 17bb 756e 3f3c
00000120: a73d be3b 0f2f b6bb 4625 fe3b e916 25bc
00000130: d4cf 113b be9e ef3b e4e1 133c 11ab 10bc
00000140: 8022 133c c473 46bb ef6e dd3b c24a 86bb
00000150: 6797 86bc 1769 00bc 9c21 ed3b 1f9a 01bc
00000160: 9d50 2c3b 5223 2fba 4cef ed3a 6d6a 983b
00000170: 5ba4 ecba 24f7 4d3c 0375 f73b 4b6e c33a
00000180: 19fe b8bb cc93 723a 6b78 c2b9 d80e 46bb
00000190: 8aa8 e3bb 502d c73b f4f8 c53b 7904 ea3b
000001a0: a9bb eebc 220d 5738 efe2 4cbc 301f 6b3c
000001b0: f29b 25bc 6663 4cbc 2aa3 36bb 4f37 633c
000001c0: e107 cb3b 104e c13b 5334 cd3a e54b 91ba
000001d0: 959c 91bc 3693 8e3c 18b7 fcbb 54ad 443b
000001e0: 1c44 69bc 7e52 1cba 7eef d2bb 2fad eb3b
000001f0: 5d4e da3b ee71 c3bc 8778 163c 14f7 493c
00000200: 0e31 73bc 6fc6 2c3a 77e5 0e3c cd8b c8bb
00000210: d562 ba3b 855c 56bb 112d 9d3c fb52 5dbc
00000220: 6793 013c 16e7 8bbb 8530 db3b b018 61bb
00000230: 7e15 59bc 8236 e2bb b4d7 84bc 84fe 3dbc
00000240: 50fc 05bb c52c b73b 4a2c 05bc 249a 2eba
00000250: a957 93bb 45ba a2bc 8687 11bc 114b 86bc
00000260: cb3f 98bb a0d5 93bc dd5d 0abc c409 36bc
00000270: 0b9f 64bc 9ecd a1bb c0bf 59bc dea6 29bc
00000280: f5f8 90bc 5bcf 893b 6815 9f3b 4fd1 f93b
00000290: 0a9e c7bb 2926 febb c01a d53b b5a2 20bc
000002a0: b063 90bc 96c1 9ebc 8e03 59bc 326f cfbb
000002b0: b7fd af3b 1ec2 623c 74a1 92bc f907 8ebb
000002c0: fbc5 5e3b 799e 1dbb c219 fe3b 8016 39bb
000002d0: 27ec 8ebb 1dbb 6ebc b325 4cbc 5677 983c
000002e0: a558 513c a482 61b9 bbb4 2bbc e3eb 07bc
000002f0: d85b ba3b 8517 7bbb 30ab 563c dcee fcba
00000300: 2952 073c d0d1 81bc 41f0 cebb abd4 09bb
00000310: 32e5 623b fa5e 05bc 7907 c33c 9427 21bc
00000320: bf17 8abc 5eb2 9e3c 89da 103b b77e 283c
00000330: 9d95 a73b c5a5 c839 9ebb bdba 044f 46bb
00000340: b2d5 213b 8417 62bb f13f 803c 0d81 ad3b
00000350: 8c85 8d3c 6b0f 053c 975e 293c 0263 113c
00000360: 8fdc 64bc 8b11 bf39 0718 fdba de89 0f3b
00000370: c74c b83a 62ce 323c 1b69 c53b 408d 5c3b
00000380: 1cde 8dbc 2648 6cbb 32ed 113c 7e34 4e3c
00000390: fcce 303b c874 0b3b c9c3 61bc 3fa2 963b
000003a0: 79c5 c53b 9f0d 153d 7217 f73b 2146 c3bb
000003b0: fd0f 9e3b e251 51bb f72a 3bbc acec 973b
000003c0: 4b3c 4a3c a62a 2c3c fe9b 52bb 3257 ed3b
000003d0: 4b9d 273b b61b 1cbc 42a4 003c a79d ebbb
000003e0: b42c 99bc 70c5 443a af86 13bb 4fa3 723c
000003f0: 5683 953c b7dd 18bb b9ae 46bb 1947 29bc
-0.0019629707 -0.01661182 0.0004319939 -0.013961438 -0.005596349 0.006026067 -0.012797596 -0.0024611508
-0.012557601 -0.016166218 -0.008302624 -0.0015797998 0.013472945 0.00062835036 0.008496667 -0.0047831736
0.0015091489 0.0044445083 -0.0043917806 -0.008212618 -0.02544187 -0.006301618 -0.008103941 -0.0033541354
-0.010433732 -0.009319641 -0.0136659825 -0.0017607197 0.00505691 0.0007252506 -0.0033412667 -0.003908391
0.0009608773 0.0112416865 -0.008815702 0.011839063 0.004695967 0.0020106342 0.0005897049 -0.003090072
-0.0065620667 -0.0063490677 -0.019774636 -0.011854679 -0.00823139 -0.013577581 0.004957939 -0.0024261202
-0.018741021 -0.0082151815 -0.010446103 0.003335468 -0.018955145 0.0029974242 0.0105951065 -0.008424949
-0.010059465 -0.004485841 0.006343695 -0.0037150173 -0.0032608046 -0.0013827028 -0.007183552 0.02733622
0.014561009 -0.0068674716 0.004692183 -0.0011505213 0.01149572 0.007457482 -0.0023115873 0.01168405
0.0058056894 -0.005559809 0.007755908 -0.010076263 0.002224912 0.0073126247 0.0090260245 -0.008829848
0.008980393 -0.0030281404 0.006757609 -0.0040982673 -0.016429616 -0.007837555 0.0072366726 -0.0079102805
0.0026293166 -0.00066809834 0.0018152981 0.004651359 -0.0018054353 0.01257113 0.0075517907 0.0014910189
-0.005645525 0.0009253591 -0.00037092282 -0.003022125 -0.0069475817 0.0060783997 0.0060416404 0.0071416465
-0.029142218 5.1272225e-05 -0.012505277 0.014350697 -0.010107981 -0.01247487 -0.002786825 0.013868167
0.0061960076 0.0058991984 0.0015655853 -0.001108524 -0.01777486 0.01740418 -0.007712256 0.0030010538
-0.01423743 -0.000596322 -0.006437241 0.007192276 0.0066621737 -0.023858037 0.009184009 0.012326974
-0.0148432385 0.0006590848 0.008721701 -0.006120181 0.005688051 -0.0032708955 0.019186528 -0.013508554
0.007908679 -0.004269491 0.0066891336 -0.003434699 -0.013249753 -0.0069034705 -0.016216137 -0.011596326
-0.002044458 0.0055900537 -0.008128235 -0.0006660542 -0.004496534 -0.01986421 -0.008882409 -0.016393216
-0.0046462766 -0.0180462 -0.00844523 -0.011110727 -0.013953934 -0.0049378416 -0.013290346 -0.010354726
-0.017696837 0.004205627 0.0048548467 0.0076238285 -0.006091838 -0.007756014 0.006503433 -0.009804417
-0.01762566 -0.019379418 -0.013245476 -0.006330394 0.0053708213 0.013840226 -0.017899252 -0.0043344465
0.0033992517 -0.0024050756 0.0077545354 -0.002824217 -0.0043616476 -0.0145709785 -0.01246016 0.018611591
0.012777482 -0.0002150634 -0.010480101 -0.008295986 0.005687218 -0.003831358 0.013102338 -0.001929726
0.008259335 -0.015847117 -0.0063152616 -0.00210313 0.0034621474 -0.00814032 0.023807274 -0.009836096
-0.016857026 0.019372161 0.0022102913 0.010284117 0.005114271 0.0003827048 -0.001447547 -0.00302595
0.0024694023 -0.003449888 0.01565549 0.005294925 0.017275594 0.008121352 0.010337493 0.008873703
-0.013968601 0.0003644343 -0.0019309529 0.0021902244 0.0014060967 0.010913463 0.0060244924 0.0033653527
-0.017317824 -0.0036053746 0.008906649 0.012585757 0.002697884 0.0021279324 -0.013779589 0.004596978
0.0060355035 0.036389943 0.0075406367 -0.0059592878 0.0048236833 -0.0031939675 -0.011423818 0.004636368
0.0123434765 0.010508215 -0.0032136436 0.0072430605 0.0025575932 -0.009528091 0.007851662 -0.0071904245
-0.018698074 0.0007506227 -0.0022510698 0.014809444 0.018251102 -0.0023325512 -0.0030316545 -0.010331892

onnx::MatMul_284 f4 [24, 96]
00000000: af3d dfbc 936f 62bc 797e 503b 100d fcbc
00000010: bc8d fcbb ee9a 173d 9066 41bc 6614 46bc
00000020: 0de1 053c abfd db3c 0a32 6a3c 8a97 d1bc
00000030: db84 e2bc 067a 63bc edc5 3fbc c83d 853c
00000040: dea4 71bb 01ef bfbc e2a0 673c fa84 06bc
00000050: abd9 023d d70a cf3c 08d3 0bba 8b1d 85ba
00000060: 303b 193c ca60 543b 66e2 e23c 005f 06bc
00000070: 4431 cabc 7c2f 603c 58b0 f23c 0770 d2bc
00000080: cb3e bf3c 6bb5 013d 19b8 a33a deef 3dbc
00000090: ac02 5e3c 6e9d 98b9 09b9 9b3c 99df f63c
000000a0: f831 5aba 2222 cebc 32bb 09bd 549a 75bc
000000b0: 9631 9b3c 62a5 d7bb 5d4e 773c decf f8bb
000000c0: e2f3 d7bb 47ce b1bb 0119 303d 9405 a9bc
000000d0: 446d bbbc 2462 14bc efba acbb 00f6 2abd
000000e0: 10f7 6b3c d33d d6bc 72a7 1dbd 5818 993c
000000f0: 035d 77bc aa12 3d3c 3c33 a63c d447 d9bc
00000100: b37a 83bc f8d8 6fbc 421e 58bc f563 cfbc
00000110: 3e73 db3b 066b 063c 4a07 c3bb db97 b8bc
00000120: 4b08 0bbc 738d 763c 097f 393b 3bbe fa3c
00000130: e789 ddbc 93ef 32bc 0e9c 41bb 7eac d7bc
00000140: 3daa 8a3c a7b9 4d3d ec32 083c 5dd3 7d3c
00000150: 36b5 233a f1fc 003d c341 f13b ddc8 ddbb
00000160: c9f4 bcbc 34db 873c bcef ec3b 7697 9eba
00000170: 1e7a 7f3b ef0a 9d3c b2ee be3c 616c 4e3a
00000180: 0d0d c0bc 66fd dd3b 2510 703c acc0 86bc
00000190: 6b29 afbb 0af6 19bb 10aa 0d3b 7d32 113d
000001a0: 72f6 fb39 f41d 223d 9961 b73c 4973 f1bc
000001b0: a9bf 743a aaf8 023d 93d0 adbb eb4e 1cbd
000001c0: 98c5 633d a447 dbbc a769 1a3c f9fc 9b3a
000001d0: 4d42 c9bc 46f4 08bd 0cb6 e23c c717 a13c
000001e0: 393b f73c 7b4f 91bc 1efd a03c e1eb b5bb
000001f0: 0091 653c c741 3e3c 8454 98bc cf11 8e3c
00000200: 853f 203b 4a63 89b9 809d 483c f47e 6f3c
00000210: 20d6 87bb ef6e 7d3c ea1d dc3b 4fce 013c
00000220: e622 a7bc e227 1a3c e6fe 67bd 219b d33c
00000230: 956d db3c 907d 4fba 20e9 c03c ca1f 12bd
00000240: 0dfa 30bd 622f ad3c 1ab2 043d 3ef7 34bd
00000250: 610c 4e3d 07da 24bd c4c1 8d3c ad6b b93b
00000260: e683 1ebb 325f a73c 7d57 42bc d25b 97bc
00000270: 3ba5 f83c 5315 b1bc 97ef 383c e4ef e53b
00000280: 3b40 513c 062f 0ebd b91e d63b e0b9 193c
00000290: 3de2 89bc fb70 bb3b 70b0 31ba 1170 95bb
000002a0: 690a 73ba 8d9a 3d3d 8298 403c 9e30 66ba
000002b0: afeb 133d 5da9 06bc 2561 8bbc 07fa 943c
000002c0: 27e2 603c 8934 3cbc 07b6 f4bb 8e96 cb3c
000002d0: c50c 053c 6916 243d 328c 7cbc 4947 b43b
000002e0: f21f a33c 1300 7b3b adf6 c1bc 6269 c93c
000002f0: d7c6 113c 4084 333b 6e95 c93c ee37 d43a
00000300: 6b8b d4bc 9b79 efbc 4398 76bc 9240 163c
00000310: 0758 4cbd 82f4 3dbc ad74 2d3a 15fa 8b3a
00000320: 3923 2abc c10a 0a3d 665e 7d3c 1e35 78bb
00000330: 43ca 043d 963c a93b 4591 263c 8c06 7e3c
00000340: 067f 143b 9b88 07b9 e48c 0cbb 208e d73b
00000350: a2d7 073c 3bfa f33c 1e49 28bc c264 5c3c
00000360: b485 19bc 67dd 05bc f675 823a 7cb2 bb3c
00000370: 8b30 ea3b 7566 97bc 85e9 eabc c505 d1bc
00000380: 873c b03b f68c 89bc 2ac3 a33b 7070 a9bc
00000390: eb35 ab3b bb50 233a 0000 a7bb 5fc7 173d
000003a0: 81ce 29bb 375c d5bb 3515 02bd 5257 6dbb
000003b0: 9b99 d43b f06a bebc 01f1 afbc b41a 23bc
000003c0: 6ccb 94bc 3889 bfbc 19f4 613c 732b 7dbc
000003d0: ee6b fb3c e46d 423c 4771 3d3c e5af a93c
000003e0: 35a1 fdbb a171 cbba 06f0 8fbb 2b7b 1e3c
000003f0: 7896 4ebc 5743 cc3c 0288 00bd f819 7f3c
-0.027251093 -0.013820547 0.0031813665 -0.030767947 -0.0077073257 0.037012987 -0.011804238 -0.012089824
0.008171332 0.026854357 0.014294157 -0.025584955 -0.027651241 -0.013884073 -0.011704904 0.016264811
-0.003687195 -0.023429396 0.014137479 -0.008210415 0.031945866 0.025273724 -0.00053338753 -0.0010155899
0.00935249 0.0032406324 0.027695846 -0.008201361 -0.024681695 0.013683196 0.029625103 -0.025688184
0.023345372 0.031667154 0.0012490778 -0.011592833 0.013550442 -0.00029108993 0.01900913 0.030135917
-0.0008323486 -0.02516276 -0.03362579 -0.014990408 0.018944543 -0.0065809945 0.015094367 -0.007593139
-0.0065903524 -0.0054262015 0.042992596 -0.020632543 -0.02287925 -0.009056602 -0.0052713077 -0.04173851
0.014402166 -0.026152527 -0.038489766 0.018688366 -0.015097859 0.011540094 0.020288102 -0.026523508
-0.016049718 -0.014639132 -0.013190808 -0.025316218 0.0066970875 0.008204227 -0.0059517967 -0.022533348
-0.008485864 0.015048373 0.0028304479 0.030608287 -0.027043296 -0.010921377 -0.0029542479 -0.026327368
0.016926879 0.05022588 0.008312922 0.015492287 0.0006244959 0.031491224 0.0073625757 -0.0067683295
-0.023065941 0.016584016 0.007230727 -0.0012099582 0.00389827 0.019170253 0.023307178 0.0007874426
-0.023443723 0.006774592 0.014652287 -0.016449295 -0.0053455136 -0.0023492598 0.0021616258 0.03544854
0.00048058067 0.039579347 0.022385405 -0.029473918 0.0009336421 0.031975426 -0.005304405 -0.0381612
0.055608362 -0.02676756 0.009424604 0.0011900953 -0.024567747 -0.033436082 0.027674697 0.019664658
0.030179607 -0.017738095 0.019651946 -0.0055518006 0.0140116215 0.011612362 -0.018594988 0.017342476
0.0024451923 -0.00026204652 0.012244582 0.01461767 -0.0041453987 0.015468343 0.006717433 0.007922723
-0.020402383 0.009408923 -0.056639574 0.025830807 0.026785651 -0.00079151336 0.023548663 -0.035674848
-0.043207217 0.021140758 0.032396413 -0.0441811 0.050304774 -0.04024699 0.017304309 0.005658588
-0.0024187504 0.020431135 -0.011861679 -0.0184764 0.030352226 -0.021616613 0.011287591 0.0070171226
0.012771661 -0.034712814 0.006534424 0.009382695 -0.016831512 0.0057202554 -0.00067783054 -0.0045604785
-0.00092712656 0.04628997 0.011755111 -0.0008781048 0.036113437 -0.00821909 -0.017014096 0.018185629
0.013725794 -0.011487135 -0.0074679884 0.024852064 0.00812072 0.040060434 -0.015414285 0.005501662
0.019912694 0.0038299605 -0.023677194 0.024586383 0.008897505 0.002739206 0.024607386 0.0016190985
-0.025945386 -0.02923279 -0.01505095 0.009170668 -0.049888637 -0.01159394 0.00066168123 0.0010679389
-0.010384374 0.033701662 0.015464401 -0.0037873457 0.032419454 0.005164693 0.010166471 0.015504491
0.002265872 -0.00012925493 -0.0021446282 0.006578222 0.008291157 0.029782405 -0.010271339 0.013451757
-0.009370256 -0.008170462 0.0009953368 0.022912256 0.0071469 -0.018481473 -0.028675804 -0.025515446
0.005378309 -0.016790848 0.0049976306 -0.020683497 0.0052249334 0.00062299863 -0.0050964355 0.03705537
-0.002591044 -0.006511237 -0.031758506 -0.0036215377 0.0064880378 -0.023244351 -0.021477224 -0.009955097
-0.018163405 -0.02338086 0.013791108 -0.015452254 0.030691113 0.01186702 0.011562652 0.020713756
-0.0077401646 -0.0015521535 -0.0043926267 0.00967292 -0.012609117 0.024934454 -0.031379707 0.015570156

onnx::MatMul_285 f4 [96, 24]
00000000: 3e61 05bc 78c8 cbbb d226 2b3c 82f3 98bc
00000010: 5032 dcba 6b89 6f3c 9806 b6bb 29ae 28bb
00000020: fe95 d23b 4a96 31bc 0f0e a73b 8f60 383b
00000030: 9398 303c e1b5 cb3a c57d 773b b5f8 76bc
00000040: 1dbd 893c 371f 4fbb e8f4 19bb 62ea e2ba
00000050: 0434 a83a 7e01 a8bc 500c 3dbc e426 333c
00000060: f8ac 9dbb b8ca 223c 75c1 10bb 4903 2e3c
00000070: 3920 35bc d951 15bb a5b4 7d3a 6708 b8bb
00000080: 7282 16bc d645 843b 03ab 8dbc 81ab 463c
00000090: 462a 8e3c 94a5 11bc 5ea3 5ebb 6f2c e03a
000000a0: b743 653c d638 99bc 2690 a03b 4623 02bc
000000b0: 0506 b139 fd5b d039 797d 08bc 6212 0f3c
000000c0: 2693 edbb c6a1 f9bb 570c 443b bb8a cabb
000000d0: 9397 a3bb 491d a9bb 5c8e c5bb 490f 4ebb
000000e0: 93c8 f3ba 6c89 ebbb 8c8e 53bb 8d74 c7ba
000000f0: 1c63 43bb 4e34 cd3b 0da2 0d3c af33 e23a
00000100: e2bc 0dbc f4ef 0fbc c637 a93b 43ac ecba
00000110: 2127 70bb eed1 c8bb 9009 bebb c0cd 19bb
00000120: 3a4b 20bc 8fe6 cd3a f905 bc3b 2e8e a8b8
00000130: 2d75 3ebb d2db 1bbb a07e dfbb a21c 453c
00000140: 0c7d 17bc a752 813a fb5f cb3b 90ac 003c
00000150: 1799 40bb 9e85 97bb 72e5 143c fca7 5d3b
00000160: e4e9 0cbc d4b4 9bbb a9cb 383c a26d 6fbb
00000170: 2669 61bb ede6 99bc 9df2 0c3c 3bb0 46bc
00000180: eebc 013c 8538 4b3c b552 cd37 ca55 26bc
00000190: 30eb 88bb 1c77 7fbb 99c6 613c 401e 5ebb
000001a0: b980 5a3c a50c 8039 727d 52bc 6b58 603c
000001b0: de42 2939 a96a a3bc 4efa c3ba c085 1cbc
000001c0: b465 8a3c abeb 19bc 97a5 05ba 4a7f 55bc
000001d0: 82f6 a2bb 5e30 c4bb bc88 c93b 17b8 15bb
000001e0: 39ad d73b ee80 863b 8c4f 033c f919 a53c
000001f0: 4b38 b03b 8eb4 37bc 1bab 773b 6dc4 413b
00000200: 3558 3a3c 1c26 80bc 0209 853c e543 423b
00000210: 371b 6e3b 9e75 2cbb 3e36 fc3b 6933 1d3c
00000220: fd0b 0abc 27af ff39 a0f1 243b 97d4 2ebc
00000230: d545 e63b bd8f 0f3c 993c 5c3c 6eae c6bb
00000240: b029 f5bb d988 e43a bb86 ddbb 291c e7bb
00000250: d8a9 2a3c 959e 753b c3f6 f93a 83ef 17bc
00000260: 12af 0dbb 6dd8 31bc 21bd 253c ae8c 3238
00000270: 9f97 1abb b258 30bc e64e 0cbc 4c97 e43b
00000280: e2c0 833b 829b 80bc 00a7 54bb f088 bf3b
00000290: 45d3 74bc 9db3 003c 77ae 56bc 6d27 a9bb
000002a0: e687 a63b 7c1c f3bb 5e60 b7bb be53 c4b9
000002b0: 97da c63a 54ea 1cbc 86b5 eeba 903f 6a3c
000002c0: fbbb a5bb 7c1e 03bc 6fd5 cc3c 40df 60bc
000002d0: 7809 77bb 69e9 2c3c b315 41bc 12b4 cf3c
000002e0: 665d 11bc 984a 8abb 9765 8d3c d4dc 473a
000002f0: 0245 30bc 79ac 35bc 385d 4f3c f3ae 62bc
00000300: 01e6 47bb a52d 153c 4c98 4dbc 4a94 2dbb
00000310: ab8b 51bb 9548 59bc 56df acbb e746 1abc
00000320: f1a0 003c adcc a23b 3bf5 b9bb 8612 f7bb
00000330: bcba 33bc 00da e7bb 2a9e 39bc 6a1a 1a3b
00000340: b2cc 023a afe2 33bc 2c1a 75bb faf6 823c
00000350: d041 203b e2e8 233c af1a c43c 55c2 4abc
00000360: 6622 ba3b fa51 993b 7406 993b acca 9c3b
00000370: 399a 3abb c587 9f3b 004d aebc 0ed1 b83c
00000380: cbdc 81bb b937 10bc 8433 c1bb b069 093c
00000390: d540 533c efd4 293c 0624 2f3c d3b7 50bb
000003a0: fd2b 223c f03f 843c 061e 393a 1886 c73b
000003b0: 9718 8bbb de6a 403a 458b c4ba 87a0 8ab9
000003c0: d1b8 8cbb d0c8 7abc 4934 c93c 062b d03a
000003d0: a907 bd3b 7890 8abc 8648 0fbc 295a aebb
000003e0: 5571 cd39 45f2 a4bc 82db 9a3b 846d 573a
000003f0: f38b 32bc 9020 26bc 9c5d 1cbb 0cba 0f3c
-0.00814086 -0.006218966 0.010446267 -0.018670801 -0.0016799662 0.014620165 -0.0055549853 -0.0025738573
0.006426572 -0.010839054 0.0050981115 0.0028133725 0.010778564 0.0015541875 0.0037764173 -0.015073945
0.016813809 -0.00316043 -0.0023491923 -0.0017312283 0.0012832885 -0.020508524 -0.01153858 0.010934565
-0.0048118792 0.009936027 -0.0022087966 0.0106209 -0.011055046 -0.002278438 0.0009678102 -0.005616236
-0.009186374 0.0040366454 -0.017293459 0.012125851 0.017354142 -0.008889575 -0.0033971886 0.0017103086
0.013993195 -0.01870386 0.0048999963 -0.00794298 0.00033764556 0.00039741388 -0.008330696 0.00873241
-0.0072502075 -0.007618162 0.0029914582 -0.0061810887 -0.0049924343 -0.0051609618 -0.0060289335 -0.0031442216
-0.0018599204 -0.007188013 -0.003228101 -0.001521723 -0.0029813712 0.0062623387 0.008644593 0.0017257835
-0.00865099 -0.008785237 0.0051641194 -0.0018056709 -0.0036644416 -0.006128541 -0.00579948 -0.0023468584
-0.00978356 0.0015708971 0.0057380167 -8.037347e-05 -0.0029061541 -0.0023782146 -0.006820515 0.012030752
-0.009246122 0.0009866551 0.00620651 0.007853642 -0.0029388124 -0.0046240827 0.009087907 0.003382205
-0.008600686 -0.004751781 0.011279025 -0.0036533852 -0.0034394949 -0.018786872 0.008602765 -0.012126978
0.0079185795 0.012403612 2.4476418e-05 -0.01015229 -0.004178427 -0.0038980907 0.0137802595 -0.0033892542
0.013336354 0.00024423483 -0.012847291 0.0136929555 0.00016142006 -0.01994832 -0.0014951916 -0.009553373
0.016894199 -0.0093945665 -0.0005098222 -0.013030836 -0.0049732337 -0.005987211 0.006150333 -0.0022845322
0.006581929 0.004104725 0.008014571 0.020153986 0.0053778044 -0.011212481 0.0037791196 0.0029566542
0.011373569 -0.015643172 0.016239647 0.002964252 0.003633214 -0.0026315222 0.007696896 0.009594777
-0.00842571 0.0004876789 0.0025168434 -0.010670803 0.0070273676 0.008762297 0.013442182 -0.006063274
-0.007481776 0.0017435803 -0.006760446 -0.0070529175 0.0104164705 0.0037478555 0.0019070733 -0.009273413
-0.0021619243 -0.010854823 0.010115893 4.2569525e-05 -0.0023588908 -0.010763334 -0.008563733 0.006976044
0.004020796 -0.015699152 -0.0032448173 0.0058451816 -0.014942949 0.007855323 -0.013103119 -0.0051621706
0.0050821183 -0.007419167 -0.0055962047 -0.00037446426 0.0015171346 -0.009577353 -0.0018212057 0.014297381
-0.0050578094 -0.0080028735 0.025004117 -0.013725102 -0.0037694853 0.010553696 -0.011784959 0.025354419
-0.008872366 -0.004220318 0.017260356 0.00076241535 -0.01075864 -0.011088484 0.012656502 -0.013835656
-0.0030502083 0.009105121 -0.012548517 -0.0026486092 -0.0031974118 -0.013261934 -0.005275647 -0.0094163185
0.007850871 0.004968247 -0.0056749857 -0.00754005 -0.010969814 -0.007075548 -0.011329213 0.002351428
0.00049896084 -0.010979339 -0.0037399633 0.015986908 0.002445329 0.010004254 0.023938505 -0.012375434
0.00568037 0.004678962 0.0046699587 0.0047849026 -0.0028473272 0.00486848 -0.02127695 0.022560623
-0.003963088 -0.008802348 -0.0058960337 0.008387014 0.012893875 0.010365709 0.010689741 -0.003184785
0.009898183 0.016143769 0.0007061664 0.0060889833 -0.0042448747 0.0007340143 -0.0014995119 -0.00026441013
-0.004294493 -0.0153066665 0.024561064 0.0015881963 0.0057687354 -0.016914591 -0.008745318 -0.0053208065
0.00039185086 -0.020135054 0.0047258744 0.0008217918 -0.010897624 -0.010139599 -0.0023859506 0.008772384
