proof_spliting/two_inputs/network2/model.onnx (onnx, 6922 bytes, 2 tensors)

onnx::Conv_562 f4 [16, 96, 1, 1]
0	0xbd7906a3	-0.060797345
1	0xbe052d76	-0.13005623
2	0x3e56ff7c	0.20995897
3	0x3d235061	0.039871577
4	0x3bc20914	0.0059214924
5	0xbce91466	-0.02845211
6	0x3e7521a7	0.23938619
7	0xbe805288	-0.25062966
8	0xbdc75959	-0.097338386
9	0x3e8bd3b6	0.2730996
10	0xbed20fbf	-0.41027638
11	0x3e29a3cd	0.16566391
12	0x3eba8991	0.3643308
13	0xbeb186a2	-0.3467303
14	0x3dd4189b	0.103562556
15	0xbf10440d	-0.5635384
16	0xbd0f48fa	-0.034981705
17	0xbf075472	-0.5286323
18	0x3dcff9e0	0.10155082
19	0xbe50eb19	-0.20402183
20	0xbcf6fff1	-0.03015134
21	0xbe211c3c	-0.15733427
22	0x3e96e768	0.29473424
23	0x3dd58c7b	0.10427185
24	0xbe78ef7d	-0.24310108
25	0xbeb4130f	-0.3517079
26	0xbdb0b1a9	-0.08627636
27	0x3e3c8d6c	0.18413323
28	0xbdd00514	-0.101572186
29	0x3f3ba384	0.7329638
30	0x3e248b29	0.1606871
31	0x3e971047	0.29504606
32	0x3ea415c9	0.3204787
33	0xbe13ae40	-0.1442194
34	0x3dc9b614	0.09849182
35	0xbedc68fa	-0.4304884
36	0x3cf7667d	0.030200237
37	0xbe881033	-0.2657486
38	0x3ec971d2	0.3934465
39	0xbd98d6bb	-0.074628316
40	0x3e6866b7	0.22695433
41	0x3e1ab5ad	0.15108366
42	0xbea6f5f4	-0.32609522
43	0xbd78c904	-0.06073858
44	0xbe88be04	-0.2670747
45	0xbdfa4809	-0.12220771
46	0x3dc407a5	0.095717706
47	0xbec3b50b	-0.38224062
48	0x3e3166d2	0.17324379
49	0xbdd359d3	-0.10319867
50	0xbe6fdd8f	-0.23424362
51	0xbe81b1a6	-0.25330848
52	0x3e998eab	0.2999166
53	0x3b1affd8	0.002365103
54	0x3ea02d1e	0.31284422
55	0x3e5cb3e1	0.21552993
56	0xbd804934	-0.062639624
57	0xbd906104	-0.07049754
58	0xbcc2325a	-0.02370565
59	0xbdb7f525	-0.089823045
60	0x3e7a8037	0.24462973
61	0x3e896096	0.26831502
62	0xbe2e3039	-0.17010583
63	0xbd6cafad	-0.057784725
64	0x3d69ad40	0.05704999
65	0x3e8ea21d	0.27858058
66	0x3d6f2e61	0.05839384
67	0x3db941e6	0.09045772
68	0xbdb60f34	-0.088896185
69	0x3e628fa4	0.22125107
70	0xbf003b98	-0.5009093
71	0xbeb0c5db	-0.34525952
72	0xbe884114	-0.2661215
73	0xbecc9c06	-0.39962786
74	0x3eb6c566	0.35697478
75	0x3dfa2b15	0.122152485
76	0xbe693459	-0.22773875
77	0x3ed3e82d	0.41388074
78	0xbcec7244	-0.02886308
79	0x3e448192	0.19190052
80	0xbda46e40	-0.08028841
81	0x3e9f541b	0.31118855
82	0x3f088797	0.53331894
83	0xbe1c1617	-0.15242802
84	0xbe353bb7	-0.1769856
85	0x3e822b24	0.2542354
86	0x3ea0453a	0.31302816
87	0x3eebe986	0.46076602
88	0xbcb32ac4	-0.021870978
89	0xbe55fc25	-0.20896967
90	0xbe8cc7d8	-0.2749622
91	0xbe5aa557	-0.21352135
92	0xbe9464fb	-0.28983292
93	0x3edf70ef	0.4364085
94	0x3eda1f19	0.4260185
95	0x3d1ace56	0.037794434
96	0x3e960f8b	0.29308733
97	0x3ea472ec	0.32118928
98	0x3de052f4	0.10953322
99	0x3e4bba30	0.19895244
100	0x3eaf99a5	0.3429691
101	0x3ec2847d	0.37991706
102	0xbe78ead7	-0.24308334
103	0xbde790d9	-0.113069244
104	0xbd846431	-0.064644225
105	0xbc876f78	-0.016532645
106	0x3e70cb46	0.23515043
107	0x3c9129c5	0.017720113
108	0x3d822ec3	0.06356575
109	0x3ded4813	0.11586013
110	0xbe24f438	-0.16108787
111	0x3e4672fc	0.193798
112	0x3d7c0440	0.06152749
113	0x3dbb4520	0.09144044
114	0xbec4f4fd	-0.3846816
115	0x3ede5731	0.43425897
116	0x3e831562	0.2560225
117	0x3cdbeca8	0.026846245
118	0xbe2d1a30	-0.16904521
119	0x3cd19413	0.025583303
120	0xbe800cfc	-0.25009906
121	0xbdc2c065	-0.095093526
122	0x3e77d3f7	0.24201952
123	0x3ed84826	0.42242545
124	0x3d544f3e	0.051833384
125	0x3ea285b2	0.31742626
126	0xbe803e21	-0.250474
127	0x3e4f56e4	0.2024799
128	0xbce902d9	-0.02844374
129	0xbd827e8a	-0.06371792
130	0x3e6526da	0.22378102
131	0xbefd6dac	-0.49497736
132	0x3eef446a	0.46731883
133	0x3e92853d	0.28617278
134	0x3ccd3b2b	0.025052628
135	0x3e91529e	0.28383344
136	0xbd0051e0	-0.031328082
137	0x3e6f214a	0.23352543
138	0x3eaf88cb	0.34284052
139	0x3e8789eb	0.2647241
140	0x3e93ffa6	0.28905982
141	0x3e7d389a	0.24728623
142	0x3e9c26ca	0.30498344
143	0x3ec22e21	0.3792582
144	0xbed1db14	-0.40987456
145	0xbe9a5878	-0.3014562
146	0x3d083446	0.033252977
147	0x3d05bb59	0.03264937
148	0xbe6e6388	-0.23280156
149	0x3ae8628c	0.0017729565
150	0x3cc83e0f	0.024443654
151	0xbe5a75b2	-0.2133396
152	0x3da68db1	0.08132494
153	0xbc81f456	-0.015863579
154	0xbbb9659a	-0.005657864
155	0xbdda7658	-0.106671035
156	0x3ed08967	0.4072983
157	0x3dddd1b0	0.1083101
158	0x3d945da8	0.07244426
159	0x3ea9acb1	0.33139566
160	0xbd5f4649	-0.05451039
161	0xbeb709af	-0.35749575
162	0x3e216420	0.15760851
163	0x3ca10542	0.019655827
164	0xbe9ad2ab	-0.30238852
165	0x3eadca19	0.3394325
166	0xbd3c99e1	-0.046045188
167	0xbde3d62a	-0.11124833
168	0xbd92c0e6	-0.07165699
169	0x3ebf2385	0.37331787
170	0x3ed571f1	0.41688493
171	0xbd48a49f	-0.04898512
172	0xbc19d825	-0.009389912
173	0x3dbe5532	0.092935935
174	0x3d64bfc9	0.055846963
175	0xbe51fc82	-0.2050648
176	0x3ad2063b	0.0016023585
177	0x3e9cab5a	0.3059948
178	0xbc85ac36	-0.016317468
179	0xbe44e9b1	-0.19229771
180	0x3e360372	0.17774752
181	0x3d899e34	0.06719628
182	0x3e72367d	0.23653598
183	0x3e456a8e	0.19278929
184	0x3e58466c	0.21120614
185	0xbedabd39	-0.4272249
186	0x3e4ad2ec	0.19807023
187	0xbe9616ee	-0.2931437
188	0xbe9fe502	-0.31229407
189	0x3e25cbb7	0.16190992
190	0x3e9608f7	0.29303715
191	0xbe88d5fa	-0.2672575
192	0xbd526ffb	-0.051376324
193	0x3bed8a18	0.007249128
194	0xbe3d66cf	-0.1849625
195	0x3dd7742b	0.10520204
196	0xbda4d34e	-0.08048116
197	0xbe040424	-0.12892205
198	0x3d635252	0.05549843
199	0xbd539589	-0.05165628
200	0xbd89598a	-0.06706531
201	0xbde5aa1f	-0.11214089
202	0xbdd75cbe	-0.10515736
203	0xbe84272d	-0.2581114
204	0x3da08d0f	0.07839405
205	0x3e37ae7e	0.17937657
206	0x3eafe63b	0.3435534
207	0xbd9dba37	-0.07701533
208	0x3d7b3e34	0.06133862
209	0x3e7a7971	0.24460389
210	0xbe62632a	-0.2210814
211	0x3e8c5b86	0.27413577
212	0xbdaddb40	-0.08489084
213	0xbddef6e1	-0.10886932
214	0x3e247a9f	0.16062401
215	0xbd05ac72	-0.03263516
216	0xbe60baf1	-0.21946312
217	0xbe704f0c	-0.23467654
218	0xbc8ce9e9	-0.01720138
219	0x3e5d85e9	0.21633114
220	0xbdc9cd2e	-0.09853588
221	0x3e1ea69f	0.15493248
222	0x3e185029	0.14874329
223	0xbae33fcc	-0.0017337739
224	0x3ca61315	0.02027277
225	0x3d7af806	0.06127169
226	0xbd153a9c	-0.036432847
227	0xbe7271f5	-0.23676284
228	0xbe7b920d	-0.24567433
229	0x3e6f32c5	0.23359211
230	0xbdd2f85e	-0.103012785
231	0x3ea740e9	0.3266671
232	0xbbd7cdcd	-0.0065858127
233	0xbda4c1f5	-0.08044807
234	0xbb2bdd13	-0.00262243
235	0x3e22513a	0.15851298
236	0xbe314148	-0.17310059
237	0x3e42d9bf	0.19028376
238	0x3e13f8ac	0.1445033
239	0xbdc12998	-0.094317615
240	0x3ea9679b	0.33086857
241	0xbd64f9d9	-0.055902336
242	0x3d9ab706	0.0755444
243	0x3e4b1756	0.1983312
244	0x3ecbdfea	0.3981927
245	0xbd685c53	-0.056728672
246	0x3d62551e	0.055256955
247	0xbe0d61fd	-0.13806911
248	0x3d77d6b5	0.060507495
249	0x3dc00ed8	0.09377831
250	0xbd39cd95	-0.045362074
251	0xbd4038ee	-0.046929292
252	0xbd016177	-0.03158709
253	0xbd79ee94	-0.06101854
254	0xbee3c749	-0.4448798
255	0x3e150349	0.14552034

onnx::Conv_563 f4 [16]
0	0x3f1532fd	0.58280927
1	0xbfadb77b	-1.3571619
2	0x40291c7e	2.642364
3	0xc0c24e66	-6.07207
4	0xc00e44fb	-2.2229602
5	0x4120fa24	10.0610695
6	0x3f78079d	0.96886617
7	0xbdac68a4	-0.08418396
8	0xbf6b339e	-0.91875637
9	0x3f2a13f5	0.664367
10	0xc03fca0d	-2.9967072
11	0xc0406b59	-3.006552
12	0xbfa0f7e6	-1.2575653
13	0x407cfbe0	3.9528732
14	0xc0ffd73b	-7.9950233
15	0xbde541a8	-0.111941636
