build_onnx_model_from_tract/example.onnx (onnx, 325942 bytes, 10 tensors)

conv1.weight.0 f4 [6, 1, 3, 3]
00000000: 0f53 f23f 38dd 3bbf b008 ad3f 5522 6bbd
00000010: e593 d9bd 3630 27bf 700f 0a3f 8d1f 2e3f
00000020: fbc1 9b3f 6e0d 143e a235 1d3f a3d5 133f
00000030: fc4c 88bf f492 84be d379 3a3f dad1 513f
00000040: b229 c3bf 3c27 e83f 84f4 97bf 9f79 82be
00000050: a748 31be 56f9 043f 7afa 06bf 458f a3bf
00000060: 81ff 29bf e933 56bf 9db4 3c3f f4f7 44bf
00000070: 9497 acbf a4e7 e1be b757 8cbe 32ee 08c0
00000080: 720e a8be cfb3 01bf d73d 38be 6849 f2bf
00000090: d90f 64bf d40d a0bf 62c2 b4bf 8665 2a40
000000a0: eda8 b1bf 01aa ba3e 2abb 99be 1e7a 2dbe
000000b0: 4c95 6a3f cc00 1cbe 2d1a 8abf 3cd3 7b3e
000000c0: 5ed7 97bf 61c1 ba3f 6eff 843f 86b0 cf3f
000000d0: 4e1c 2bc0 a8b0 00bf
1.8931597 -0.7338443 1.3518276 -0.05740579 -0.10623912 -0.6530794 0.53929806 0.6801689
1.2168573 0.14458248 0.6140996 0.5774786 -1.0648494 -0.25893366 0.7284214 0.81960833
-1.5247099 1.8136973 -1.1871495 -0.25483415 -0.17312871 0.51942956 -0.52725947 -1.2778097
-0.66405493 -0.8367296 0.73713094 -0.76940846 -1.3483758 -0.4412204 -0.2741067 -2.1395383
-0.3282352 -0.5066499 -0.1799234 -1.8928652 -0.8908668 -1.250422 -1.4121821 2.6624465
-1.3879677 0.36457828 -0.30025607 -0.16941115 0.9163406 -0.15234679 -1.0789238 0.24592298
-1.18626 1.4590265 1.0390451 1.6225746 -2.6736026 -0.50269556

conv1.bias.0 f4 [6]
00000000: e0a0 263d 664f 80bd 505e a73e c041 003e
00000010: 504f 1c3e 00a0 49bc
0.040680766 -0.06265144 0.32689142 0.12525082 0.1526463 -0.012306213

conv2.weight.0 f4 [16, 6, 3, 3]
00000000: be14 7b3f 8d9d a2bf 80cb a7bf 255e 99bc
00000010: 8753 90bd d819 d13e 54ba 44be 5a49 7dbf
00000020: f009 7b3f 5277 583f a1d5 873e e811 8f3f
00000030: 416d 8f3e e58d 243e ba8b b1bf 1aaf 17c0
00000040: a0ca b13e 639d cdbe 3ee9 1fbf 0dbb 71bf
00000050: 10d2 0abf 6a8a 643f 03ff bebe 7e19 763f
00000060: 9c88 c53f 3399 2b3f 2df7 533f 6239 2fbf
00000070: dd51 3a3f 32a6 3f3f 1edf c53d a6cd 323f
00000080: 0860 b23e fed2 20bf 3e1a d8be 0730 2f3e
00000090: 0ca2 473f 6619 8f3f d428 86bf 9d35 d6be
000000a0: dbfa af3f 0c42 8c3e 85ab 3dbf 7e52 063f
000000b0: b5d0 d1bc 0dd2 bd3f 4d5c 963f 4337 ac3f
000000c0: ba0a fb3f c260 603f ffdf 983f ef0e bbbe
000000d0: af04 f7bf d0e1 023d ed50 a73c 442a 2f3e
000000e0: 6028 e1bd fd3b 7a3e ff13 ddbe 4382 b53e
000000f0: 35ec c6bf 64e6 cdbe 7178 3d3f 5813 e6be
00000100: 8a7f 21bd 0363 6b3f 2c8e c4bf d4a2 7dbf
00000110: 3c3f 0c3f 9466 a7be e013 8d3f 0022 bcbf
00000120: b61b 00bf 97d3 d0bd 71bb 41bf f1ac 65bf
00000130: 7284 98be 6b91 a1bf 1314 2e3f cd61 6d3f
00000140: 3692 343f 0c49 20be e12b 9bbd 0ca5 803f
00000150: 86e8 a33f 0828 073e bf3e 873f a903 c7be
00000160: 8acf ee3e 2afd bbbf 71f9 a8bf fdc9 173f
00000170: c6a5 c83f 4a0b 8a3f 5db8 bd3f b730 983f
00000180: 083f 19c0 279b e4bf 9361 71bf 690a 093f
00000190: e263 2a3f 2d66 d13e 3c69 df3e 7543 d43c
000001a0: 21dc e23d 1649 46bc adfc 85be 9ab7 87bf
000001b0: a9b9 383f 2bc8 cc3e d1ad dbbf 1063 1640
000001c0: 1313 553f 83f3 3bbf be1a b4bf d2a6 40bf
000001d0: ea71 673f 26f2 6c3f dbf3 9a3e 1ef3 833f
000001e0: 6f64 86be 7a06 3cbe 39fb 5a3d bcce cebe
000001f0: ee73 a03f b5fc e5be a899 4cbf 32a8 08bf
00000200: 07d7 31bf 1800 03bc a6fa 60c0 38fb 05bf
00000210: 6f59 ccbd b8e1 5d3f 9ed1 08bf 3ee9 1abf
00000220: 3fa0 d7be 2c9d b33e cb7d c43e b3aa 2bbe
00000230: 1660 3bbf c2eb 833f 4397 60bf 7961 34bd
00000240: fe56 713e 532d 7d3f 2d88 b2bf d4fc a33f
00000250: 1723 1540 bf9d 95bd cbf8 d93e cbc5 0ebc
00000260: 91f1 02bf 170c ce3e 1f61 8abb 411f 333f
00000270: 2bfe b4bf 8fab a2bf 8eae df3c b42a e13d
00000280: 7f88 7abf 554f 9d3f a14b b23f 71c1 9c3f
00000290: 36f4 9f3f 909c bc3e 3718 fd3e 8f82 453e
000002a0: c81f 8ebe e503 d23e 60cb 1a3f d314 6fbf
000002b0: 3aef 373f 2a50 cabe af21 b5bf 42f6 8f3f
000002c0: df3c dfbf ad40 b13f 50c9 ee3e d4eb bd3d
000002d0: 74ab da3e d44b c2be 7ba8 50bf e6fe 0a40
000002e0: 896b c63e bcf1 0dbf 7f39 11c0 5080 a3bc
000002f0: e056 223e 0140 ce3e bbc9 363f 5a39 573e
00000300: f94f d33e e6e1 00bd 076a 213f 8d64 783e
00000310: 6338 aabe a87f 363d 60f6 7ebf f4d8 30bf
00000320: ab53 97bf cd55 2dbf ab4f 833f 366b 13c0
00000330: fefd d6be 64ac 853f 6021 81bd b1ff f8be
00000340: 09a2 5c3e f5e4 68bf 35c2 0e39 5288 903f
00000350: 1320 013e c49f 51bf edba b8be 3aea 37bf
00000360: 964c 663f 6acf 893f 73d5 353a e5b1 38c0
00000370: 8de3 30bf 0194 a03e a8b8 0fc0 1dec 1c3f
00000380: 2a6e f43f ae15 3cbf 33a7 6f3f 5fe2 17bf
00000390: e9ab 073f 120e e73d 52d0 ae3f 2a4f 42bf
000003a0: e0b4 e03e 8252 56bf 3830 e1be c2de 24be
000003b0: 1cde 503f ce73 153e 43a3 f53e ee27 30be
000003c0: f11d 00be f70f b1be 588b 77bf fbea 68bf
000003d0: 059d 413f afb5 a83f 668c 2f40 4929 1a3d
000003e0: 0d30 a13d be29 0d3b 966f 54be f48e 753f
000003f0: b54c 89bf 2d08 fc3e 5b30 9b3f 14bb 62bd
0.98078525 -1.2704331 -1.3108978 -0.01872165 -0.070471816 0.4084003 -0.19211704 -0.9894005
0.9806204 0.8455707 0.26530173 1.117734 0.28013042 0.16069753 -1.3870766 -2.3700624
0.34724903 -0.4015914 -0.62465274 -0.9442604 -0.5422678 0.89273703 -0.37303934 0.9613265
1.5432315 0.6703064 0.82799035 -0.68446934 0.72781163 0.7486297 0.09661697 0.69845045
0.3483889 -0.6282195 -0.4220752 0.17108165 0.7798164 1.1179626 -1.048121 -0.4183778
1.374843 0.2739414 -0.74089843 0.52469623 -0.025612215 1.4829727 1.1746918 1.3454365
1.9612648 0.8764764 1.1943358 -0.3653483 -1.9298304 0.031953633 0.02042433 0.17105967
-0.10994029 0.24436946 -0.43179318 0.35450944 -1.5540835 -0.40214837 0.74011904 -0.44936633
-0.03942827 0.91947955 -1.5355887 -0.9907658 0.5478399 -0.32695448 1.102169 -1.4697876
-0.50042284 -0.101966076 -0.7567664 -0.8971701 -0.29788548 -1.2622503 0.6799938 0.9272736
0.705356 -0.15652865 -0.075767286 1.0050368 1.2805336 0.13198864 1.0566024 -0.3886998
0.46642715 -1.4686635 -1.3201123 0.59292585 1.567559 1.0784695 1.4821888 1.1889867
-2.3944721 -1.7859849 -0.9428951 0.5353151 0.6655866 0.40898266 0.43634975 0.025911072
0.110771425 -0.012102386 -0.2616934 -1.0602906 0.72158295 0.39996466 -1.716242 2.3497963
0.8323223 -0.73418444 -1.4070661 -0.7525455 0.90408194 0.9255699 0.30264172 1.0308568
-0.262485 -0.18361846 0.05346224 -0.403921 1.2535379 -0.44919363 -0.7992196 -0.53381646
-0.6946873 -0.007995628 -3.5152984 -0.52336454 -0.099779956 0.86672544 -0.5344485 -0.6051215
-0.42114446 0.3508085 0.38377222 -0.16764335 -0.7319349 1.0306323 -0.8773081 -0.04403827
0.23568341 0.98897284 -1.3947808 1.2811532 2.3302667 -0.07305478 0.42572626 -0.00871415
-0.5114985 0.402436 -0.0042230035 0.69969565 -1.4140066 -1.2708606 0.027304914 0.10994473
-0.97864527 1.2289835 1.392933 1.2246534 1.2496402 0.36838198 0.49432537 0.19288085
-0.27758622 0.41018596 0.60466576 -0.9339115 0.71849406 -0.39514285 -1.4150904 1.1247027
-1.7440451 1.3847862 0.46637964 0.09273496 0.42708933 -0.37948477 -0.8150708 2.1718078
0.38753918 -0.5544698 -2.2691343 -0.019958645 0.15853453 0.40283206 0.71401566 0.21017972
0.41271952 -0.031465434 0.6305241 0.24257107 -0.33246145 0.044555336 -0.9959469 -0.69081044
-1.1822408 -0.67709047 1.0258688 -2.3034186 -0.41990656 1.0443234 -0.06305194 -0.48632577
0.21546187 -0.9097436 0.00013614523 1.1291602 0.12609892 -0.8188441 -0.36080113 -0.71841776
0.8996061 1.0766423 0.00069364085 -2.8858578 -0.69097215 0.31362918 -2.2456455 0.6129778
1.9096119 -0.7347058 0.936145 -0.5932979 0.5299669 0.112819806 1.3657324 -0.75902045
0.43887997 -0.83719647 -0.439821 -0.161006 0.8158891 0.14594957 0.4797612 -0.17202732
-0.12511422 -0.34582493 -0.96696997 -0.9098355 0.7563022 1.3180445 2.7429442 0.03763703
0.07870493 0.0021539773 -0.20745692 0.95921254 -1.0726534 0.49224988 1.2124132 -0.055354193

conv2.bias.0 f4 [16]
00000000: f750 4240 fa3a e33e bb06 2840 3245 d9be
00000010: bc60 7ebf 0e14 ddbc ab96 603f 0e73 d6be
00000020: 4b4a c43e 9427 fbbe 2893 9dbf 191e 303f
00000030: 9adc de3f 1c9e 38be a713 88bf d0ee acbe
3.0361917 0.44380933 2.6254108 -0.42435604 -0.99366355 -0.026987102 0.877299 -0.41884655
0.3833793 -0.49053633 -1.2310534 0.68795925 1.7411072 -0.18029064 -1.0630997 -0.3377595

fc1.weight.0 f4 [120, 576]
00000000: be84 1240 650b 82bd 6f6c 1dbe dcd6 a4bf
00000010: 22fb 27bb dff0 183f 3510 5740 8057 ea3e
00000020: e3a1 aa3f b2ce 93bf 00f1 9c3f 44ef bf3f
00000030: 5411 583f 613e 3fbf 85e0 463f 6bd3 8dbe
00000040: c219 71bf 5f6e 2fbf feac 56be f6c6 b53f
00000050: c819 90bf ee1e 743f 2e3d 0340 c5da 4fbf
00000060: 235e 553f b61a 37bf 0049 0dc0 2663 8b3f
00000070: 3271 22bf 8953 04bf 29ac 323f 7903 01be
00000080: f8ca 4fbe 7cd3 9b3e 96ea 39bf 727a ff3d
00000090: 0084 253e f75c 6f3f cbe3 5c3e bc4b 3cbe
000000a0: 49ef eb3e 9066 753f 35e9 aa3f d623 bcbe
000000b0: 739c 173f 75dd 1a40 eaea 1c3f 515b a93c
000000c0: 5bc3 fe3c 2d7c fa3f 13af a3bf dc4c 923f
000000d0: 7df1 84be 6407 49c0 5c51 503f 8c2c 0fc0
000000e0: 1d74 b33f 66c1 4c3e 5362 95be b6f0 ef3e
000000f0: beed f33f 5081 c5bd d65d cd3e ab4f 123f
00000100: 52cb 28be bb1a 6e3f ed19 133f b4bf 4d3f
00000110: c9f7 44be c936 b7bd 7d70 503f b344 f33e
00000120: 85d8 b2be f99b d4bf 2cee 683e ad33 b53f
00000130: 2600 4cbf ef11 eb3f f0f9 c23f 4b20 8abe
00000140: 92d2 933f 5de7 833f 9ca6 ac3f 6995 9abe
00000150: e3bd f7bf 7ac2 0b3f c743 00c0 ccb9 8d3e
00000160: 9696 43bd 7bcf cd3e 1227 54bf a70f 12be
00000170: 0050 af3e 12d3 4d3f bb0e b0bf a6d8 eebd
00000180: 8e17 863f 55d4 8d3f 54cb c43e 4d0e 9e3f
00000190: 7704 863f b9d5 533f 2f1d c9bf 81fb eb3f
000001a0: 0380 79be 992b 54bf c5e8 66be 4812 c6bf
000001b0: 2e7f b8bd 8e6a 16bf 2898 b23f 36a9 7abf
000001c0: 1806 3abe 6c8c 053c ec7a 86bf 0b11 2abe
000001d0: c25b 0cbf 5b7f 9f3e 20c4 8c3f 442f 8d3f
000001e0: 20d7 8cbf 2ccf e93b 4831 e33e 6346 4bbf
000001f0: b029 fa3d fc4c 83be ec82 973c d106 383f
00000200: f975 04bf 1845 aabe da3a 91bf 245f 683d
00000210: 9fc4 9cbf c052 413f 4645 a5be d6e8 85bf
00000220: a577 a7be 4422 21bf 64db 90bf 2b99 823f
00000230: 2724 76be fe89 bb3f eb7d dbbe d4ae a5be
00000240: 723d 0c40 fc5e 533d 6601 e33e e3d0 83bf
00000250: 43e1 743e 7713 703f 9e95 bb3e 42b3 653f
00000260: fef7 c03f 4893 453e 0e6d 35be df2c a93e
00000270: 0957 ecbf 5c30 c03d bb97 22bf 8b88 e73c
00000280: d911 31bf 2050 e8be c661 c9be de36 81bf
00000290: 3965 4a3e 3c45 683e 4b91 483f 61a3 003f
000002a0: 055c 7c3d 8b7c f1be 15a6 52bd 42c6 583f
000002b0: 45c8 a23e 4d6a da3e 1f94 cdbf d3a8 a93b
000002c0: 5609 debe 98e7 80bf 45b6 8f3f e1e7 1ebf
000002d0: 84e5 7abf ac32 f5be efc2 423e 2fd0 b93f
000002e0: 65be 7d3f 5aab 873f 13bf 10bf 0f39 aebf
000002f0: 0775 0fbf decf 093f 58db 87be b804 debd
00000300: 8ec4 81be e843 a3bf e3b4 323f 1055 d13e
00000310: f053 fdbe b863 26be d688 7dbf b763 a0bd
00000320: 3d7f 96bd 14cd 953f c070 85bd b9d7 d33f
00000330: d8aa eabd a8b0 a6bf 07d4 133d ce95 66be
00000340: b0a7 80be 8026 8c3f f32a 97bf f61b 3ec0
00000350: 5495 b1bf ef3d 773f 05fa d0bc f3e9 46bf
00000360: 6aa3 44be c910 433e 6a16 73bf ecd8 f33d
00000370: a541 153f 98b6 25bf e9d4 533f 5ad8 4dbe
00000380: 0752 36c0 f4a5 503e d925 d03e f302 fcbe
00000390: 60d0 97be fea7 a53f b55f 9dbf d81a c6bd
000003a0: 7954 793f 48dd bbbe 3a4d 513e 94fc 6fbf
000003b0: af0c d03e db96 70be 6192 56bf f3ff a63f
000003c0: e0b2 f73e bf0c 8dbd b03b 713c 5836 173e
000003d0: 6d74 dcbd dc0d 0840 fecf b23d f4c6 f93e
000003e0: 0eb8 58bf 3c45 863f 570e c03f f56d e6be
000003f0: 8e98 723f 0299 a43f 4191 aa3e 293a 84bd
2.289352 -0.063498296 -0.15373395 -1.287807 -0.0025631865 0.5974254 3.3603642 0.45769882
1.3330654 -1.1547453 1.2261047 1.4994893 0.8440144 -0.7470456 0.7768634 -0.27700362
-0.9417993 -0.6852779 -0.20964429 1.4201343 -1.1257868 0.95359695 2.050609 -0.8119319
0.83346766 -0.7152513 -2.2075806 1.0889633 -0.6345397 -0.51689965 0.69793946 -0.12598981
-0.2029227 0.30434787 -0.72623575 0.124745265 0.16163635 0.9350123 0.21571271 -0.18388265
0.46080998 0.9585962 1.3352419 -0.3674609 0.592231 2.4197667 0.6129595 0.020673426
0.031099012 1.9569145 -1.2787803 1.1429706 -0.2596549 -3.141076 0.81374145 -2.237094
1.401981 0.1999565 -0.29176578 0.46863335 1.9056928 -0.09643805 0.40110654 0.57152814
-0.1648381 0.9300954 0.57461435 0.8037064 -0.19235148 -0.08945996 0.81421643 0.4751335
-0.34930816 -1.6610099 0.22747105 1.4156395 -0.79687726 1.8364848 1.5232525 -0.26977763
1.1548636 1.0304981 1.3488345 -0.30192116 -1.9354824 0.5459362 -2.0041368 0.27680814
-0.04775103 0.40197358 -0.82872117 -0.14263783 0.34240723 0.8040019 -1.3754495 -0.11662416
1.0475938 1.1080424 0.38436377 1.2348114 1.0470113 0.8274799 -1.5712031 1.8436128
-0.24365239 -0.82879025 -0.22549732 -1.5474329 -0.090086326 -0.5875634 1.3952684 -0.97914445
-0.18166387 0.008151155 -1.0506263 -0.16608064 -0.5482751 0.31151852 1.0997353 1.1030049
-1.1003151 0.0071352925 0.44373536 -0.79404277 0.122149825 -0.25644672 0.018495046 0.718854
-0.5174251 -0.3325584 -1.1346085 0.05673136 -1.2247504 0.7551689 -0.32279414 -1.0461681
-0.3270847 -0.6294291 -1.1316953 1.0202993 -0.24037229 1.4651487 -0.42869505 -0.32359946
2.1912503 0.051604256 0.44337004 -1.0298122 0.23914056 0.937797 0.36637586 0.8972665
1.5075681 0.19294465 -0.17717382 0.33042046 -1.8464061 0.09384224 -0.6351277 0.028263351
-0.6916786 -0.4537363 -0.39332408 -1.0094869 0.19765176 0.22682661 0.783467 0.50249296
0.061611194 -0.4716533 -0.05142792 0.8467752 0.3179342 0.42659226 -1.6060828 0.005177596
-0.43366498 -1.0070677 1.1227499 -0.6207257 -0.98006463 -0.47890222 0.19019674 1.4516658
0.99118644 1.0599167 -0.56541556 -1.3611163 -0.56037945 0.53832805 -0.26534534 -0.10840744
-0.25345272 -1.2755098 0.6980726 0.4088521 -0.49478102 -0.16248977 -0.9903692 -0.07831519
-0.073484875 1.170321 -0.06515646 1.6550208 -0.11458367 -1.3022661 0.036090877 -0.22518083
-0.25127935 1.0949249 -1.1809982 -2.9704566 -1.3873696 0.9657888 -0.025509844 -0.7770073
-0.19202963 0.19049372 -0.94956076 0.11906609 0.5830329 -0.6473174 0.8274675 -0.20102063
-2.8487566 0.20375806 0.40653875 -0.49221 -0.29651165 1.2941892 -1.2294832 -0.09673089
0.9739452 -0.36692262 0.20439616 -0.9374478 0.40634677 -0.23495047 -0.83817106 1.304686
0.48378658 -0.06887197 0.014723703 0.14766824 -0.10764394 2.125846 0.087310776 0.48784602
-0.84655845 1.0489879 1.5004376 -0.45005766 0.9476403 1.2859194 0.33313945 -0.06456406

/fc1/Gemm.c_add_axis_1 f4 [1, 120]
00000000: 17b2 db3f 0d3a d83e 700a c2bf e543 c53f
00000010: 98e2 b13f 38c1 7abf d02a 68bf ec30 f6be
00000020: 5814 5cbf 83b0 c4bf cd21 32bf c250 8a3e
00000030: 3342 9c3f 5ae4 d0bd 40e3 d5be dfd5 0d3e
00000040: eba9 d33e 6bb2 8dbe c498 613e 7ef1 58bf
00000050: f306 26bf 9bf9 2c3f 69f3 6b3f 135c eabf
00000060: 39d7 48bf 277d 4dbe d449 cc3f a4bb d9bf
00000070: 3be2 e3bc a397 333d a9ca 213f 72ac 1d3d
00000080: 4d0f 7bbe a6cb 2840 bc5e c3be c2e0 893f
00000090: c0d7 e3be d389 b7bf e41a 253f 4e81 a83f
000000a0: da4c 1b3e 674d 0e3f 5f1b 9abf f491 29bf
000000b0: ea9c 56bf 19b6 8f3f 7e6b ea3f b8b0 76bf
000000c0: d550 55be 3f5b 6fbf aa70 20c0 055e 873d
000000d0: 2fbf 34be d3c1 86bf e250 87be f99d e7be
000000e0: 1e67 8ebf 0ddf c63f 12d3 b93c 95b6 46bf
000000f0: 6807 583f fc42 76bf 260d e8bf b06d 1a40
00000100: c8aa cebe 6ab9 bcbe 6347 8e3f c040 0d40
00000110: 1ffe cf3f ac11 a9bc 7a14 13c0 731e 273e
00000120: 82bf cb3c b2e2 043f 8037 623f fc0f 24c0
00000130: e311 0d3f 8b22 74bf f1a6 b0bf 75a7 92bf
00000140: 4363 f1bc a251 05c0 e227 563d 2e1d 12c0
00000150: 3f90 39bf 57e5 ef3e 45cd a3bf a804 a0bf
00000160: 78fb 08c0 888e 01c0 c4c5 dd3d b7fa 3c3f
00000170: 35c5 023f 9e63 433f 678e b9bf 7908 0cc0
00000180: 8b4c 353e 1f76 f03e dd68 dcbf c01c 83bf
00000190: 5ab1 0040 15cd 073e d30f d43d ce21 ec3e
000001a0: b44e d73e 03b6 46be 299d 3d3f 7050 90bf
000001b0: a44a 313e 6878 30be 3ae6 36bf 32dc b03f
000001c0: 0ce9 4740 298e 9dbf 7093 ad3f 0f0f d63e
000001d0: a54f 4340 77a8 1dc0 16e1 e33d 0bc5 f13e
1.7163724 0.4223179 -1.5159435 1.5411345 1.3897276 -0.9795108 -0.90690327 -0.480842
-0.8596854 -1.5366367 -0.69582826 0.27014738 1.2207702 -0.101998046 -0.4177494 0.13851117
0.41340575 -0.27675185 0.22030932 -0.8474349 -0.64854354 0.6756837 0.9216829 -1.8309349
-0.78453404 -0.20067273 1.596003 -1.7010388 -0.027817836 0.043845784 0.6319986 0.038494535
-0.24517556 2.6374297 -0.38158214 1.0771716 -0.44500542 -1.4338936 0.64494157 1.3164461
0.15166035 0.55586857 -1.2039603 -0.6623833 -0.8383318 1.1227447 1.8314054 -0.963634
-0.20831616 -0.93498605 -2.5068765 0.0660973 -0.17651056 -1.05279 -0.26428896 -0.4523771
-1.1125219 1.553682 0.022683654 -0.7762235 0.843863 -0.9619596 -1.8129013 2.4129448
-0.4036467 -0.3686021 1.1115535 2.207077 1.6249427 -0.02063831 -2.2981248 0.16320209
0.024871591 0.5190841 0.88365936 -2.5634756 0.5510542 -0.9536521 -1.3800946 -1.1457354
-0.029466277 -2.0831075 0.05228413 -2.283031 -0.7248573 0.4685466 -1.2797018 -1.2501421
-2.1403484 -2.0243244 0.108287364 0.7382006 0.51082164 0.7632388 -1.4496583 -2.1880171
0.1770498 0.4696512 -1.7219502 -1.0243149 2.0108247 0.13261826 0.10354581 0.4611954
0.42052233 -0.1940537 0.7406793 -1.1274548 0.1731363 -0.17233431 -0.7144505 1.3817198
3.123599 -1.2309009 1.3560619 0.41808364 3.051736 -2.4634073 0.11126916 0.47220644

fc2.weight.0 f4 [84, 120]
00000000: 5bc3 8b3f 22db 803e 8cbe 30be a14a febf
00000010: bcdb 313f 009b 483e 3ff5 29bf 906b aebf
00000020: 32f1 2f3f 2961 72be d8b5 9d3e 72a7 7dbe
00000030: 1b1c b43f 7b1a 4b3f 92d4 e53e 28c7 7f3f
00000040: c5a6 ee3e ea5c 07be 661e 433f 9fb4 8a3f
00000050: 764f 133f 2c8d 32bf 8a79 dfbe 3877 c93e
00000060: 13e4 11bf a6f8 803f 0039 c33d 9a21 7b3f
00000070: a7c2 c93f a8e1 033f 0d40 173e acb6 05bf
00000080: 148d 873f 9075 5ebf a405 38bf 2ae5 ecbe
00000090: 96c4 67bf 97e8 ba3f 08b4 2ac0 f393 7c3f
000000a0: 6617 173f e31e f7be 87ac 8a3f ee3a 463f
000000b0: e48d 50bf adb8 0440 3c1a 7e3d eb80 37bf
000000c0: 44b6 27bc 46ba d1be aaae 8d3f 7a82 b43c
000000d0: 2bd9 1fbe 2e8e 773f 4af2 b5bf 05e7 b2bd
000000e0: 5497 3b3f 2ed9 a3bf 22c2 babe d002 173f
000000f0: 7604 893f fac4 ab3b c20d 23bf 825e 85be
00000100: 5607 8ebe 4d58 893f 3324 4c3f 0d8b 72be
00000110: d47a ac3f cc78 d03f 335d 633f 325b be3e
00000120: beb0 b03e ca22 c0be ee6f b7bd 1f5b 483f
00000130: 7a3e cb3e 31da 0abf 6d48 253f b5db 0a3f
00000140: 3dad 763f 2e06 a8bf 3922 a2bf 646c eebf
00000150: 8ce5 5fbf 314f 443f 8d77 9b3e d0b9 09be
00000160: 5de8 a4bf 9c2a 7e3c e56b 46bf ab3c 40bf
00000170: e66b 05bb 9372 b9bf 47af 9f3f 2adc d23e
00000180: 7277 cfbd 3575 2b3f 906c a6bf afce 6ebf
00000190: a895 60bf 0533 37bf f165 7b3e a50d adbf
000001a0: 5fd6 1ebf d34a acbf 4a1d d7bf b259 803f
000001b0: a21a 82be f948 e4bf 5c69 5cbe 54ac 073f
000001c0: 18e0 a63c 95a0 0a3f 152a d83f 9ea2 fd3e
000001d0: 4a7c 383d 33a3 adbe 28a7 24c0 9e46 c9bf
000001e0: b9fb c03f 8547 ae3f 0155 fe3f 496d 4ebf
000001f0: 24c8 23c0 77ab 5f3f 56d2 ff3e ee8f 6f3f
00000200: 44dc bcbf 0a90 46bf 6595 90bf 1eb4 243f
00000210: 991b a2bf 0342 1dbf ccdd 39bf 9f41 3f3d
00000220: 5736 0140 69b2 993d 756c dabf 3f27 923f
00000230: a1ff 0bbd df88 af3e bd85 993f ee63 e2be
00000240: 84c0 a83f be47 443f 6ffa 54bf 6504 77bd
00000250: 9b9e c83f b96f 3fbf 34b7 4bbe 0458 673e
00000260: 50ae bf3c 3807 ebbe 8466 1ebf fa79 c3be
00000270: 9dd6 6dbf 2a1f 86be 2f5f fc3f bdd0 cc3e
00000280: 9826 cb3e 92c4 09c0 6673 fb3e 31d7 c9bf
00000290: 0511 a33f 489e 6e3e 51e3 db3f 6b42 99bf
000002a0: 62ae 09c0 a432 6ebf f3c4 0d40 9079 90be
000002b0: c9d4 7ebe 7fb3 d1bf 5353 c73b e8b3 133f
000002c0: 6f39 cc3e 1433 6ebf 01d1 bcbe 47f4 3f3f
000002d0: 0110 80be e894 5c3f 6c5c c6bf c91f 5dbf
000002e0: b00d e03f 5ab3 e43e 6f7a 403f 479e d3bc
000002f0: e4e1 2940 0241 f0be 72ef 303e aeb3 2640
00000300: e603 40bf 8ab8 023e 86f4 be3f cd04 62bf
00000310: bda6 a0bf 73f0 4c3e 281e 46bf 96ea d2be
00000320: 458b 823e 6b24 24bf dd43 1d40 c532 663e
00000330: 5f13 0840 5837 b83d 0f5a 8b3e 8b4d d13e
00000340: 5218 e0be d266 cabf e45b 0bbf 99af 0d3d
00000350: 49e5 873f 2028 463f ddac f3bd 0c48 0bbf
00000360: 1075 103f ca1b 183f ddf5 923f a261 213f
00000370: a8b6 6cbe 2195 8dbf 8e2f 363f a4fc 4a3f
00000380: 6719 3fbf 6a2e 4ebf 1974 a33f f562 a1bd
00000390: 6d9c 97bf f4cb 9b3f 2487 1a3f 225b b33d
000003a0: f75e a8bd 04d7 e7bf 1e3f 06be d6b6 963e
000003b0: a660 6ebf 5e30 613f 9b91 6abf c56b da3f
000003c0: d144 153f 587c bd3f 1fcc 7f3f f928 d53e
000003d0: fb7d b5bd 3c89 033f 7d09 04bf c19e 6b3f
000003e0: 080d 0540 b918 b3bd 99dc 1840 5bc6 fc3e
000003f0: a8b6 4e3e 7017 aa3f e4a7 d03e f2ed d3bd
1.0918993 0.25167185 -0.17260188 -1.9866525 0.69475913 0.19590378 -0.6638984 -1.3626575
0.6872741 -0.23669876 0.30802798 -0.24770907 1.4071077 0.7933728 0.4488874 0.99913263
0.4661161 -0.13219038 0.7621826 1.0836371 0.5754312 -0.6974666 -0.43647414 0.3934877
-0.5698864 1.0075881 0.09532356 0.98098147 1.5762528 0.515162 0.14770527 -0.5223186
1.0589929 -0.86898136 -0.71883607 -0.46268588 -0.9053434 1.4602231 -2.6672382 0.9866325
0.5902008 -0.48265752 1.0833901 0.7743367 -0.8146651 2.0737717 0.062036738 -0.7168109
-0.010236327 -0.40962428 1.1068928 0.022034872 -0.15610187 0.96701324 -1.4214566 -0.0873547
0.73277783 -1.2800653 -0.36476237 0.58988667 1.0704486 0.0052419873 -0.6369287 -0.26048666
-0.27739972 1.0730072 0.79742736 -0.23685856 1.3474984 1.6286864 0.88814086 0.37178952
0.34509844 -0.37526542 -0.08956896 0.7826404 0.39696103 -0.54239184 0.6456364 0.54241496
0.9635809 -1.3126886 -1.2666694 -1.8626828 -0.87459636 0.76683336 0.30364648 -0.13449788
-1.2883412 0.015513089 -0.77508384 -0.7509257 -0.0020358502 -1.448809 1.2475365 0.41183597
-0.10130204 0.6697572 -1.3001881 -0.93284124 -0.8772836 -0.71562225 0.24550606 -1.3519789
-0.62045854 -1.3460335 -1.6805813 1.0027373 -0.25410944 -1.783477 -0.21524566 0.52997327
0.020370528 0.5415128 1.6887842 0.4953813 0.045040406 -0.33913574 -2.5727024 -1.5724676
1.507682 1.3615576 1.9869691 -0.80635506 -2.5590906 0.8737101 0.4996516 0.93578994
-1.475472 -0.77563536 -1.1295592 0.64337337 -1.2664672 -0.6142885 -0.7260406 0.04669344
2.0189416 0.07504732 -1.7064348 1.1418227 -0.034179334 0.34284112 1.1993939 -0.44216865
1.3183751 0.7667197 -0.8319463 -0.060306925 1.5673403 -0.7477985 -0.19894105 0.22592169
0.023398548 -0.45903945 -0.61875176 -0.38178998 -0.929056 -0.2619565 1.9716548 0.40003005
0.39677882 -2.1526227 0.4911148 -1.5768796 1.2739569 0.23302567 1.7178746 -1.1973394
-2.1512685 -0.9304602 2.2151458 -0.28217745 -0.24885859 -1.6382903 0.006082931 0.5769639
0.39887568 -0.9304669 -0.36878207 0.7498211 -0.2501221 0.8616471 -1.5496955 -0.86376625
1.7504177 0.44668084 0.7518682 -0.025832308 2.6544123 -0.46924597 0.17278841 2.6047168
-0.7500595 0.12765709 1.4918373 -0.88288575 -1.2550884 0.20013599 -0.77389765 -0.411946
0.2549688 -0.6411807 2.457267 0.22480305 2.1261823 0.08994931 0.27217147 0.40879473
-0.43768555 -1.5812628 -0.5443709 0.03459129 1.0616847 0.77404976 -0.118982054 -0.5440681
0.56428623 0.594174 1.1481282 0.630396 -0.23116553 -1.1061136 0.7116631 0.7929175
-0.74648136 -0.8053957 1.2769805 -0.07880203 -1.1844612 1.2171617 0.6036246 0.087576166
-0.08221238 -1.8112493 -0.13110015 0.29436368 -0.93116224 0.8796443 -0.91628426 1.7064139
0.5830813 1.4803572 0.9992084 0.41632822 -0.088619195 0.5138128 -0.5157698 0.92039114
2.0789204 -0.0874495 2.3884642 0.49370083 0.20186865 1.3288403 0.4075309 -0.10348119

/fc2/Gemm.c_add_axis_1 f4 [1, 84]
00000000: ede0 89bf b502 f0bf b3fd 2940 8292 6c3f
00000010: d667 9fbf b012 20bf 7c85 c1be 30b9 48bf
00000020: bb92 873e be78 3abf 6877 dd3f cab3 8ebf
00000030: 2d12 68bf a59f 3d3f 83c1 5c3e d9ef 48be
00000040: d798 b33e e047 053d 0854 503e 2346 dabc
00000050: b572 0bbf 800a 9d3f f684 a6be d18e 8cbf
00000060: d933 d6bf 2d72 d9be b0a5 553f f546 d03d
00000070: 14f2 dcbf 5005 ad3e 53b6 15be fe23 a0bf
00000080: c12c f93e 13d8 08bf 8cfc 5b3f 95ce c1be
00000090: 4118 0ac0 0371 1bbe 6b6b afbe 7925 a53f
000000a0: abe2 92be c903 b73f bc9a 843f f3e9 97bf
000000b0: 684e 5c3e 31f0 0bbe 0e36 01bd 8a12 d63e
000000c0: bea2 1abf 445c 9b3f 687e 54bf 112f 6dbf
000000d0: ac23 15bf 080f 16be 231e a33c c0f6 ef3e
000000e0: cbe2 413f 862c 113f 3741 de3e ece6 f1be
000000f0: dabe 52be 6d18 623f ff41 19be 003e 66bf
00000100: e174 d0be a508 a43f 5664 03bf 90ca ae3e
00000110: 3459 1cbd 843b 0abf 0527 c4bf 7fe8 c93f
00000120: f3a9 d0be b6a9 4c3e b498 8d3f bc09 2bbf
00000130: 5c42 a13d 1d58 0a3e 9fe9 173f cf5a 2bbf
00000140: 3163 52bf ffdc 823e 44f0 73be a7ec 473c
-1.0771767 -1.8750826 2.6561096 0.92411053 -1.2453563 -0.62528515 -0.37797153 -0.78407574
0.26479134 -0.7284049 1.7302065 -1.1148617 -0.90652734 0.74071723 0.21558194 -0.19622745
0.35077545 0.03253925 0.20344555 -0.026644772 -0.54471904 1.2268829 -0.32523316 -1.0981084
-1.6734573 -0.42469922 0.83455944 0.10169784 -1.7261376 0.33793116 -0.14620332 -1.2510984
0.48666957 -0.53454703 0.8593223 -0.37852922 -2.1577303 -0.1517983 -0.3426164 1.2902061
-0.2868856 1.429803 1.0359721 -1.1868271 0.21514285 -0.13665845 -0.03154569 0.4181102
-0.60404575 1.2137532 -0.8300538 -0.9264994 -0.58257556 -0.14654171 0.019911831 0.46867943
0.75736684 0.5670856 0.4340913 -0.47246492 -0.20580617 0.8831852 -0.14966582 -0.89938354
-0.40714172 1.2815138 -0.51324975 0.34138918 -0.03817101 -0.53997064 -1.5324408 1.5774077
-0.4075466 0.19986615 1.1062226 -0.6681173 0.07873985 0.13510175 0.5934085 -0.6693544
-0.82182604 0.25559232 -0.23822123 0.012202418

fc3.weight.0 f4 [10, 84]
00000000: e16a ecbe 8bec fa3e 1b0c b1bf 5596 6bbf
00000010: 3534 e83f 2a3e 83bd e402 b23f f15d 863f
00000020: 495d 4d3f 86df 523c c08c d83f 129e f43f
00000030: b114 743f 0ef6 573f 73d1 a0bf e371 3b3f
00000040: 860d 3c3f a871 bcbf 73b2 a93e ebaa 9c3f
00000050: d491 1e3f f8d1 523f 6bed 543f 91c2 de3f
00000060: 9aeb bfbf a85a 493f 01d4 9d3f 00cb 06c0
00000070: 217c 23bf e055 823e ee2e 00bf 7b47 693f
00000080: 267b dd3e 8cd1 353d 3633 3fbf 44c8 d13f
00000090: 9374 51bf 4f22 d03e 9fcc cc3d d94d 69bf
000000a0: 5444 253f 071e d3be f5ce 3dbf 2b63 efbf
000000b0: a715 523f 56cd e6bc 9cf6 6a3e 7d8b 373f
000000c0: 69be e53e 00fc cd3e 82df 80bf 77e9 f4bf
000000d0: a382 61bf 7abf acbe d996 86bf 19b3 0d3f
000000e0: 92b6 683d a82c 1dbe 216c 1c3f a822 15bf
000000f0: 1146 41bf d485 e63f fb70 ddbe 8852 b93e
00000100: 5921 c33e 8dc7 523f 69b2 0f3f e75b 7c3e
00000110: 916f 8dbf 6468 643f b242 1cc0 eb0d 543f
00000120: 90a3 0040 522a acbf 4de2 d8bd 1955 6ebf
00000130: e134 16c0 1e09 babe 4639 dabe 0427 a63e
00000140: e7b8 27bf 5cc5 613f c635 983f 67a7 55be
00000150: 9dc3 d03c f003 ccbe c5a9 13be 4747 1840
00000160: 7c5a b53d 8d52 513f e5e2 84bf 00e3 c33f
00000170: 7322 51be 2f6e 193f f2f1 813f 3759 cbbe
00000180: 14ae 9bbf 2bce ecbd e829 4abf b6bf d9bd
00000190: 2c90 453f 80d7 bebc 9d7f 03be 6870 fabd
000001a0: 3163 6b3e d040 99be 1915 d2be f9a7 28bf
000001b0: 0ed5 cc3f d28e 903e 0945 f0be 286a f43f
000001c0: 8175 963f f131 53bf 2fd2 56bf 225c 59bf
000001d0: d0b4 2c3f e150 993f 740b 9b3f 0d7e a7bf
000001e0: 3b38 f53e e656 a53f d6d5 cb3f 2a8b 9cbe
000001f0: 9f29 173f a685 75bf 9168 95bf 3980 2abf
00000200: db10 c6be 7d9c d63e 645e fabd 8c24 12bf
00000210: 14ad 6bbf 77f4 4f3e 424c 623f 99ae 59be
00000220: d4c3 0140 0e3a d9bf 1724 d5be 0414 3ebf
00000230: 61ae 7c3f 6cb1 90bf f92b 11bf fcc2 993f
00000240: c79f 94bf 4570 ae3c 1431 1fbd 6577 9f3e
00000250: fcee 0240 5992 553f 91b5 62bf 72e8 58be
00000260: da25 b33e dcd0 19bf 5c0f c8bf e190 efbf
00000270: 3846 b63e aa4a e1be fcf3 0f3e edd4 dc3d
00000280: f430 e33e c935 36bf e074 b13f f8a7 9d3f
00000290: cdc9 023f 4c10 ff3d 2278 1c3f e844 3c3d
000002a0: 7e2e a8bf d4ab b7bf 9225 97bf 2e67 32be
000002b0: c39c e73f 2551 8d3f b9a8 e23d 980a 6e3f
000002c0: ba3d 8e3f bdd4 113e e9bb 41bf 34df e23f
000002d0: b84e d4bf da1a 2c3f 4921 0340 09ae 403f
000002e0: 1478 26c0 805f babe 6667 b9be 5d2d 9c3f
000002f0: 4195 673f 77f9 43bf 72e9 cf3e 0b10 ac3f
00000300: 0ef8 42bf f2fc 64bf c3d3 a13e f295 20c0
00000310: 3b6a af3e 8db6 3d3f 3362 75be 6d90 de3f
00000320: 14cf 2b3f 0edc da3d 2bd5 5b3f 1902 9cbf
00000330: 048a 243e 897f f23e 31fa 1b3f fac9 0f3f
00000340: 02ac 25be 5013 ff3e b405 973c 1f05 9dbe
00000350: 6161 3abf fa89 b3be 53ca 9d3f 4c91 aa3f
00000360: b21f 81be 5ab7 d83e a099 a63e 6ca8 c6be
00000370: 5860 6f3f ffb1 4c3e 6bd5 a03e 4726 bc3f
00000380: 9a1f 97bf 070a 113f c231 973f 6ed2 153f
00000390: 4808 1340 63b5 71bf 3b3c 5c3f c244 813f
000003a0: a656 a03f e8df 633f 386e 27bf b99c 333f
000003b0: 855a 2abf d324 e0bf a386 3abf 5d14 bd3e
000003c0: 1c8f 493f 4087 3e3f 95a7 24bf a210 c83e
000003d0: 3b19 8a3f 61b6 b2bf 4e16 f43c d096 26bf
000003e0: 40a7 9c3f ffcd 1fbe 3e75 793e 3b80 303d
000003f0: df38 0abf 68e5 7d3f 2bb8 7dbf 8bb8 da3f
-0.46175292 0.49008593 -1.3831819 -0.92026263 1.8140932 -0.06408341 1.3907132 1.0497419
0.80220467 0.012870675 1.6917953 1.9110739 0.9534407 0.84359825 -1.2563919 0.7322065
0.73458135 -1.4722185 0.33143958 1.223966 0.61941266 0.82351637 0.8317477 1.7403127
-1.4993775 0.78653955 1.2330323 -2.1061401 -0.6386128 0.25456142 -0.5007161 0.91124696
0.43258017 0.044389293 -0.74687517 1.6389241 -0.81818503 0.40651175 0.09999966 -0.9113441
0.64557385 -0.41233847 -0.74143916 -1.8702139 0.8206429 -0.028174084 0.22945637 0.7169722
0.44871834 0.40231323 -1.0068209 -1.9133748 -0.8808996 -0.33739835 -1.0514785 0.55351406
0.056814738 -0.15349066 0.6110249 -0.58256006 -0.7549754 1.8009591 -0.4325026 0.3619578
0.3811138 0.8233574 0.5613161 0.24644433 -1.1049672 0.8922179 -2.4415708 0.8283374
2.009983 -1.3450415 -0.105900384 -0.930986 -2.3469775 -0.3633508 -0.4262182 0.32451642
-0.65516514 0.8819177 1.189141 -0.2086464 0.0254839 -0.39846754 -0.1442023 2.3793504
0.08855149 0.8176659 -1.0381743 1.530365 -0.20423298 0.5993375 1.0151961 -0.39716503
-1.21625 -0.11562761 -0.78970194 -0.10632269 0.77173114 -0.023296118 -0.1284165 -0.12228471
0.22987057 -0.2993226 -0.4103172 -0.65881306 1.6002519 0.28233963 -0.4692767 1.9094896
1.1754609 -0.8249808 -0.83914465 -0.8490621 0.674634 1.1977807 1.211287 -1.3085343
0.47894463 1.2917144 1.5924633 -0.30574924 0.59047884 -0.95907056 -1.1672536 -0.666019
-0.38684735 0.41916266 -0.12225035 -0.57087016 -0.9206097 0.203081 0.8839761 -0.2125801
2.0275774 -1.6970842 -0.41629097 -0.7424929 0.9870358 -1.1304145 -0.5670772 1.201263
-1.161126 0.021293769 -0.038865164 0.31145778 2.0458364 0.83426434 -0.885583 -0.21182421
0.34989816 -0.6008432 -1.5629687 -1.8716089 0.35600448 -0.44002277 0.14057916 0.107828
0.44373286 -0.7117582 1.3863792 1.2316885 0.51089174 0.1245428 0.6112081 0.04596415
-1.3139188 -1.4349313 -1.180834 -0.17422172 1.8094715 1.1040388 0.110673375 0.92984915
1.1112587 0.1424131 -0.75677353 1.7724366 -1.6586523 0.6722847 2.0489066 0.75265557
-2.601079 -0.36400986 -0.362117 1.2201344 0.9046212 -0.7655253 0.40607792 1.3442396
-0.7615975 -0.89448464 0.31606874 -2.509152 0.34260735 0.74106675 -0.23963241 1.7387825
0.6711285 0.10686503 0.85872144 -1.218814 0.16068274 0.47362927 0.60928637 0.56167567
-0.16178897 0.49819422 0.018435337 -0.3066797 -0.7280484 -0.35066205 1.232737 1.3325591
-0.25219494 0.42327386 0.32539082 -0.3880037 0.93506384 0.19989775 0.31412825 1.4699181
-1.1806519 0.56655926 1.181206 0.58524215 2.2973804 -0.944174 0.86029404 1.0099108
1.2526443 0.8901353 -0.65402555 0.70161015 -0.6654437 -1.7511238 -0.7286169 0.36929598
0.7873399 0.74425125 -0.6431821 0.3907519 1.078895 -1.3961908 0.029795792 -0.6507387
1.2238541 -0.15605925 0.2436113 0.04309104 -0.5399303 0.9917817 -0.99109143 1.7087568

/fc3/Gemm.c_add_axis_1 f4 [1, 10]
00000000: 1a59 80be 6ff7 21bf 2244 be3f 9373 90bf
00000010: 1486 b5be b848 933e a7c5 973c 82cc e53e
00000020: 8df4 193f 602c 44be
-0.2506798 -0.6326818 1.4864542 -1.128527 -0.35453856 0.28766418 0.018526865 0.4488259
0.6013878 -0.19157553
