examples/onnx/mnist_classifier/network.onnx (onnx, 179948 bytes, 10 tensors)

conv1.weight f4 [6, 1, 5, 5]
000000 70 c2 05 3f 65 fa 10 3f 6b e7 0c 3f 0b fd d0 3e
       0.52249813 0.5663207 0.55040616 0.40818056
000010 51 1b 9e 3e 0b 66 ad 3e 22 f0 13 be e5 60 81 3d
       0.30880216 0.33866915 -0.14447072 0.06317309
000020 76 88 5c be ef e0 90 be 46 81 16 bd 4f f3 3f be
       -0.2153643 -0.2829661 -0.03674438 -0.18745159
000030 08 71 2c bf e9 76 1d bf f3 40 bd be 58 4c 9a be
       -0.6735997 -0.6150957 -0.36963615 -0.3013637
000040 db d1 0d bf 50 63 84 bf 11 46 6a bf e2 8a de be
       -0.5539834 -1.0342808 -0.9151316 -0.43465334
000050 33 47 2d 3c 25 29 c3 be b0 cf fe be 5d ee ba be
       0.010576057 -0.38117328 -0.49767828 -0.36509982
000060 0c e5 6a be 0b 92 0c be 0f 05 57 be 12 ec a1 bb
       -0.22938937 -0.13727586 -0.20998023 -0.004941472
000070 ac 24 e5 be 4d ec 8c be 36 00 a6 be 5f 4d 0d bf
       -0.4475454 -0.27524033 -0.32422036 -0.55196184
000080 2f 29 1b bf b7 46 16 bf 6a 84 f3 be 9d 89 91 be
       -0.60609716 -0.5870165 -0.4756196 -0.28425303
000090 07 df 23 bf 84 31 37 bf 74 aa 34 bf 3b 68 f7 bd
       -0.6401219 -0.7155993 -0.7057259 -0.12080427
0000a0 a9 c2 ad be 3c d4 d9 be 9b 73 1b bf b5 e5 79 be
       -0.33937576 -0.42544734 -0.60723275 -0.24404033
0000b0 14 fe 8e bd f2 4e 11 bd 3e 2a 69 be 78 e1 59 be
       -0.06982055 -0.03547568 -0.2277002 -0.21277416
0000c0 dd c9 f0 3c ab 0e 15 3e de 02 2c be da 1d d5 bd
       0.02939313 0.14556377 -0.16797969 -0.10406084
0000d0 86 1d 43 be 40 ef f6 bd e2 39 fe be 4e 56 97 bc
       -0.19054231 -0.12057352 -0.49653536 -0.01847377
0000e0 28 05 1b bf 25 8f 21 bf 73 e0 4f bf 60 e2 10 bf
       -0.6055474 -0.63109046 -0.8120186 -0.5659542
0000f0 de 83 d7 be fa 43 08 bf 9e 85 40 bf 23 1e 3b bf
       -0.42092794 -0.53228724 -0.75203884 -0.7309286
000100 4d 5d ba be b5 07 ae be c4 4b c1 be 00 ce 08 bf
       -0.36399308 -0.33990255 -0.37753117 -0.5343933
000110 fd 06 9f be 81 b5 9f 3b 6d bc 2c bb 6d 54 84 be
       -0.3106002 0.004873932 -0.0026357428 -0.25845662
000120 62 68 4d be da 95 0e 3e 68 4a 3e bc 47 59 63 3e
       -0.2005935 0.13924351 -0.0116144195 0.22202025
000130 31 12 80 3e c9 c2 5e 3e 64 fa 43 3e 69 8b e3 3d
       0.2501388 0.21753992 0.19138485 0.11110575
000140 ae ce b8 3e e5 97 36 3f 57 8c 36 3f be f4 15 3f
       0.36095184 0.7132552 0.7130789 0.5857657
000150 78 9b 9a 3e 73 bc 45 3e 26 31 31 3f 03 26 ef 3e
       0.30196738 0.19310169 0.6921562 0.46708688
000160 d8 b9 75 3e cc 30 cc 3d 10 0b f4 3d a9 68 e2 3e
       0.23996675 0.09970245 0.119161725 0.44220474
000170 ac c2 b6 3e d1 0c 30 bd e9 5c d7 bd f4 8a 84 3e
       0.35695398 -0.042980973 -0.10515768 0.25887263
000180 7f dc 77 3e d0 09 3a 3d 74 c0 83 be 02 5b e3 be
       0.24205206 0.045419514 -0.25732768 -0.4440537
000190 df 0e 62 3c 29 e9 b9 3d 4e a0 7b bd d6 88 db be
       0.013797491 0.09077675 -0.061432175 -0.42877835
0001a0 10 6d 01 bf 57 10 7e be da d9 d6 be ba eb 3f bf
       -0.5055704 -0.2481092 -0.41963083 -0.74969065
0001b0 af e7 06 bf 67 b0 c4 be f4 27 61 be b7 c7 13 bf
       -0.5269727 -0.38415834 -0.21987897 -0.57726616
0001c0 fd bf 19 bf b0 03 22 bf c3 39 ff be d7 6f 57 be
       -0.60058576 -0.63286877 -0.49848756 -0.21038757
0001d0 0d 9e 09 bf 95 8f 26 bf 53 83 dd be 43 89 35 3d
       -0.5375679 -0.6506284 -0.43264255 0.044320356
0001e0 7f ee 6f be 99 88 7e be 7f 3b 5d bd 00 b4 6c be
       -0.23430823 -0.24856795 -0.054011818 -0.2311554
0001f0 82 df 93 3e 05 61 85 be 96 f1 30 be c1 81 45 3e
       0.2888146 -0.26050583 -0.17279658 0.19287778
000200 c0 ea a1 3e f2 76 bb 3e a1 90 0f 3e 2c b2 5b 3e
       0.31624413 0.36614186 0.14020015 0.21454686
000210 e2 74 28 3f 69 4a 46 3f 3a 92 fd 3e bc ac 19 3e
       0.6580335 0.7745729 0.49525625 0.15007299
000220 af 70 9b 3e 4c 8b 26 3f 03 99 fd 3e cf c4 c1 3e
       0.30359408 0.650563 0.495308 0.37845466
000230 2d ca 53 3e b5 38 8e 3e de 64 30 3f 6e 10 ce 3e
       0.20682593 0.2777764 0.6890391 0.4024691
000240 ab 7e 0b 3e e0 68 25 be d9 1a c7 3d 97 3a ce 3e
       0.13622539 -0.16153288 0.09721918 0.40279076
000250 41 14 95 3e 5a d1 27 be
       0.29117015 -0.16388455

conv1.bias f4 [6]
000000 57 2d af 3e 4d a5 82 3e 7b b5 5f 3e 86 6c 45 bd
       0.3421428 0.2551674 0.21846573 -0.0481992
000010 f3 50 4f 3e 0c db 42 be
       0.20245723 -0.19028872

conv2.weight f4 [16, 6, 5, 5]
000000 57 59 53 be 40 a3 d7 bd d3 6b 14 bc 5d 8b bf bd
       -0.20639549 -0.10529184 -0.00905891 -0.09352753
000010 91 6c ab be d6 fc 0e 3d 5e d2 b6 3e 88 c9 ea 3e
       -0.33481267 0.034909092 0.35707372 0.4585688
000020 4f cd 29 3e 97 da 0d be af 27 90 3e 46 9d 23 3f
       0.16582225 -0.13852917 0.28155276 0.63911855
000030 e6 ac 20 3f d0 67 ad 3e ec 1c de 3d 1d f3 39 3e
       0.6276382 0.33868265 0.1084536 0.18159147
000040 74 36 9d 3e ce 27 89 3e a6 d6 d4 3b a4 cb 1d bc
       0.30705607 0.2678818 0.0064953147 -0.009631071
000050 8a 3a 14 be 4f 58 1a bd cb 80 8e be 80 c6 a8 be
       -0.14475456 -0.037681874 -0.27832636 -0.32963943
000060 39 af 0a be e7 94 14 be 8b ab 57 bd ad 16 3d 3c
       -0.13543405 -0.14509927 -0.05265383 0.011541051
000070 25 ee 07 be dc 95 9f be fd 69 bf bd 68 0e a8 3d
       -0.13274439 -0.3116902 -0.093463875 0.08205873
000080 1a 96 d1 3d 16 53 29 3b 83 1f 92 be b4 10 30 3d
       0.10233708 0.0025836877 -0.28539667 0.04298468
000090 12 01 cd 3e a6 7b 02 3f 5f 8d 35 3e aa 4b 22 bd
       0.4003988 0.5096992 0.1772971 -0.03962294
0000a0 59 a2 2e 3e f7 54 ef 3e 13 47 e2 3e 62 86 45 3e
       0.17054118 0.4674451 0.4419485 0.19289544
0000b0 f6 f9 06 bd 14 3c 5c bb ff db 0d 3e 48 3e 2b 3e
       -0.032953225 -0.0033605145 0.13853453 0.16722977
0000c0 7e 93 29 be 98 62 b6 bd bc e5 0f be ce 13 87 bd
       -0.1656017 -0.08905524 -0.1405248 -0.06595574
0000d0 e7 01 dc 3b 01 96 b1 bd ab b3 b6 be 43 fb a2 bd
       0.006714094 -0.08671189 -0.3568395 -0.079580806
0000e0 70 ea 20 3e 29 75 23 3e c9 1e ee bd 4a 83 47 be
       0.15714431 0.15962662 -0.116269656 -0.19483677
0000f0 d3 c2 b2 3d 69 49 d1 3e f2 88 0b 3f 88 62 5c 3e
       0.08728566 0.4087632 0.54505837 0.21521962
000100 30 30 d1 3c cf 50 69 3e 80 3d cf 3e b1 b0 d5 3e
       0.025535673 0.22784732 0.40476608 0.41736367
000110 58 ff 83 3e 72 64 cb 3d 4e 45 7a 3d 5b 12 0c 3e
       0.2578075 0.09931268 0.06110125 0.13678877
000120 b3 1f b5 3c 77 e1 5c bd de 0b f7 bd b9 a4 0e 3d
       0.022109842 -0.053925958 -0.1206281 0.03482506
000130 8f 29 02 3e 02 3d 32 bd ec 26 a2 3c 25 55 07 3e
       0.12711166 -0.043515213 0.01979395 0.13216074
000140 38 4e 81 3d bb a6 6b 3d 68 f4 9f bd 83 3b b6 bd
       0.06313747 0.057532053 -0.07810289 -0.0889807
000150 23 04 1a bb 3b 5c 25 bd d3 9b 1b be ea bb 18 be
       -0.0023501 -0.04037116 -0.15196161 -0.14915434
000160 be 9e 94 bd c3 ca 76 3c 31 69 87 bc d5 b8 50 be
       -0.0725684 0.015062991 -0.016529651 -0.20383008
000170 bc 1c 62 be a2 fe 2d be 1c ca 1e 3c 44 ce 26 bc
       -0.22081274 -0.16991666 0.009691741 -0.0101810135
000180 8c 17 bf bd 32 07 02 be dd e1 11 bb e1 87 59 bb
       -0.09330663 -0.12698057 -0.002225987 -0.0033192562
000190 54 9a da bd 3f be aa bd ca e9 b8 3c 63 76 06 be
       -0.10673967 -0.08337068 0.022572417 -0.13131098
0001a0 4c e4 b9 be 18 39 fb bd 77 06 a1 3d 06 8b 84 3e
       -0.3630699 -0.12266749 0.07862561 0.25887316
0001b0 e1 a9 65 bd ca 11 82 be 9f 9d 1f 3d 33 3f c1 3e
       -0.056070212 -0.25404197 0.03896868 0.3774353
0001c0 0e 0f 09 3f c8 95 1f 3e 72 63 dc ba 9a 12 43 3e
       0.53538597 0.15584481 -0.0016814305 0.19050065
0001d0 66 ef fa 3e ec 1c bf 3e 8e 25 58 3e d1 79 42 bb
       0.49010772 0.37326753 0.21108076 -0.002967466
0001e0 ee d0 55 bd a1 d0 35 3e 3a de c2 3d ea 82 53 be
       -0.052201204 0.17755367 0.095150426 -0.20655409
0001f0 1e f2 0a be c4 a3 52 3d 8a f6 5b 3d ed 00 90 3d
       -0.13568923 0.05142571 0.053701915 0.070314266
000200 da 61 b1 3d a4 cf 38 3e aa 7b 77 3b a0 c3 0c be
       0.08661242 0.18047959 0.0037762919 -0.137465
000210 db 8c 35 be c5 14 46 3d 02 45 fa 3d fe 57 25 3c
       -0.17729513 0.04835965 0.122201934 0.01009178
000220 a0 18 98 be e1 19 92 be 78 ef 31 bd 6e 94 72 3d
       -0.29706287 -0.2853537 -0.043441266 0.059223585
000230 3c 3c ff bd 75 b4 b1 be 74 72 25 be 32 49 e6 bd
       -0.12462661 -0.3470799 -0.16156942 -0.1124443
000240 38 d0 25 3d 42 23 98 bd d4 2d 1a be 4a 54 91 bd
       0.040481776 -0.074286 -0.15056545 -0.07096155
000250 4b 47 55 bd 9b 50 b8 3d 8c 20 8c 3d c8 75 84 bd
       -0.052069943 0.08999749 0.06842145 -0.064677775
000260 30 10 f4 bc a3 2e d1 3d 7c b7 43 3e cc a1 33 be
       -0.029792875 0.102139734 0.19112962 -0.1754219
000270 9c 68 ae be 29 44 a5 be 19 09 eb bd 1d 11 54 bc
       -0.34064186 -0.32278565 -0.114763446 -0.012943533
000280 14 79 c1 bd c6 13 da be 69 c5 c4 be 00 b8 4d be
       -0.09446922 -0.4259321 -0.38431862 -0.20089722
000290 a5 34 d8 bd 1d cd 92 3c 0b 2f a2 bd cb 9f 07 be
       -0.10556916 0.017920071 -0.07919129 -0.1324455
0002a0 94 a6 e1 bc a1 12 62 bc 16 ca e6 3d 66 dd f8 3c
       -0.027545251 -0.013798387 0.112690136 0.030379009
0002b0 24 e3 c2 3d e3 fa f5 3d 1c 72 fc 3d 22 a6 68 bd
       0.0951598 0.120107435 0.12326452 -0.05679906
0002c0 e7 d2 a2 3b 89 43 e2 bd 7c 04 9d 3d 65 b0 e8 3d
       0.004968989 -0.110480376 0.07666871 0.113617696
0002d0 a9 89 e4 3b b3 0c 2c be 6f 07 7f be fd 0a ab bd
       0.006974418 -0.1680172 -0.2490518 -0.08351705
0002e0 af ad a4 3c 15 89 f2 bd 48 84 bc be a1 1d d3 be
       0.02010235 -0.118425526 -0.36819673 -0.41233543
0002f0 31 9c 90 be 6e 73 73 bd bb 9b 29 be b4 5d a0 be
       -0.28244165 -0.059436254 -0.16563313 -0.3132149
000300 a3 c5 cc be e5 7f 56 be a4 8d 87 bd 4e 27 ab 3c
       -0.39994535 -0.20947225 -0.06618813 0.020892765
000310 79 92 ae bd 67 7a 4f bd 70 92 4a bd 4c 64 aa 3b
       -0.08524031 -0.05065384 -0.04945606 0.0051999446
000320 b7 b5 81 bd e5 92 20 bd 18 f0 b9 bd 2a da 91 3d
       -0.063334875 -0.03920259 -0.090789974 0.071216896
000330 cb e3 04 3e 79 87 08 be cd 72 06 be 76 19 72 be
       0.12977521 -0.13332929 -0.1312973 -0.23642525
000340 98 59 93 bd 25 ac b8 3d 13 b7 02 be 9d e6 a0 be
       -0.07194823 0.09017209 -0.1276515 -0.31425944
000350 b2 d0 f3 be 55 53 9d be 3c 19 89 bd 90 72 61 be
       -0.4762016 -0.3072764 -0.06694266 -0.22016358
000360 c2 98 c3 be 9e 49 b9 be da 2c 8f be f0 a0 ed bd
       -0.38202482 -0.36188978 -0.27963907 -0.11602962
000370 ec 0d 49 bd 33 32 37 bd 7c 6e 8b bd 20 86 ea b9
       -0.049085543 -0.044725608 -0.068081826 -0.0004473189
000380 d8 b2 38 bc 1b 90 3c bd d6 c0 b6 3d ce e2 41 bd
       -0.011273108 -0.046035867 0.08923499 -0.04733544
000390 e4 44 8a 3d 02 9b d5 bd 79 a3 7c 3d 41 8b f5 3d
       0.06751421 -0.10429956 0.061679337 0.11989451
0003a0 74 e3 f0 3d 7b e9 bc 3d 08 40 9b bd 02 6b e3 3d
       0.11762133 0.0922422 -0.07580572 0.111043945
0003b0 21 1e 11 3e 8e 71 69 3e 88 b2 ee 3d db e3 4b 3c
       0.1417165 0.22797224 0.11655146 0.012444462
0003c0 bc 77 04 3e 5c af 0d 3e 1c 2a 9d 3d 6f 60 33 3e
       0.129363 0.13836426 0.07674047 0.17517255
0003d0 11 e9 1d 3d 57 ce 34 bd 7d c2 53 3d 28 b1 b8 3d
       0.038552348 -0.044142094 0.05169915 0.09018165
0003e0 b2 12 94 bb 66 bc 85 3d c9 a9 27 3c 4e 33 fb bb
       -0.00451883 0.06530075 0.010233351 -0.007666028
0003f0 a9 26 e3 bd c5 0b ee 3d f7 7b 16 3e f9 26 53 bd
       -0.11091358 0.116233386 0.14695726 -0.05155084

conv2.bias f4 [16]
000000 45 0e 3a bb ef 1b 88 bd 2b 2e a5 bd be 2a 93 3d
       -0.0028389853 -0.06645953 -0.080654465 0.07185887
000010 1b 5b 73 bd df b2 99 bd 98 37 46 bd 5a c0 87 3d
       -0.059413057 -0.0750482 -0.048392862 0.06628485
000020 ac ed 64 3d f8 6a a9 bd cc b7 fb 3d 56 b4 4e bd
       0.055890724 -0.08272356 0.12290916 -0.05046495
000030 3a 45 4c 3d 79 b6 1b bd 28 3f b7 3d c9 7c 4c bd
       0.049870707 -0.038015816 0.08947593 -0.049923692

fc1.weight f4 [120, 256]
000000 a6 ad e6 bd d5 2e d4 3c 16 9f 42 bd 1c 0b 2d bd
       -0.112635896 0.025901238 -0.047514997 -0.042246923
000010 69 1b af 3c a8 ae 65 3e d2 bc ca bc d1 25 1e be
       0.021375375 0.22429907 -0.02474824 -0.15444113
000020 a1 18 dc 3d 64 c4 f6 3d 53 9b 69 be fb ec 4e 3c
       0.10746885 0.12049177 -0.22813158 0.012629743
000030 69 88 52 3e 11 9e 91 3e be 27 63 3d ce 19 14 3e
       0.20559849 0.28440908 0.055457823 0.14462969
000040 55 9c 03 3e c8 91 08 bd 02 f5 50 3d 63 c7 8f bc
       0.12852605 -0.033342153 0.051014908 -0.01755113
000050 75 57 51 bd 91 12 30 be fa 76 f0 3d 43 a0 45 3d
       -0.051108796 -0.17194583 0.11741443 0.04824854
000060 10 7c 68 3c d7 77 03 bd a5 eb 71 3d a9 fc 43 3d
       0.014189735 -0.03209671 0.05906262 0.047848377
000070 30 e1 3d be 5b 72 27 be d8 15 f9 b9 e5 31 ba bd
       -0.18542933 -0.16352217 -0.00047509256 -0.09091548
000080 f6 7a 8d 3c c6 64 9a 3c 1f 59 31 3e 1d 86 f9 ba
       0.017270546 0.01884688 0.17319153 -0.0019037161
000090 ed 96 0f be ff ad 78 bd fa 1b d8 3d b9 12 a6 bd
       -0.14022417 -0.06071281 0.10552211 -0.0810904
0000a0 28 5c d5 bd 00 a4 81 3c 32 dc 00 3e e4 48 8d bc
       -0.10417968 0.015825272 0.12583998 -0.017246671
0000b0 59 e7 c2 bd df a8 77 3d 6c ae c0 3d e1 77 39 3d
       -0.09516782 0.060463782 0.09408268 0.04528034
0000c0 d2 0f d1 bc e5 6f d8 bd 1a 9c 3b 3c f6 0a b5 3d
       -0.025520239 -0.10568217 0.011450792 0.08839981
0000d0 ac 6d 83 3d 1b ef a0 3d ad 9b db 3c 64 6e 03 be
       0.064174026 0.07858106 0.02680763 -0.1283508
0000e0 0f 0a 66 bc 1f 9e b6 bd 11 cd 06 bd cd 02 c2 bd
       -0.014040484 -0.08916878 -0.03291041 -0.094731905
0000f0 aa 56 3f bc be 5b 1b 3e 68 56 36 bd d4 f2 b9 bc
       -0.011678377 0.15171716 -0.044515997 -0.022698797
000100 8b 01 9c 3d 04 d9 b6 bd b4 98 75 bd 61 d3 22 3e
       0.07617482 -0.08928111 -0.059960082 0.15900947
000110 19 5d 55 3d f8 54 1e be 8a 0a 76 3d 9d f6 2d 3e
       0.052090738 -0.154621 0.060068645 0.16988607
000120 d1 e4 78 3d f8 bf 08 be c3 1d 08 3e da 42 b8 3d
       0.06076509 -0.1335448 0.13292603 0.08997126
000130 47 b6 c7 bd e9 9c 06 be af 45 05 3d a4 d2 78 bd
       -0.097515635 -0.13145794 0.03253716 -0.060747758
000140 a0 0c 98 bc 26 26 03 bd b3 e4 49 bc 12 f4 47 3d
       -0.018560708 -0.032018803 -0.012322593 0.048816748
000150 20 da c2 3d 47 56 2f 3e 74 15 39 be 05 27 6a bd
       0.0951426 0.17122756 -0.1807459 -0.05716612
000160 bb fa 32 3b df 69 bb bc 90 07 2e be ca 9d 15 3d
       0.0027310092 -0.022877632 -0.16995072 0.036527433
000170 0b 21 4c 3e 20 c7 e1 3d 6e 73 81 3d 70 bd 77 3d
       0.1993448 0.11024308 0.063208446 0.060483396
000180 27 6d db bd 11 2a ac 3d c5 ec 19 3e bb b6 33 3d
       -0.107141785 0.08406461 0.15031727 0.043875437
000190 e3 79 11 bb bd 3e 28 3e a3 a0 6a bd 72 14 26 be
       -0.0022197894 0.16430183 -0.0572821 -0.16218737
0001a0 4b af 84 3d 18 ce e5 3d 3c 64 8a be e9 1b 57 bd
       0.06478747 0.1122095 -0.27029598 -0.05251685
0001b0 93 cb fa 3d 5e 0d c3 3d 78 2e 63 3d df e2 95 3d
       0.1224586 0.09524034 0.055464238 0.07318663
0001c0 e9 80 32 3c db 6a 25 be 2e 89 80 bd 4e 0e 0d 3e
       0.010894992 -0.16154043 -0.06276165 0.13774988
0001d0 25 93 44 3e 48 cd 0e be 6d 3e 12 be b9 9c 07 3e
       0.19196756 -0.13945496 -0.14281626 0.13243379
0001e0 b9 af a4 3d 4d e1 45 be b5 18 10 bd 68 99 3d bb
       0.08041329 -0.19324227 -0.035179812 -0.0028930549
0001f0 02 bc 30 3e c3 c3 58 be 07 65 a5 bc ad 31 02 bc
       0.1725922 -0.21168427 -0.020189775 -0.007946414
000200 ad 26 4d 3e a0 13 11 3e ce 4a 66 bc 30 e0 33 be
       0.20034285 0.14167643 -0.014055921 -0.1756599
000210 c3 94 b6 3c f4 71 91 bd 7c 2a 90 3b 57 50 97 3d
       0.022287732 -0.07101813 0.004399596 0.073883705
000220 81 85 1b 3d 52 73 e1 bd b9 f8 bc bc c8 af 63 3e
       0.037969116 -0.11008324 -0.023067819 0.22235024
000230 3f 94 13 be ba 87 11 bd b8 ae d6 3d c0 f0 99 3d
       -0.1441202 -0.03552983 0.10482544 0.075166225
000240 4f 67 50 bc 64 dc de 3d 63 9a 95 bd b9 70 8b bc
       -0.012719943 0.1088188 -0.073048376 -0.017021524
000250 94 f4 aa 3d 6d ae 35 3e 35 13 19 be 18 5e 63 bb
       0.08347431 0.1774232 -0.14948733 -0.0034693535
000260 2a bc 5e 3d a4 01 d9 bd 48 33 5d be ba 3c 13 bd
       0.054378666 -0.10596016 -0.21601593 -0.035946585
000270 82 e6 7b 3e fa 94 68 3e 06 12 2f 3d 5d e1 d9 3c
       0.2459965 0.2271308 0.042741798 0.02659672
000280 51 60 21 3d 0b 32 fd 3b 88 0a a1 3a c7 40 50 bd
       0.039398495 0.007726913 0.0012286464 -0.050843026
000290 8d 9c 29 be 5c ff 47 bd ec a2 d0 3d cb 4b 40 bd
       -0.16563626 -0.048827514 0.10187325 -0.04694728
0002a0 6a 4f ee bd 30 84 d3 3d 10 1c 7e 3d 77 00 0a bd
       -0.11636241 0.10327947 0.06203848 -0.03369185
0002b0 9d e2 3b be fa f8 da bb d6 84 2f bc 1a c3 b4 bd
       -0.18348165 -0.0066825124 -0.010712823 -0.08826275
0002c0 d4 31 b9 3d 73 10 21 bd de cc 41 3d 82 29 ee bb
       0.09042707 -0.039322328 0.047314517 -0.0072681317
0002d0 a5 c2 b8 bd 1c 3d 29 bd 18 ac e2 3d 11 a1 53 3d
       -0.090215005 -0.041318044 0.110679805 0.051667277
0002e0 5f d4 a6 3c 31 d3 af bd d3 8d 8e 3d 68 ff 8d 3d
       0.020364938 -0.085852034 0.069606446 0.069334805
0002f0 2a c5 0c be d3 66 c8 bb 89 8f b3 3d 29 50 25 3d
       -0.13747087 -0.006115773 0.087676115 0.04035965
000300 f6 a5 92 3d 6a af 2f bd bf 31 6f 3d a4 39 2b 3e
       0.07160561 -0.042891897 0.05839705 0.16721207
000310 82 ef 12 3e f8 09 f7 bd 61 df ae 3c 62 83 37 3e
       0.14349177 -0.12062448 0.02134675 0.17921212
000320 20 ad 40 3d 27 47 ab bd cb 10 5e bb 19 7d 47 3d
       0.047040105 -0.083631806 -0.003388452 0.048703287
000330 85 e2 6c bd b6 10 b2 be 60 1d a1 bd f3 d2 5f bd
       -0.057833213 -0.34778374 -0.07866931 -0.054644536
000340 bd 7f 33 bd 68 6f ba 3b a5 07 d2 3d 33 04 1e bd
       -0.043822993 0.00568955 0.10255364 -0.038578223
000350 6e a3 0f 3d f7 37 43 bd d3 72 ed bc 10 cd 01 3e
       0.035067968 -0.047660794 -0.028985417 0.12675881
000360 e1 89 40 3e 9d 59 8d 3d 97 ab ef bd 25 17 f5 3d
       0.18802597 0.06901858 -0.1170265 0.11967305
000370 35 70 03 be eb 2e 88 be 13 06 37 3c 8a ab 3c 3d
       -0.12835772 -0.26598296 0.011170882 0.04606203
000380 84 26 04 bc 82 b3 22 bd 4e df bc bc eb 87 73 bd
       -0.008065823 -0.039721973 -0.023055699 -0.059455793
000390 4a 1e 10 be 91 e2 64 3d a0 b1 24 3e 27 b1 48 bd
       -0.14074054 0.055880133 0.16083384 -0.04899707
0003a0 95 55 1a be fd 8e e1 3d 2b a9 c4 bc ee 43 01 be
       -0.1507171 0.11013601 -0.024006447 -0.1262357
0003b0 c5 f4 6c be b9 4d 33 bd 91 22 fc bd 7e f7 09 be
       -0.23140247 -0.043775294 -0.123112805 -0.13473317
0003c0 ad 45 be 3d f6 dc 99 3d a7 f3 bf bd ed 93 eb 3d
       0.09290633 0.07512848 -0.09372645 0.11502824
0003d0 6a c1 2e 3e f2 cb b8 3c 64 e7 74 be a0 f3 6a 3d
       0.17065969 0.022558186 -0.23916394 0.057361245
0003e0 c3 f1 84 3d 02 a7 5a be e6 e0 2c 3d a0 68 cf 3a
       0.06491425 -0.21352771 0.042206667 0.0015824027
0003f0 ba 08 30 3e 28 a3 6b 3e eb f9 18 3e 9a 53 8c 3c
       0.17190829 0.23011458 0.14939086 0.017129708

fc1.bias f4 [120]
000000 71 5b 46 3d cb 9e 20 3d 15 21 07 3d 8a e6 5c bd
       0.04842705 0.039213937 0.032990534 -0.053930797
000010 be c3 52 bd cb b2 74 bd 50 b5 42 bc 9d ce dd 3c
       -0.051456206 -0.059740823 -0.011884049 0.02707606
000020 00 0f f4 3c 26 1f 30 bd 13 69 58 bd a4 8e 3f bb
       0.029792309 -0.042998455 -0.05283458 -0.0029229308
000030 8a d3 6c 3d cc ac a2 bc c5 df 83 3c ad eb 43 bd
       0.057818927 -0.019857787 0.016097913 -0.04783218
000040 69 1f d2 ba 8d 1b 8a bd ca 1a 4e 3d a1 75 ec bc
       -0.001603109 -0.06743536 0.050318517 -0.028864684
000050 dc e9 c3 bc 37 c4 4d bc 13 df 1d 3d ab bc 2e bd
       -0.023915224 -0.012558988 0.03854282 -0.042660397
000060 d3 6e 32 3d 52 b5 a0 39 8f f2 59 bd f8 a6 7c bd
       0.04356272 0.00030652672 -0.053209838 -0.06168267
000070 cd 70 26 bd ad aa 83 bd 00 15 ff bc b7 4a 13 3d
       -0.04063492 -0.06429038 -0.031137943 0.035959926
000080 93 59 1f bd b9 2e d9 bb 10 54 26 3d 62 3e 02 bd
       -0.038903784 -0.006627884 0.040607512 -0.031797774
000090 c5 0d 93 3c e2 cd 5f 3d 7b e7 52 bd ef a9 26 3d
       0.017950902 0.054639705 -0.05149029 0.040689405
0000a0 82 fd 0c 3d 7c 5a ac 3c 9c 22 4d bd 21 c3 cc 3b
       0.03442145 0.02103924 -0.050081834 0.006248847
0000b0 01 66 ad bd 84 fa 17 bd 2a 8a df 3c 8c ca 98 3d
       -0.08466721 -0.037104145 0.027287561 0.07460508
0000c0 8c fa ad bd 7d f2 70 bc e2 ba 03 bd 48 9c 28 bd
       -0.08495054 -0.014706251 -0.032160647 -0.041164666
0000d0 ba 26 20 3d 44 a4 1d bb 55 4b 80 bc cb 17 3c 3d
       0.039099433 -0.0024054209 -0.015660921 0.04592113
0000e0 22 a3 28 bd 94 35 c5 3c f0 89 65 bc 62 c9 26 3d
       -0.0411712 0.0240734 -0.014009938 0.040719397
0000f0 1f 0e a2 3b cc b4 82 bd e5 5d 8a bd 2c bc 3b bd
       0.004945531 -0.063821405 -0.0675619 -0.04583375
000100 c9 9c 7b 3c ba dc 8c 3d b3 c4 86 bd 95 dd d6 bc
       0.015357205 0.06878038 -0.06580486 -0.026228705
000110 97 e4 75 3d e4 db 8c 3d 33 16 44 bd 6b 17 db 3a
       0.060032453 0.06877878 -0.047872733 0.0016715353
000120 4c be ee bc 14 df 21 bc 68 d1 46 3c 60 4f 88 3d
       -0.029143475 -0.009879846 0.012134887 0.066557646
000130 ab 18 3a bd 50 73 3b 3a b3 7a 81 3c 00 fe 9c bd
       -0.04543368 0.0007150667 0.015805578 -0.07665634
000140 a9 3b 7e bd 37 b1 fb ba 67 6a b5 3b 4c 84 83 bc
       -0.062068615 -0.0019202594 0.005536366 -0.016054295
000150 a0 4e 2c 3d 99 82 f3 3c 71 00 45 bd d7 ab e5 bc
       0.04206717 0.02972536 -0.048096124 -0.028036041
000160 d1 05 95 bc 5f 26 00 bc 42 4b 04 3d c2 83 32 3d
       -0.01819125 -0.007821648 0.032298334 0.043582685
000170 50 d3 21 bd a1 09 06 3d 38 b1 94 3b 8b 23 c0 bc
       -0.039508164 0.032724027 0.0045377277 -0.023454448
000180 b3 b0 09 3d 68 67 80 bc fb 5a c2 3c 44 e6 7f 3d
       0.03361578 -0.015674308 0.023725023 0.062475458
000190 24 5a 9c 3c 5a 0f 0e 3d 41 c3 d1 3c b5 d6 12 bd
       0.019085951 0.03468261 0.0256058 -0.03584929
0001a0 02 fd bc 3c 48 d3 d0 bc 2b 89 74 3d c5 bf 2f bd
       0.023069862 -0.025491372 0.059701126 -0.042907495
0001b0 fc c8 70 bc fc 9c 76 bd 6c 13 6e 3c d3 f8 a0 bc
       -0.014696356 -0.060208306 0.014530998 -0.019649899
0001c0 e6 62 34 bd 2e a3 4c bc bd 42 15 3d 51 cd c5 bb
       -0.04403963 -0.012490077 0.0364406 -0.0060364385
0001d0 21 6b c4 3c 1b a1 07 3b a0 ca 4a bb 13 a4 1a 3d
       0.023976864 0.0020695392 -0.0030943528 0.03775413

fc2.weight f4 [84, 120]
000000 e4 1a 3f 3e c3 88 88 be db 9e 8c be 6c 2d fd 3d
       0.18662602 -0.2666684 -0.27464947 0.12362179
000010 a0 95 25 3c c8 6e c8 3e 3c 1d 15 be 02 ee 75 3d
       0.010106474 0.3914702 -0.14561933 0.060041435
000020 84 01 b6 3c f9 17 29 bd 83 ca 07 3e db 94 0b bd
       0.02221752 -0.041282628 0.13260846 -0.034077507
000030 10 a1 1a be d8 7d 60 3d 5d c3 cf 3d 60 56 94 bd
       -0.15100503 0.054807514 0.101446845 -0.07243037
000040 d0 8a f4 3d 1a d4 f6 bc 26 de cf 3d ca 69 00 be
       0.11940539 -0.030130435 0.10149793 -0.12540355
000050 1a 86 ae 3d 7f 5d 32 bd de 23 8e 3e 38 15 81 3d
       0.085216716 -0.043546196 0.2776174 0.06302875
000060 25 d1 d0 bd c7 62 f6 bc 87 a7 d1 bb c3 f6 e3 3d
       -0.10196141 -0.030076398 -0.0063981446 0.111310504
000070 7c 11 8f bd 9c 2f a3 bc 5c bf 5a bd 8f 0e a1 3e
       -0.06985757 -0.019920163 -0.05340515 0.3145642
000080 cf 47 b9 bd b2 88 80 be 42 41 2b be d9 88 72 3e
       -0.090468995 -0.2510429 -0.16724113 0.23685016
000090 e2 fd 1b be 39 f4 18 3d c0 2f 85 3e 76 a1 dd ba
       -0.15233567 0.037342284 0.26012993 -0.0016909081
0000a0 31 39 6f be b3 66 75 be 3d 9e 9f 3e 5b 20 fc 3c
       -0.2336166 -0.23964958 0.31175414 0.030777147
0000b0 5a 86 a5 3c 3c d8 74 be 95 82 d4 3e 4d ee a8 bd
       0.020205665 -0.23910612 0.41505876 -0.08248577
0000c0 d7 8a e1 3d 04 aa fe bd 0c 5a b7 bd e1 e5 17 3d
       0.1101281 -0.12434772 -0.08952722 0.037084464
0000d0 d2 9b fa bd 8c 23 cf bd 21 3b 48 3d f5 14 dd 3e
       -0.122367516 -0.10114202 0.048884515 0.4318005
0000e0 c0 7d 15 3e 5e 2a 0a 3e fb 06 7a bd 85 d5 e0 bd
       0.14598751 0.13492724 -0.061041813 -0.109782256
0000f0 07 75 34 be 03 ab 00 be 71 87 b1 3d 1f a8 70 bc
       -0.17622767 -0.12565236 0.086684115 -0.014688521
000100 5d 74 fd bd e8 9e af bc 79 06 27 bd bf 28 97 3e
       -0.1237571 -0.021438077 -0.040777657 0.29523274
000110 d8 ec c5 be 48 73 6a 3e ef d4 0a 3d 87 cd 1e bb
       -0.3865726 0.22895539 0.033894476 -0.002423139
000120 4a 87 4c 3e df d3 22 bd 6f 85 46 be 13 64 b6 3e
       0.19973484 -0.039752837 -0.19386838 0.35623226
000130 96 ae bf bd c1 32 d4 3d 59 8a 59 3e 13 e6 0d 3e
       -0.093594715 0.10361243 0.21244182 0.13857298
000140 1f a2 a0 3d 5b 13 34 3e 09 5b 7e 3e 83 13 9c 3c
       0.07843422 0.17585509 0.24839415 0.019052273
000150 c5 5f 08 3d 8c d0 6f 3e 40 8a 25 3e 7b 80 96 be
       0.033294458 0.23419398 0.1616602 -0.29394898
000160 58 c0 a8 3d c7 c5 32 be a2 4c 2c 3e e9 ad a1 3e
       0.08239812 -0.17458259 0.16826108 0.31577995
000170 b8 a8 32 3d f2 37 34 be 51 50 ca bd 46 34 a8 bd
       0.043617934 -0.17599466 -0.098786004 -0.08213095
000180 2c fd 80 3e 4f 25 d2 bd d3 e5 a4 3c 7e 36 41 3e
       0.25193155 -0.10261022 0.02012912 0.18868443
000190 44 18 fe 3d 74 ce 94 3e 0f 4e 57 3e 38 a2 56 3e
       0.12406972 0.2906376 0.2102587 0.20960319
0001a0 6b aa 51 be 24 de 8e 3d 6a 19 16 be 34 89 00 be
       -0.20475166 0.06975964 -0.14658132 -0.12552339
0001b0 b4 1b f4 bd a9 a4 28 3e ed af 22 bd d4 cc c9 bd
       -0.119193465 0.16469063 -0.039718557 -0.09853521
0001c0 45 b9 6b bd 9d 2a 7f 3d 9d f7 18 3e 03 75 80 3e
       -0.057549734 0.0622965 0.14938207 0.25089273
0001d0 93 80 25 be 17 2a ac 3d 5f 16 05 3e 98 94 27 3e
       -0.16162328 0.084064655 0.12996815 0.16365278
0001e0 4f ca 38 ba a4 9b 97 3d 2b 7c 06 be 2c a1 a8 3e
       -0.00070491893 0.07402733 -0.13133304 0.32935464
0001f0 07 32 c3 3d 43 cc 32 3e ff 1b 26 3e c1 8a 21 3e
       0.09531026 0.17460732 0.16221617 0.15775587
000200 87 d4 a0 3d 61 3d 76 3d e8 85 e6 3b c2 44 1b 3e
       0.078530364 0.06011713 0.007035006 0.15162948
000210 59 ca 8e bd 08 f0 81 3d 55 f3 9d bd c0 27 0e 3e
       -0.069721885 0.063446105 -0.077124275 0.13882351
000220 08 12 47 3d 98 be af 3d c4 9b c0 bd a9 1e e1 3d
       0.04860118 0.08581275 -0.0940471 0.10992176
000230 a1 67 13 be 2f 4a e4 3c ae e8 ae bd ca 2a 81 be
       -0.14395 0.027867405 -0.08540474 -0.25227958
000240 83 7f 29 3e 36 3a 5c 3e d3 a5 36 3e 93 8b f1 bd
       0.16552548 0.2150658 0.17836694 -0.117942
000250 ea 4f 20 3e d0 39 b6 3d 75 0c 6a 3d ba 07 9e bb
       0.15655485 0.088977456 0.057140786 -0.0048226984
000260 8a f3 1e 3d 6d 8d 67 be e1 64 5b 3e f5 fc df 3d
       0.038806476 -0.22612543 0.21425201 0.109369196
000270 cf 8b cf be 4e b4 c0 bd 7b 45 9b bc 0d 6f 77 3e
       -0.40536353 -0.094093904 -0.01895403 0.24163456
000280 1d 10 26 3a 49 ee 07 3c 97 61 b2 bc 4e 2a 16 be
       0.00063347985 0.008296558 -0.02177505 -0.14664575
000290 0f 4a 2b 3e f1 c4 e1 bd bd f6 0d be 0a be 56 3e
       0.1672747 -0.11023892 -0.13863654 0.20970932
0002a0 3e 71 1d 3e 89 a0 ca bc 4d c2 5f be 19 78 f2 3d
       0.1537523 -0.024734752 -0.21851464 0.11839313
0002b0 3e 64 00 be b7 1f 29 3e 69 dc bb bd df 16 01 3e
       -0.1253824 0.16516005 -0.09172899 0.12606381
0002c0 32 a9 e1 3d 2a df 53 3e 48 3e 1a be 72 bc f6 3d
       0.110185996 0.20690599 -0.15062821 0.12047662
0002d0 ca 6c 28 3e 6f f5 f3 bd 3e 92 ea bc e7 ed ae 3d
       0.1644775 -0.11912047 -0.028634187 0.0854147
0002e0 5e 2b 83 bd b5 06 73 3d ce 2a 2c be 64 23 99 3d
       -0.06404756 0.05933257 -0.16813204 0.07477453
0002f0 13 0f 05 3e 0a 0a 6a 3e 35 1a d6 bd f3 c0 2d 3e
       0.12994032 0.22855392 -0.10454217 0.16968136
000300 33 f8 9b bd 15 91 4d 3d 7c a3 6e be ce 0f ed bc
       -0.076156996 0.05018719 -0.23304552 -0.0289382
000310 fa 34 80 3c 64 0c db bd e0 9e 97 bd 0f 39 99 3d
       0.015650261 -0.10695723 -0.0740335 0.07481586
000320 35 54 af bc 32 a8 16 be eb 78 1c 3c aa 73 84 3a
       -0.021402458 -0.14712599 0.009550313 0.0010105271
000330 93 7c 6c bc db 5c 11 3e a8 08 83 bd 44 df ad 3e
       -0.014433998 0.14195578 -0.063981354 0.339594
000340 78 8a 8b be dd 7e 0d 3e 61 00 1f be 19 0f c1 3e
       -0.2725408 0.13817926 -0.15527488 0.3770683
000350 e7 a7 97 be 3a 8b 7d be 02 3a 4d 3e 63 03 21 3e
       -0.29620287 -0.24760142 0.2004166 0.15723948
000360 17 15 5b bc 89 be fb 3d b8 fb 4f 3d 60 07 63 be
       -0.013371727 0.12292201 0.050777167 -0.22170782
000370 6c ff 24 bd 20 b0 0e be cf f4 c3 bd 37 96 92 bd
       -0.04028265 -0.13934374 -0.09568178 -0.071575575
000380 fc 1e 14 3e 0b 9e 12 be fd fa 91 3d e1 ca 61 be
       0.14464945 -0.14318101 0.0712795 -0.22050048
000390 d3 b9 31 bd 2f 1e bd 3d 4f 7d cf 3d 02 f4 c6 3d
       -0.043390106 0.09234273 0.101313226 0.097145095
0003a0 a0 a5 cc 3d 5d 9b a3 be dd 6e c0 3d 45 cf 83 3d
       0.09992528 -0.3195447 0.093961455 0.06436018
0003b0 29 c8 7a be 70 48 2c be 40 80 90 3d 75 74 f8 bd
       -0.24490418 -0.16824508 0.07055712 -0.121315874
0003c0 f7 78 11 be 4d 85 ed bd 76 3f af 3e 07 4a b5 be
       -0.142063 -0.11597691 0.34228104 -0.3540804
0003d0 0f bb 99 3e e1 a1 39 be b5 4e 1d be 21 9f ab 3d
       0.30025527 -0.18128158 -0.15362056 0.08379961
0003e0 ce 59 28 3d 21 f9 58 bd 25 5f b5 be 7c a9 77 3e
       0.04110127 -0.052971963 -0.35424152 0.24185747
0003f0 2f 74 44 3e 61 1e e2 3d 42 b6 83 bd a0 a0 ab 3d
       0.19184946 0.110409506 -0.06431247 0.08380246

fc2.bias f4 [84]
000000 7b 8d 90 bd ff a6 5b 3c da f3 a9 3d a4 c5 81 3d
       -0.07058235 0.013406514 0.08298464 0.06336525
000010 ce 52 9a bc 86 9e b8 3c e0 1a 26 3d f4 03 7d bd
       -0.018838312 0.022536527 0.040552974 -0.061771348
000020 4b 46 18 bd 86 13 5c 3c fe a0 7e bd 33 bc 8c 3d
       -0.03717641 0.013432389 -0.062165253 0.06871834
000030 a3 58 a1 bd 17 5b 85 bd c7 c3 a8 3c 54 c5 a9 bc
       -0.07878234 -0.06511515 0.020601166 -0.020723976
000040 ca 54 02 be fd 12 70 bd 91 b9 6d 3d 65 0a 68 3d
       -0.12727657 -0.05861186 0.058038298 0.056650538
000050 9f 2a 1d bc 6a 31 c3 3c bf e0 80 3d 68 78 1a bd
       -0.009592681 0.023827273 0.06292867 -0.037712485
000060 c0 a0 cf 3d 0c a6 ad bd 1f 71 b8 bd 41 ed 09 bd
       0.101380825 -0.084789366 -0.09005951 -0.03367353
000070 17 f3 61 3d 07 44 04 3d a5 e6 d6 bc bb 33 d9 bc
       0.05516347 0.03229144 -0.026233027 -0.026513925
000080 70 50 7e 3d 15 45 9c bd 74 8c 3c 3c 5a af af 3d
       0.06208843 -0.07630364 0.011508096 0.085783675
000090 99 6a 38 3c 6d 16 e0 bc 10 0d 82 3d 43 51 af bc
       0.011255884 -0.027354443 0.06350148 -0.021401053
0000a0 3e 4e a1 bc 65 3c 52 3b ea 81 64 bc d2 15 c4 bd
       -0.01969063 0.0032079455 -0.01394699 -0.095744744
0000b0 32 f3 00 bd f3 3e d6 bc 44 bd b2 3b 8d 0e d8 3d
       -0.03148193 -0.026153063 0.005454691 0.1054965
0000c0 96 96 a0 bd c2 3c 85 b9 3d 19 04 3e 14 60 b5 3d
       -0.07841222 -0.00025413005 0.12900253 0.08856216
0000d0 44 db 58 3c b1 eb 12 3c f9 2d c8 3c 25 52 9f bc
       0.013235871 0.008967326 0.024435984 -0.01944835
0000e0 67 ae 69 3b 2c 93 4e 3d aa f4 51 3d 59 e4 43 3d
       0.003565693 0.050433323 0.05125872 0.04782519
0000f0 ef 02 20 3d 1c a7 1b 3d b5 0b 1f 3d c6 59 a3 3d
       0.039065298 0.038001165 0.038829524 0.07976107
000100 33 fb 4c bc 6a e5 08 bd 5e 85 47 bc d7 00 45 3c
       -0.012511062 -0.03342191 -0.012177793 0.012024126
000110 ea 91 62 3d de 45 43 3c 19 43 18 3d ff e7 90 3d
       0.055314936 0.011918513 0.037173364 0.070755
000120 62 9a c5 bc 8a 15 9d 3d d3 97 a2 bd 98 fd a1 bc
       -0.024121467 0.07670124 -0.079391144 -0.019774243
000130 01 eb 88 3d 10 19 c8 3c 62 3d d6 3b 30 8f a0 bd
       0.066854484 0.024426013 0.006538079 -0.07839811
000140 9d fa fc 3c 7b 90 a6 3d ec 4d a4 3d c6 41 e1 3c
       0.03088122 0.08133026 0.08022675 0.027497184

fc3.weight f4 [10, 84]
000000 df f4 8b be f2 71 33 3e 8e 19 c1 3d 30 51 47 3e
       -0.2733526 0.17523935 0.09428702 0.19464564
000010 8a a7 81 3e 8b 77 65 3e 6c 7a 22 3e cd 7d a3 be
       0.25323135 0.22408883 0.15867013 -0.31931916
000020 c0 be c5 be 22 de d0 bd 55 ad 16 3e 64 a7 ef be
       -0.38622093 -0.101986185 0.14714558 -0.46807396
000030 20 2a 63 3e 63 d3 1c be f9 05 1e be 90 28 1e be
       0.22184038 -0.15315013 -0.15431966 -0.15445161
000040 52 94 6e be 1e 21 96 3e 30 08 6a 3c 40 ac 5d 3e
       -0.23298767 0.2932214 0.014284179 0.2164774
000050 df 43 cd 3d 73 4b 62 be 11 e5 9e 3e d3 5b c2 be
       0.10022711 -0.22099094 0.3103414 -0.3796068
000060 a2 ed f8 3c 16 da 94 be 68 93 45 be 64 f6 2d bd
       0.03038675 -0.29072636 -0.19294512 -0.042471305
000070 e5 71 df bd e1 e9 5c 3e 96 b2 e4 be 4f 03 42 be
       -0.109103955 0.21573593 -0.446675 -0.18946575
000080 ac 60 80 be 71 98 b7 be f8 eb c1 be cd b6 a5 be
       -0.25073755 -0.3585849 -0.37875342 -0.32366028
000090 cb 11 41 3e 59 d9 90 be 29 6e 1b 3e b0 f6 33 3e
       0.18854444 -0.28290823 0.15178742 0.17574573
0000a0 ba 91 3b be 93 c5 10 3e b8 7b 8a 3e 60 7b 11 3e
       -0.18317309 0.14137869 0.27047515 0.1420722
0000b0 fd 57 49 be 0f b2 12 bd 3a 0f d4 bd 91 9e 30 3e
       -0.19662471 -0.03581434 -0.10354467 0.17247988
0000c0 4f 55 2e 3d e6 53 81 3e 8d 64 ad 3d 84 da 5f 3e
       0.042561825 0.25259322 0.08466444 0.21860701
0000d0 0d 8b 54 3e a0 cb 12 3e 96 73 20 3e 8d 37 8d 3e
       0.20756169 0.1433549 0.15669093 0.27581444
0000e0 6d c4 e4 bd 0d 92 a3 be 6f 77 92 3e f3 c1 88 be
       -0.11170278 -0.31947365 0.28606746 -0.26710472
0000f0 f8 86 40 be e5 86 a2 be be a5 96 be 11 20 f9 bd
       -0.18801486 -0.3174354 -0.29423326 -0.12164319
000100 fc 78 8a be fe a9 c8 bd 49 3b bb be 36 b5 51 be
       -0.2704543 -0.097980484 -0.36568668 -0.20479283
000110 7d ed 8f 3e 71 5d 4f 3e a2 9c d7 3d 14 06 10 3e
       0.28110877 0.20250489 0.10527922 0.14064819
000120 d3 c8 71 3e de 6a 92 3e 7a f8 cc bd 1c 3d 8c 3d
       0.23611765 0.28597158 -0.10008331 0.06847593
000130 5d c6 af be be fc 38 be 05 5e b2 be 47 1e e9 bd
       -0.34331027 -0.18065163 -0.34837356 -0.11382728
000140 53 1b 24 3e 67 31 aa be 51 a0 0f be ef 20 e6 3d
       0.16026048 -0.33240816 -0.14026 0.1123675
000150 e4 e7 ce 3d 76 c4 cc be bb 5b 8a 3e c6 68 fe bd
       0.101028234 -0.39993638 0.2702311 -0.12422328
000160 72 96 89 3b d0 1f 35 3d 8b cd 7b be 0c 70 74 3e
       0.0041988427 0.044219792 -0.24590127 0.23870867
000170 89 f2 5b 3e 61 a8 89 3e fe d6 83 be b2 6f 5d 3d
       0.21479239 0.26886275 -0.25749964 0.0540616
000180 dd 0f 6e be 3f 75 22 3e a6 a2 6d 3e 40 42 84 3e
       -0.23248239 0.15865038 0.23206577 0.25831795
000190 27 68 33 bd d1 b7 9d be 51 c7 8b be c5 48 80 3e
       -0.0438005 -0.30804303 -0.27300504 0.2505552
0001a0 60 b4 8d be d7 46 65 3e 90 91 35 bc 24 6a 94 bc
       -0.27676678 0.22390305 -0.011082068 -0.018117018
0001b0 66 25 ac be f2 cc 50 3d ce 4e f4 3d a4 24 2f be
       -0.33622283 0.0509767 0.11929093 -0.17103821
0001c0 93 65 54 be 3c 9a 6f be 8b 28 37 3e ef e2 61 3e
       -0.20741872 -0.2339868 0.1788656 0.22059225
0001d0 e8 1b c0 3e 99 94 49 3e f4 b6 2d 3e 43 f2 55 3e
       0.3752129 0.19685592 0.16964322 0.20893197
0001e0 96 db 10 be 00 02 f1 3d 8c f3 af be d9 4f 19 3e
       -0.14146265 0.117679596 -0.343655 0.14971866
0001f0 0f 61 10 be e1 18 10 3e 67 1c 3e be 2f 39 84 be
       -0.14099525 0.1407199 -0.18565522 -0.25824878
000200 c7 7e 1d 3e 12 29 85 be 9f 0f 45 3e cf 94 4b be
       0.15380393 -0.26007897 0.1924424 -0.19880985
000210 94 a2 79 3e f4 b5 f9 bd 00 9d 70 3e a6 68 7c be
       0.24378425 -0.12192908 0.23497391 -0.24649295
000220 e0 09 91 3d 55 13 55 be ef 33 93 be a3 70 19 be
       0.07081962 -0.20808156 -0.2875056 -0.14984374
000230 48 3b 9e 3e 31 56 52 3e 55 b3 3f be c5 50 04 3c
       0.30904603 0.20540692 -0.18720753 0.008075898
000240 c5 7e 93 be 1f b7 9c 3d 32 c8 c2 bc 4a 46 e5 bd
       -0.28807655 0.07652115 -0.023777101 -0.11195047
000250 66 39 46 be 3a 36 9c 3e 79 a0 83 3e fa f9 17 3d
       -0.19357833 0.30510122 0.25708368 0.03710363
000260 d8 f6 58 be 70 2e bb be 40 0f 39 be 0c f0 9e be
       -0.21187913 -0.36558867 -0.18072224 -0.31042516
000270 68 77 8a be f0 4e d5 be ef 77 8b be c5 44 9a be
       -0.27044225 -0.41661787 -0.2723994 -0.30130592
000280 be 03 0a 3e 7d 8b d8 3d c1 8a 7d 3e 2e 65 f4 bd
       0.1347799 0.1057348 0.24759962 -0.11933361
000290 20 70 d5 3d 31 b5 bd 3e 93 fb 4b 3e 20 35 71 3e
       0.10421777 0.370523 0.19920187 0.23555422
0002a0 77 f6 9b bd 04 f4 3d 3d 6d a0 c6 3d 78 35 a3 be
       -0.07615369 0.04637529 0.096985675 -0.3187673
0002b0 f9 45 ea 3c 40 ad 18 be 41 ac 1e 3c c1 03 7d be
       0.028597819 -0.1490984 0.009684623 -0.24708463
0002c0 ed 01 8b 3e 36 2f e7 3a ea a6 fc 3d 9e 19 d3 3d
       0.27149907 0.0017637971 0.12336524 0.103076205
0002d0 f0 32 09 3e c9 95 97 be 20 55 42 be 56 c0 cd 3d
       0.13398337 -0.29606465 -0.18977785 0.10046451
0002e0 a1 cd e2 bc 4d a7 80 be 51 af 95 3d c9 05 84 3e
       -0.027685942 -0.2512764 0.073088296 0.25785664
0002f0 d2 05 b6 3d b6 12 51 3e 75 55 22 3e 4a fc 3d 3d
       0.08887829 0.20417294 0.15852912 0.04638318
000300 f3 4e 6b 3e 30 31 f0 bd 9d c2 ff bd 8a c0 ad be
       0.22979335 -0.11728132 -0.124882914 -0.33935958
000310 10 2a 78 3e b4 31 81 3d 31 c5 8b 3d 92 dc 01 be
       0.24234796 0.06308308 0.06824721 -0.12681797
000320 6c 96 9d 3e a6 8c 82 be 55 85 86 3e c6 b7 a6 3e
       0.30778825 -0.2549793 0.262736 0.32562083
000330 f9 34 0a 3d d1 68 32 be f7 b5 67 be e4 85 e1 bc
       0.033741925 -0.17422797 -0.22628008 -0.027529664
000340 fb 4c ef bc 46 8d 9a bd a9 bb 15 3d b3 b6 7e be
       -0.029211512 -0.07546477 0.03655592 -0.24874382
000350 5e ea e7 bd 7a 76 a0 be 1c e1 93 3e 9c 17 b0 bb
       -0.11323999 -0.3134039 0.28882682 -0.005373908
000360 dc 84 1b be 85 77 8e 3e 3a 60 17 3e 7d bd 10 be
       -0.151874 0.2782556 0.14782801 -0.14134784
000370 f0 0e 71 bc cf e3 b8 be 6d de 1e 3e 77 75 1b 3e
       -0.014713034 -0.36111304 0.15514536 0.15181528
000380 f4 a4 fe 3d da 22 a2 3e 68 96 de 3d f9 65 a6 be
       0.12433806 0.31667215 0.108685315 -0.32499674
000390 a0 55 1d be 28 97 81 be 41 4f f8 bd 03 44 36 3e
       -0.15364695 -0.25310636 -0.121244915 0.17799382
0003a0 98 e8 8c be 8d cf e7 bd 3e c8 36 bd 69 33 9a 3d
       -0.27521205 -0.11318884 -0.04462456 0.07529337
0003b0 b3 df 76 3e 93 0f 37 3e cb 6f 18 bc da ab ff 3d
       0.24108772 0.17877035 -0.009303997 0.1248395
0003c0 c6 93 27 3e 65 e2 85 be 42 c0 88 bd 29 86 3e 3d
       0.16364965 -0.26149288 -0.06677295 0.046514664
0003d0 93 9e 85 be 82 a0 db bc 67 59 3f 3e d7 9c 86 3a
       -0.26097545 -0.026809935 0.18686448 0.0010270131
0003e0 81 2d 58 bc 29 7b 2c 3e bc 58 35 3c 79 95 2f 3d
       -0.013194443 0.16843857 0.011068519 0.042867158
0003f0 93 aa 88 be 01 92 f1 bd 02 ae de bd 4d af 4a 3d
       -0.26692638 -0.11795426 -0.10873033 0.049483586

fc3.bias f4 [10]
000000 80 a0 9d 3d 2c 7f 64 3d 4c 0e 26 3d 4f 33 88 bd
       0.076966286 0.055785343 0.04054098 -0.06650411
000010 04 0a c1 bc dc 93 69 bd 48 4b 93 3d d4 b8 4a bd
       -0.023564346 -0.057025775 0.07192093 -0.049492672
000020 89 c7 23 bb f0 c5 ed 3c
       -0.0024990758 0.029025048
